drl/ran2/Ant10000_ran2_weights.pth (torch, 292848 bytes, 36 tensors)

log_std f4 [1, 8]
0	0xbfc3c56a	-1.5294621
1	0xbfec9dc8	-1.8485651
2	0xbfaa38fd	-1.3298641
3	0xbfb0be0e	-1.3808
4	0xbfc0b06c	-1.505384
5	0xbfb973fe	-1.4488523
6	0xbfb03402	-1.3765872
7	0xbfb6d348	-1.4283228

fc1.weight f4 [64, 111]
0	0xbe15a11d	-0.14612241
1	0x3cb6fd83	0.02233768
2	0x3e1d0ce9	0.15336956
3	0xbc6ebff0	-0.014572129
4	0x3e31b9b1	0.17355992
5	0xbdb160bc	-0.08661029
6	0xbd32eaf0	-0.043681085
7	0x3bc1ae8f	0.0059107016
8	0x3da8a68c	0.08234891
9	0x3db83ba3	0.0899575
10	0xbe275d35	-0.1634415
11	0xbe16eac7	-0.14737998
12	0x3dc23523	0.09482791
13	0xbde81162	-0.113314405
14	0xbc6775a8	-0.0141271725
15	0x3ce3344c	0.027734898
16	0xbb348bec	-0.002754922
17	0x3d596d77	0.05308291
18	0xbdc3692f	-0.095415466
19	0xbd3ce89c	-0.04612027
20	0xbe53aeb5	-0.20672114
21	0x3d389eee	0.045073442
22	0xbe46ad35	-0.1940201
23	0xbd1f9fec	-0.038970873
24	0x3cce423d	0.02517807
25	0xbd41f97c	-0.047357067
26	0x3df1c827	0.11805754
27	0xbbff4fee	-0.007791511
28	0xbd0e1d58	-0.034695953
29	0x3d688712	0.056769438
30	0xbd8d5421	-0.06900812
31	0xbccac91d	-0.024754101
32	0x3d8a4097	0.06750601
33	0x3dc1da0b	0.094654165
34	0x3deeb8a3	0.116563104
35	0xbe317f08	-0.17333615
36	0xbdef37b8	-0.116805494
37	0x3c21e031	0.009880112
38	0x3da74501	0.08167458
39	0xbd9a9d98	-0.0754959
40	0xbe11837d	-0.14210315
41	0x3dc5b330	0.09653318
42	0xbc54437c	-0.012955543
43	0xbe0fe86b	-0.14053504
44	0x3d2261a5	0.039643902
45	0x3c927a06	0.017880451
46	0x3dcae5f9	0.09907145
47	0xbb467c39	-0.0030286445
48	0xbd02ba2d	-0.031915832
49	0xbe0972d6	-0.13422713
50	0xbdca0e77	-0.0986604
51	0x3ceba39c	0.028764538
52	0xbdc3c089	-0.095582075
53	0xbd640c1c	-0.05567561
54	0x3d8a220a	0.06744774
55	0x3c98ccbb	0.01865231
56	0xbd60a1bd	-0.054841746
57	0x3c8f711e	0.017509993
58	0xbe553b83	-0.20823483
59	0xbd1e2d01	-0.038617138
60	0x3da7355a	0.08164473
61	0xbbed2239	-0.0072367457
62	0x3deb5dcd	0.114925005
63	0xbde4b0eb	-0.11166557
64	0x3c7c63fd	0.015404698
65	0x3e30cdd4	0.17266017
66	0xbe8c319d	-0.27381602
67	0xbc9827f6	-0.018573742
68	0x3da9d257	0.08292072
69	0x3d386406	0.045017265
70	0x3d661cef	0.056179937
71	0xbdde031b	-0.10840436
72	0x3d46e4f7	0.0485582
73	0xbdc164c7	-0.0944305
74	0xbd085434	-0.033283427
75	0x3d88a865	0.06672744
76	0x3d1214b5	0.03566428
77	0x3ccfc6b2	0.0253633
78	0xbda4868c	-0.08033475
79	0x3d804fb6	0.06265204
80	0x3d0a80cc	0.033814237
81	0xbbccda9b	-0.0062516457
82	0x3c7abd29	0.015303888
83	0x3d0479ca	0.03234271
84	0x3e54d134	0.2078293
85	0xbdfd85b3	-0.12379017
86	0xbc4f76fa	-0.012662644
87	0x3e002d77	0.12517343
88	0xbd8b77cf	-0.06809961
89	0xbd820d3a	-0.06350179
90	0x3d828ef7	0.06374925
91	0x3d551777	0.05202433
92	0xbcbb853a	-0.022890676
93	0x3e0cff53	0.13769273
94	0xbe2677f2	-0.16256693
95	0x3e08256e	0.13295528
96	0xb9bae2a3	-0.00035645542
97	0x3db03ad3	0.0860497
98	0xbbc3c7c5	-0.005974742
99	0xbe0f7a2d	-0.1401145
100	0xbdd906c5	-0.10596994
101	0xbd1950b4	-0.03743048
102	0x3dcc30d5	0.099702515
103	0x3e19a541	0.15004446
104	0xbcd8b505	-0.026453504
105	0xbe2c7809	-0.16842665
106	0xbd49f3ac	-0.04930465
107	0x3c5e194b	0.013555835
108	0x3de61c48	0.11235863
109	0xbc87efc4	-0.016593821
110	0x3d5b0dce	0.053479962
111	0x3e1bab5e	0.1520209
112	0x3caa58d8	0.020794317
113	0xbeade963	-0.33967122
114	0x3dc82db7	0.097743444
115	0xbd373523	-0.04472841
116	0xbc919fd6	-0.017776411
117	0xbe0bf9c4	-0.13669497
118	0x3e12f6d6	0.14351973
119	0x3dd7fa53	0.105457924
120	0xbe24c941	-0.16092397
121	0xbca6fc0d	-0.020383859
122	0x3d366416	0.044529043
123	0x3cb2a885	0.021808872
124	0xbd93a205	-0.07208637
125	0xbe47a20f	-0.19495414
126	0xbdb4b755	-0.0882403
127	0xbc7857ed	-0.015157682
128	0xbd17ec8c	-0.037090823
129	0xbca8f280	-0.020623446
130	0xbdb93f33	-0.090452574
131	0xbdfc6a42	-0.123249546
132	0x3dfebd55	0.12438456
133	0x3c2a3be5	0.0103902565
134	0xbdcc0294	-0.09961429
135	0x3dfa651e	0.12226318
136	0xbd291927	-0.041283753
137	0xbd810de4	-0.063014776
138	0xbdeebca4	-0.11657074
139	0xba2d24c7	-0.00066049065
140	0xbd88406d	-0.06652913
141	0xbd6a2087	-0.057159927
142	0x3cd37f3c	0.025817506
143	0x3d51dd9c	0.051236734
144	0xbe0b2c13	-0.13591032
145	0xbd6c6b95	-0.057719786
146	0x3dc7c915	0.0975515
147	0xbdcf86c2	-0.10133125
148	0xbd1e18d9	-0.038597915
149	0x3e2c1d66	0.1680809
150	0xbd749c18	-0.059719175
151	0xbd219329	-0.039446983
152	0xbdb32a56	-0.08748309
153	0xbd364b18	-0.04450521
154	0x3e660fb7	0.22466932
155	0x3e31541a	0.17317238
156	0x3d1e1031	0.03858966
157	0xbdc3d6ee	-0.09562479
158	0xbdd9e754	-0.106398255
159	0xbe29c9b5	-0.16580851
160	0x3d8179b3	0.063220404
161	0xbd7e7092	-0.062119074
162	0x3d01cbe9	0.031688605
163	0xbca4d521	-0.020121159
164	0x3de21992	0.110400334
165	0xbd742d03	-0.05961324
166	0xbcc259f2	-0.02372453
167	0x3e48be95	0.19603951
168	0x3e7946c8	0.24343407
169	0x3d6c931f	0.057757493
170	0xbd70ccd7	-0.0587891
171	0x3d921777	0.07133382
172	0xbd7ac36a	-0.061221518
173	0x3d426a8e	0.0474649
174	0x3e354899	0.17703475
175	0xbd18dc2c	-0.037319347
176	0xbcf9beeb	-0.030486545
177	0xbe254c7b	-0.16142456
178	0xbbbe9fe6	-0.005817401
179	0x3cb4bb1d	0.022061879
180	0x3d6e70b4	0.05821295
181	0x3cc3ecca	0.02391662
182	0x3e88122e	0.2657637
183	0x3dd8492e	0.10560833
184	0x3c4b2bb6	0.012400558
185	0x3c9173c2	0.017755393
186	0xbbded8c2	-0.006800742
187	0xbd83ca94	-0.06435123
188	0xbd5b3889	-0.053520713
189	0xbbcf3656	-0.006323616
190	0x3e2fb665	0.17159422
191	0x3ba2fdb3	0.004974091
192	0x3d739e7a	0.059477307
193	0x3d1d8f8d	0.03846698
194	0xbdeacd78	-0.11464971
195	0xbe0d14e3	-0.13777499
196	0xbdac9111	-0.08426107
197	0x3d991574	0.07474795
198	0xbc349260	-0.011021227
199	0x3dbcd024	0.09219387
200	0x3d803d45	0.06261686
201	0xbd1ea134	-0.038727954
202	0xbd1d8ef3	-0.038466405
203	0x3cb09751	0.021556528
204	0x3daba2a4	0.083806306
205	0x3ced2ef1	0.028953047
206	0x3e20f76a	0.15719381
207	0x3ce7c613	0.028292691
208	0x3e1b95c3	0.15193848
209	0x3d46ecfc	0.04856585
210	0xbd3a0d7f	-0.045423027
211	0x3e2c3a69	0.16819157
212	0xb9baafc3	-0.00035607637
213	0xbcd031c9	-0.025414364
214	0x3d5b4cce	0.053540044
215	0x3b8ff11a	0.004392755
216	0xbd9d88a9	-0.076920815
217	0x3d1ebf42	0.038756616
218	0x3caafd22	0.020872656
219	0xbc195c47	-0.00936038
220	0x3d5439fe	0.05181312
221	0xbd6ff7b9	-0.058585856
222	0x3dc86a99	0.09785957
223	0xbe1fe481	-0.15614511
224	0xbd75cb7e	-0.06000852
225	0x3dcbe62e	0.09956013
226	0x3e946f7a	0.289913
227	0x3d924549	0.07142121
228	0xbe2e93f4	-0.17048627
229	0x3dff83ff	0.12476348
230	0x3dc2a36d	0.09503827
231	0x3dfe136c	0.12406048
232	0x3e72a76b	0.23696677
233	0xbe7513bb	-0.23933308
234	0xbcbf94a0	-0.0233863
235	0xbdc114ce	-0.09427796
236	0x3cfbb050	0.03072372
237	0xbcd62e1c	-0.026145034
238	0xbd854fab	-0.06509336
239	0x3d04c0fb	0.032410603
240	0x3d58bb3d	0.05291294
241	0x3cb952b3	0.022622442
242	0x3dda5326	0.106603906
243	0xbc1c8039	-0.009552055
244	0x3c8168a4	0.015796967
245	0x3da18023	0.07885768
246	0x3df557b0	0.11979616
247	0xbe2bdb92	-0.16782978
248	0x3cd7268d	0.0262635
249	0x3d141477	0.03615233
250	0x3d5e5906	0.054284118
251	0xbbc24f5f	-0.005929872
252	0x3ccb361c	0.024806075
253	0xbdfa762b	-0.1222957
254	0xbcc476bc	-0.023982398
255	0x3d132748	0.035926133

fc1.bias f4 [64]
0	0x3c139e47	0.009009904
1	0xbbd3a5c1	-0.0064589684
2	0xbd83e50a	-0.0644017
3	0xbd2a3090	-0.04155022
4	0xbdc65d36	-0.09685747
5	0xbaa7800c	-0.001277925
6	0x3c0ca2c7	0.008583731
7	0x3be7ad1c	0.007070197
8	0xbd453bd1	-0.04815275
9	0x3b9f759c	0.004866315
10	0x3cbba8fc	0.022907726
11	0xbc919a05	-0.017773638
12	0xbc9b216b	-0.018936833
13	0x3d813223	0.06308391
14	0x3b78bd71	0.0037954713
15	0x3caf2de6	0.02138419
16	0x3ccd4cca	0.02506103
17	0xbb01a47a	-0.0019781874
18	0x3d8f207f	0.0698862
19	0x3c9188a6	0.017765354
20	0x3db8a544	0.09015897
21	0xbcbb41ca	-0.02285852
22	0xbddd2311	-0.10797704
23	0x3cac719c	0.021050267
24	0x3cfe5d5a	0.031050373
25	0x3dedfe19	0.11620731
26	0x3cab1657	0.020884676
27	0xbcdd6251	-0.02702442
28	0x3cd5ff2c	0.026122652
29	0xbd094c94	-0.033520296
30	0xbca51b32	-0.02015457
31	0xbcc6f3f1	-0.024286242
32	0xbcacc083	-0.02108789
33	0x3d931711	0.07182134
34	0x3c2a20e0	0.010383815
35	0xbaf7045e	-0.0018845906
36	0x3d0f82b5	0.03503676
37	0x3c6b4c50	0.014361456
38	0xbc95bdbd	-0.01827895
39	0x3cc046cc	0.023471259
40	0xbc9e4a58	-0.01932256
41	0x3d7b5f10	0.061369956
42	0xbaf1ade3	-0.0018438663
43	0xbc5583ca	-0.013031909
44	0xbc4af4c3	-0.012387457
45	0x3d899679	0.067181535
46	0xbd7ec3fd	-0.062198628
47	0x3c950dbc	0.018195026
48	0x3beb0614	0.0071723554
49	0x3df7fab5	0.121083654
50	0xbda6bcd1	-0.081414826
51	0x3cd40dea	0.025885541
52	0xbd35ef56	-0.0444177
53	0x3ba1ac78	0.00493389
54	0xbcb543be	-0.022127029
55	0x3d63e35a	0.05563674
56	0x3b591e44	0.0033129612
57	0xbc36dc10	-0.011160865
58	0xbb962720	-0.004582301
59	0x3d17f9e8	0.037103564
60	0x3b2ebdeb	0.0026663493
61	0x3ce7428a	0.02822997
62	0xbc993c5f	-0.018705545
63	0xbdaa20a9	-0.08307011

fc2.weight f4 [64, 64]
0	0x3e057c94	0.13035804
1	0xbda597a2	-0.08085562
2	0xbde376d5	-0.1110665
3	0xbd3b242b	-0.04568879
4	0x3e5e122f	0.21686624
5	0xbcfc6420	-0.030809462
6	0x3e5536ad	0.20821638
7	0xbbecb6d7	-0.0072239446
8	0x3d496848	0.049171716
9	0x3e60d7cb	0.21957318
10	0x3da47ce6	0.08031635
11	0x3d2f5a26	0.04281058
12	0xbe0f4a3f	-0.13993166
13	0xbeb0f556	-0.34562176
14	0x3dcc0c18	0.09963244
15	0xbd4ca111	-0.049958292
16	0x3e63e6a4	0.22255951
17	0xbd6d1f1e	-0.057891004
18	0x3db4ffd9	0.088378616
19	0xbde43881	-0.1114359
20	0xbd12f27f	-0.035875794
21	0xbce46655	-0.027880827
22	0xbe27fd2c	-0.16405171
23	0x3d2866f4	0.04111381
24	0x3d973cb4	0.07384625
25	0x3e66adbd	0.22527213
26	0x3ba338ab	0.0049811206
27	0x3d9eef43	0.07760479
28	0xbd8aeb16	-0.0678312
29	0xbdb7e918	-0.08980006
30	0xbc990d79	-0.018683182
31	0xbe13d78a	-0.1443769
32	0x3ce137d7	0.027492447
33	0x3d9fdf2d	0.07806239
34	0x3cb3c5a1	0.021944823
35	0xbd7a4a62	-0.061106093
36	0x3d5d6ffc	0.054061875
37	0x3e10d896	0.14145121
38	0x3ebad4a8	0.3649037
39	0xbcbb55ce	-0.022868063
40	0x3e1ff7a6	0.15621814
41	0x3df54415	0.11975876
42	0xbd80f09c	-0.062958926
43	0x3e14f095	0.145449
44	0x3e02fb5a	0.12791196
45	0xbe088e78	-0.13335598
46	0x3e19f3c3	0.15034394
47	0xbd8ec4ca	-0.06971128
48	0x3e3532a3	0.17695098
49	0xbd93df28	-0.07220298
50	0x3dbd8b1b	0.09255048
51	0xbc646f45	-0.013942544
52	0xbd32f085	-0.04368641
53	0xbe3c7382	-0.18403438
54	0xbd92d902	-0.07170297
55	0x3dafa7fd	0.08576963
56	0xbd71b17b	-0.05900715
57	0xbe3c77dd	-0.18405099
58	0x3e5f0f4e	0.21783182
59	0xbd7533ea	-0.059863962
60	0x3b0a3b88	0.0021092612
61	0xbe622df0	-0.22087836
62	0xbdddc4c4	-0.10828546
63	0x3c7c1b44	0.01538736
64	0xbcb99e38	-0.022658452
65	0x3ed4e24c	0.415789
66	0xbe5314ad	-0.20613356
67	0x3df0cfb0	0.11758363
68	0xbd3d552b	-0.0462238
69	0xbd3afa6a	-0.04564897
70	0x3e918ecc	0.28429258
71	0x3e4f6da3	0.20256667
72	0x3dd07faa	0.101806
73	0x3e1dc323	0.1540647
74	0xbbb26d3b	-0.00544515
75	0xbe1d570a	-0.15365234
76	0xbe4c4ae5	-0.19950445
77	0x39a9cac0	0.00032385252
78	0x3e10d5ae	0.14144012
79	0x3e1a8638	0.15090263
80	0xbe391362	-0.180738
81	0xbe35d7b8	-0.17758071
82	0xbc584829	-0.013200798
83	0xbdf6d60d	-0.12052546
84	0x3d11d66c	0.03560488
85	0xbde7216d	-0.11285672
86	0xbd73b52e	-0.05949896
87	0x3b772ad7	0.0037714744
88	0xbda5d3a5	-0.080970086
89	0xbdf5a8ad	-0.11995063
90	0x3d2a5f2f	0.04159468
91	0xbdb5b581	-0.0887251
92	0x3d01e8bc	0.031716093
93	0xbda83fd4	-0.08215299
94	0x3d80887e	0.06276034
95	0x3ca71f35	0.020400623
96	0xbdb13a39	-0.08653683
97	0x3d3e4ca5	0.046459813
98	0xbe5e0240	-0.21680546
99	0xbd3aefd0	-0.04563886
100	0x3dfeab5f	0.1243503
101	0x3e15cc47	0.14628707
102	0x3d67a76e	0.056556158
103	0xbe4f17f4	-0.20223981
104	0xbd08d9b5	-0.033410747
105	0x3d1bde2d	0.03805368
106	0x3d8f82b0	0.070073485
107	0xbe03011d	-0.12793393
108	0xbd0f81b0	-0.03503579
109	0x3c6aa1da	0.014320815
110	0xbe11e074	-0.14245778
111	0xbd9316a4	-0.07182053
112	0x3c761946	0.015020674
113	0xbdaaa773	-0.0833272
114	0xbc4c8635	-0.012483169
115	0x3d504d4d	0.05085497
116	0x3ba248e2	0.004952536
117	0xbdca60e9	-0.098817654
118	0xbdc8ae43	-0.09798863
119	0xbd2dc501	-0.042424206
120	0x3e980397	0.2969024
121	0x3dc729f1	0.097247966
122	0xbd50e4b4	-0.05099936
123	0x3e498b07	0.19681941
124	0x3d426fb8	0.047469825
125	0xbda360a2	-0.079774156
126	0xbdd98f1b	-0.10622998
127	0x3e17a2b6	0.14808163
128	0xbe72a4a6	-0.23695621
129	0xbcadeb42	-0.021230344
130	0xbe298441	-0.16554357
131	0xbd6985d8	-0.05701241
132	0xbd17ac90	-0.037029803
133	0x3a2ceaf0	0.0006596288
134	0xbd8ac3b2	-0.06775607
135	0xbdaa9109	-0.083284445
136	0xbd9771ce	-0.073947534
137	0x3dd2cfcc	0.1029354
138	0xbdf1d65f	-0.11808466
139	0xbe2e75f3	-0.17037182
140	0x3d0d64ac	0.034519836
141	0x3e0c1310	0.13679147
142	0x3de3bceb	0.111200176
143	0x3d3e9820	0.046531796
144	0xbe74e7df	-0.23916577
145	0xbe09abeb	-0.13444488
146	0x3ede066e	0.4336428
147	0xbc30d983	-0.010794046
148	0x3dd171b3	0.102267645
149	0xbe4ccac4	-0.19999224
150	0xbce252b5	-0.027627328
151	0xbdccebde	-0.100059256
152	0x3de79d0b	0.113092504
153	0x3d87c146	0.06628661
154	0x3d6a675f	0.05722749
155	0xbdf8b533	-0.12143936
156	0x3b94938b	0.00453419
157	0x3cdcf4dd	0.026972229
158	0x3ddbd01d	0.10733054
159	0xbd4e637a	-0.050387837
160	0x3d331636	0.043722354
161	0x3dced08b	0.1009837
162	0x3daf9fbc	0.08575389
163	0x3bd2caae	0.0064328527
164	0xbe34f589	-0.17671789
165	0xbd172e98	-0.03690967
166	0x3dbef57b	0.093241654
167	0xbe597ea5	-0.21239717
168	0xbd5b4c2b	-0.053539436
169	0x3e917bd2	0.2841478
170	0xbe51c4df	-0.20485257
171	0xbe068253	-0.13135652
172	0x3e4a4568	0.19753039
173	0xbe31b89f	-0.17355584
174	0x3d94910f	0.0725423
175	0x3dc62880	0.096756935
176	0xbbc14337	-0.005897905
177	0x3e14f86b	0.14547889
178	0xbdc67eca	-0.09692152
179	0xbe0e7253	-0.13910799
180	0xbc489552	-0.012242632
181	0xbca5edf4	-0.020255066
182	0x3dc8e958	0.09810132
183	0xbd963603	-0.07334521
184	0xbddcebfa	-0.107871965
185	0xbbf9eb24	-0.007626908
186	0x3d716b53	0.058940243
187	0x3d50a307	0.050936725
188	0x3dbdfbf1	0.0927657
189	0x3e2ee905	0.17081077
190	0xbdf9ab5a	-0.12190886
191	0xbcb9964c	-0.022654675
192	0x3bfbf391	0.0076889475
193	0x3d24448b	0.04010443
194	0xbbb31df1	-0.005466216
195	0xbde54772	-0.11195268
196	0xbe9a996d	-0.3019518
197	0xbb5f5d39	-0.0034082665
198	0xbda55497	-0.08072775
199	0xbd7b954c	-0.061421677
200	0x3d704279	0.058657143
201	0x3e98f15f	0.29871652
202	0xbd80c027	-0.0628665
203	0x3e847f6c	0.25878465
204	0xbdd1ae71	-0.1023835
205	0x3da72eb4	0.08163205
206	0x3e41a9d2	0.18912438
207	0xbd7cce12	-0.06171996
208	0x3c8a03b0	0.016847461
209	0x3da9893c	0.082781285
210	0xbd2a5d9a	-0.04159317
211	0xbe3f58bd	-0.18686195
212	0x3cd801f1	0.026368113
213	0xbd90b9bb	-0.07066675
214	0x3dfbe6b4	0.122998625
215	0xbdadbc06	-0.08483128
216	0xbd8042cd	-0.06262741
217	0x3dc0084d	0.09376583
218	0x3d8f29e0	0.06990409
219	0xbe889a54	-0.26680243
220	0xbe3a5880	-0.18197823
221	0x3de73263	0.112889074
222	0x3d1822b8	0.037142485
223	0x3e008953	0.12552385
224	0x399eb2c0	0.00030269288
225	0xbe302def	-0.17205022
226	0xbe218b03	-0.15775685
227	0x3e3277e6	0.1742855
228	0xbdd3dea9	-0.103452034
229	0x3bc8ba8b	0.0061257533
230	0xbcff0772	-0.03113148
231	0xbd539b4b	-0.05166177
232	0x3c4a4faa	0.012348095
233	0x3cd8dc2b	0.026472172
234	0xbdd32e0d	-0.10311518
235	0x3d2c85fc	0.042119965
236	0x3d801182	0.06253339
237	0x3bd01b03	0.0063508763
238	0xbe2f54b4	-0.17122155
239	0xbda0f168	-0.078585446
240	0xbe6793fe	-0.22615048
241	0x3ce9049e	0.028444584
242	0x3d9fe7ea	0.07807906
243	0xbdafe1ca	-0.08587988
244	0xbd7d2a1e	-0.061807744
245	0x3d882039	0.06646771
246	0x3e3c85e3	0.18410449
247	0x3aa47aaf	0.001254877
248	0xbd2c5233	-0.04207058
249	0xbcadde07	-0.021224035
250	0x3e938cb1	0.28818277
251	0x3d1fa7d5	0.038978416
252	0xbe91577b	-0.28387055
253	0xbe28c02c	-0.16479558
254	0xbd2265cf	-0.039647873
255	0xbd49be38	-0.049253672

fc2.bias f4 [64]
0	0x3ca22e28	0.0197974
1	0x3c624033	0.013809252
2	0x3d3c08b0	0.045906723
3	0xbd2dad39	-0.042401526
4	0x3c52c6e1	0.012864799
5	0x3cdfc74a	0.027316708
6	0x3d8fae7a	0.07015701
7	0xbb9843ba	-0.0046467455
8	0xbced623a	-0.028977502
9	0x3cee5fb1	0.029098364
10	0xbc585ae8	-0.0132052675
11	0xbcb772a1	-0.022393527
12	0xbcc22df4	-0.023703553
13	0x3b29fed7	0.002593925
14	0x3d2b5086	0.04182484
15	0x3d985d1f	0.074396364
16	0x3cb3a1ec	0.021927796
17	0x3d4d4ea5	0.05012383
18	0x3b8043b1	0.0039143194
19	0xbb2a7e5b	-0.0026015255
20	0x3b5a26bd	0.003328725
21	0x3d04d478	0.03242919
22	0x3ca52a33	0.020161724
23	0xbc820e08	-0.015875831
24	0xbcdbf51e	-0.02685028
25	0xba5dfbad	-0.00084679836
26	0xbd5265a3	-0.05136646
27	0xbadb5daf	-0.0016736294
28	0xbcc17979	-0.023617493
29	0x3be853fc	0.00709009
30	0x3d2d1296	0.042254053
31	0xbbde124f	-0.006777085
32	0x3d162cb0	0.03666371
33	0xbc42d3f6	-0.011891356
34	0x3c45e01a	0.012077356
35	0x3c981cf7	0.018568499
36	0x3c948340	0.018128991
37	0xbc872b04	-0.016500004
38	0x3d7649d7	0.060129013
39	0xbca2d956	-0.019879024
40	0xbd54bffc	-0.051940903
41	0x3b9e0a8f	0.004823036
42	0x3c0dda9d	0.0086580785
43	0x3de252c5	0.11050943
44	0x3982e06f	0.00024962748
45	0xbd82e1ea	-0.06390746
46	0xbcee4d81	-0.029089691
47	0x3d079371	0.033099595
48	0x3c09553c	0.008382138
49	0xbc4cd164	-0.0125010945
50	0xbc023089	-0.007946142
51	0x3cd4fded	0.025999987
52	0x3d503cfe	0.050839417
53	0xbd4700b0	-0.04858464
54	0xba750281	-0.00093463814
55	0x3d355dd2	0.044278927
56	0x3a3eb327	0.00072746206
57	0xbdbe92a4	-0.09305313
58	0x3bd54f58	0.0065097027
59	0x3d92ff96	0.071776554
60	0x3c86e037	0.016464336
61	0xbcb3e53c	-0.021959893
62	0x3d6d9a08	0.058008224
63	0x3c01e594	0.007928271

mu.weight f4 [8, 64]
0	0x3d841aab	0.06450399
1	0x3dce9629	0.100872345
2	0xbe017fc2	-0.12646392
3	0xbd22f05a	-0.03978
4	0xbe156889	-0.14590658
5	0xbdcd10b1	-0.10012949
6	0x3dcefea8	0.101071656
7	0x3cb1e052	0.02171341
8	0x3dc85a6f	0.09782874
9	0xbe33803e	-0.1752939
10	0xbce9868a	-0.028506536
11	0x3ba18dc7	0.0049302313
12	0xbd9a2acd	-0.07527695
13	0x3db4c968	0.08827478
14	0xbd82a0c5	-0.063783206
15	0xbc0bcbf5	-0.008532514
16	0x3ccabe1f	0.02474886
17	0xbdd5c868	-0.10438615
18	0xbe2a16bf	-0.1661024
19	0xbe6903d3	-0.22755365
20	0xbe00de28	-0.12584746
21	0x3d475ff8	0.048675507
22	0x3d5007e6	0.050788783
23	0x3cf5da8f	0.030011443
24	0xbe044f10	-0.12920785
25	0x3db2db78	0.087332666
26	0xbe090f99	-0.13384856
27	0xbe5fc09c	-0.21850818
28	0x3e71d650	0.2361691
29	0x3d73751c	0.059437856
30	0xbc262e57	-0.010142884
31	0x3e126d05	0.142994
32	0xbe60fccf	-0.21971439
33	0xbd18d478	-0.037312
34	0x3dc99604	0.09843066
35	0xbcef649b	-0.029222777
36	0x3e5a073f	0.21291827
37	0xbe5314bf	-0.20613383
38	0x3c68d108	0.014209993
39	0x3c508722	0.012727531
40	0xbc987006	-0.018608104
41	0xbe60058b	-0.21877114
42	0xbdccaffd	-0.099945046
43	0xbe0bd0e4	-0.13653904
44	0xbe789802	-0.24276736
45	0xbe030c00	-0.12797546
46	0x3e15a05e	0.14611956
47	0xbec35936	-0.38154
48	0x3e257e62	0.16161492
49	0x3db2ab85	0.08724121
50	0xbe0269f8	-0.12735736
51	0x3e19cf28	0.1502043
52	0x3e6dc8aa	0.23221079
53	0x3caa2dd2	0.020773802
54	0x3de99bcc	0.11406669
55	0x3ea7278f	0.32647368
56	0x3dffb888	0.124863684
57	0xbaa8a5c4	-0.0012866785
58	0xbe6830ba	-0.22674838
59	0x3d2c462f	0.04205912
60	0x3d04ce4e	0.03242331
61	0xbd45a4ee	-0.048252992
62	0xbe0f4b12	-0.13993481
63	0xbcdf2d29	-0.027243214
64	0x3ac4afa5	0.001500596
65	0x3d3d895b	0.04627357
66	0x3e9d667b	0.3074225
67	0xbd92705a	-0.071503356
68	0xbe12cee9	-0.14336742
69	0xbe573b32	-0.21018675
70	0x3dac6e2e	0.084194526
71	0x3c8fab51	0.017537745
72	0xbe04e348	-0.12977326
73	0x3e4deab1	0.20109059
74	0x3e1a9d21	0.15099002
75	0xbcb86ae2	-0.022511903
76	0xbe5a02c0	-0.21290112
77	0x3d82e0cc	0.06390533
78	0x3d60cb77	0.05488154
79	0x3da97ba0	0.08275533
80	0x3ddc0262	0.10742642
81	0xbc57b3d0	-0.013165429
82	0xbe642937	-0.22281347
83	0x3cc7da59	0.024396108
84	0x3cb02f3b	0.021506896
85	0x3ae7b609	0.0017678152
86	0xbe7e6c7b	-0.2484607
87	0xbd01e235	-0.03170987
88	0x3c8785d1	0.0165433
89	0x3de00f65	0.10940436
90	0x3df281c2	0.118411556
91	0x3e2951ae	0.16535065
92	0xbd600278	-0.054689854
93	0x3cdd066f	0.026980607
94	0x3d8e32fb	0.069433175
95	0xbe8e68d3	-0.2781435
96	0xbd2141cf	-0.0393694
97	0xbe113e78	-0.14183986
98	0xbcf0e4c9	-0.029405968
99	0x3e4380a5	0.19092043
100	0xbe16b9ac	-0.14719266
101	0x3ddbb7ad	0.10728393
102	0xbda120c4	-0.07867578
103	0x3e41c6b7	0.1892346
104	0x3c4ed3af	0.0126237115
105	0x3cb25d52	0.021773014
106	0xbcef96ca	-0.029246707
107	0xbe8c10dd	-0.27356616
108	0x3d40a2ba	0.04703019
109	0x3e041f72	0.1290262
110	0x3cc0ecab	0.023550352
111	0x3db40ff9	0.08792109
112	0xbded4c6d	-0.11586843
113	0x3c95b1bf	0.018273233
114	0xbe56665d	-0.20937486
115	0x3d2a3f5c	0.04156433
116	0xbd414fdd	-0.047195304
117	0x3ddeb0b9	0.10873551
118	0x3bb11f79	0.005405363
119	0x3d218ba2	0.039439805
120	0xbe15a8df	-0.146152
121	0x3db3400c	0.0875245
122	0xbe3d8bef	-0.18510412
123	0x3e4abb73	0.19798069
124	0x3e0786f1	0.1323507
125	0x3d93f34b	0.07224139
126	0xbe271294	-0.1631568
127	0x3e180388	0.14845097
128	0x3e183b17	0.14866291
129	0x3e3caf1f	0.18426178
130	0xbde72e60	-0.11288142
131	0x3cdc0f57	0.026862783
132	0x3ceae50e	0.028673675
133	0x3e4dd9f7	0.20102678
134	0xbe77b2f7	-0.24189363
135	0xbdc51310	-0.096227765
136	0xbcf8d71a	-0.030376006
137	0x3d6cc36c	0.057803556
138	0x3e27c5e7	0.16384088
139	0x3caa35cb	0.020777604
140	0xbcdbe41e	-0.026842173
141	0x3dc4970f	0.09599125
142	0xbd773257	-0.060350742
143	0x3dc7c161	0.09753681
144	0xbd8d743a	-0.06906934
145	0xbdd73117	-0.1050741
146	0xbda8e166	-0.08246116
147	0x3c847b8e	0.016172197
148	0x3d522feb	0.05131523
149	0xbdd7c8e2	-0.10536362
150	0xbc14a5c8	-0.009072728
151	0x3dcf1d0f	0.10112964
152	0xbd262ce2	-0.040570147
153	0x3e1d1455	0.15339787
154	0x3e0d13ff	0.13777159
155	0x3e85d5a6	0.26139563
156	0xbdc4173c	-0.09574744
157	0xbdf05ba9	-0.11736233
158	0xbe022f40	-0.12713337
159	0x3cd5455e	0.026034053
160	0xbe42b60d	-0.1901476
161	0xbe7d18bd	-0.24716468
162	0xbe43da21	-0.19126178
163	0x3e513b21	0.20432712
164	0x3e4277b2	0.18990973
165	0x3c4e8a80	0.012606263
166	0x3d7046f8	0.05866143
167	0xbe0d8871	-0.1382158
168	0x3cc37b4f	0.023862509
169	0xbd26505b	-0.040603977
170	0x3e093c57	0.13401924
171	0xbe5db4c9	-0.21650995
172	0x3daf8efd	0.08572195
173	0x3ca079b8	0.01958929
174	0x3e7709ea	0.24124876
175	0xbd346f5e	-0.04405152
176	0x3deffb89	0.117178984
177	0x3ca36cb4	0.019949295
178	0x3e3681f5	0.17823012
179	0xbe29aad3	-0.1656907
180	0xbb88acb0	-0.0041709766
181	0x3d18b683	0.03728343
182	0xbcfca001	-0.030838015
183	0xbdf182a4	-0.11792496
184	0x3b961ac2	0.0045808265
185	0x3d97e272	0.07416238
186	0x3e07a2ea	0.1324574
187	0x3ca6da2a	0.0203677
188	0x3d11e7a5	0.035621304
189	0x3d6a4614	0.057195738
190	0x3de1334e	0.10996114
191	0xbd3a52bf	-0.04548907
192	0xbe523751	-0.20528914
193	0x3e3bc22a	0.18335786
194	0x3d3f6d4e	0.0467351
195	0x3e4a1f83	0.19738583
196	0xbe0f1ceb	-0.13975875
197	0x3d912624	0.07087353
198	0x3d401c56	0.046902023
199	0x3e067674	0.13131124
200	0xbcc55145	-0.024086604
201	0x3dda8e42	0.10671665
202	0xbe175452	-0.1477826
203	0x3e1f5364	0.15559155
204	0xbe06870c	-0.13137454
205	0xbd01de48	-0.031706125
206	0xbd3516bc	-0.044211134
207	0xbdeae2a9	-0.11469013
208	0xbe156ef7	-0.14593111
209	0x3d9470bc	0.07248065
210	0xbd23a1e6	-0.03994932
211	0xbe0d0c65	-0.1377426
212	0x3e137b86	0.14402589
213	0xbcc6ab58	-0.024251625
214	0xbdff516b	-0.12466701
215	0xbd28d96d	-0.04122298
216	0x3dbd30e3	0.0923784
217	0xbc66b856	-0.014082035
218	0xbe1151b9	-0.14191331
219	0x3d4e3cb4	0.05035086
220	0x3d555503	0.052083027
221	0x3e126ae9	0.14298595
222	0x3e0c182c	0.13681096
223	0xbda05899	-0.07829399
224	0xbdf62ca1	-0.12020231
225	0x3d3032f0	0.043017328
226	0xbe252d55	-0.16130574
227	0xbb37fe3d	-0.0028075122
228	0x3d30e74b	0.04318933
229	0xbd63e682	-0.05563975
230	0x3de97596	0.11399381
231	0x3e076c32	0.13224867
232	0xbd0f42ba	-0.034975745
233	0xbc809141	-0.015694262
234	0x3e23404a	0.15942493
235	0xbdb703e3	-0.08936288
236	0xbdcab235	-0.098972715
237	0x3dd97048	0.10617119
238	0x3d0c0a9c	0.034189805
239	0xbd942e93	-0.07235446
240	0xba9d800d	-0.0012016312
241	0xbddeb8d9	-0.10875101
242	0x3cebdfa1	0.028793158
243	0xbde97505	-0.11399273
244	0xbcb291e1	-0.021798076
245	0x3ead2107	0.3381426
246	0xbc4e4471	-0.01258956
247	0x3c482e43	0.012218061
248	0x3e761be0	0.24034071
249	0xbd1e6224	-0.038667813
250	0xbc10a41b	-0.008828188
251	0xbe8ee7af	-0.27911136
252	0xbd8e99cb	-0.069629274
253	0x3c3dfd7f	0.011596083
254	0x3dd6aa8f	0.1048175
255	0x3e183851	0.14865233

mu.bias f4 [8]
0	0xbc2fb496	-0.010724207
1	0xbcd1dae6	-0.025617074
2	0xbd047618	-0.032339185
3	0xbcee0191	-0.029053481
4	0x3cedb968	0.029019073
5	0x3d67309f	0.056442853
6	0x3d59e9fa	0.053201653
7	0x3d66b0cb	0.056320947

fc1.weight f4 [64, 111]
0	0xbe556c14	-0.2084201
1	0x3ef03522	0.46915537
2	0x3d80463f	0.062633984
3	0xbceba3e3	-0.02876467
4	0xbd4e2123	-0.05032457
5	0x3d7eed9b	0.062238317
6	0xbd4818c3	-0.04885174
7	0x3cb0df6f	0.021590916
8	0xbdc7eb73	-0.09761705
9	0xbd9d84c9	-0.076913424
10	0xbde6340e	-0.112403974
11	0x3dad00de	0.08447431
12	0x3e00cb77	0.12577616
13	0xbd9b831b	-0.07593366
14	0xbd103461	-0.035206202
15	0xbdc9027f	-0.09814929
16	0x3ad5a964	0.0016301093
17	0x3e4bf514	0.19917709
18	0xbc4ab51b	-0.0123722805
19	0xbc4a71dc	-0.012356248
20	0x3d8f92d7	0.07010429
21	0x3c8e94c1	0.017404916
22	0x3b948f29	0.0045336676
23	0xbcae14d1	-0.02125016
24	0x3d08434c	0.033267304
25	0xbcc6425b	-0.024201563
26	0x3c86baac	0.016446434
27	0xbdbda937	-0.09260791
28	0xbe8279b5	-0.2548348
29	0xbdc1c633	-0.094616316
30	0x3dd50ddd	0.10403035
31	0x3e2e1cad	0.17003126
32	0x3de3d0b7	0.111237936
33	0x3c15f3ba	0.009152347
34	0xbd8dcf9d	-0.06924365
35	0x3e131df7	0.143669
36	0xbd860266	-0.06543426
37	0x3cdee3cb	0.02720823
38	0x3d1866c6	0.037207387
39	0xbc055c70	-0.008139715
40	0xbda4102e	-0.080108985
41	0x3d940c29	0.07228882
42	0xbe466f4e	-0.19378397
43	0xbcd59daf	-0.026076166
44	0xbe436eff	-0.1908531
45	0xbd010833	-0.03150196
46	0xbcd4cf5a	-0.02597778
47	0xbe2c52a3	-0.16828398
48	0xbd9d878d	-0.0769187
49	0x3e0bc72e	0.136502
50	0xbdca3716	-0.09873788
51	0x3dba5dcf	0.09099924
52	0xbea17961	-0.31537917
53	0x3d2cf633	0.04222698
54	0x3da5493c	0.08070609
55	0x3d1ace90	0.03779465
56	0xbcb30057	-0.021850748
57	0x3d91b2b5	0.07114164
58	0xbde67830	-0.11253393
59	0xbe048c83	-0.12944226
60	0xbd3454b8	-0.044026107
61	0x3d94d539	0.072672315
62	0xbbc4fa50	-0.006011285
63	0xbd68c420	-0.056827664
64	0x3da1d3ac	0.07901701
65	0x3d8d3864	0.06895521
66	0xbdebb3b6	-0.115088865
67	0xbc8cb5a8	-0.017176464
68	0x3dc587e3	0.09645059
69	0x3e0ce93a	0.13760844
70	0x3db6d86b	0.08927997
71	0x3cb4ce1b	0.022070935
72	0xbda82050	-0.08209288
73	0xbda2de86	-0.07952599
74	0xbca68d8b	-0.020331165
75	0x3c6c1b1a	0.014410758
76	0xbdee5337	-0.11636966
77	0x3cdf016f	0.027222363
78	0x3be56c24	0.0070014168
79	0xbcb70929	-0.022343235
80	0xbddf182b	-0.108932815
81	0xbdc96471	-0.09833611
82	0x3cf76b54	0.030202545
83	0x3d71de08	0.059049636
84	0xbe393f2d	-0.18090506
85	0x3c29eae4	0.010370944
86	0xbdc30a9e	-0.095235094
87	0xbc4e0fde	-0.012577025
88	0xbd6aa73a	-0.057288386
89	0x3e5c3f7c	0.21508592
90	0xbe3ad748	-0.18246186
91	0x3d2eaaeb	0.04264347
92	0xbd8c5e79	-0.06853957
93	0x3cd26271	0.025681706
94	0x3de83288	0.11337763
95	0xbc2f9a8d	-0.010718
96	0xbd13455a	-0.03595481
97	0x3d876e3c	0.066128224
98	0xbd7919ff	-0.060815807
99	0xbd215425	-0.039386887
100	0x3d42897a	0.04749439
101	0x3da8c3a8	0.082404435
102	0xbcdd5f4f	-0.027022986
103	0xbcac2827	-0.02101524
104	0x3da1b10f	0.07895099
105	0xbd362cb7	-0.044476237
106	0xbcc40ba0	-0.023931324
107	0xbdbefa38	-0.09325069
108	0xbb9e26d3	-0.0048264056
109	0x3dda2a97	0.106526546
110	0xbd8f9b5c	-0.07012054
111	0xbecdd112	-0.4019857
112	0x3f2be377	0.6714396
113	0x3d76965b	0.060201984
114	0xbe20edf2	-0.15715769
115	0x3d43a1a0	0.04776156
116	0x3e06b003	0.1315308
117	0x3cb2e311	0.02183679
118	0x3d490ede	0.049086444
119	0x3dfa7775	0.12229816
120	0x3e29f8a9	0.16598763
121	0xbd96fb79	-0.07372183
122	0x3db5db09	0.08879668
123	0xbcd5998f	-0.026074199
124	0x3cd5b725	0.026088307
125	0x3d29dd25	0.041470665
126	0xbe22a366	-0.15882644
127	0xbcdfc0ff	-0.027313707
128	0xbcd2ceaf	-0.02573332
129	0x3cd3569e	0.025798138
130	0xbcc87676	-0.02447055
131	0xbc30048f	-0.010743274
132	0x3c4f70d7	0.01266118
133	0xbd1c444d	-0.038151074
134	0xbbb2196a	-0.0054351585
135	0xbcccaf64	-0.024985977
136	0x3cf93932	0.03042278
137	0xbc017c44	-0.007903162
138	0xbd4b3ece	-0.049620442
139	0x3d31ccbf	0.04340815
140	0x3db022e2	0.08600403
141	0x3d847a3f	0.06468629
142	0x3d535512	0.0515948
143	0xbe1636b6	-0.14669308
144	0x3d18c438	0.037296504
145	0x3d20b68f	0.0392366
146	0xbd4f78e2	-0.050652392
147	0xbd892054	-0.06695619
148	0xbc5ea65d	-0.013589469
149	0x3d5fecfb	0.05466936
150	0xbd964ab2	-0.07338466
151	0xbd546575	-0.05185457
152	0x3d7a283b	0.061073523
153	0x3de21768	0.11039621
154	0xbd1840d9	-0.03717122
155	0x3dfba165	0.12286643
156	0x3d16bb5f	0.036799785
157	0xbd127d2e	-0.035763912
158	0x3dfda48e	0.12384902
159	0xbdf66844	-0.12031606
160	0xb929cb58	-0.00016192847
161	0xbe38bbd5	-0.18040402
162	0xbd43b7ec	-0.047782823
163	0xbdf07eda	-0.11742945
164	0xbca12c29	-0.019674378
165	0xbd952be8	-0.07283765
166	0x3e446092	0.19177464
167	0xbe07ff22	-0.13280919
168	0x3baabb19	0.005210292
169	0xbc1a9a4c	-0.009436201
170	0x3e27f44e	0.16401789
171	0xbcdd0f42	-0.026984815
172	0xbccbe775	-0.02489064
173	0x3da6efb7	0.08151191
174	0x3dd60603	0.104503654
175	0xbbfebb61	-0.007773802
176	0x3c543cd4	0.012953956
177	0x3e284cae	0.16435501
178	0x3e144833	0.14480667
179	0x3e1896c0	0.14901257
180	0xbc5fe435	-0.013665249
181	0xbdb4289f	-0.0879681
182	0x3bd29cf7	0.006427403
183	0x3e1429b3	0.14469032
184	0xbd52db22	-0.051478513
185	0x3da76dcd	0.0817524
186	0x3da5b671	0.080914386
187	0x3dd466a1	0.103711374
188	0xbd17d23a	-0.037065722
189	0xbcde307c	-0.027122729
190	0x3e2467d6	0.16055235
191	0xbe188605	-0.14894874
192	0xbd63a64a	-0.055578507
193	0x3e044c09	0.1291963
194	0xbdb958a0	-0.09050107
195	0xbbcf1822	-0.0063200155
196	0xbe4329b2	-0.19058874
197	0x3dc83129	0.097750016
198	0xbc9d0c47	-0.019170893
199	0x3dd06065	0.10174636
200	0x3ca5067d	0.020144695
201	0x3ca26ef8	0.019828305
202	0x3e075e21	0.13219501
203	0xbd538673	-0.051641893
204	0x3ce43c63	0.027860826
205	0x3c5ae7fe	0.013360975
206	0x39d6c89b	0.00040966723
207	0xbd9f146a	-0.077675655
208	0xbdb0f2a3	-0.08640029
209	0x3d988140	0.074465275
210	0x3dcf9bc2	0.1013713
211	0x3d963606	0.07334523
212	0x3e634ba4	0.22196823
213	0xbd30f733	-0.043204498
214	0x3e3e4d69	0.18584217
215	0x3e809e70	0.25120878
216	0xbca33f49	-0.019927638
217	0x3b93a581	0.0045058136
218	0xbe09d7e7	-0.13461266
219	0xbdc17a15	-0.094471134
220	0xbd478f28	-0.04872051
221	0xbd0bdc87	-0.03414586
222	0x3e84c685	0.25932708
223	0xbf195969	-0.59902054
224	0x3e02e5f9	0.1278304
225	0xbd9f80bd	-0.07788227
226	0xbef172df	-0.47157952
227	0x3ce38d83	0.027777439
228	0x3d146d0d	0.03623681
229	0xbe3a1f14	-0.18175918
230	0xbcb26a74	-0.021779276
231	0x3d21f4bb	0.039540034
232	0xbd0dce00	-0.034620285
233	0x3d80dfe6	0.06292705
234	0x3e217ee3	0.1577106
235	0x3d230ceb	0.03980724
236	0x3df923b5	0.12165014
237	0x3e123428	0.14277709
238	0xbe18579d	-0.14877172
239	0x3da543ba	0.080695584
240	0xbe209719	-0.15682639
241	0xbd3f68c0	-0.046730757
242	0x3d37bf70	0.044860303
243	0xbd4341d3	-0.047670197
244	0xbc5447f9	-0.012956613
245	0xbcbe843c	-0.023256414
246	0x3c06f63e	0.00823742
247	0xbd611948	-0.05495575
248	0xbc5ef9e4	-0.013609383
249	0xbdf06dac	-0.11739668
250	0x3c2d377d	0.0105723115
251	0x3d8b1ac8	0.067922175
252	0x3d03f35c	0.032214507
253	0xbd6b356b	-0.05742399
254	0xbd5e6aea	-0.05430118
255	0xbdd04122	-0.10168673

fc1.bias f4 [64]
0	0x3e14d1c8	0.1453315
1	0xbe1a504e	-0.15069696
2	0xbd896c80	-0.06710148
3	0x3e385a7a	0.18003264
4	0xbd2ccb5a	-0.04218612
5	0xbe76886d	-0.2407548
6	0xbf00e07b	-0.5034253
7	0x3f018f7f	0.5060958
8	0x3d931f69	0.071837254
9	0x3f0ff009	0.5622564
10	0x3e0b07b4	0.13577157
11	0x3dfb23d0	0.1226269
12	0xbe7bed15	-0.24602158
13	0x3ec7a230	0.38990927
14	0xbe6c9d44	-0.23106867
15	0x3e8ac3c5	0.27102485
16	0x3f3f9920	0.74843025
17	0x3f33e823	0.7027609
18	0x3de02e5a	0.10946341
19	0x3f09ec21	0.5387593
20	0xbdc90ced	-0.098169185
21	0xbc2990ae	-0.010349436
22	0x3edc3502	0.43009192
23	0xbe53b8cb	-0.20675962
24	0xbe1e78bb	-0.15475743
25	0x3d65f478	0.056141347
26	0x3e23469d	0.15944906
27	0xbe7211e6	-0.2363964
28	0x3e30761e	0.17232558
29	0x3ebde582	0.37089163
30	0xbd7dae98	-0.061934084
31	0xbe8215e2	-0.2540732
32	0x3e3187d8	0.17336977
33	0x3f091c1c	0.53558517
34	0xbd818a53	-0.063252114
35	0x3e474d47	0.19463073
36	0xbe45a1fb	-0.19300072
37	0xbdc18e6d	-0.09450994
38	0xbe21ef39	-0.15813912
39	0x3e8b7e05	0.27244583
40	0xbe8621a6	-0.26197547
41	0xbe755b9a	-0.23960724
42	0x3f4ee2b0	0.8081465
43	0x3e34ad59	0.17644252
44	0x3b829459	0.0039849696
45	0xbe0e5c3c	-0.13902372
46	0xbcca8482	-0.024721388
47	0xbe1ee0a2	-0.15515378
48	0xbf03f520	-0.51545906
49	0x3e6baec7	0.23015891
50	0x3d5bdd06	0.05367758
51	0xbde8d222	-0.11368205
52	0xbdf7e771	-0.12104691
53	0xbc82f196	-0.015984338
54	0x3eaae54b	0.33378062
55	0x3cf67d57	0.030089064
56	0xbe0bb565	-0.13643415
57	0xbe26f4f9	-0.16304387
58	0xbe8ec171	-0.2788196
59	0x3ea64ce7	0.32480547
60	0x3d453e9a	0.048155405
61	0x3e7543cc	0.23951644
62	0x3be16304	0.0068782587
63	0xbdd80a4b	-0.10548838

fc2.weight f4 [64, 64]
0	0xbe03bc1c	-0.12864727
1	0x3f7ef78c	0.99596477
2	0x3eac6e89	0.33678082
3	0x3d6ecb75	0.0582995
4	0xbe7c3bd8	-0.24632204
5	0x3f67f1ad	0.9060314
6	0x3f6a9cd5	0.91645557
7	0xbe47ebdf	-0.19523571
8	0xbdf3f449	-0.11911828
9	0xbef8cb61	-0.48592666
10	0xbe46c88c	-0.1941244
11	0xbec17d1e	-0.3779077
12	0xbe013e04	-0.12621313
13	0x3deafa3e	0.11473511
14	0x3e37512d	0.1790206
15	0xbebba244	-0.36647236
16	0xbef05d5f	-0.46946236
17	0xbfa9eb4f	-1.3274935
18	0xbe6d2323	-0.23157935
19	0xbf456ff1	-0.77123934
20	0x3f6b12ad	0.9182537
21	0xbef80331	-0.48439935
22	0xbe9ed9af	-0.31025454
23	0x3f5e5367	0.8684601
24	0x3f5266f5	0.8218835
25	0xbf1989e2	-0.5997602
26	0xbee6b271	-0.45058015
27	0x3c48c18e	0.012253178
28	0x3dc76632	0.09736289
29	0xbee558f9	-0.44794443
30	0x3e2be2f7	0.16785799
31	0x3dd54ee1	0.104154356
32	0xbf2b8fe6	-0.67016447
33	0xbe8df1d3	-0.2772356
34	0x3f48544f	0.78253645
35	0xbf96727d	-1.1753689
36	0x3f71e118	0.9448409
37	0xbe069541	-0.13142873
38	0x3ea7a306	0.32741565
39	0xbf570afd	-0.8400114
40	0x3ed107fb	0.408264
41	0xbe0f35c8	-0.1398536
42	0xbf6bb92d	-0.9207943
43	0x3e9aaf82	0.30212027
44	0xbe98e785	-0.29864135
45	0x3de8479c	0.113417834
46	0xbf260e3a	-0.6486546
47	0xbe9cdff3	-0.3063961
48	0x3f277104	0.65406823
49	0xbf87c702	-1.0607607
50	0x3e4e2d92	0.20134571
51	0xbf18da8d	-0.5970848
52	0x3f1203d3	0.57037085
53	0xbd1c26dc	-0.038122997
54	0xbef39888	-0.4757731
55	0x3ec12531	0.37723687
56	0x3e8681b6	0.26270837
57	0x3f16b555	0.5887044
58	0xbedff78b	-0.43743548
59	0xb9a3c0a3	-0.00031233308
60	0x3e4b38f3	0.19845943
61	0x3e900e35	0.2813584
62	0xbedd8221	-0.43263343
63	0x3f103990	0.56337833
64	0x3ed193b3	0.40932998
65	0x3e4e8ddf	0.20171307
66	0xbdea7c74	-0.11449519
67	0x3f3ab8f7	0.72938484
68	0x3d537ba6	0.051631592
69	0x3ed641f8	0.41847205
70	0x3f048cd8	0.5177741
71	0xbe6aebec	-0.2294156
72	0x3dcd528c	0.1002551
73	0x3ebb4d37	0.36582348
74	0x3f07087c	0.5274732
75	0x3ee6f272	0.45106846
76	0xbee50c17	-0.44735786
77	0xbc52dd05	-0.012870078
78	0x3de997dc	0.11405918
79	0x3e558eb8	0.20855224
80	0x3e63c23b	0.22242062
81	0xbeb5ccaa	-0.3550771
82	0x3d940a17	0.07228487
83	0x3d6eb493	0.058277678
84	0xbe5cfcf2	-0.21580866
85	0x3d89744d	0.06711636
86	0x3e634ae6	0.2219654
87	0x3bd7e502	0.006588579
88	0x3e7b9b2b	0.2457091
89	0xbf53e57c	-0.8277204
90	0x3e44dce5	0.1922489
91	0xbdb574f4	-0.08860198
92	0x3e0b1515	0.13582261
93	0xbd939dad	-0.07207809
94	0xbeb5fcf3	-0.35544547
95	0x3dd3e527	0.10346442
96	0x3cd3df54	0.025863327
97	0xbf26886c	-0.65051913
98	0xbeb8498b	-0.3599361
99	0x3e8408a5	0.25787845
100	0x3bc45697	0.0059917676
101	0xbeb8d09d	-0.3609666
102	0x3dea57f4	0.11442557
103	0x3da3dd2c	0.080011696
104	0x3e021d7a	0.12706557
105	0xbe1a0e12	-0.1504443
106	0xbebd0aee	-0.369224
107	0x3e16857c	0.14699358
108	0xbe983689	-0.29729107
109	0x3c260781	0.010133625
110	0xbeaed32d	-0.3414549
111	0xbf2b765a	-0.66977465
112	0xbd05a003	-0.032623302
113	0x3dbb7a42	0.09154178
114	0xbd130bf1	-0.03590006
115	0xbea866fc	-0.3289107
116	0xbe90cc64	-0.28280938
117	0xbe31277a	-0.17300215
118	0x3edf1427	0.43570063
119	0x3e2d1ec1	0.16906263
120	0x3ef9cc7f	0.4878883
121	0xbdec106a	-0.11526568
122	0xbe2138fe	-0.15744397
123	0xbeb9ef5e	-0.36315435
124	0xba3cf148	-0.00072075846
125	0x3f19a168	0.6001191
126	0x3e160fb8	0.14654434
127	0x3daaa559	0.08332319
128	0x3e64694e	0.22305796
129	0xbe3c1c1f	-0.18370102
130	0x3f19aee6	0.600325
131	0xbe58d69d	-0.21175618
132	0xbdefb85f	-0.11705088
133	0x3d91d9f8	0.07121652
134	0x3f684739	0.9073368
135	0xbf1796e5	-0.5921462
136	0x3e967513	0.29386196
137	0xbca35e10	-0.019942313
138	0xbeae88bc	-0.34088695
139	0x3e9559ac	0.29169977
140	0x3e5109ed	0.20413943
141	0xbf678a43	-0.90445346
142	0x3f31dee6	0.6948074
143	0xbea76f96	-0.3270232
144	0xbfc50e75	-1.5395037
145	0xbfb33f28	-1.4003649
146	0x3e831b66	0.2560684
147	0xbf695632	-0.9114715
148	0x3ddad827	0.10685759
149	0x3ed873ef	0.4227595
150	0xbef1ef22	-0.47252756
151	0x3e0264dc	0.12733787
152	0x3e0b2fcb	0.1359245
153	0xbe9255ae	-0.28580993
154	0xbeddf493	-0.43350658
155	0xbdbaf102	-0.09128
156	0xbe1050f4	-0.14093381
157	0xbece9b90	-0.4035306
158	0xbe977e83	-0.29588708
159	0x3e1a30dd	0.15057702
160	0xbddade13	-0.106868885
161	0xbf9fba6d	-1.2478768
162	0xbdd5f9cc	-0.104480356
163	0xbe1c2bfd	-0.15251155
164	0x3ea6636c	0.32497728
165	0x3d7ea7dc	0.062171802
166	0x3ee97ab9	0.45601442
167	0xbe210eff	-0.15728377
168	0xbe253e97	-0.16137157
169	0xbe3fb8cd	-0.1872284
170	0xbfd1f034	-1.6401429
171	0xbed6f400	-0.41983032
172	0xbd94515c	-0.072420806
173	0x3e8fb729	0.28069428
174	0xbe7ccc46	-0.24687299
175	0xbcb74c98	-0.02237539
176	0x3e0e7811	0.13912989
177	0x3d68db29	0.056849632
178	0x3dfcb6ce	0.12339555
179	0x3e45fab6	0.1933392
180	0xbeaffd44	-0.34372914
181	0xbe052046	-0.13000593
182	0xbf03b9d4	-0.51455426
183	0xbcdce663	-0.026965326
184	0x3f631c26	0.88714826
185	0x3da1ce89	0.079007216
186	0x3e163de8	0.14672053
187	0xbea5201c	-0.3225106
188	0x3e2b2139	0.16711892
189	0x3ed4ffc5	0.41601387
190	0xbeb0e93e	-0.3455295
191	0xbead051c	-0.3379296
192	0x3ecdeef9	0.40221384
193	0x3f7dcfde	0.99145305
194	0xbf044e98	-0.51682425
195	0x3eb9c445	0.36282554
196	0x3f30f034	0.6911652
197	0x3e6dd2c8	0.23224938
198	0xbea44f82	-0.3209191
199	0x3f05db72	0.5228797
200	0xbf823c20	-1.0174599
201	0xbd85467f	-0.06507587
202	0x3f29d031	0.663333
203	0xbf8d2c5c	-1.1029162
204	0xbf533783	-0.8250658
205	0x3f393afb	0.7235562
206	0xbf8b9875	-1.0905901
207	0xbea92aca	-0.33040458
208	0x3f1becfd	0.6090849
209	0x3ee90ae9	0.45516136
210	0xbf3683e9	-0.7129503
211	0x3f21c882	0.63196576
212	0x3ed2c226	0.41163749
213	0xbf8738ad	-1.0564171
214	0x3f0230da	0.5085579
215	0x3eb07e47	0.34471342
216	0x3f2fe788	0.68712664
217	0xbe9d74b7	-0.3075311
218	0xbebb405d	-0.36572543
219	0x3f23b3ed	0.6394642
220	0x3f471c19	0.7777725
221	0xbe859b41	-0.26095012
222	0x3ede975f	0.43474862
223	0x3ef99a92	0.4875074
224	0xbf1923a0	-0.59819984
225	0x3f49e232	0.7886077
226	0x3ee908a2	0.455144
227	0xbf231d1b	-0.63716286
228	0x3ee7c007	0.45263693
229	0xbe59ce02	-0.21269992
230	0xbf04d835	-0.51892406
231	0xbede954d	-0.43473282
232	0x3e948177	0.29005024
233	0xbec640a5	-0.38721195
234	0x3f14095e	0.57826793
235	0x3f0f0d1a	0.55879366
236	0x3f41793a	0.755756
237	0xbf298e24	-0.66232514
238	0x3ea143b3	0.31496963
239	0x3df68e15	0.12038819
240	0xbf23f365	-0.64043266
241	0xbf23570a	-0.63804686
242	0xbefc29ef	-0.49250743
243	0x3ed4c5d1	0.41557172
244	0x3ed83b6d	0.42232838
245	0x3e9408e9	0.28913048
246	0x3d9400cd	0.07226715
247	0xbf023368	-0.5085969
248	0xbe882c0d	-0.26596108
249	0x3f0c5482	0.5481645
250	0x3f53c237	0.82718223
251	0x3e9e9627	0.30973932
252	0x3da109ee	0.07863222
253	0x3eee2cfa	0.4651869
254	0xbd9dded2	-0.07708515
255	0x3f57fe4c	0.843724

fc2.bias f4 [64]
0	0xbf523443	-0.82110995
1	0x3df6a92a	0.12043984
2	0xbefa64bd	-0.48904982
3	0xbe0c60ee	-0.1370885
4	0xbe34bdb0	-0.17650485
5	0x3f13167c	0.57456183
6	0x3f6f3c7e	0.9345168
7	0x3eb76596	0.3581969
8	0xbe997b83	-0.29977044
9	0x3d120b1f	0.035655137
10	0xbf9ab340	-1.2085953
11	0xbf9ddfb0	-1.2333889
12	0xbe388d8e	-0.18022749
13	0xbe4ea3d8	-0.20179689
14	0x3f8f19f5	1.1179796
15	0xbdcbce83	-0.09951498
16	0xbec9c642	-0.3940907
17	0x3f855b4a	1.0418484
18	0x3e6dbe00	0.2321701
19	0x3f8a8f6a	1.0825016
20	0xbe95a1f2	-0.29225117
21	0xbe8602f6	-0.26174134
22	0xbf056f1e	-0.52122676
23	0xbed9ff54	-0.42577612
24	0x3e9e4e40	0.30919075
25	0xbef0cd20	-0.47031498
26	0xbd929ea1	-0.07159162
27	0xbf4499fd	-0.7679747
28	0x3debdf27	0.11517172
29	0xbcdd5972	-0.02702019
30	0xbe9fea3b	-0.3123339
31	0xbd915a1f	-0.07097267
32	0x3e8d54fc	0.276039
33	0xbed5f51c	-0.41788566
34	0x3e8215d0	0.25407267
35	0x3cef1b5d	0.029187853
36	0xbe3ba91b	-0.18326227
37	0x3dcfda24	0.10149029
38	0xbf6209ba	-0.8829609
39	0xbdbe9a6f	-0.093067996
40	0xbfa479b0	-1.2849636
41	0xbd44ccb2	-0.048046775
42	0x3f056790	0.5211115
43	0xbce0cfa4	-0.02744276
44	0xbdd9fb1a	-0.10643597
45	0xbf72924c	-0.9475448
46	0xbea7a073	-0.327396
47	0xbd04b710	-0.032401145
48	0x3ec2a148	0.38013673
49	0x3e53617d	0.20642658
50	0x3f5d7a19	0.8651443
51	0x3f560c9a	0.8361298
52	0x3eee8b96	0.4659087
53	0xbdb9f7ca	-0.09080465
54	0x3da3511b	0.07974454
55	0x3f692457	0.91071075
56	0x3d9f38f8	0.07774538
57	0xbd093530	-0.03349799
58	0x3f83d7dd	1.0300251
59	0x3fa47e57	1.2851056
60	0xbaaa3406	-0.0012985475
61	0xbf0f61ba	-0.56008494
62	0x3c9ce311	0.019151242
63	0xbf8eafd5	-1.114741

value.weight f4 [1, 64]
0	0xc0d6c31c	-6.711317
1	0xc0d30cf7	-6.5953326
2	0xc0c2d3cd	-6.0883546
3	0x40c3cc43	6.1186843
4	0x40c631dc	6.1935863
5	0xc0ce377f	-6.4442744
6	0x40d71906	6.7218046
7	0x40bbd152	5.869302
8	0xc0bec1fa	-5.961179
9	0xc0ba1fb4	-5.81637
10	0xc0d960fd	-6.7930894
11	0xc0e32048	-7.0976906
12	0x40c52c39	6.1616483
13	0x40c9b0cf	6.302833
14	0x40c83d46	6.2574797
15	0x40c97e29	6.2966504
16	0xc0bd6518	-5.9185905
17	0x40db4591	6.852242
18	0xc0c4f676	-6.1550856
19	0x40ca99e4	6.3312855
20	0x40c5f1ec	6.1857815
21	0x40c48c71	6.1421437
22	0xc0c84180	-6.2579956
23	0x40c3e276	6.121394
24	0xc0c3a3b0	-6.1137314
25	0xc0c4549d	-6.135329
26	0x40c3d063	6.119188
27	0xc0be3735	-5.944239
28	0xc0c8fcfc	-6.280882
29	0xc0c2e2ff	-6.0902095
30	0x40c51a10	6.1594315
31	0x40c70b77	6.2201495
32	0xc0c83a3f	-6.25711
33	0x40c3a55e	6.1139364
34	0x40c456bf	6.135589
35	0xc0c7d681	-6.2449346
36	0xc0d57bbd	-6.671355
37	0x40bb19c5	5.8468957
38	0xc0e0b29a	-7.021802
39	0xc0c6c2d2	-6.211282
40	0xc0defbd3	-6.9682403
41	0xc0c345f3	-6.1022887
42	0x40d7dac3	6.7454543
43	0x40c6e204	6.21509
44	0x40c53697	6.162914
45	0xc0dca349	-6.8949323
46	0x40c4738a	6.139104
47	0x40c41d3e	6.1285696
48	0x40b96f3a	5.7948275
49	0xc0c8a319	-6.2699094
50	0x40d7bc78	6.7417564
51	0x40bde027	5.9336123
52	0x40bd8446	5.9223967
53	0xc0c117a4	-6.034136
54	0xc0c45c3e	-6.13626
55	0x40ca1859	6.315472
56	0x40c3574f	6.104408
57	0x40c5a0ba	6.17587
58	0x40ccd2bb	6.400724
59	0x40e114dd	7.033797
60	0xc0c083c5	-6.016085
61	0x40c053ff	6.0102534
62	0xc0c4e7fb	-6.153318
63	0xc0d77a95	-6.7337136

exp_avg f4 [1, 8]
0	0xb93eefa4	-0.00018209085
1	0xbb96ac81	-0.004598201
2	0x3b2295d8	0.0024808552
3	0x3af3b0f3	0.0018592164
4	0xbb09ab1c	-0.002100653
5	0xbb67d5a8	-0.0035375152
6	0xbc0a7e5a	-0.008452976
7	0xbbb61e22	-0.0055577913

exp_avg_sq f4 [1, 8]
0	0x38c2dd55	9.291867e-05
1	0x38c4c24e	9.3822004e-05
2	0x38c43623	9.356092e-05
3	0x38e1faaf	0.000107755295
4	0x38cdb392	9.808609e-05
5	0x38cbf215	9.7248856e-05
6	0x38dd8e4e	0.000105646075
7	0x38d53884	0.00010167158

exp_avg f4 [64, 111]
0	0xb8f1e404	-0.00011534247
1	0xba91ef42	-0.0011133926
2	0x38c2e582	9.29339e-05
3	0xb9353b0a	-0.00017283499
4	0x39920e7e	0.00027858088
5	0x3a57297d	0.00082077814
6	0x3ab0a838	0.0013477867
7	0x3b02b063	0.001994156
8	0x3950cbcc	0.00019912346
9	0xba5793b3	-0.0008223608
10	0x399e036c	0.00030138658
11	0xbad38c99	-0.0016139924
12	0x3a6b726f	0.00089815905
13	0xbaae31c8	-0.0013289982
14	0x3b61c526	0.0034449785
15	0x39cbbdef	0.0003886069
16	0xbb03e8d4	-0.002012779
17	0xbb85ddc4	-0.0040852744
18	0x3a61726b	0.00086001185
19	0x3a5bfcbb	0.0008391847
20	0x3b88751b	0.0041643507
21	0xbb48c38a	-0.0030634128
22	0xbb2a6d88	-0.0026005227
23	0x3ae05c91	0.0017117431
24	0x39fdca98	0.00048406865
25	0x3c0e1397	0.008671663
26	0x3adc8410	0.0016824026
27	0x00000000	0.0
28	0x00000000	0.0
29	0x00000000	0.0
30	0x00000000	0.0
31	0x00000000	0.0
32	0x00000000	0.0
33	0x00000000	0.0
34	0x00000000	0.0
35	0x00000000	0.0
36	0x00000000	0.0
37	0x00000000	0.0
38	0x00000000	0.0
39	0x00000000	0.0
40	0x00000000	0.0
41	0x00000000	0.0
42	0x00000000	0.0
43	0x00000000	0.0
44	0x00000000	0.0
45	0x00000000	0.0
46	0x00000000	0.0
47	0x00000000	0.0
48	0x00000000	0.0
49	0x00000000	0.0
50	0x00000000	0.0
51	0x00000000	0.0
52	0x00000000	0.0
53	0x00000000	0.0
54	0x00000000	0.0
55	0x00000000	0.0
56	0x00000000	0.0
57	0x00000000	0.0
58	0x00000000	0.0
59	0x00000000	0.0
60	0x00000000	0.0
61	0x00000000	0.0
62	0x00000000	0.0
63	0x00000000	0.0
64	0x00000000	0.0
65	0x00000000	0.0
66	0x00000000	0.0
67	0x00000000	0.0
68	0x00000000	0.0
69	0x00000000	0.0
70	0x00000000	0.0
71	0x00000000	0.0
72	0x00000000	0.0
73	0x00000000	0.0
74	0x00000000	0.0
75	0x00000000	0.0
76	0x00000000	0.0
77	0x00000000	0.0
78	0x00000000	0.0
79	0x00000000	0.0
80	0x00000000	0.0
81	0x00000000	0.0
82	0x00000000	0.0
83	0x00000000	0.0
84	0x00000000	0.0
85	0x00000000	0.0
86	0x00000000	0.0
87	0x00000000	0.0
88	0x00000000	0.0
89	0x00000000	0.0
90	0x00000000	0.0
91	0x00000000	0.0
92	0x00000000	0.0
93	0x00000000	0.0
94	0x00000000	0.0
95	0x00000000	0.0
96	0x00000000	0.0
97	0x00000000	0.0
98	0x00000000	0.0
99	0x00000000	0.0
100	0x00000000	0.0
101	0x00000000	0.0
102	0x00000000	0.0
103	0x00000000	0.0
104	0x00000000	0.0
105	0x00000000	0.0
106	0x00000000	0.0
107	0x00000000	0.0
108	0x00000000	0.0
109	0x00000000	0.0
110	0x00000000	0.0
111	0xb99d2453	-0.00029972437
112	0xb7b41b30	-2.1470332e-05
113	0xb8fb6246	-0.000119869175
114	0xb89cc29e	-7.47491e-05
115	0xb987da58	-0.00025911885
116	0x3a5f3748	0.00085150125
117	0x39ddc4a8	0.00042298925
118	0xba388eca	-0.000704032
119	0xb97d51b9	-0.00024158404
120	0x392cab6a	0.00016467055
121	0xb92db7e8	-0.00016567076
122	0xb9444b57	-0.00018720083
123	0x39861d93	0.00025580506
124	0x3a6e3fb1	0.000908847
125	0xb977eea0	-0.0002364465
126	0xbaa81397	-0.0012823221
127	0xbaec37e4	-0.0018022028
128	0x393a5ab7	0.00017772136
129	0x3a843351	0.0010086094
130	0x3b04a420	0.0020239428
131	0xba7286e3	-0.0009251667
132	0x3a8f423b	0.0010929772
133	0xbb2f4874	-0.0026746066
134	0x3a65eb4a	0.00087707175
135	0xb9001b3e	-0.0001221718
136	0xbb296ba7	-0.002585152
137	0xbaaf78e4	-0.0013387469
138	0x00000000	0.0
139	0x00000000	0.0
140	0x00000000	0.0
141	0x00000000	0.0
142	0x00000000	0.0
143	0x00000000	0.0
144	0x00000000	0.0
145	0x00000000	0.0
146	0x00000000	0.0
147	0x00000000	0.0
148	0x00000000	0.0
149	0x00000000	0.0
150	0x00000000	0.0
151	0x00000000	0.0
152	0x00000000	0.0
153	0x00000000	0.0
154	0x00000000	0.0
155	0x00000000	0.0
156	0x00000000	0.0
157	0x00000000	0.0
158	0x00000000	0.0
159	0x00000000	0.0
160	0x00000000	0.0
161	0x00000000	0.0
162	0x00000000	0.0
163	0x00000000	0.0
164	0x00000000	0.0
165	0x00000000	0.0
166	0x00000000	0.0
167	0x00000000	0.0
168	0x00000000	0.0
169	0x00000000	0.0
170	0x00000000	0.0
171	0x00000000	0.0
172	0x00000000	0.0
173	0x00000000	0.0
174	0x00000000	0.0
175	0x00000000	0.0
176	0x00000000	0.0
177	0x00000000	0.0
178	0x00000000	0.0
179	0x00000000	0.0
180	0x00000000	0.0
181	0x00000000	0.0
182	0x00000000	0.0
183	0x00000000	0.0
184	0x00000000	0.0
185	0x00000000	0.0
186	0x00000000	0.0
187	0x00000000	0.0
188	0x00000000	0.0
189	0x00000000	0.0
190	0x00000000	0.0
191	0x00000000	0.0
192	0x00000000	0.0
193	0x00000000	0.0
194	0x00000000	0.0
195	0x00000000	0.0
196	0x00000000	0.0
197	0x00000000	0.0
198	0x00000000	0.0
199	0x00000000	0.0
200	0x00000000	0.0
201	0x00000000	0.0
202	0x00000000	0.0
203	0x00000000	0.0
204	0x00000000	0.0
205	0x00000000	0.0
206	0x00000000	0.0
207	0x00000000	0.0
208	0x00000000	0.0
209	0x00000000	0.0
210	0x00000000	0.0
211	0x00000000	0.0
212	0x00000000	0.0
213	0x00000000	0.0
214	0x00000000	0.0
215	0x00000000	0.0
216	0x00000000	0.0
217	0x00000000	0.0
218	0x00000000	0.0
219	0x00000000	0.0
220	0x00000000	0.0
221	0x00000000	0.0
222	0xba8c099b	-0.0010684015
223	0xbb00ec20	-0.0019671991
224	0xb9361473	-0.0001736449
225	0x3935912a	0.00017315583
226	0x3abc0b4d	0.001434663
227	0x3af966d9	0.0019027843
228	0xba77004d	-0.0009422347
229	0xbaf6e51a	-0.0018836588
230	0x3a7a8e14	0.00095579145
231	0xba080a6e	-0.00051895424
232	0x3a6b0f4b	0.00089668174
233	0xb8f80f9e	-0.000118284705
234	0xba5f5943	-0.0008520076
235	0xbb723c91	-0.003696237
236	0x3b44a419	0.0030005036
237	0x398dafb3	0.00027024522
238	0xbb453289	-0.0030089936
239	0xbb181309	-0.0023204705
240	0x3b092b24	0.0020930255
241	0x3b92903c	0.0044727605
242	0xbbb078ee	-0.0053855097
243	0xbbc8ac72	-0.0061240727
244	0xbafcb8fd	-0.0019281205
245	0x3b8cc0c5	0.004295441
246	0x3a6e93fd	0.00091010315
247	0x3b5dbdf3	0.0033835142
248	0x3b714636	0.003681553
249	0x00000000	0.0
250	0x00000000	0.0
251	0x00000000	0.0
252	0x00000000	0.0
253	0x00000000	0.0
254	0x00000000	0.0
255	0x00000000	0.0
