drl/ran2/Ant100000_ran2_weights.pth (torch, 292720 bytes, 36 tensors)

log_std f4 [1, 8]
00000000: 2a45 ccbf 3005 05c0 66f0 aebf f661 d3bf
00000010: b467 ccbf 2976 e8bf 5431 c5bf b625 dcbf
-1.5958607 -2.0784416 -1.3667114 -1.651427 -1.5969148 -1.816106 -1.5405679 -1.7199008

fc1.weight f4 [64, 111]
00000000: 6f35 b9be 38cd 6bbd 7d02 003e 99b2 56bd
00000010: 1b81 f43d ae4a 0dbe fa8a d03c 6f33 713d
00000020: 0661 2c3d 4051 383c 48d8 7fbe 77be 6ebe
00000030: 788f 9d3d 597c c2bd 3ba3 47ba 5d76 233d
00000040: 8140 703d 90b3 2c3c a56b 95bd 5431 11bd
00000050: f0ec adbd 84ea 89bc b117 44be 0f25 82bc
00000060: 1737 eebc 0ba5 153a a22f 053e ee4f ffbb
00000070: 581d 0ebd 1287 683d 2154 8dbd 1dc9 cabc
00000080: 9740 8a3d 0bda c13d a3b8 ee3d 087f 31be
00000090: b837 efbd 31e0 213c 0145 a73d 989d 9abd
000000a0: 7d83 11be 30b3 c53d 7c43 54bc 6be8 0fbe
000000b0: a561 223d 067a 923c f9e5 ca3d 397c 46bb
000000c0: 2dba 02bd d672 09be 770e cabd 9ca3 eb3c
000000d0: 89c0 c3bd 1c0c 64bd 0a22 8a3d bbcc 983c
000000e0: bda1 60bd 1e71 8f3c 833b 55be 012d 1ebd
000000f0: 5a35 a73d 3922 edbb cd5d eb3d ebb0 e4bd
00000100: fd63 7c3c d4cd 303e 9d31 8cbe f627 98bc
00000110: 57d2 a93d 0664 383d ef1c 663d 1b03 debd
00000120: f7e4 463d c764 c1bd 3454 08bd 65a8 883d
00000130: b514 123d b2c6 cf3c 8c86 a4bd b64f 803d
00000140: cc80 0a3d 9bda ccbb 29bd 7a3c ca79 043d
00000150: 34d1 543e b385 fdbd fa76 4fbc 772d 003e
00000160: cf77 8bbd 3a0d 82bd f78e 823d 7717 553d
00000170: 3a85 bbbc 53ff 0c3e f277 26be 6e25 083e
00000180: a3e2 bab9 d33a b03d c5c7 c3bb 2d7a 0fbe
00000190: c506 d9bd b450 19bd d530 cc3d 41a5 193e
000001a0: 05b5 d8bc 0978 2cbe acf3 49bd 4b19 5e3c
000001b0: 481c e63d c4ef 87bc ce0d 5b3d 721a a7bd
000001c0: 65c0 76bd cbef 28bf d212 8d3d 94c4 83be
000001d0: a6c9 2f3c 6a7f 2abe 46a5 3f3e 8ae8 9f3d
000001e0: 1794 b8bd 410e 433c 6328 16be a9db a6bd
000001f0: 336d 5abd 8c64 2bbb f714 0dbe a0d6 7ebc
00000200: 1c19 173d 9589 25bc 4879 a9bd 4a6e a2bd
00000210: 4f1e b13d 4838 f93c 0d7c 27be 8376 893d
00000220: f179 5abd 3ff5 8cbd a4bc eebd c724 2dba
00000230: 6d40 88bd 8720 6abd 3c7f d33c 9cdd 513d
00000240: 132c 0bbe 956b 6cbd 15c9 c73d c286 cfbd
00000250: d918 1ebd 661d 2c3e 189c 74bd 2993 21bd
00000260: 562a b3bd 184b 36bd b70f 663e 1a54 313e
00000270: 3110 1e3d eed6 c3bd 54e7 d9bd b5c9 29be
00000280: b379 813d 9270 7ebd e9cb 013d 21d5 a4bc
00000290: 9219 e23d 032d 74bd f259 c2bc 95be 483e
000002a0: c846 793e 1f93 6c3d d7cc 70bd 7717 923d
000002b0: 6ac3 7abd 8e6a 423d 9948 353e 2cdc 18bd
000002c0: ebbe f9bc 7b4c 25be e69f bebb 1dbb b43c
000002d0: b470 6e3d caec c33c 2e12 883e 2e49 d83d
000002e0: b62b 4b3c c273 913c c2d8 debb 94ca 83bd
000002f0: 8938 5bbd 5636 cfbb 65b6 2f3e b3fd a23b
00000300: 7a9e 733d 8d8f 1d3d 78cd eabd e314 0dbe
00000310: 1191 acbd 7415 993d 6092 34bc 24d0 bc3d
00000320: 453d 803d 34a1 1ebd f38e 1dbd 5197 b03c
00000330: a4a2 ab3d f12e ed3c 6af7 203e 13c6 e73c
00000340: c395 1b3e fcec 463d 7f0d 3abd 693a 2c3e
00000350: c3af bab9 c931 d0bc ce4c 5b3d 1af1 8f3b
00000360: a988 9dbd 42bf 1e3d 22fd aa3c 475c 19bc
00000370: fe39 543d b9f7 6fbd 3f9b a2bd e47e 0fbe
00000380: d2f7 6c3d aeae 0a3d a2bb 113f 4544 d53d
00000390: 979c 87be 1049 8f3e 4c0b 2e3e 1e83 ed3d
000003a0: 72f5 9e3e e065 9ebe a91d e4bc f8d6 31bd
000003b0: 2f97 1dbd 8340 2dbd a69a abbc b07c 213d
000003c0: 1363 3cbb 5d88 903d ed63 d6bc 2607 983c
000003d0: df62 593c 3a70 393d 304a b8bc 4b4f 37be
000003e0: 5e38 8a3d 7714 143d 0659 5e3d 5f4f c2bb
000003f0: 1c36 cb3c 2b76 fabd bc76 c4bc 4827 133d
-0.3617358 -0.05756876 0.12500949 -0.052416418 0.119386874 -0.1379802 0.025456894 0.05888694
0.042084716 0.01124984 -0.24984848 -0.23314844 0.0769338 -0.09496374 -0.0007615571 0.039907802
0.058655266 0.010540858 -0.07295922 -0.035447434 -0.08492458 -0.016835459 -0.19149663 -0.015886812
-0.029079003 0.0005708492 0.13006452 -0.007791511 -0.034695953 0.056769438 -0.06900812 -0.024754101
0.06750601 0.094654165 0.116563104 -0.17333615 -0.116805494 0.009880112 0.08167458 -0.0754959
-0.14210315 0.09653318 -0.012955543 -0.14053504 0.039643902 0.017880451 0.09907145 -0.0030286445
-0.031915832 -0.13422713 -0.0986604 0.028764538 -0.095582075 -0.05567561 0.06744774 0.01865231
-0.054841746 0.017509993 -0.20823483 -0.038617138 0.08164473 -0.0072367457 0.114925005 -0.11166557
0.015404698 0.17266017 -0.27381602 -0.018573742 0.08292072 0.045017265 0.056179937 -0.10840436
0.0485582 -0.0944305 -0.033283427 0.06672744 0.03566428 0.0253633 -0.08033475 0.06265204
0.033814237 -0.0062516457 0.015303888 0.03234271 0.2078293 -0.12379017 -0.012662644 0.12517343
-0.06809961 -0.06350179 0.06374925 0.05202433 -0.022890676 0.13769273 -0.16256693 0.13295528
-0.00035645542 0.0860497 -0.005974742 -0.1401145 -0.10596994 -0.03743048 0.099702515 0.15004446
-0.026453504 -0.16842665 -0.04930465 0.013555835 0.11235863 -0.016593821 0.053479962 -0.08159341
-0.060242075 -0.65990895 0.06888355 -0.25735915 0.010729229 -0.16650167 0.1871539 0.07808025
-0.09012621 0.011905254 -0.14663844 -0.081473656 -0.053326797 -0.002615246 -0.13777529 -0.0155541
0.03688918 -0.010103603 -0.08275086 -0.07931192 0.08648359 0.030422345 -0.16355915 0.067120574
-0.05333895 -0.068827145 -0.11657074 -0.00066049065 -0.06652913 -0.057159927 0.025817506 0.051236734
-0.13591032 -0.057719786 0.0975515 -0.10133125 -0.038597915 0.1680809 -0.059719175 -0.039446983
-0.08748309 -0.04450521 0.22466932 0.17317238 0.03858966 -0.09562479 -0.106398255 -0.16580851
0.063220404 -0.062119074 0.031688605 -0.020121159 0.110400334 -0.05961324 -0.02372453 0.19603951
0.24343407 0.057757493 -0.0587891 0.07133382 -0.061221518 0.0474649 0.17703475 -0.037319347
-0.030486545 -0.16142456 -0.005817401 0.022061879 0.05821295 0.02391662 0.2657637 0.10560833
0.012400558 0.017755393 -0.006800742 -0.06435123 -0.053520713 -0.006323616 0.17159422 0.004974091
0.059477307 0.03846698 -0.11464971 -0.13777499 -0.08426107 0.07474795 -0.011021227 0.09219387
0.06261686 -0.038727954 -0.038466405 0.021556528 0.083806306 0.028953047 0.15719381 0.028292691
0.15193848 0.04856585 -0.045423027 0.16819157 -0.00035607637 -0.025414364 0.053540044 0.004392755
-0.076920815 0.038756616 0.020872656 -0.00936038 0.05181312 -0.058585856 -0.07939767 -0.14013249
0.057853527 0.033857994 0.5692693 0.10413412 -0.26486656 0.2798543 0.16996497 0.11597274
0.31046635 -0.309371 -0.027846174 -0.0434179 -0.038474258 -0.04229785 -0.020947766 0.039425552
-0.0028745576 0.07057259 -0.026170695 0.018558096 0.013268202 0.045273043 -0.022496313 -0.17901342
0.067490324 0.03615233 0.054284118 -0.005929872 0.024806075 -0.1222957 -0.023982398 0.035926133

fc1.bias f4 [64]
00000000: 1313 99bc 886d 1abd e91a 1bbe fc53 e0bd
00000010: d930 29be 1206 18bc 7a7e d23c 40cd 7b3d
00000020: e0f0 a5bd 2b49 1bbd 55fb 643c ed36 bdbd
00000030: 925d 89bd 9ff3 f23a 8dc3 863c 6e4b c13d
00000040: 5862 87bd 713a 54bd 375f 7f3d 60cb ce3d
00000050: d03d 363e 34d3 06bd 97e1 c8bd 20bb ac3d
00000060: 1978 de3d 3c37 093e 3c71 113d cb52 08bd
00000070: 9b79 cabc 3e73 6a3b 1682 b6bc 359e 97bd
00000080: 2606 36bd 0715 253c 615e 0c3d c6e9 00bc
00000090: 9870 bd3d e3f6 aa3b 1ca8 0b3d 0d36 ce3d
000000a0: bd15 abbc ecbf a73d 1c3c 463c a72d 52bc
000000b0: c12d 22bd deb8 383e a01b c4bd 7035 4d3d
000000c0: f835 07bd 7409 ce3d 5c2e 62be b00c 233e
000000d0: 3197 1cbe 3c49 c03c a2d0 8c3c c099 2f3e
000000e0: 8d8e 983b 0747 1f3d 8bef ae3c 7000 babb
000000f0: 2521 11bd 97dc 4f3d 2f7b f73c 5a38 67be
-0.018685853 -0.037702113 -0.15146984 -0.10953519 -0.1652254 -0.009278791 0.025695074 0.06147504
-0.08102584 -0.037911575 0.013975938 -0.09238992 -0.067073 0.001853574 0.016450668 0.09438215
-0.066105545 -0.051813547 0.062346663 0.100973845 0.17797017 -0.032916263 -0.09808653 0.08434129
0.108627506 0.13399976 0.03550838 -0.033282083 -0.02471619 0.0035774256 -0.022278827 -0.074032225
-0.044439457 0.010075814 0.034269694 -0.007868236 0.09249991 0.0052174195 0.03409587 0.10068903
-0.020884389 0.08190903 0.012099292 -0.012828267 -0.039594416 0.18039271 -0.095755816 0.05009979
-0.033010453 0.10060397 -0.22087997 0.15922809 -0.1529205 0.02347242 0.017189328 0.17148495
0.0046556653 0.038886096 0.021354457 -0.0056763217 -0.035432 0.05074748 0.030210106 -0.2258009

fc2.weight f4 [64, 64]
00000000: 7d02 9f3d 4d79 7bbd bddc 28be ad11 0dbd
00000010: da74 463e 54e7 91bc 40de 8b3e 765c 8ebd
00000020: 43c1 7e3d 7b77 963e 2454 7b3c 900f a33d
00000030: 5c1a 14be 94bb b9be 4dbf 343d 63a1 60bd
00000040: 68e3 813e 9f4e 85bd fc62 da3d f9b5 02be
00000050: 22e7 a1bb 29c3 a2bd c6a8 34be 269d 993d
00000060: c900 873d 38c1 853e ff0c 41bd 508f 9f3d
00000070: 5938 2cbe 6954 71bd 396a 77bd 4959 7abe
00000080: eeec 263d 8792 153e 2f2b ac3b 3aa8 54bd
00000090: fafc ad3d c8f6 a33d f331 bb3e 7b02 e9bd
000000a0: 2bd7 7e3e e083 9c3c 861b e0bd 4bac 613e
000000b0: 4e03 1c3e ae9e b0bd 3280 533e 6eb4 c3bd
000000c0: 74ef e33d 5bd5 9fbd c5b9 e93d f63b c03d
000000d0: 35ed 233d 3bdc 91be 5b4e fcbd bbd2 b23c
000000e0: 5598 39bd bdfc 63be dc7d 7e3e ba79 55be
000000f0: 37c3 1abd ef02 76be b380 2cbe 4d38 973d
00000100: bed6 843c e56b e33e 7358 89be d0c6 233e
00000110: ffda 103c aa83 88bd ed99 9d3e a15b 253e
00000120: 536f df3d 9e31 133e 07e9 f3ba cdd0 b2bd
00000130: 10e4 35be 51a5 aaba 0507 d53d 46fd b73d
00000140: d026 0fbe 03c5 07be 943a 513d 3de6 40be
00000150: b5e8 613c f207 f9bd 6db4 073d 9b76 153d
00000160: f974 cdbd 8e01 2bbe 5997 073c e5fd d5bd
00000170: e6d3 24bc 62b9 6fbd 58b1 d73d 0a9b 923d
00000180: 8691 08be ca7d 3cbb 6a59 cdbd 66e1 8bbd
00000190: 2014 263e f14c 0d3e ec03 8d3d 612a 3ebe
000001a0: 0914 dbbc 4284 aebc 4ba3 cd3d 3e7d 19be
000001b0: 31ba 96ba b417 abbc 3349 0ebe dd3b 04be
000001c0: b340 573c 9f6e dabd b454 f23c fb9c 9f3d
000001d0: 2728 463d f3be fcbd 52c5 e0bd 0c14 76bd
000001e0: a850 ad3e fb03 133e 5305 e2bc fdf2 d13d
000001f0: aedd 353d d04b 86bd c79c e4bd 0f10 863e
00000200: 3cba 6bbe 65fc 0fbd b67a e8bd 9f3d 4dbd
00000210: 5a52 1d3c 024d a83d 19ad b4bc 958a cebd
00000220: d5e4 d6bd ae52 143e efc1 d8bd fa2c 10be
00000230: 91b3 2e3d 62be e73d fc61 093d 5bf9 1e3d
00000240: 07d6 8cbe 96f8 22be 9563 023f 7acc fe3a
00000250: 868c ae3d f136 40be 5614 8fbd 6252 63bd
00000260: 0692 453e ff20 983d 891b a73d 3d30 05be
00000270: 18c6 dc3b 580b 4bbd 14a2 9e3d 0d3f 5c3d
00000280: c0a7 a03d 262c 0f3e 3bf0 7c3d 60fd 8cbc
00000290: 8faa 3abe 4c96 1abd 140b e43a 339d 96be
000002a0: d773 08bb eb0a 813e becc 91be f594 8fbd
000002b0: d09e 5c3e 34ed 20be 9119 313e 06b2 753e
000002c0: 5de9 83bc eb3c 733d 6063 d0bd d9e8 9abd
000002d0: ea41 afbd 23eb 7b3d 75a8 613d 9cbe 8dbc
000002e0: 419c 79be 7b2f 383d 7828 3e3d 227e a73d
000002f0: 8b69 113e d6a5 443e b6dc 07be 7510 bbbd
00000300: 7bb8 2b3c c9e4 2c3c abdd 64bc 9c12 5abe
00000310: 89d2 91be 8d87 5e3d aeb8 e0bd 5144 0cbb
00000320: e7b5 473e b5c5 a13e c4d1 d1bc d4f1 8b3e
00000330: 08bc 6fbe 2ea3 903d bb44 a23e 6cde 36bd
00000340: 3a6c 6b3c 3914 333d 8f8f fabc 8e4b a4be
00000350: b0c0 233d 88c1 793d 1965 903d 98fa 13be
00000360: 4d7c 18bd 6bd1 3f3e 245c ca3c 3b49 bfbe
00000370: c1c8 85be 6b78 133d 722e 2abd 130f 54bd
00000380: 809f b73d 6f77 d5bc dfed 8cbd 1273 6a3e
00000390: 1bd0 dabd 4b9f 133e 5021 d7bc 03c0 02be
000003a0: 6b9f 8e3c 5b53 69bd 351e 61be 7729 b63d
000003b0: 7efe 913e cb04 b43d e96c 27be c72a 233c
000003c0: d82f 81be a7cf ba3d a5f1 093e 467b a43c
000003d0: 18a1 453c dbdc 06be 4e37 283e e8df 3cbd
000003e0: 1444 6c3c 6a75 d5bd d96b c23e ae2e b5bd
000003f0: da7a 9abe 3f42 99be 007e a8bd 0318 12bd
0.077641465 -0.06139498 -0.16490455 -0.034440685 0.19380513 -0.017810501 0.27318 -0.06951229
0.062196027 0.2938803 0.015339885 0.07961953 -0.1446318 -0.36275923 0.04412775 -0.05484141
0.2536881 -0.065091364 0.10663411 -0.1276473 -0.0049408833 -0.0794738 -0.17642507 0.07500677
0.06591947 0.26123977 -0.047131535 0.077910066 -0.1681837 -0.05891839 -0.060404036 -0.24448122
0.040753298 0.14606677 0.0052541713 -0.051918246 0.08495517 0.08006054 0.36561546 -0.11377426
0.24886768 0.019105852 -0.1094275 0.22038381 0.15235636 -0.08624016 0.20654371 -0.095558986
0.111296564 -0.07804366 0.11412386 0.09386437 0.04002114 -0.28488335 -0.123196326 0.021829
-0.04531129 -0.22264381 0.24852699 -0.20847216 -0.037783828 -0.24024557 -0.1684597 0.073837854
0.016215678 0.44418254 -0.26825294 0.1599381 0.008841275 -0.06665738 0.307815 0.16148235
0.10909905 0.14374396 -0.0018608876 -0.08731232 -0.1776278 -0.0013019239 0.104017295 0.08983855
-0.1397965 -0.13258748 0.051081255 -0.18837829 0.013788392 -0.121597186 0.03313105 0.036490064
-0.100320764 -0.16699812 0.00827583 -0.10448817 -0.010060286 -0.058526404 0.105318725 0.071584776
-0.13336763 -0.00287615 -0.1002682 -0.06830101 0.16218615 0.13798882 0.06885514 -0.18570854
-0.026742952 -0.0213033 0.10040911 -0.14989182 -0.0011499581 -0.020885326 -0.13895111 -0.12913461
0.013137984 -0.106656305 0.029581405 0.077936135 0.048378136 -0.12341108 -0.10975136 -0.060077712
0.33850598 0.14356987 -0.02759043 0.102514245 0.044400863 -0.06557429 -0.111627154 0.26184127
-0.23020262 -0.03515281 -0.1135153 -0.050107595 0.009602154 0.08217813 -0.022055196 -0.10085026
-0.10492865 0.14484665 -0.10583865 -0.14079657 0.042651717 0.113156095 0.03354071 0.038812023
-0.2750704 -0.1591514 0.509332 0.0019439601 0.085228965 -0.18770958 -0.06986301 -0.05549849
0.19293985 0.074281685 0.08159549 -0.13006683 0.006737482 -0.049571365 0.07745758 0.053771067
0.07844496 0.13981685 0.06175254 -0.017210662 -0.18229125 -0.03774099 0.0017398321 -0.29416808
-0.0020821 0.25203642 -0.28476518 -0.07010833 0.21544957 -0.15715486 0.17294909 0.23993692
-0.016102487 0.059384268 -0.10175204 -0.075639434 -0.08557494 0.06150354 0.055092294 -0.017302804
-0.24376012 0.044967156 0.046425313 0.08178355 0.14200418 0.19203886 -0.13267788 -0.09133998
0.010480995 0.0105525935 -0.013968865 -0.21296161 -0.28480938 0.05432849 -0.10972725 -0.0021403024
0.19502984 0.3159615 -0.02561272 0.27332938 -0.23411572 0.07062374 0.31693062 -0.04464571
0.014369065 0.043720458 -0.030586032 -0.32088894 0.039978683 0.06097558 0.07050533 -0.14451063
-0.037227917 0.1873223 0.02470214 -0.37360558 -0.26129726 0.03600351 -0.0415482 -0.05177219
0.08965969 -0.026057927 -0.06881308 0.22895458 -0.10684224 0.14416234 -0.026261002 -0.12768559
0.01741 -0.05696426 -0.2198418 0.088946275 0.28514475 0.08789977 -0.1635014 0.009958929
-0.25231814 0.09121638 0.13471086 0.020078313 0.0120623335 -0.13170187 0.16427347 -0.04611197
0.014420528 -0.104227856 0.37972906 -0.08846794 -0.30171853 -0.29933354 -0.082271576 -0.03566743

fc2.bias f4 [64]
00000000: c8e4 a23c dd7a f1bc 43f5 223d 437c e9bd
00000010: 2115 61bc 1da7 b93d 598b 203e 0ee3 8d3d
00000020: a481 b3bc d5b2 b33c f4b6 05ba d173 09bd
00000030: 7972 f3bb 780b 613d 078f 7b3d 4a0e 1e3e
00000040: 398f a03d c8db 143e 0820 bcbd 2a99 c5bd
00000050: 7f03 cabc 70d2 58bc bb8f 853b 8c8f 183d
00000060: 29e4 8cbd 44cc 15bd 1d58 79bd 4bae 2f3d
00000070: 83a7 943b e0ef 923c 335b 16bd e086 3d3c
00000080: d58f 6b3d 4896 893c cd04 0b3d ea49 453d
00000090: e1a8 f13c 9d9a 05bd 0664 e03d 2904 1dbd
000000a0: 4cd8 a5bd c2ec 3d3d 7788 d43d 6961 3d3e
000000b0: 8d0d 12bd 0c00 87bd d718 0fbd f785 993d
000000c0: 8962 ff3c ed73 933d 2812 923b a43c a83b
000000d0: fc09 053d 6b4c cdbd 5cb4 3e3d d43f b33c
000000e0: bb2c 553d 12cb 0ebe d8c0 563d b881 ed3d
000000f0: 1c78 71bc cfc5 9ebd bf66 213e 1e60 443d
0.019884482 -0.029477531 0.03978468 -0.11400654 -0.013737948 0.090650775 0.15678157 0.06928073
-0.021912403 0.02193586 -0.00051008095 -0.033557717 -0.0074294177 0.054942578 0.0614157 0.15435138
0.078398176 0.14536965 -0.09185797 -0.09648354 -0.02465987 -0.013233766 0.004075972 0.037246272
-0.068794556 -0.036571756 -0.060875047 0.042890828 0.0045365705 0.017936647 -0.036708068 0.011567801
0.057510216 0.016795292 0.033940125 0.048166193 0.029499473 -0.032618154 0.10956578 -0.038334046
-0.08097896 0.046368368 0.10377591 0.1849419 -0.035657454 -0.06591806 -0.0349358 0.07496255
0.031174915 0.071998455 0.004457731 0.005134182 0.032480225 -0.10024341 0.046558723 0.021881022
0.05204461 -0.13944653 0.052430004 0.115970075 -0.014738109 -0.07752573 0.15761851 0.047943227

mu.weight f4 [8, 64]
00000000: b318 053d 1ac3 ad3d bddb 37be 7204 90bc
00000010: ef9e 0ebe 6bc3 88bd 7e6e 3a3e dc14 453e
00000020: 6c0b 823d e05a f2bd c7ee ddbd 290e 41bd
00000030: 702d 1bbd 194b 383e d830 c8bc 76e1 cc3d
00000040: 4b8b b03c 339e 23be 955b 8bbe fc64 a3be
00000050: d469 86bd 6f13 c0bd d0cf d63c 7eb3 8e3d
00000060: ffae 7bbe b7ea b63d 39ad 06be 11d5 d0bd
00000070: 8160 2f3e 7837 373d 547b debb a5c9 ce3d
00000080: ccfa 65be 952e 84bd ea17 013e 5522 a9bd
00000090: 09ff 8b3e 1489 53be a1ab df3d 1037 40bd
000000a0: cffd afbc d100 99be f228 27be 3b2c 2cbe
000000b0: 4cd3 c6be f59b f7bd 15f1 023e 9587 d8be
000000c0: f7eb 3e3e 3c30 ad3d 9298 03be 2b75 9f3d
000000d0: 687e a93e 79a5 4a3d ca72 3f3e 71a3 a63e
000000e0: a5ae c33d b730 603c f399 66be 1752 583b
000000f0: c0c5 1abd 787f 35be 8c07 1ebe f15e db3c
00000100: ee48 f0bc ec40 1a3d 1bdc 923e bc80 a6bc
00000110: b69e b1bd 7fb1 2cbe febd ec3c baa8 983c
00000120: 4fa8 a8bd 471f 4a3e 7ae6 373e a223 703a
00000130: fba8 12be 612c cb3d 5b48 a13d e934 ea3d
00000140: ecd1 ba3d 8057 5bbd 5a4d a1be f979 6cbc
00000150: 3e20 cb3b 2bbf 013d e343 83be 72cd 62bd
00000160: 368a 2c3c 042c e63d 4734 ea3d c25b d23d
00000170: 3eff 3ebc 880f 0d3d 9ac6 a03d ea3d 93be
00000180: ffbf 65bd 273e 9cbd 81f1 4abd 4fc2 0d3e
00000190: b5ac d7bd 6102 ea3d 4aff c8bd 0056 2d3e
000001a0: 46e5 bc3c 0ea7 5f3d 5400 09bd 9189 91be
000001b0: 99ce 1e3e b956 cf3d a2fb 5d3b eb3a a73d
000001c0: 0841 09be 7d1d 9b3c 5080 46be 1a45 70bc
000001d0: fef8 d2bd 5073 133e 74de 50ba 1263 d53c
000001e0: 92d2 f9bd 7022 cf3d 6bae f7bd 3382 7a3e
000001f0: cac2 1f3e d183 093e 318d 23be e335 333e
00000200: cbf9 2f3e f9c5 843e 5de2 3fbe 8680 043e
00000210: 4328 983d 9ccd 1c3e 867a 06bf 7716 11be
00000220: 4c88 09be 024a fc3d 1927 6f3e d167 8d3d
00000230: 044e a9bc 1743 cb3d 918d 0ebc 099b ea3d
00000240: dd7e 5abd 2e96 81bd 141a 473d ebdd 5d3c
00000250: 13bc d53d ecc3 babd 4417 13bd a7b6 b03d
00000260: fe1d 2cbc 40ab 343e 9523 013e 7c02 dc3e
00000270: 0247 e9bd c5b3 18be ceea 5dbe 73ae 893c
00000280: 574a 36be e082 60be cf07 8ebe a607 9c3e
00000290: e781 463e 3aa5 eb3d 40f3 fb3d 310e 23be
000002a0: f1f3 883c fa22 f8bc 466d 823e a45a a5be
000002b0: 3205 e13d 56d8 023d b9f8 553e 70c3 a5bb
000002c0: 2640 253e 2219 3f3d 17a2 683e bf33 35be
000002d0: dfe5 09bd 8c0f c7bc 85ec 8bbd 3712 58be
000002e0: d84e 523d 46a1 a43d 66c6 743e 85c3 0e3c
000002f0: d9b2 8bbd a9e3 953d 4f6e f83d a42c 26bd
00000300: 1ad1 6abe e2c0 033e e861 c73d 66f9 353e
00000310: 0786 02be d121 843d 2313 ad3d 1081 113e
00000320: f4da 20bc 09a9 d33d 84a2 e2bd 0d96 0b3e
00000330: e064 acbd 61f9 863d 0333 79bd 324e 08be
00000340: b667 1abe f041 de3d 6fb1 0abd 66d5 2abe
00000350: d149 fc3d c12a bebd 3b3a 2fbe ca43 b1bc
00000360: cf23 6f3d 9268 d3bc cc30 28bd 6809 003c
00000370: df9e 003d b629 d73d e49b ed3d 56df 17bd
00000380: b692 d0bd 92d9 c43c 2d53 c3bd 796f 43bc
00000390: 5e6d 3e3d ed53 3dbc 7ef4 ba3d ed54 9a3d
000003a0: 2787 97bd 6583 fa3b 11b6 d63d 596d 8cbd
000003b0: 11f3 d0bd e5f5 293e b22e 923d 5cbe 553b
000003c0: 3e4b 84bb af9d 1ebe e946 e63c 368a cbbc
000003d0: f19d 97bd fda5 af3e 0858 b63c 1f44 3b3c
000003e0: ccab 923e 6220 9bbc da59 20bd fef6 8fbe
000003f0: 0d16 9dbd 6a8a 22bd d556 d83d a9e2 1b3e
0.032494258 0.08484478 -0.17954917 -0.017580245 -0.13927816 -0.06677898 0.18206212 0.19246238
0.06349835 -0.11833739 -0.10836559 -0.047132645 -0.03788513 0.17997397 -0.024437353 0.10003941
0.021550795 -0.15978317 -0.2721831 -0.31912982 -0.06563154 -0.09378707 0.02622214 0.06967829
-0.24578474 0.08931487 -0.13152017 -0.10196889 0.17126657 0.044730633 -0.006789604 0.100970544
-0.22458953 -0.06454197 0.12606779 -0.082585014 0.27343014 -0.2065776 0.109214075 -0.04692751
-0.02148333 -0.29883435 -0.16324213 -0.16813748 -0.38833082 -0.12090293 0.12787278 -0.4229094
0.18644701 0.084564656 -0.1285117 0.0778602 0.33104253 0.049474213 0.18696132 0.3254657
0.09554795 0.0136834895 -0.22519664 0.0033007914 -0.037786245 -0.17724407 -0.15432566 0.02677867
-0.02933165 0.03765957 0.28683552 -0.020325057 -0.0867285 -0.16864584 0.02889919 0.018635143
-0.08235227 0.19738494 0.17959014 0.0009160583 -0.14322273 0.09920574 0.07875129 0.11435873
0.09122071 -0.053550243 -0.31504327 -0.014433377 0.006198912 0.031676453 -0.2563773 -0.05537171
0.010530999 0.11238864 0.11435752 0.10271408 -0.011657534 0.03443864 0.0785038 -0.28758174
-0.056091305 -0.07629042 -0.049546722 0.13843654 -0.10530988 0.11426235 -0.098143175 0.16927338
0.023058545 0.054602675 -0.03344758 -0.28425267 0.15508498 0.10123963 0.0033871909 0.081655346
-0.13403714 0.01893496 -0.19384885 -0.014664913 -0.10301398 0.14399457 -0.00079677184 0.026048217
-0.12198366 0.1011399 -0.120938145 0.2446373 0.1560165 0.1342919 -0.15971829 0.17501025
0.17185132 0.2593229 -0.18738694 0.12939653 0.07429554 0.15312809 -0.52530706 -0.14168726
-0.134309 0.12318803 0.23354758 0.06904567 -0.020667084 0.09924906 -0.008700744 0.11455352
-0.053343643 -0.063274726 0.048608854 0.013541679 0.10436263 -0.091194004 -0.03591086 0.08628588
-0.010505198 0.17643452 0.1261123 0.42970645 -0.11390497 -0.14912327 -0.21671602 0.016806817
-0.17801796 -0.21924925 -0.27740332 0.30474585 0.19385491 0.11506124 0.12302256 -0.15923382
0.016717883 -0.030290116 0.25473994 -0.32295716 0.10987319 0.031944595 0.20895661 -0.0050586984
0.16137752 0.046654828 0.22718082 -0.17695521 -0.033666488 -0.024299406 -0.06832222 -0.21100698
0.051344723 0.08038573 0.23903808 0.008713608 -0.06821222 0.07318813 0.12130415 -0.040569916
-0.22931328 0.12866548 0.09735471 0.17770919 -0.1274644 0.064517625 0.08450916 0.1420939
-0.0098178275 0.10334975 -0.11066154 0.13631459 -0.08417678 0.06590534 -0.060839664 -0.13311079
-0.15078625 0.1085242 -0.03386062 -0.16682968 0.12318767 -0.092854984 -0.17112057 -0.02163877
0.05838376 -0.025806699 -0.04106216 0.007814743 0.03140151 0.105060026 0.116019994 -0.037078224
-0.10184233 0.024029527 -0.09537349 -0.011928433 0.04649102 -0.011555654 0.091286644 0.075357296
-0.07398825 0.007645058 0.10483945 -0.06856794 -0.10202611 0.16597708 0.07137813 0.0032614684
-0.00403729 -0.15489839 0.028109984 -0.024846178 -0.07403172 0.34306327 0.022258773 0.011429816
0.28646696 -0.01893634 -0.03914819 -0.28118128 -0.076702215 -0.039682783 0.10563437 0.15223183

mu.bias f4 [8]
00000000: 5ac9 87bb 057f bbbd 50b9 8ebb 89c4 48bd
00000010: 9441 503d 8074 df3d 9374 8c3c ba73 a73d
-0.004143876 -0.091550864 -0.004355587 -0.049015556 0.05084379 0.109108925 0.01714543 0.0817637

fc1.weight f4 [64, 111]
00000000: 6926 e2be 40c9 053f 66f6 1c3f d849 e7be
00000010: bba7 e7bb 77d3 363e 9b80 833c 43ed 303d
00000020: afca 15bd 1185 24be 71b2 48bc af2f 6abd
00000030: c9e2 0e3e 702e 92be 4e76 6bbd bb67 55be
00000040: f5b4 73bd 7caf 7c3e 9da3 74be d98f f8bb
00000050: 3e35 583d acde 41bd ac2e a8bc 10e3 1ebd
00000060: 6df4 2abc 5679 29be ad19 b23c 37a9 bdbd
00000070: b579 82be 33c6 c1bd dd0d d53d ad1c 2e3e
00000080: b7d0 e33d baf3 153c 9dcf 8dbd f71d 133e
00000090: 6602 86bd cbe3 de3c c666 183d 705c 05bc
000000a0: 2e10 a4bd 290c 943d 4e6f 46be af9d d5bc
000000b0: ff6e 43be 3308 01bd 5acf d4bc a352 2cbe
000000c0: 8d87 9dbd 2ec7 0b3e 1637 cabd cf5d ba3d
000000d0: 6179 a1be 33f6 2c3d 3c49 a53d 90ce 1a3d
000000e0: 5700 b3bc b5b2 913d 3078 e6bd 838c 04be
000000f0: b854 34bd 39d5 943d 50fa c4bb 20c4 68bd
00000100: acd3 a13d 6438 8d3d b6b3 ebbd a8b5 8cbc
00000110: e387 c53d 3ae9 0c3e 6bd8 b63d 1bce b43c
00000120: 5020 a8bd 86de a2bd 8b8d a6bc 1a1b 6c3c
00000130: 3753 eebd 6f01 df3c 246c e53b 2909 b7bc
00000140: 2b18 dfbd 7164 c9bd 546b f73c 08de 713d
00000150: 2d3f 39be e4ea 293c 9e0a c3bd de0f 4ebc
00000160: 3aa7 6abd 7c3f 5c3e 48d7 3abe ebaa 2e3d
00000170: 795e 8cbd 7162 d23c 8832 e83d 8d9a 2fbc
00000180: 5a45 13bd 3c6e 873d ff19 79bd 2554 21bd
00000190: 7a89 423d a8c3 a83d 4f5f ddbc 2728 acbc
000001a0: 0fb1 a13d b72c 36bd a00b c4bc 38fa bebd
000001b0: d326 9ebb 972a da3d 5c9b 8fbd 45ee dfbe
000001c0: 3dc2 773f c49c a93d 7643 aebe ee7a ab3e
000001d0: 43d4 b83d e539 8fbd 239c 813d cb50 193e
000001e0: 0b8d 853e 90ee 193d e155 3c3e 7be1 a0bd
000001f0: e8e4 893c bcac 243d 0448 8bbe 633b 58bd
00000200: 964d e53c b322 ee3b 1a82 dfbc eb6b 243b
00000210: 69a4 bcbc 97e2 54bd 3c5c de3c f777 46bc
00000220: 8b9c 42bb b816 29ba ce3e 4bbd bfcc 313d
00000230: e222 b03d 3f7a 843d 1255 533d b636 16be
00000240: 38c4 183d 8fb6 203d e278 4fbd 5420 89bd
00000250: 5da6 5ebc fbec 5f3d b24a 96bd 7565 54bd
00000260: 3b28 7a3d 6817 e23d d940 18bd 65a1 fb3d
00000270: 5fbb 163d 2e7d 12bd 8ea4 fd3d 4468 f6bd
00000280: 58cb 29b9 d5bb 38be ecb7 43bd da7e f0bd
00000290: 292c a1bc e82b 95bd 9260 443e 22ff 07be
000002a0: 19bb aa3b 4c9a 1abc 4ef4 273e 420f ddbc
000002b0: 75e7 cbbc b7ef a63d 0306 d63d 61bb febb
000002c0: d43c 543c ae4c 283e 3348 143e c096 183e
000002d0: 35e4 5fbc 9f28 b4bd f79c d23b b329 143e
000002e0: 22db 52bd cd6d a73d 71b6 a53d a166 d43d
000002f0: 3ad2 17bd 7c30 debc d667 243e 0586 18be
00000300: 4aa6 63bd 094c 043e a058 b9bd 2218 cfbb
00000310: b229 43be 2931 c83d 470c 9dbc 6560 d03d
00000320: 7d06 a53c f86e a23c 215e 073e 7386 53bd
00000330: 633c e43c fee7 5a3c 9bc8 d639 6a14 9fbd
00000340: a3f2 b0bd 4081 983d c29b cf3d 0636 963d
00000350: a44b 633e 33f7 30bd 694d 3e3e 709e 803e
00000360: 493f a3bc 81a5 933b e7d7 09be 157a c1bd
00000370: 288f 47bd 87dc 0bbd 6d29 eb3e 93d1 5abf
00000380: a651 8f3e 6296 f8bc 4bbe 44bf 6b66 973e
00000390: f84d 7b3e ac57 a1be a5a6 47be 9649 9bbe
000003a0: e7d7 95be 03f2 663e e611 053f b2b5 953d
000003b0: 6712 fc3d eacc 0e3e b28f 0f3d 7bbd 213e
000003c0: 7f1a c3bc 6c24 af3c b90c c33c dbef 713b
000003d0: 32e4 0e3c d46c 88bd 9670 6abc f14c dcbd
000003e0: 4835 d8bd ac6d f0bd 7d37 2d3c c81a 8b3d
000003f0: 5cf3 033d 6b35 6bbd ea6a 5ebd 2241 d0bd
-0.4416993 0.5226021 0.61313474 -0.45173526 -0.0070695556 0.17854105 0.016052535 0.04319502
-0.036570247 -0.16066386 -0.012249575 -0.05717438 0.13953699 -0.28551054 -0.05748587 -0.20840351
-0.059498746 0.24676317 -0.23890539 -0.0075855074 0.05278515 -0.047331497 -0.020530067 -0.038790762
-0.010434252 -0.16550192 0.021740759 -0.09260791 -0.2548348 -0.094616316 0.10403035 0.17003126
0.111237936 0.009152347 -0.06924365 0.143669 -0.06543426 0.02720823 0.037207387 -0.008139715
-0.080108985 0.07228882 -0.19378397 -0.026076166 -0.1908531 -0.03150196 -0.02597778 -0.16828398
-0.0769187 0.136502 -0.09873788 0.09099924 -0.31537917 0.04222698 0.08070609 0.03779465
-0.021850748 0.07114164 -0.11253393 -0.12944226 -0.044026107 0.072672315 -0.006011285 -0.056827664
0.07901701 0.06895521 -0.115088865 -0.017176464 0.09645059 0.13760844 0.08927997 0.022070935
-0.08209288 -0.07952599 -0.020331165 0.014410758 -0.11636966 0.027222363 0.0070014168 -0.022343235
-0.108932815 -0.09833611 0.030202545 0.059049636 -0.18090506 0.010370944 -0.095235094 -0.012577025
-0.057288386 0.21508592 -0.18246186 0.04264347 -0.06853957 0.025681706 0.11337763 -0.010718
-0.03595481 0.066128224 -0.060815807 -0.039386887 0.04749439 0.082404435 -0.027022986 -0.02101524
0.07895099 -0.044476237 -0.023931324 -0.09325069 -0.0048264056 0.106526546 -0.07012054 -0.43736473
0.9678076 0.08281854 -0.34035844 0.33492225 0.09024861 -0.069934644 0.06328609 0.14972226
0.2608417 0.037581027 0.18392135 -0.07855507 0.016832784 0.040203795 -0.2720338 -0.05279101
0.027991097 0.00726732 -0.027283717 0.0025088738 -0.023027616 -0.051973905 0.02714359 -0.012113563
-0.0029695358 -0.0006450224 -0.049620442 0.04340815 0.08600403 0.06468629 0.0515948 -0.14669308
0.037296504 0.0392366 -0.050652392 -0.06695619 -0.013589469 0.05466936 -0.07338466 -0.05185457
0.061073523 0.11039621 -0.03717122 0.12286643 0.036799785 -0.035763912 0.12384902 -0.12031606
-0.00016192847 -0.18040402 -0.047782823 -0.11742945 -0.019674378 -0.07283765 0.19177464 -0.13280919
0.005210292 -0.009436201 0.16401789 -0.026984815 -0.02489064 0.08151191 0.104503654 -0.007773802
0.012953956 0.16435501 0.14480667 0.14901257 -0.013665249 -0.0879681 0.006427403 0.14469032
-0.051478513 0.0817524 0.080914386 0.103711374 -0.037065722 -0.027122729 0.16055235 -0.14894874
-0.055578507 0.1291963 -0.09050107 -0.0063200155 -0.19058874 0.097750016 -0.019170893 0.10174636
0.020144695 0.019828305 0.13219501 -0.051641893 0.027860826 0.013360975 0.00040966723 -0.077675655
-0.08640029 0.074465275 0.1013713 0.07334523 0.22196823 -0.043204498 0.18584217 0.25120878
-0.019927638 0.0045058136 -0.13461266 -0.094471134 -0.04872051 -0.03414586 0.45930043 -0.85476035
0.2799198 -0.030345146 -0.76852864 0.29570326 0.24541461 -0.315122 -0.19497164 -0.3032958
-0.29266283 0.22553258 0.51980436 0.07310046 0.123081975 0.13945356 0.035049148 0.15794937
-0.023816345 0.021379672 0.023809778 0.0036916647 0.008721398 -0.06661382 -0.014309069 -0.10756863
-0.105570376 -0.11739668 0.0105723115 0.067922175 0.032214507 -0.05742399 -0.05430118 -0.10168673

fc1.bias f4 [64]
00000000: 43b7 203f 9e18 a3be a330 d03d ab13 ea3e
00000010: 4011 a5be a061 a73d 0c02 2bbf 5ff4 4a3f
00000020: 90b1 c43e 1b00 6f3f f714 ea3e c676 5c3e
00000030: 9233 1abe c0b2 293f 63dd fcbd cb14 083f
00000040: 1f51 993f 3729 853f 6aab ba3e 558d 3e3f
00000050: 2aea 12bd dfff 34be 1c68 0f3f f3c3 9bbe
00000060: 3106 01be f95c 7a3e 2049 cf3e 17a9 afbe
00000070: db05 993e 372e 103f ea68 913e 9168 21bf
00000080: 6969 253f d6cb 8d3f 3a41 f0bd 4f17 d93e
00000090: adb9 09bf a89a f2be f8bb a6be 446e 9c3e
000000a0: 0b01 523d 053c 0bbf 80dd a43f 9768 bf3e
000000b0: 6b8e 5ebe 9b8f 693d 1389 aabe 5d7b abbe
000000c0: 25ac 2dbe 6871 393f 4428 743d cdf8 06bf
000000d0: 4d5e 383d b06e 08be 712f 0d3f cd65 163f
000000e0: 9d27 9abe 1dbf 02bf f7e1 1bbf 6234 3a3f
000000f0: 7b6d 233f 7287 f13e 437f 153e 2ed6 bfbe
0.62779635 -0.3185472 0.10165527 0.4571813 -0.32239723 0.08172917 -0.668 0.7927913
0.3841672 0.93359536 0.4571912 0.21529683 -0.15058735 0.66288376 -0.12346914 0.5315673
1.1977881 1.0403203 0.36458904 0.74434406 -0.035867848 -0.17675732 0.56018233 -0.30422935
-0.12600018 0.24449529 0.40485477 -0.34308693 0.2988728 0.5632052 0.28400356 -0.6305018
0.6461397 1.1077831 -0.11731191 0.42400596 -0.53798944 -0.47383618 -0.32565284 0.30552876
0.051270526 -0.5438846 1.2880096 0.37384483 -0.21734016 0.05702172 -0.33307704 -0.33492556
-0.16960199 0.7243867 0.059608713 -0.5272339 0.045011807 -0.13323474 0.55150515 0.58749086
-0.30108348 -0.51072866 -0.6089167 0.7273618 0.6383893 0.4717365 0.14599328 -0.37468094

fc2.weight f4 [64, 64]
00000000: e1f8 2d3e df6c 3a3f ce90 73be 970b ebbe
00000010: e5ad a3be 1c41 76be fd8b 4e3f 666f 6d3e
00000020: 6a36 e53c 785f 873d 57b4 c1be ddf6 aebe
00000030: ec07 30bf 63d6 2f3d 65b1 843e 0d05 803e
00000040: 098c 90be a896 8bbf b78c b43e e1a0 25bf
00000050: 165f 003f 4879 0fbf 180a 86bf 64cf 663e
00000060: d4ab 4a3f 51a8 1ebf 59a2 2cbf 961f dcbe
00000070: 593d 09bd 9d99 6fbf a185 0cbf 6e0a 233f
00000080: 59b3 0ebe 0e8a 8e3e b163 453f 7e44 9dbf
00000090: c2f4 5e3f bad9 c8be 83bd fd3e 8069 a6bf
000000a0: 0baa b33e 0e36 293e ac8e 3bbf 8fe0 bd3e
000000b0: 53c1 dd3c db3f 313f ecf8 5ebf 6e40 89bf
000000c0: 506d ff3e 35c7 55bf 063b c03d 7b22 9bbe
000000d0: 2f03 443f f259 803d 901b 8bbf b879 243e
000000e0: 35c3 143f c188 163f 1bac 65bf d376 ef3e
000000f0: 787b 1c3e 393c 33bf a265 35bf 1ae2 96bc
00000100: 33ff a83d 1448 a23e c84a febd 690a 083f
00000110: 165d 6bbb 5fbd 8f3e 4d8a 1f3f 5882 8cbd
00000120: 9d13 b7be 2a6f ec3d 2921 db3e 29d0 db3e
00000130: dba1 83be 7cb0 bbbd 2184 183e 958c eabc
00000140: 0846 f43e 1c0e 07bf 55b1 18bf 55d7 85be
00000150: daf2 9ebe eee0 193e 2d43 d83e ea02 c53e
00000160: 9d64 ab3d ca48 26bf 3c4d c83c da62 1c3e
00000170: 07f1 183e 35d1 1f3e d540 a53b a9c0 5e3d
00000180: 5f82 02bd b37e c1be eb68 97be 6207 b03e
00000190: 5170 0cbe b39a 953d 2218 a73d 3710 623e
000001a0: fb4a 683e 136f 1abd 010d 10be efaf 4f3e
000001b0: e0aa cabc 2d2c 0c3e f843 5dbe be03 19bf
000001c0: 0cb0 29be 051b cabd 68ba f9be 8ab7 223d
000001d0: c180 d33a 3b1c d03d 1c37 893e 220f 5ebe
000001e0: 8e81 ec3e 11fa 05be abc0 573c c81e fbbe
000001f0: 7f31 cfbd 97c0 473f 973d 6f3d 4f0b aa3e
00000200: 6313 c0bf a554 263e 791d a23f 4cc6 08bf
00000210: 5531 a3bf 91c3 87bd 321e f33f cda6 f0bf
00000220: e285 023f 1e51 0abf 7d40 2dbf 3cf2 cd3f
00000230: 4eb2 9c3e 7c97 03c0 7dee b33e f372 1ebf
00000240: 0a43 3ac0 a2c3 7dc0 005e 583e 642f aebf
00000250: 3343 adbe e001 2b3e 279c 54be 687d a83e
00000260: fb1d 8f3f d794 67be 2d03 8ebf 2307 df3d
00000270: 6b28 b4bd 4e7e 46be 4ff3 a8bf 61bc 09bd
00000280: aa42 dcbe 0f9f 07c0 8a92 42bf 3d96 c63c
00000290: 30f3 653f 6b12 773f 5855 d53e bf2c 36be
000002a0: ddb0 1c3f 5ed7 5e3f 1929 23c0 a8e8 14bf
000002b0: 253e d5be 5593 3e3e 07b4 cabe 0109 313e
000002c0: 2ccb 193f 0f91 a4be 3293 e7be fb3d 953c
000002d0: 441c d8be 0309 043f 0447 b5be 3676 083f
000002e0: 37a5 2740 5e80 9a3e 1eaf abbf 0406 62bf
000002f0: e45e bcbd c9d0 7c3d e6aa c5be 6245 b5be
00000300: e018 293f 552c 7b3f f055 81bf 1835 a83d
00000310: 448f 923f 9ab1 313e 02b3 a4bf 1106 e13f
00000320: e245 a2bf 0008 c2be e48a 3f3f 4f4e b2bf
00000330: 351f 96bf 6cf2 aa3f 25e5 11c0 ef18 c0be
00000340: d462 1140 7e31 a23f 5b85 49bf 0407 d83f
00000350: 9a81 0c3f a1c4 adbf c7fd be3f 4e28 e63e
00000360: 4b83 913f 35a6 4bbf f2d3 e0bd bfb3 3a3f
00000370: dedd 9b3f 3ad7 58bf 3a99 413f 6723 843f
00000380: cdf5 25bf f4a1 d13f b021 4e3f 9a52 0ebf
00000390: 404e d63e 349f 4cbf c696 2dbf e821 42bf
000003a0: 12b3 d83e 1491 88bf ddf0 f43f 8efc 9d3f
000003b0: 9d95 c53f 4d4a a8bf add2 ff3e 206b 423f
000003c0: 3c62 90bf 20a2 63bf f593 a5be a1b0 2a3f
000003d0: 5d4d 183f a7f9 ea3e 1a5a d9be 12d7 99bf
000003e0: d4c6 acbf e49d 843f b6fb a13f f28c 1b3f
000003f0: ee73 9e3e 72a7 663f 3642 1abd 8906 a03f
0.16989471 0.72822374 -0.23785707 -0.4590728 -0.31968608 -0.24048275 0.80682355 0.23187026
0.027980048 0.06610006 -0.378329 -0.34172717 -0.6876209 0.042929064 0.2591659 0.25003853
-0.28231838 -1.0905352 0.35263607 -0.64698607 0.5014509 -0.56044436 -1.047183 0.2254005
0.7916844 -0.6197558 -0.6743522 -0.42992848 -0.03350577 -0.9359377 -0.548914 0.6368779
-0.13935603 0.27839702 0.7710524 -1.2286527 0.8709222 -0.39228612 0.49558648 -1.3000946
0.3509067 0.16524526 -0.73264575 0.37085387 0.027069723 0.6923806 -0.87098575 -1.0722787
0.49888086 -0.8350709 0.09386258 -0.30299744 0.7656736 0.06267156 -1.0867786 0.16062057
0.5811036 0.5880242 -0.8971574 0.46770343 0.15281475 -0.7001377 -0.70858204 -0.01841836
0.082518004 0.31695616 -0.12416607 0.53140885 -0.0035913638 0.28074166 0.62320405 -0.068607986
-0.3575715 0.1154464 0.42798737 0.4293225 -0.25709423 -0.09164521 0.14894153 -0.028631488
0.4770968 -0.52755904 -0.5964559 -0.26140848 -0.31044656 0.1502721 0.4223875 0.38478786
0.083688 -0.6495482 0.02445089 0.15272084 0.14935695 0.1560715 0.005043129 0.054382954
-0.031862613 -0.37791976 -0.29572234 0.34380633 -0.1371472 0.07304897 0.081589 0.22076498
0.22684853 -0.037703585 -0.1406746 0.20281957 -0.024739683 0.13688727 -0.2160796 -0.59771335
-0.16571063 -0.09868435 -0.4877503 0.039725818 0.0016136394 0.101616345 0.26799858 -0.2168546
0.46192592 -0.13083674 0.013168494 -0.49046922 -0.101168625 0.78028244 0.058408346 0.33211753
-1.5005916 0.16243227 1.2665244 -0.53427577 -1.274943 -0.06629098 1.899359 -1.8800904
0.5098554 -0.54030025 -0.67676526 1.6089549 0.30604786 -2.0561209 0.3514289 -0.6189415
-2.9103417 -3.9650655 0.21129608 -1.3608212 -0.3384033 0.16699934 -0.20762692 0.32908177
1.1181024 -0.22615372 -1.1094719 0.10890033 -0.087967716 -0.19384119 -1.3199252 -0.033626918
-0.4301961 -2.1190832 -0.7600485 0.024241561 0.898242 0.9651248 0.41666675 -0.17790507
0.6120737 0.87047374 -2.5493834 -0.58167505 -0.41648975 0.1861089 -0.39590475 0.17288591
0.6007564 -0.3214192 -0.4522949 0.018218031 -0.42209065 0.5157625 -0.35405743 0.53305376
2.619459 0.3017606 -1.3412817 -0.8829043 -0.091977865 0.06172255 -0.38606948 -0.35404497
0.6605358 0.9811452 -1.0104351 0.08213252 1.1449971 0.17352906 -1.2867129 1.7579976
-1.2677577 -0.3789673 0.74821305 -1.3930148 -1.1728274 1.3355231 -2.2796109 -0.37519023
2.271657 1.2671354 -0.7871911 1.6877141 0.54885256 -1.3575631 1.4921197 0.44952625
1.1368192 -0.79550487 -0.10977925 0.7293052 1.2177083 -0.8470341 0.7562443 1.0323304
-0.6482819 1.6377549 0.80520153 -0.5559479 0.41856575 -0.79930425 -0.67808187 -0.75832987
0.4232412 -1.0669274 1.9136006 1.2342699 1.5436283 -1.3147675 0.4996542 0.7594471
-1.1279979 -0.8891926 -0.32339445 0.66675764 0.59493047 0.45893595 -0.42451555 -1.2018759
-1.3498178 1.0360684 1.2654941 0.6076194 0.30947822 0.9009925 -0.0376608 1.2501994

fc2.bias f4 [64]
00000000: 561a 60bf c099 fc3d d7e8 acbf cbb0 99be
00000010: ca5b 17bf 9b0b 633f b00a 0a40 c62b 2dbe
00000020: dbda 31bf 3d0e 68be 9b06 16c0 3807 14c0
00000030: 6912 2cbf 6ada 18bf 81eb fd3f 1d5b 11bf
00000040: 93d4 0ebe 55ca 0040 c8ee 383f d0a6 f93f
00000050: 19f1 50bf 8fa5 8abf 5aca b8bf b0e7 8fbf
00000060: 0466 8d3f 34b0 b6bf 2c4d 973c c989 28bf
00000070: 59d5 093f fd8b c6bd 8182 a4bf 61ae 93be
00000080: d702 823f f959 64be 0f49 533e abf5 85bd
00000090: de29 7f3c f1c9 1b3e 1c02 69bf 1f77 04be
000000a0: 7080 16c0 a9b3 6d3c 5438 273f b5a5 45bd
000000b0: 93e7 c1be 5483 d4bf a5d6 6fbf b677 e0ba
000000c0: 11c6 b23f 3786 573f 5b42 273f 6f32 443f
000000d0: 802a ba3f 78ae b4bd 1fd4 863d f2ef 443f
000000e0: f1b4 373e f955 3ebe 88f2 d23f 1532 1740
000000f0: 292a 10bf e79d d6be 6e96 323e 1b09 febf
-0.87540185 0.12334013 -1.3508557 -0.30017695 -0.59124434 0.88689584 2.1569023 -0.1691123
-0.6947457 -0.22661681 -2.3441532 -2.3129406 -0.6721559 -0.59708273 1.9837495 -0.5677965
-0.13948278 2.0123494 0.7223935 1.9504032 -0.81617886 -1.0831774 -1.4436753 -1.124258
1.1046758 -1.4272523 0.018469416 -0.65835243 0.5384117 -0.096946694 -1.2852327 -0.28843978
1.0157117 -0.22299947 0.20633338 -0.06540998 0.015573947 0.15213753 -0.91018844 -0.12936066
-2.3515892 0.014508166 0.65320325 -0.048253734 -0.3787199 -1.6602578 -0.93686897 -0.001712552
1.3966695 0.8418917 0.65335625 0.76639456 1.454422 -0.0882234 0.06583428 0.7692863
0.17940117 -0.18587483 1.6480265 2.3624318 -0.5631433 -0.41917345 0.17440197 -1.9846529

value.weight f4 [1, 64]
00000000: 68fe 0dc1 d018 11c1 9113 0bc1 59d3 0b41
00000010: 1ca0 0c41 d2f0 06c1 2348 0d41 a13f 0541
00000020: 0bf1 09c1 54aa 09c1 b16c 0ec1 5f4c 13c1
00000030: 45bc 0c41 55d4 0e41 fbd9 0541 5538 0f41
00000040: da01 0ac1 a9f1 0f41 90c5 0cc1 5653 0741
00000050: 21e7 0c41 dd9f 0c41 2c1e 10c1 6dee 0c41
00000060: 5959 0bc1 05fa 0ec1 1ecb 0b41 b158 01c1
00000070: 9596 0ec1 afcf 09c1 bfee 0d41 a356 0d41
00000080: e06b 0cc1 4e24 0641 f4fb 0e41 b73b 0ec1
00000090: cd36 11c1 a0ee 0541 13ae 12c1 d9ab 11c1
000000a0: 8f3a 11c1 dff8 05c1 f975 1141 ccfc 0c41
000000b0: 86d4 0c41 e80e 11c1 161e 0d41 3048 0b41
000000c0: b25f 0a41 13cc 0dc1 b5cc 1041 a03b 0241
000000d0: efc4 0b41 763c 07c1 8eb7 0cc1 1761 0741
000000e0: 9789 0541 825c 0c41 0c2a 0841 0b46 1241
000000f0: 726d 0ac1 d390 0141 e702 0cc1 7bbe 0dc1
-8.874611 -9.068558 -8.692277 8.739099 8.789089 -8.433794 8.8301115 8.328034
-8.621348 -8.604084 -8.901536 -9.206145 8.795964 8.926839 8.365718 8.951253
-8.625452 8.996499 -8.798233 8.457846 8.806428 8.789029 -9.007366 8.808209
-8.709313 -8.93604 8.737089 -8.084153 -8.911763 -8.613204 8.870788 8.833652
-8.776337 8.383863 8.936512 -8.889579 -9.075879 8.370758 -9.167499 -9.104455
-9.076797 -8.37326 9.091302 8.811718 8.801886 -9.066139 8.819845 8.705124
8.648363 -8.862323 9.049977 8.139557 8.7355795 -8.452261 -8.794813 8.461204
8.346091 8.772585 8.510265 9.1421 -8.65172 8.097857 -8.750709 -8.859004

exp_avg f4 [1, 8]
00000000: a95a 243a c16b 5d3a a924 69bb e26e ce3a
00000010: 7064 7f3b 1955 3abb 6935 c33b 36d4 2e3b
0.0006269613 0.00084465375 -0.003557483 0.0015749598 0.0038969778 -0.002843207 0.0059572947 0.002667678

exp_avg_sq f4 [1, 8]
00000000: ff3e 1839 df53 0c39 8f34 0139 fc36 0939
00000010: 192f 3b39 7785 ec38 14a9 2939 02d3 1039
0.00014519317 0.00013382685 0.00012321978 0.00013085821 0.00017851255 0.00011278217 0.00016180082 0.00013811517

exp_avg f4 [64, 111]
00000000: 9f7e d2ba bd9a c6bb 0225 453a 6403 003a
00000010: 512d d63a 8e5e 0fbb a063 c0ba a938 3bbb
00000020: 07ca 523b f470 73bb 459f 593b 7f6d 783b
00000030: 862d cabb b834 fcbc 2901 69bb d07b ddbb
00000040: cdd3 25bb f524 093b bff9 3c3a f52c 4a3a
00000050: 6a9c a13b fdd1 d4bc 362e 123b 7aab 2bbc
00000060: 22a0 a83b 9e60 c63c d5c9 df3b 0000 0000
00000070: 0000 0000 0000 0000 0000 0000 0000 0000
00000080: 0000 0000 0000 0000 0000 0000 0000 0000
00000090: 0000 0000 0000 0000 0000 0000 0000 0000
000000a0: 0000 0000 0000 0000 0000 0000 0000 0000
000000b0: 0000 0000 0000 0000 0000 0000 0000 0000
000000c0: 0000 0000 0000 0000 0000 0000 0000 0000
000000d0: 0000 0000 0000 0000 0000 0000 0000 0000
000000e0: 0000 0000 0000 0000 0000 0000 0000 0000
000000f0: 0000 0000 0000 0000 0000 0000 0000 0000
00000100: 0000 0000 0000 0000 0000 0000 0000 0000
00000110: 0000 0000 0000 0000 0000 0000 0000 0000
00000120: 0000 0000 0000 0000 0000 0000 0000 0000
00000130: 0000 0000 0000 0000 0000 0000 0000 0000
00000140: 0000 0000 0000 0000 0000 0000 0000 0000
00000150: 0000 0000 0000 0000 0000 0000 0000 0000
00000160: 0000 0000 0000 0000 0000 0000 0000 0000
00000170: 0000 0000 0000 0000 0000 0000 0000 0000
00000180: 0000 0000 0000 0000 0000 0000 0000 0000
00000190: 0000 0000 0000 0000 0000 0000 0000 0000
000001a0: 0000 0000 0000 0000 0000 0000 0000 0000
000001b0: 0000 0000 0000 0000 0000 0000 2252 5a3a
000001c0: 17b2 e3ba 7938 bd3a 57b3 373a 6b6e 433a
000001d0: 037c 19bb d016 3d3b adda dfb9 391e b23a
000001e0: 50bd 3dbb b8d8 f43a aa26 073b 7554 9cbb
000001f0: f3c9 94bc eb5b a33a d0bd f2ba b89c 67bc
00000200: f8b6 bf3b 5a93 cf3b 53c0 cabb 8349 edba
00000210: 6b3f 14bd 3da1 993b 9644 c8bc 25f1 08bb
00000220: de44 fc3c 5710 acb9 0000 0000 0000 0000
00000230: 0000 0000 0000 0000 0000 0000 0000 0000
00000240: 0000 0000 0000 0000 0000 0000 0000 0000
00000250: 0000 0000 0000 0000 0000 0000 0000 0000
00000260: 0000 0000 0000 0000 0000 0000 0000 0000
00000270: 0000 0000 0000 0000 0000 0000 0000 0000
00000280: 0000 0000 0000 0000 0000 0000 0000 0000
00000290: 0000 0000 0000 0000 0000 0000 0000 0000
000002a0: 0000 0000 0000 0000 0000 0000 0000 0000
000002b0: 0000 0000 0000 0000 0000 0000 0000 0000
000002c0: 0000 0000 0000 0000 0000 0000 0000 0000
000002d0: 0000 0000 0000 0000 0000 0000 0000 0000
000002e0: 0000 0000 0000 0000 0000 0000 0000 0000
000002f0: 0000 0000 0000 0000 0000 0000 0000 0000
00000300: 0000 0000 0000 0000 0000 0000 0000 0000
00000310: 0000 0000 0000 0000 0000 0000 0000 0000
00000320: 0000 0000 0000 0000 0000 0000 0000 0000
00000330: 0000 0000 0000 0000 0000 0000 0000 0000
00000340: 0000 0000 0000 0000 0000 0000 0000 0000
00000350: 0000 0000 0000 0000 0000 0000 0000 0000
00000360: 0000 0000 0000 0000 0000 0000 0000 0000
00000370: 0000 0000 0000 0000 fff2 81ba 330a 99bb
00000380: 4604 f23a f96b 83ba 95ce da3a f8bc aeb8
00000390: 0968 13bb b018 15bb bf93 d93a 354b 0cbb
000003a0: 0da4 b63a f115 5e3b c014 23bb 197a a4bc
000003b0: dbd3 78bb b2c5 95bb d301 c939 22ac 533b
000003c0: 95e3 04bb e5e3 743a 6f61 e03a 7209 aabb
000003d0: f014 873a 567b 00bb 96bf 233b bfac 0b3c
000003e0: 81c5 f33b 0000 0000 0000 0000 0000 0000
000003f0: 0000 0000 0000 0000 0000 0000 0000 0000
-0.0016059465 -0.0060609267 0.0007520468 0.0004883318 0.001634041 -0.0021876427 -0.0014678128 -0.0028567708
0.0032163875 -0.0037146183 0.0033206504 0.0037907062 -0.0061699776 -0.030786857 -0.003555367 -0.0067591444
-0.0025303245 0.002092657 0.0007208846 0.00077123876 0.004931976 -0.025979036 0.0022305376 -0.010477895
0.0051460424 0.024215993 0.00682948 0.0 0.0 0.0 0.0 0.0
0.0 0.0 0.0 0.0 0.0 0.0 0.0 0.0
0.0 0.0 0.0 0.0 0.0 0.0 0.0 0.0
0.0 0.0 0.0 0.0 0.0 0.0 0.0 0.0
0.0 0.0 0.0 0.0 0.0 0.0 0.0 0.0
0.0 0.0 0.0 0.0 0.0 0.0 0.0 0.0
0.0 0.0 0.0 0.0 0.0 0.0 0.0 0.0
0.0 0.0 0.0 0.0 0.0 0.0 0.0 0.0
0.0 0.0 0.0 0.0 0.0 0.0 0.0 0.0
0.0 0.0 0.0 0.0 0.0 0.0 0.0 0.0
0.0 0.0 0.0 0.0 0.0 0.0 0.0 0.0008328279
-0.00173718 0.0014436386 0.000700762 0.0007455113 -0.0023419864 0.0028852709 -0.000426968 0.0013589329
-0.002895195 0.001868031 0.002062241 -0.0047708103 -0.018162703 0.0012463307 -0.0018519703 -0.014136486
0.005850669 0.0063347043 -0.0061874776 -0.0018103573 -0.036193293 0.0046884106 -0.024446767 -0.0020895686
0.030794557 -0.0003281857 0.0 0.0 0.0 0.0 0.0 0.0
0.0 0.0 0.0 0.0 0.0 0.0 0.0 0.0
0.0 0.0 0.0 0.0 0.0 0.0 0.0 0.0
0.0 0.0 0.0 0.0 0.0 0.0 0.0 0.0
0.0 0.0 0.0 0.0 0.0 0.0 0.0 0.0
0.0 0.0 0.0 0.0 0.0 0.0 0.0 0.0
0.0 0.0 0.0 0.0 0.0 0.0 0.0 0.0
0.0 0.0 0.0 0.0 0.0 0.0 0.0 0.0
0.0 0.0 0.0 0.0 0.0 0.0 0.0 0.0
0.0 0.0 0.0 0.0 0.0 0.0 0.0 0.0
0.0 0.0 0.0 0.0 0.0 0.0 -0.0009914337 -0.0046704053
0.0018464408 -0.0010026685 0.0016693646 -8.332165e-05 -0.002249243 -0.002275031 0.0016599818 -0.0021407132
0.0013934389 0.003388759 -0.0024884194 -0.020077752 -0.0037968073 -0.0045706863 0.00038339067 0.0032298644
-0.002027725 0.000934182 0.0017118881 -0.0051891143 0.0010305922 -0.0019604764 0.002498602 0.008525073
0.007439316 0.0 0.0 0.0 0.0 0.0 0.0 0.0

exp_avg_sq f4 [64, 111]
00000000: 87a3 b837 4c63 8738 28c2 1936 2fe9 2336
00000010: da0c 4437 823c f437 f882 be37 6539 1b38
00000020: b640 a137 327a e437 0cbe b837 e273 1838
00000030: 827a 3138 a954 913a cfed a738 9ab4 ee38
00000040: 918f 0d39 c061 3739 fdea c138 39ed ba39
00000050: 2491 df38 f7f4 8a3a a310 d237 f35d 8139
00000060: 1122 7b38 0510 883a 49e8 b239 0000 0000
00000070: 0000 0000 0000 0000 0000 0000 0000 0000
00000080: 0000 0000 0000 0000 0000 0000 0000 0000
00000090: 0000 0000 0000 0000 0000 0000 0000 0000
000000a0: 0000 0000 0000 0000 0000 0000 0000 0000
000000b0: 0000 0000 0000 0000 0000 0000 0000 0000
000000c0: 0000 0000 0000 0000 0000 0000 0000 0000
000000d0: 0000 0000 0000 0000 0000 0000 0000 0000
000000e0: 0000 0000 0000 0000 0000 0000 0000 0000
000000f0: 0000 0000 0000 0000 0000 0000 0000 0000
00000100: 0000 0000 0000 0000 0000 0000 0000 0000
00000110: 0000 0000 0000 0000 0000 0000 0000 0000
00000120: 0000 0000 0000 0000 0000 0000 0000 0000
00000130: 0000 0000 0000 0000 0000 0000 0000 0000
00000140: 0000 0000 0000 0000 0000 0000 0000 0000
00000150: 0000 0000 0000 0000 0000 0000 0000 0000
00000160: 0000 0000 0000 0000 0000 0000 0000 0000
00000170: 0000 0000 0000 0000 0000 0000 0000 0000
00000180: 0000 0000 0000 0000 0000 0000 0000 0000
00000190: 0000 0000 0000 0000 0000 0000 0000 0000
000001a0: 0000 0000 0000 0000 0000 0000 0000 0000
000001b0: 0000 0000 0000 0000 0000 0000 f720 a337
000001c0: b3f4 5438 3e2e 2c36 acb3 5336 2492 3337
000001d0: be5b dd37 507a 8937 28b6 2c38 0df2 8737
000001e0: a124 aa37 2574 9637 4da1 2538 69c8 0938
000001f0: bbc6 713a 93f7 a438 3a33 d738 b7e2 f038
00000200: 8335 1939 9915 9838 3ec3 9639 9e26 ac38
00000210: ee19 1e3a 9de5 0b38 7def 7739 60d1 7638
00000220: 7036 1d3a a0a1 9f39 0000 0000 0000 0000
00000230: 0000 0000 0000 0000 0000 0000 0000 0000
00000240: 0000 0000 0000 0000 0000 0000 0000 0000
00000250: 0000 0000 0000 0000 0000 0000 0000 0000
00000260: 0000 0000 0000 0000 0000 0000 0000 0000
00000270: 0000 0000 0000 0000 0000 0000 0000 0000
00000280: 0000 0000 0000 0000 0000 0000 0000 0000
00000290: 0000 0000 0000 0000 0000 0000 0000 0000
000002a0: 0000 0000 0000 0000 0000 0000 0000 0000
000002b0: 0000 0000 0000 0000 0000 0000 0000 0000
000002c0: 0000 0000 0000 0000 0000 0000 0000 0000
000002d0: 0000 0000 0000 0000 0000 0000 0000 0000
000002e0: 0000 0000 0000 0000 0000 0000 0000 0000
000002f0: 0000 0000 0000 0000 0000 0000 0000 0000
00000300: 0000 0000 0000 0000 0000 0000 0000 0000
00000310: 0000 0000 0000 0000 0000 0000 0000 0000
00000320: 0000 0000 0000 0000 0000 0000 0000 0000
00000330: 0000 0000 0000 0000 0000 0000 0000 0000
00000340: 0000 0000 0000 0000 0000 0000 0000 0000
00000350: 0000 0000 0000 0000 0000 0000 0000 0000
00000360: 0000 0000 0000 0000 0000 0000 0000 0000
00000370: 0000 0000 0000 0000 531a c337 6d73 f538
00000380: 761e 8636 c73e 8336 2465 b637 c162 8738
00000390: 791b a537 917c 9e38 7d4b 1238 6397 4a38
000003a0: 633f 1a38 049e 9e38 cf98 d438 0de8 153b
000003b0: e0ba 0939 58ab 8e39 21c8 b039 38d1 bf39
000003c0: 8a3f 2639 68c6 163a e9b4 a438 2167 043b
000003d0: 6ffc 9038 18ba 023a 1f4d b838 fc2b 063b
000003e0: fc7a 573a 0000 0000 0000 0000 0000 0000
000003f0: 0000 0000 0000 0000 0000 0000 0000 0000
2.2010658e-05 6.455797e-05 2.291179e-06 2.4424623e-06 1.1685503e-05 2.9115243e-05 2.2710752e-05 3.7008333e-05
1.9222829e-05 2.723662e-05 2.2023007e-05 3.634755e-05 4.2314183e-05 0.0011087853 8.007476e-05 0.00011382364
0.0001350029 0.00017488655 9.246727e-05 0.0003565343 0.00010660503 0.001060157 2.5041698e-05 0.00024674795
5.987479e-05 0.0010380751 0.00034123872 0.0 0.0 0.0 0.0 0.0
0.0 0.0 0.0 0.0 0.0 0.0 0.0 0.0
0.0 0.0 0.0 0.0 0.0 0.0 0.0 0.0
0.0 0.0 0.0 0.0 0.0 0.0 0.0 0.0
0.0 0.0 0.0 0.0 0.0 0.0 0.0 0.0
0.0 0.0 0.0 0.0 0.0 0.0 0.0 0.0
0.0 0.0 0.0 0.0 0.0 0.0 0.0 0.0
0.0 0.0 0.0 0.0 0.0 0.0 0.0 0.0
0.0 0.0 0.0 0.0 0.0 0.0 0.0 0.0
0.0 0.0 0.0 0.0 0.0 0.0 0.0 0.0
0.0 0.0 0.0 0.0 0.0 0.0 0.0 1.9446465e-05
5.0772633e-05 2.5656914e-06 3.1546033e-06 1.0703257e-05 2.6387974e-05 1.6388629e-05 4.1177642e-05 1.6205968e-05
2.0282636e-05 1.7935477e-05 3.948929e-05 3.2849992e-05 0.00092230336 7.866244e-05 0.000102615406 0.00011486321
0.00014611152 7.251948e-05 0.00028755696 8.208792e-05 0.00060310855 3.3354027e-05 0.00023644972 5.8845966e-05
0.00059971865 0.00030447263 0.0 0.0 0.0 0.0 0.0 0.0
0.0 0.0 0.0 0.0 0.0 0.0 0.0 0.0
0.0 0.0 0.0 0.0 0.0 0.0 0.0 0.0
0.0 0.0 0.0 0.0 0.0 0.0 0.0 0.0
0.0 0.0 0.0 0.0 0.0 0.0 0.0 0.0
0.0 0.0 0.0 0.0 0.0 0.0 0.0 0.0
0.0 0.0 0.0 0.0 0.0 0.0 0.0 0.0
0.0 0.0 0.0 0.0 0.0 0.0 0.0 0.0
0.0 0.0 0.0 0.0 0.0 0.0 0.0 0.0
0.0 0.0 0.0 0.0 0.0 0.0 0.0 0.0
0.0 0.0 0.0 0.0 0.0 0.0 2.325807e-05 0.0001170401
3.9970573e-06 3.9114125e-06 2.1743188e-05 6.455696e-05 1.9682326e-05 7.5572294e-05 3.4879416e-05 4.8301543e-05
3.6775495e-05 7.56346e-05 0.000101374106 0.0022873909 0.00013134954 0.00027212012 0.00033718444 0.0003658624
0.00015854664 0.0005751611 7.8538265e-05 0.0020203071 6.9134745e-05 0.00049868366 8.7881686e-05 0.0020472994
0.0008219925 0.0 0.0 0.0 0.0 0.0 0.0 0.0
