drl/ran2/Ant15000_ran2_weights.pth (torch, 292784 bytes, 36 tensors)

log_std f4 [1, 8]
000000 f1 5f b7 bf 9f cd ec bf 19 c8 a6 bf 1f 22 aa bf
       -1.4326154 -1.850025 -1.3029815 -1.3291663
000010 32 ca b9 bf 06 ef bb bf e0 cb ab bf 53 9b b2 bf
       -1.451483 -1.4682319 -1.3421593 -1.3953651

fc1.weight f4 [64, 111]
000000 f2 cc 3f be 48 fa 2b 3c ac d5 0b 3e 4b d0 ec bc
       -0.18730524 0.010496683 0.13655728 -0.028907916
000010 d8 ac 09 3e 61 ae 9f bd 11 7c 03 bd 02 b0 62 3d
       0.13444841 -0.07796932 -0.03210074 0.055343635
000020 d6 eb a5 3d 1f ba a0 3d 9d 4f 4b be 69 a3 34 be
       0.08101623 0.07848 -0.19854589 -0.17640461
000030 61 ab dd 3d f9 6d e0 bd 2f 80 a1 bc 6c e7 a6 3c
       0.108237036 -0.109584756 -0.019714443 0.020374022
000040 80 19 d6 bb e7 8a 70 3d 2d 15 95 bd 9f 95 1e bd
       -0.0065338016 0.058726218 -0.072794296 -0.03871691
000050 49 e2 49 be 89 6d a4 3c d2 a6 47 be 47 17 10 bd
       -0.19715227 0.020071762 -0.1949723 -0.03517845
000060 71 11 02 3c 82 ae 09 bd 76 f2 e9 3d ee 4f ff bb
       0.007938729 -0.03361369 0.11423199 -0.007791511
000070 58 1d 0e bd 12 87 68 3d 21 54 8d bd 1d c9 ca bc
       -0.034695953 0.056769438 -0.06900812 -0.024754101
000080 97 40 8a 3d 0b da c1 3d a3 b8 ee 3d 08 7f 31 be
       0.06750601 0.094654165 0.116563104 -0.17333615
000090 b8 37 ef bd 31 e0 21 3c 01 45 a7 3d 98 9d 9a bd
       -0.116805494 0.009880112 0.08167458 -0.0754959
0000a0 7d 83 11 be 30 b3 c5 3d 7c 43 54 bc 6b e8 0f be
       -0.14210315 0.09653318 -0.012955543 -0.14053504
0000b0 a5 61 22 3d 06 7a 92 3c f9 e5 ca 3d 39 7c 46 bb
       0.039643902 0.017880451 0.09907145 -0.0030286445
0000c0 2d ba 02 bd d6 72 09 be 77 0e ca bd 9c a3 eb 3c
       -0.031915832 -0.13422713 -0.0986604 0.028764538
0000d0 89 c0 c3 bd 1c 0c 64 bd 0a 22 8a 3d bb cc 98 3c
       -0.095582075 -0.05567561 0.06744774 0.01865231
0000e0 bd a1 60 bd 1e 71 8f 3c 83 3b 55 be 01 2d 1e bd
       -0.054841746 0.017509993 -0.20823483 -0.038617138
0000f0 5a 35 a7 3d 39 22 ed bb cd 5d eb 3d eb b0 e4 bd
       0.08164473 -0.0072367457 0.114925005 -0.11166557
000100 fd 63 7c 3c d4 cd 30 3e 9d 31 8c be f6 27 98 bc
       0.015404698 0.17266017 -0.27381602 -0.018573742
000110 57 d2 a9 3d 06 64 38 3d ef 1c 66 3d 1b 03 de bd
       0.08292072 0.045017265 0.056179937 -0.10840436
000120 f7 e4 46 3d c7 64 c1 bd 34 54 08 bd 65 a8 88 3d
       0.0485582 -0.0944305 -0.033283427 0.06672744
000130 b5 14 12 3d b2 c6 cf 3c 8c 86 a4 bd b6 4f 80 3d
       0.03566428 0.0253633 -0.08033475 0.06265204
000140 cc 80 0a 3d 9b da cc bb 29 bd 7a 3c ca 79 04 3d
       0.033814237 -0.0062516457 0.015303888 0.03234271
000150 34 d1 54 3e b3 85 fd bd fa 76 4f bc 77 2d 00 3e
       0.2078293 -0.12379017 -0.012662644 0.12517343
000160 cf 77 8b bd 3a 0d 82 bd f7 8e 82 3d 77 17 55 3d
       -0.06809961 -0.06350179 0.06374925 0.05202433
000170 3a 85 bb bc 53 ff 0c 3e f2 77 26 be 6e 25 08 3e
       -0.022890676 0.13769273 -0.16256693 0.13295528
000180 a3 e2 ba b9 d3 3a b0 3d c5 c7 c3 bb 2d 7a 0f be
       -0.00035645542 0.0860497 -0.005974742 -0.1401145
000190 c5 06 d9 bd b4 50 19 bd d5 30 cc 3d 41 a5 19 3e
       -0.10596994 -0.03743048 0.099702515 0.15004446
0001a0 05 b5 d8 bc 09 78 2c be ac f3 49 bd 4b 19 5e 3c
       -0.026453504 -0.16842665 -0.04930465 0.013555835
0001b0 48 1c e6 3d c4 ef 87 bc ce 0d 5b 3d 72 6f a0 3d
       0.11235863 -0.016593821 0.053479962 0.078337565
0001c0 b4 0d 3a bc a6 3f cf be 96 1d 05 3e 54 68 06 be
       -0.011355806 -0.40478247 0.12999567 -0.13125736
0001d0 45 ad 82 bd af b5 1b be 6c 21 2a 3e e7 a0 d6 3d
       -0.06380705 -0.15206026 0.16614312 0.104799084
0001e0 23 e6 41 be d1 66 4f bb d7 53 39 bc 8c 66 f4 39
       -0.18935446 -0.0031646977 -0.011311493 0.0004661571
0001f0 12 5a 85 bd e9 7a 35 be c2 82 ef bd a9 6c c9 3b
       -0.0651132 -0.17722668 -0.11694862 0.0061469865
000200 9c 3a 44 bc 1c 3a 06 bd ec 6c a4 bd 71 a9 c4 bd
       -0.011976864 -0.03277026 -0.08028588 -0.09602631
000210 f4 27 eb 3d 58 64 eb ba 30 64 a1 bd b9 4b f2 3d
       0.1148223 -0.0017958982 -0.078804374 0.11830849
000220 f8 87 6c bd a0 56 a1 bd a4 bc ee bd c7 24 2d ba
       -0.057746857 -0.078778505 -0.11657074 -0.00066049065
000230 6d 40 88 bd 87 20 6a bd 3c 7f d3 3c 9c dd 51 3d
       -0.06652913 -0.057159927 0.025817506 0.051236734
000240 13 2c 0b be 95 6b 6c bd 15 c9 c7 3d c2 86 cf bd
       -0.13591032 -0.057719786 0.0975515 -0.10133125
000250 d9 18 1e bd 66 1d 2c 3e 18 9c 74 bd 29 93 21 bd
       -0.038597915 0.1680809 -0.059719175 -0.039446983
000260 56 2a b3 bd 18 4b 36 bd b7 0f 66 3e 1a 54 31 3e
       -0.08748309 -0.04450521 0.22466932 0.17317238
000270 31 10 1e 3d ee d6 c3 bd 54 e7 d9 bd b5 c9 29 be
       0.03858966 -0.09562479 -0.106398255 -0.16580851
000280 b3 79 81 3d 92 70 7e bd e9 cb 01 3d 21 d5 a4 bc
       0.063220404 -0.062119074 0.031688605 -0.020121159
000290 92 19 e2 3d 03 2d 74 bd f2 59 c2 bc 95 be 48 3e
       0.110400334 -0.05961324 -0.02372453 0.19603951
0002a0 c8 46 79 3e 1f 93 6c 3d d7 cc 70 bd 77 17 92 3d
       0.24343407 0.057757493 -0.0587891 0.07133382
0002b0 6a c3 7a bd 8e 6a 42 3d 99 48 35 3e 2c dc 18 bd
       -0.061221518 0.0474649 0.17703475 -0.037319347
0002c0 eb be f9 bc 7b 4c 25 be e6 9f be bb 1d bb b4 3c
       -0.030486545 -0.16142456 -0.005817401 0.022061879
0002d0 b4 70 6e 3d ca ec c3 3c 2e 12 88 3e 2e 49 d8 3d
       0.05821295 0.02391662 0.2657637 0.10560833
0002e0 b6 2b 4b 3c c2 73 91 3c c2 d8 de bb 94 ca 83 bd
       0.012400558 0.017755393 -0.006800742 -0.06435123
0002f0 89 38 5b bd 56 36 cf bb 65 b6 2f 3e b3 fd a2 3b
       -0.053520713 -0.006323616 0.17159422 0.004974091
000300 7a 9e 73 3d 8d 8f 1d 3d 78 cd ea bd e3 14 0d be
       0.059477307 0.03846698 -0.11464971 -0.13777499
000310 11 91 ac bd 74 15 99 3d 60 92 34 bc 24 d0 bc 3d
       -0.08426107 0.07474795 -0.011021227 0.09219387
000320 45 3d 80 3d 34 a1 1e bd f3 8e 1d bd 51 97 b0 3c
       0.06261686 -0.038727954 -0.038466405 0.021556528
000330 a4 a2 ab 3d f1 2e ed 3c 6a f7 20 3e 13 c6 e7 3c
       0.083806306 0.028953047 0.15719381 0.028292691
000340 c3 95 1b 3e fc ec 46 3d 7f 0d 3a bd 69 3a 2c 3e
       0.15193848 0.04856585 -0.045423027 0.16819157
000350 c3 af ba b9 c9 31 d0 bc ce 4c 5b 3d 1a f1 8f 3b
       -0.00035607637 -0.025414364 0.053540044 0.004392755
000360 a9 88 9d bd 42 bf 1e 3d 22 fd aa 3c 47 5c 19 bc
       -0.076920815 0.038756616 0.020872656 -0.00936038
000370 fe 39 54 3d b9 f7 6f bd 27 d8 23 3d dc 72 29 be
       0.05181312 -0.058585856 0.04000106 -0.16547722
000380 6a df 8c bd f1 43 53 3d 29 a5 af 3e 10 60 e5 3d
       -0.0687855 0.051578466 0.34305695 0.11199963
000390 14 23 63 be ae 2a 01 3e 5b c4 f5 3d a6 14 1e 3e
       -0.2218135 0.12613937 0.120003425 0.15437564
0003a0 18 3b 83 3e 86 52 8a be 0b f2 76 bc 0a 03 c1 bd
       0.25631022 -0.27016085 -0.015072356 -0.09424408
0003b0 e0 66 d0 3b 80 05 79 bd 47 38 b8 bd 61 2d ba 3c
       0.00635992 -0.06079626 -0.08995109 0.022726716
0003c0 70 49 90 3d bd 44 66 3c 99 25 9f 3d 9b f5 05 ba
       0.07045257 0.014054474 0.07770843 -0.00051101454
0003d0 db a9 80 bb 53 a6 c6 3d 77 a1 df 3d 32 1e 2b be
       -0.0039264983 0.096996926 0.10919469 -0.16710737
0003e0 10 27 34 3d 77 14 14 3d 06 59 5e 3d 5f 4f c2 bb
       0.043982565 0.03615233 0.054284118 -0.005929872
0003f0 1c 36 cb 3c 2b 76 fa bd bc 76 c4 bc 48 27 13 3d
       0.024806075 -0.1222957 -0.023982398 0.035926133

fc1.bias f4 [64]
000000 e6 71 90 3c 0c 6c a9 bc 5a 8c b7 bd 9a 67 48 bd
       0.017632436 -0.020681404 -0.08962317 -0.048926927
000010 22 80 ca bd 9e 77 2d 3c 1f 9c 6a 3c 42 fe ee 3b
       -0.09887721 0.010587601 0.014319449 0.0072934935
000020 b3 12 a8 bd 58 d9 a5 3c 59 df 4d 3c de 7f da bc
       -0.082066916 0.02024524 0.012565457 -0.0266723
000030 30 95 43 bc 66 26 6e 3d 7b 47 d4 3b 19 77 c1 3c
       -0.011937425 0.05814209 0.0064782477 0.02361636
000040 c0 89 29 39 0b 0d a7 bc b5 66 94 3d 86 83 9f 3c
       0.00016168412 -0.020391962 0.07246152 0.019471895
000050 a8 b1 f1 3d 35 04 82 bc b3 79 cc bd d5 53 66 3d
       0.11801463 -0.015871147 -0.0998415 0.056232292
000060 10 60 5e 3d b1 10 fe 3d 25 c2 53 3c a7 7d c0 bc
       0.05429083 0.124055274 0.012924706 -0.023497416
000070 05 0f 8f 3c 52 ec 05 bd bb 65 7a 3a ef 29 b7 bc
       0.017463217 -0.032696076 0.0009551902 -0.022358863
000080 3d f8 b6 bc a4 f0 85 3d 78 50 a3 3c 74 96 7e bb
       -0.022335166 0.06540039 0.019935831 -0.0038847001
000090 7c 6d 1d 3d 70 24 07 3c ee bb a5 bc 50 c2 06 3d
       0.03843449 0.0082484335 -0.020231213 0.032900155
0000a0 64 2b 34 bc 0a d4 5f 3d 17 c7 06 bc d7 45 b1 bc
       -0.010996673 0.054645576 -0.008226178 -0.021639748
0000b0 14 dd 2e bc ee d5 b7 3d f9 8d 93 bd 91 96 6f 3c
       -0.010672826 0.08976351 -0.072048135 0.0146233
0000c0 21 09 fc 3b 9e a4 d2 3d 77 8e e1 bd 68 5d 34 3d
       0.007691518 0.102853045 -0.11013501 0.04403439
0000d0 be 4c a3 bd 67 4f eb bb 9f 48 17 bc 9d 4b a1 3d
       -0.07973622 -0.0071810964 -0.009233623 0.0787575
0000e0 ba 03 6a 3b 74 25 39 3c 46 c0 72 39 71 13 cf 3c
       0.0035707788 0.011300433 0.00023150546 0.025277825
0000f0 4c 8f 89 ba c2 e4 0a 3d 51 b1 aa 3b 63 ee d3 bd
       -0.0010494976 0.033909567 0.005209126 -0.10348203

fc2.weight f4 [64, 64]
000000 96 5e e3 3d 74 d0 98 bd 24 48 0b be d9 44 3a bd
       0.11102025 -0.07461634 -0.13601738 -0.045475814
000010 dd c8 5e 3e b4 fd 53 bd 43 25 56 3e 67 94 2a bd
       0.21756311 -0.051755622 0.20912652 -0.041645434
000020 e9 96 b1 3c af a6 7a 3e d8 96 a0 3d 31 79 08 3d
       0.021678405 0.24477647 0.07841271 0.033318702
000030 d1 4a 0e be 54 e4 b4 be 64 8e 7e 3d 1c b8 70 bd
       -0.13895728 -0.3533045 0.062147513 -0.05876933
000040 2d e5 67 3e 5c 44 08 bd a9 f8 ca 3d e5 6a db bd
       0.22646017 -0.033268318 0.099107094 -0.10713748
000050 33 d9 ef bc bc 30 c8 bc b6 a7 33 be 36 44 55 3d
       -0.029278373 -0.0244373 -0.17544445 0.052067004
000060 35 57 7d 3d 64 ec 62 3e 26 20 80 bc d4 4e 69 3d
       0.061850745 0.22160488 -0.01564033 0.056959942
000070 cf 43 ad bd e4 9a 8e bd 7f 76 12 bd 54 42 23 be
       -0.08460199 -0.06963137 -0.035757538 -0.15943271
000080 b3 97 e9 3c 1a f4 d9 3d 5b 4a de 3c 89 d9 5c bd
       0.028514719 0.10642262 0.027135065 -0.053918395
000090 9a 6c 68 3d bc 9e f0 3d c3 1c c0 3e 70 96 61 bb
       0.056744196 0.11749026 0.37521943 -0.0034421943
0000a0 a6 10 37 3e ec e1 cf 3d de 86 6b bd 1a 40 1d 3e
       0.17877445 0.10150513 -0.057501666 0.15356484
0000b0 f7 8f b4 3d c1 47 ec bd c9 83 2a 3e 8f b3 91 bd
       0.088165216 -0.115371235 0.16651835 -0.07114326
0000c0 16 2f 23 3e 8e c8 75 bd 68 06 98 3d 50 1a 03 bc
       0.1593593 -0.060005717 0.07423097 -0.008001879
0000d0 b1 b6 e8 bc f5 b4 46 be cd 84 7c bd 20 01 8a 3d
       -0.028407427 -0.19404967 -0.061650086 0.06738496
0000e0 5d 41 5c bd d1 f0 57 be 97 ae 5e 3e ba 3a a5 bd
       -0.053773273 -0.21087958 0.21746288 -0.08067842
0000f0 80 c1 e5 bb 03 31 71 be 99 58 06 be d3 2a f1 3c
       -0.0070115924 -0.23553853 -0.13119735 0.029439365
000100 97 a7 9d bc 94 ac ce 3e 51 dd 55 be 48 10 dc 3d
       -0.019244952 0.40366042 -0.20885207 0.10745293
000110 8b fd cf bc 0f c0 d9 bc 96 29 98 3e b7 80 2b 3e
       -0.025389453 -0.026580838 0.29719228 0.1674832
000120 63 1e b6 3d a1 e0 15 3e 60 ef 91 3c 93 03 27 be
       0.088925146 0.1463647 0.017814338 -0.16309957
000130 5d b2 3c be 3c df 09 bc 3f 10 e1 3d 2b 64 0a 3e
       -0.18427415 -0.00841504 0.10989427 0.13514774
000140 58 02 35 be a4 da 27 be 57 40 e3 3a e1 56 e5 bd
       -0.17676675 -0.16391999 0.00173379 -0.111982115
000150 29 7f 24 3d d4 3d a3 bd a8 c5 73 bd a3 94 f1 3c
       0.040160332 -0.07970777 -0.05951467 0.02948982
000160 9f 68 ae bd b7 2f 06 be e4 c4 25 3d 95 ec c7 bd
       -0.08516049 -0.1310414 0.040470973 -0.09761921
000170 66 1c b2 3c 5d e5 a7 bd 88 9c 7e 3d fb 86 13 3d
       0.021742057 -0.081980444 0.062161 0.0360174
000180 2a 02 d2 bd c2 d8 20 3d 63 a7 4a be a6 22 55 bd
       -0.10254319 0.039269216 -0.19790415 -0.052034996
000190 1b 0b 1a 3e 01 f9 0d 3e 00 91 60 3d 49 28 25 be
       0.15043299 0.13864519 0.054825783 -0.16128649
0001a0 8f b4 34 bd 5a 2b 04 3d e8 96 a5 3d ec d6 03 be
       -0.044117507 0.032267906 0.08085424 -0.12874955
0001b0 0a bd 01 bd dc 47 60 3c c0 84 f8 bd 01 69 a2 bd
       -0.031674422 0.013689008 -0.12134695 -0.07930184
0001c0 85 05 aa b8 37 48 c7 bd 4e ca 34 bc d1 2b 6d 3d
       -8.10726e-05 -0.09730571 -0.011034561 0.057903115
0001d0 57 61 2d 3d 15 ca b2 bd 69 08 c1 bd 54 c6 2b bd
       0.04232916 -0.0872995 -0.09425432 -0.041937187
0001e0 68 ec a2 3e 17 a3 ce 3d 16 15 8c bd b3 2f 51 3e
       0.3182099 0.10089701 -0.06839959 0.20428352
0001f0 5c da 05 3d 4c 6b 97 bd 67 4a bf bd ce be 22 3e
       0.032678947 -0.07393512 -0.09340363 0.15893099
000200 9a 50 7a be 45 60 01 bd 8a a9 37 be ac 20 7f bd
       -0.2444481 -0.03158595 -0.17935768 -0.062287018
000210 39 f2 2e bd ce 5d 45 3b c6 d7 51 bd 29 f7 9d bd
       -0.04271147 0.0030115726 -0.05123117 -0.07713158
000220 02 3c ab bd a0 bb 06 3e ee bd 09 be 65 65 26 be
       -0.08361055 0.13157511 -0.13451359 -0.16249616
000230 21 e8 24 3d 3f 77 e0 3d f2 b5 c4 3d 59 82 3d 3d
       0.040260438 0.109602444 0.09605016 0.046266887
000240 de 8e 78 be 2c 74 27 be 0c e2 d8 3e 7b 37 77 3b
       -0.2427325 -0.1635291 0.4235996 0.0037722278
000250 fa d1 dc 3d 75 b8 47 be 8a 7a 5f bd 31 33 cb bd
       0.10782237 -0.19503959 -0.05456022 -0.09921873
000260 65 4c fd 3d 9a bf b2 3d 7e 6e 74 3d 4b 2c 00 be
       0.12368087 0.08727951 0.059675686 -0.12516896
000270 79 a6 46 3c d8 67 b9 bb c5 58 c5 3d 4d 7f 08 bd
       0.012124651 -0.005658131 0.09636072 -0.03332453
000280 0e dd a1 3d 02 2d e8 3d eb 1e 98 3d ab be 92 3c
       0.07903491 0.113367096 0.07427772 0.017913183
000290 64 33 33 be 11 06 ee bc 84 a7 ca 3d 42 13 6e be
       -0.17500073 -0.029055627 0.09895232 -0.23249534
0002a0 b2 26 57 bd 01 01 9f 3e 7d 74 53 be 22 54 c4 bd
       -0.052527137 0.31055453 -0.20649906 -0.095863596
0002b0 32 35 63 3e fd 54 30 be 26 d9 af 3d 3e b5 dc 3d
       0.22188261 -0.1721992 0.0858634 0.10776757
0002c0 8e 2b 6c bb b1 df 0c 3e 82 3e d5 bd 56 cb 00 be
       -0.0036036703 0.13757206 -0.10412313 -0.12577567
0002d0 2f e7 1c bd f4 28 65 bc bf 3e c1 3d 1c 7b 91 bd
       -0.03830641 -0.013986815 0.09435796 -0.071035594
0002e0 8b 50 19 be 05 bc ec bb c2 16 13 3d 8b 6f 70 3d
       -0.14972131 -0.007224562 0.035910375 0.058700126
0002f0 60 4a d0 3d 57 fd 27 3e ec 89 fa bd ce 88 67 bd
       0.10170436 0.16405235 -0.12233338 -0.05652695
000300 d5 9d cd 3b ea 91 6a 3c 04 43 15 3c d1 77 f7 bd
       0.0062749186 0.014317015 0.009110216 -0.120834
000310 60 1c 97 be 06 91 47 3d e8 c4 c4 bd 5d fb ab bd
       -0.29513836 0.04872229 -0.096078694 -0.08397553
000320 86 8b ac 3d 44 af a1 3e 1c 74 74 bd 8d 6c 76 3e
       0.084250495 0.3157903 -0.059681043 0.24064846
000330 47 09 ec bd a2 6f 9e 3d d5 41 55 3e 94 0b a9 bd
       -0.11525207 0.07736136 0.20825894 -0.082541615
000340 f8 94 cd ba 62 ae 96 3d 2a e6 38 bd 13 1e 42 be
       -0.0015684655 0.0735748 -0.045141377 -0.18956785
000350 33 b8 ac 3c 70 80 2d bd c9 e5 e3 3d f0 54 c9 bd
       0.021083927 -0.042358816 0.111278124 -0.09830654
000360 26 92 94 bd c2 3f ce 3d 0d a3 c8 3d 21 73 91 be
       -0.07254438 0.100707546 0.097967245 -0.2840815
000370 12 12 31 be d0 41 e4 3d 7c 32 20 3d 99 27 18 3e
       -0.1729205 0.11145365 0.039110646 0.14858855
000380 bd d5 89 3a fd 0c 2f be 3e ec 00 be f6 0a 45 3e
       0.001051597 -0.17094798 -0.12590119 0.19242463
000390 53 f8 9c bd 99 df 1b 3d 50 64 dc bc b3 4b 18 bd
       -0.076645516 0.038055036 -0.026903301 -0.037181567
0003a0 8c b2 bb bc a9 5b 82 3d a8 9a e4 bd 81 16 e1 3b
       -0.022912286 0.06365139 -0.11162311 0.0068691378
0003b0 1e c7 a2 3d 2d c2 1c 3d 18 2c 4a be 44 6e 7d bd
       0.07948135 0.038271118 -0.19743383 -0.061872736
0003c0 8a 01 75 be 42 a6 9a bb 38 dd 95 3d 98 ab b7 bd
       -0.23926368 -0.0047195265 0.07317585 -0.08968276
0003d0 11 d6 37 bd 9d 79 28 3d 4f e9 43 3e 9b 12 0d bd
       -0.044881884 0.041131604 0.19131969 -0.03444157
0003e0 87 39 56 bd 4b d3 59 bc 23 84 a0 3e ef ee c1 3c
       -0.052300956 -0.013295005 0.31350812 0.023673503
0003f0 96 77 91 be 55 d5 4c be ab 3a 24 bd ca db 3c bd
       -0.2841155 -0.20003255 -0.040095013 -0.046108045

fc2.bias f4 [64]
000000 ad 47 ea 3c f7 81 15 3c 8e d3 53 3d b6 d2 91 bd
       0.02859863 0.009125224 0.051715426 -0.07120268
000010 f4 15 c6 3c b0 3a 44 3d 5a a4 af 3d 9e 20 0d 3c
       0.02418039 0.04790753 0.085762694 0.008613734
000020 46 8e 09 bd c9 c8 2b 3d 19 15 d6 bb e1 39 ca bc
       -0.03358295 0.04193953 -0.0065332768 -0.024685802
000030 11 96 6c bc 7c e1 b6 3b 1f 01 57 3d 66 ec b1 3d
       -0.0144400755 0.005581079 0.052491304 0.086876675
000040 f4 96 11 3d 37 78 5f 3d e6 c0 5f bc dc 6b 11 3c
       0.03554435 0.054558005 -0.01365683 0.008875813
000050 e1 42 19 bc 85 08 08 3d 28 bc 39 3b 4d e9 c5 bb
       -0.009354324 0.03321125 0.002834091 -0.0060397745
000060 ff f5 2a bd ed 22 94 bb 39 3e 55 bd cd 12 50 ba
       -0.041738506 -0.004520765 -0.052061293 -0.0007937372
000070 d2 b9 ec bc cb d6 29 bb 01 b9 37 3c f5 9c 07 bb
       -0.0288972 -0.002591538 0.011213542 -0.002069292
000080 47 fa 2f 3d e1 d7 89 ba d3 5f af 3c be 69 08 3d
       0.042963292 -0.0010516607 0.021407997 0.03330397
000090 90 72 87 3c 55 6b 53 bc 1e 89 64 3d 89 d6 1e bd
       0.01653412 -0.012904008 0.055794828 -0.038778815
0000a0 66 b0 47 bd ba ce f9 3b 35 7b 60 3c c3 0d f9 3d
       -0.04875221 0.0076235207 0.01370125 0.12160828
0000b0 34 e9 15 3c d8 67 91 bd af ea bf bc 1f 44 47 3d
       0.009149838 -0.07099885 -0.023427336 0.04864895
0000c0 01 e2 d4 3c 04 1c 8e 3b 41 0e c7 3b b1 2b eb 3c
       0.025986673 0.004336836 0.0060746972 0.028707357
0000d0 bb 59 3a 3d a9 07 8b bd e1 fb 4b 3b 49 06 66 3d
       0.04549573 -0.067885704 0.0031125473 0.056158338
0000e0 7d cd 04 3c 27 37 cd bd cc 31 7d 3c a6 0e be 3d
       0.008105633 -0.10020285 0.015453767 0.09280138
0000f0 fe eb 58 3c 86 6d 3d bc d1 ca a9 3d 5a 6c e5 b9
       0.013239859 -0.011561757 0.08290637 -0.00043759012

mu.weight f4 [8, 64]
000000 04 63 1d 3d d9 d9 91 3d 20 c4 0e be 10 5e 3e bd
       0.038424507 0.07121629 -0.13942003 -0.046476424
000010 95 79 16 be 7c 7f c1 bd 93 28 f4 3d 59 25 ce 3c
       -0.14694817 -0.09448144 0.119218014 0.025164293
000020 ab 36 a2 3d 39 5c 39 be 2e e2 32 bd f1 4c 6d bc
       0.07920583 -0.18101586 -0.043672733 -0.014483676
000030 9c 0e 49 bd b1 7e cd 3d a8 84 7b bd ba b9 15 bb
       -0.0490862 0.1003393 -0.061405808 -0.0022846297
000040 63 06 0b 3d 97 14 ee bd df 95 48 be b5 13 7e be
       0.033941638 -0.11625021 -0.19588421 -0.24812205
000050 b2 0d ff bd 57 7f f1 ba 99 d8 3b 3d de 96 09 3d
       -0.12453784 -0.0018424791 0.04586086 0.033591144
000060 8c c2 09 be 5f d1 a5 3d 43 30 03 be c7 ed 5c be
       -0.1345312 0.08096575 -0.12811379 -0.2157508
000070 59 f3 59 3e 02 90 3c 3d 77 dd 8d bc 16 3b 05 3e
       0.21284236 0.046035774 -0.017317517 0.13010821
000080 4f 93 67 be ac 21 4c bd fe 67 df 3d 01 61 12 bd
       -0.22614788 -0.0498368 0.10908507 -0.03573704
000090 dd d4 54 3e 1e 1f 51 be 3d a1 f8 3c 14 c1 d7 3c
       0.20784326 -0.20422027 0.030350322 0.026337184
0000a0 23 de ff bc 71 0d 6c be ef fe de bd b6 76 0d be
       -0.031233853 -0.23052002 -0.108884685 -0.13814816
0000b0 d6 6b 8e be 4c ee 0d be 50 44 f9 3d fb 8e c2 be
       -0.27816647 -0.13860434 0.12171233 -0.3799971
0000c0 77 b8 28 3e 1d 80 b6 3d 77 e3 19 be 30 5d 02 3e
       0.16476618 0.089111544 -0.15028177 0.1273086
0000d0 41 5b 89 3e 36 4e c2 3c 16 8c 07 3e 95 48 a1 3e
       0.26827434 0.023718935 0.13237032 0.31500688
0000e0 24 41 01 3e 27 28 91 bb 64 02 66 be dc 3e 0d 3d
       0.12622505 -0.0044298354 -0.2246185 0.034483775
0000f0 f8 f4 51 3c c4 f1 8f bd c1 5b 10 be b0 a2 1a bb
       0.012814753 -0.07028535 -0.14097501 -0.0023595504
000100 48 91 20 3c d6 f7 42 3d a2 5f 9f 3e a5 a6 78 bd
       0.009800263 0.047599636 0.3112765 -0.0607058
000110 eb 93 1c be e3 a7 58 be 9c d8 ac 3d 0b 7a 09 3b
       -0.15290801 -0.21157794 0.084397525 0.0020977284
000120 1e fa f1 bd 81 08 51 3e bb 2a 2a 3e aa 7a 81 bc
       -0.11815284 0.204134 0.16617863 -0.015805561
000130 e4 34 50 be 50 df 8c 3d d8 36 5f 3d 63 cc a8 3d
       -0.20332676 0.06878531 0.054495662 0.08242109
000140 3c b8 cb 3d 60 a2 11 bd 31 9f 7f be 86 30 b0 3c
       0.09947249 -0.035555243 -0.2496307 0.021507513
000150 fa 05 f6 3c 97 c6 83 3c 42 b0 73 be 43 c2 35 bd
       0.030032147 0.016085906 -0.23797706 -0.044374716
000160 c7 c7 f3 3b 01 5b d6 3d d9 c8 06 3e 57 88 2a 3e
       0.007439587 0.10466576 0.13162555 0.16653572
000170 b0 33 21 bd 24 1b 92 3c 5c 06 87 3d 03 14 8e be
       -0.039355934 0.017835207 0.0659301 -0.27749643
000180 f5 71 28 bd b8 8e 17 be 4b 9d 65 bd 62 1a 3f 3e
       -0.041124303 -0.14800537 -0.05605821 0.18662408
000190 b1 c3 20 be 72 e1 c6 3d 0d 7f 9e bd 4d 01 36 3e
       -0.1569965 0.09710969 -0.07739077 0.17773934
0001a0 c7 19 a3 3c 0a 5b 14 3d f6 7b d5 bc 08 d4 90 be
       0.019909753 0.036219634 -0.026060086 -0.28286767
0001b0 bc 55 67 3d 06 11 db 3d 9b e5 5c 3c 3b 94 b2 3d
       0.056478247 0.10696606 0.013482477 0.08719679
0001c0 ab 91 ef bd e2 44 07 3d f1 40 51 be b4 e4 41 3d
       -0.11697706 0.033024676 -0.2043493 0.04733725
0001d0 ec 85 51 bd 47 5c ed 3d 4f ba 67 39 c5 22 29 3d
       -0.05115311 0.11589866 0.00022099282 0.041292924
0001e0 1b 25 17 be de d2 c2 3d 3e 9d 4c be dd c9 4c 3e
       -0.14760248 0.09512876 -0.19981858 0.1999888
0001f0 a5 84 10 3e ea 67 a6 3d 61 27 2b be 7c a0 0d 3e
       0.141131 0.08125289 -0.1671424 0.13830751
000200 fe aa 0c 3e 97 fa 2f 3e f2 88 e5 bd a0 a3 42 3d
       0.13737103 0.17185436 -0.11207761 0.047519326
000210 24 e8 da 3c d8 dd 58 3e 63 d4 8b be 73 d0 fa bd
       0.026722021 0.21178377 -0.27310476 -0.1224679
000220 11 23 6e bd 54 b2 95 3d 57 d5 34 3e 3d 20 b1 3c
       -0.05813891 0.07309404 0.17659508 0.021621818
000230 80 6d 56 bd da 2b de 3d a8 66 0c bd e1 4a cf 3d
       -0.05235052 0.10848208 -0.034277588 0.10121704
000240 36 d7 87 bd 71 b5 cb bd 90 94 a0 bd 12 1d 9a 3b
       -0.06632845 -0.099467166 -0.07840836 0.0047031725
000250 db 44 a2 3d b8 db b8 bd 3a 5a 07 bd 24 c3 ea 3d
       0.079232894 -0.09026283 -0.03304503 0.11463001
000260 2c 55 03 bd 28 ce 1d 3e 49 0c 0e 3e 6a 49 a2 3e
       -0.032063648 0.15410674 0.13871874 0.31696635
000270 79 86 b1 bd 23 44 13 be 52 f8 02 be a8 a3 3f bb
       -0.08668227 -0.14381461 -0.12790039 -0.0029241834
000280 8b 46 40 be eb d1 84 be b5 0c 3a be 6f ab 6f 3e
       -0.1877691 -0.25941405 -0.1816891 0.2340524
000290 49 54 35 3e 18 8c 28 3d 5f f8 a4 3d c6 43 35 be
       0.17707933 0.04114923 0.080551855 -0.17701635
0002a0 25 f3 94 3c 08 ad 04 bd 31 53 21 3e 67 36 71 be
       0.018182347 -0.032391578 0.15754391 -0.23555909
0002b0 47 30 b9 3d 02 5d 84 3c 68 3a 58 3e 72 93 7a bd
       0.09042411 0.01615763 0.2111603 -0.06117577
0002c0 73 aa e8 3d e6 cb ac 3c ef e9 33 3e a0 06 1c be
       0.113606356 0.02109332 0.17569707 -0.15236902
0002d0 29 3b 9d bb f4 5c 39 3d 52 e0 60 bd 3e a4 0d be
       -0.004798312 0.045254663 -0.05490143 -0.13832185
0002e0 2e c2 75 3c 90 4d 8c 3d 11 46 19 3e 08 65 90 3c
       0.014999909 0.068507314 0.14968134 0.0176263
0002f0 f5 bf 06 3c 2a e0 4d 3d 35 0c f6 3d 7c ee b1 bc
       0.008224477 0.050262608 0.12014047 -0.021720164
000300 f9 a6 4e be 2e 95 29 3e 16 6c 14 3d 3d c9 31 3e
       -0.20180883 0.16560814 0.03623589 0.17361923
000310 6d cc 1c be 12 38 9b 3d 73 d5 87 3d eb 1a 06 3e
       -0.15312357 0.07579054 0.06632509 0.13096206
000320 7f 0f 5b bb 9e 6f c3 3d 2d dd 13 be 5c d0 1a 3e
       -0.0033425984 0.09542774 -0.1443984 0.15118545
000330 85 69 04 be 71 3c 71 bb f0 24 19 bd 23 96 d5 bd
       -0.12930878 -0.0036809708 -0.037388742 -0.10429027
000340 65 3b 23 be d9 e8 ac 3d 45 e6 e1 bc 38 da 1f be
       -0.15940626 0.0844285 -0.027575621 -0.15610588
000350 ce 0d f7 3d 81 d4 56 bc b4 59 00 be 5c 24 2f bd
       0.1206318 -0.013112188 -0.12534219 -0.042759284
000360 9c ff a3 3d 25 a3 9a bc bd a5 07 be 8d 0e 8e 3d
       0.08007738 -0.018876621 -0.13246818 0.06936369
000370 33 c0 94 3d 2e 85 06 3e f2 48 06 3e fa 05 53 bd
       0.072632216 0.13136742 0.13113764 -0.05151937
000380 2a de ed bd bd e0 2f 3d 75 a0 0b be a0 23 5f bc
       -0.1161464 0.042938937 -0.13635428 -0.0136193335
000390 73 21 3c 3d 4a 6c de bc a0 a6 ca 3d 65 4f 10 3e
       0.045930337 -0.027151246 0.098950624 0.14092787
0003a0 90 95 49 bd df 52 a7 bc 83 db 01 3e 45 7c 97 bd
       -0.0492149 -0.020425258 0.12681393 -0.073967494
0003b0 35 20 01 be a1 93 15 3e d7 4c 02 3d 05 cf c7 bd
       -0.12609942 0.14607097 0.03181156 -0.09756283
0003c0 d7 20 8e 3c 3c ed d7 bd 71 a3 0c 3d 53 6f d5 bd
       0.017349644 -0.10543296 0.034335557 -0.10421624
0003d0 6c 55 da bc 83 bd b0 3e 9a 1c ee bb 5f 67 3e 3d
       -0.02665206 0.34519586 -0.007266593 0.0464853
0003e0 36 2d 76 3e f8 94 49 bd 05 3a 57 bc ff d2 8d be
       0.24040684 -0.049214333 -0.0131363915 -0.2770004
0003f0 93 58 91 bd e8 59 a0 3c 5b 2e e2 3d 39 19 19 3e
       -0.07096972 0.01957412 0.11043998 0.14951028

mu.bias f4 [8]
000000 6f 99 66 bc 3f 8d 07 bd cd b8 cb bc d8 5e 27 bd
       -0.014074667 -0.033093687 -0.024868393 -0.040861934
000010 15 e0 46 3d 2a 67 93 3d eb 25 53 3d 2b 7f 76 3d
       0.048553545 0.07197411 0.051549833 0.06017987

fc1.weight f4 [64, 111]
000000 c5 7b 79 be 70 7c 00 3f b7 58 b7 3d e4 fb 00 be
       -0.2436362 0.50189877 0.08952468 -0.12596089
000010 cf 00 6b bd d0 17 60 3d 10 92 72 bc d4 3a 07 3d
       -0.057373818 0.05471021 -0.014805332 0.033015087
000020 81 e0 f0 bd a1 98 cf bd 5a 45 bc bd fa 60 86 3d
       -0.11761571 -0.101365335 -0.09192915 0.065614656
000030 cb 00 0f 3e 6d 44 c2 bd 64 9b 4c bd 68 2e 04 be
       0.13965146 -0.094857074 -0.04995288 -0.12908328
000040 82 d8 3d 3b 17 d9 65 3e 29 07 19 bd 92 76 62 bc
       0.002896816 0.22446094 -0.037360344 -0.013822215
000050 5c e7 78 3d d3 97 3c 3b fc 3e 02 3c 4a 2e bb bc
       0.060767516 0.0028777018 0.007949587 -0.02284922
000060 65 76 05 3d fd 04 b9 bc 42 6a 4a 3c 37 a9 bd bd
       0.032583613 -0.022585386 0.012354435 -0.09260791
000070 b5 79 82 be 33 c6 c1 bd dd 0d d5 3d ad 1c 2e 3e
       -0.2548348 -0.094616316 0.10403035 0.17003126
000080 b7 d0 e3 3d ba f3 15 3c 9d cf 8d bd f7 1d 13 3e
       0.111237936 0.009152347 -0.06924365 0.143669
000090 66 02 86 bd cb e3 de 3c c6 66 18 3d 70 5c 05 bc
       -0.06543426 0.02720823 0.037207387 -0.008139715
0000a0 2e 10 a4 bd 29 0c 94 3d 4e 6f 46 be af 9d d5 bc
       -0.080108985 0.07228882 -0.19378397 -0.026076166
0000b0 ff 6e 43 be 33 08 01 bd 5a cf d4 bc a3 52 2c be
       -0.1908531 -0.03150196 -0.02597778 -0.16828398
0000c0 8d 87 9d bd 2e c7 0b 3e 16 37 ca bd cf 5d ba 3d
       -0.0769187 0.136502 -0.09873788 0.09099924
0000d0 61 79 a1 be 33 f6 2c 3d 3c 49 a5 3d 90 ce 1a 3d
       -0.31537917 0.04222698 0.08070609 0.03779465
0000e0 57 00 b3 bc b5 b2 91 3d 30 78 e6 bd 83 8c 04 be
       -0.021850748 0.07114164 -0.11253393 -0.12944226
0000f0 b8 54 34 bd 39 d5 94 3d 50 fa c4 bb 20 c4 68 bd
       -0.044026107 0.072672315 -0.006011285 -0.056827664
000100 ac d3 a1 3d 64 38 8d 3d b6 b3 eb bd a8 b5 8c bc
       0.07901701 0.06895521 -0.115088865 -0.017176464
000110 e3 87 c5 3d 3a e9 0c 3e 6b d8 b6 3d 1b ce b4 3c
       0.09645059 0.13760844 0.08927997 0.022070935
000120 50 20 a8 bd 86 de a2 bd 8b 8d a6 bc 1a 1b 6c 3c
       -0.08209288 -0.07952599 -0.020331165 0.014410758
000130 37 53 ee bd 6f 01 df 3c 24 6c e5 3b 29 09 b7 bc
       -0.11636966 0.027222363 0.0070014168 -0.022343235
000140 2b 18 df bd 71 64 c9 bd 54 6b f7 3c 08 de 71 3d
       -0.108932815 -0.09833611 0.030202545 0.059049636
000150 2d 3f 39 be e4 ea 29 3c 9e 0a c3 bd de 0f 4e bc
       -0.18090506 0.010370944 -0.095235094 -0.012577025
000160 3a a7 6a bd 7c 3f 5c 3e 48 d7 3a be eb aa 2e 3d
       -0.057288386 0.21508592 -0.18246186 0.04264347
000170 79 5e 8c bd 71 62 d2 3c 88 32 e8 3d 8d 9a 2f bc
       -0.06853957 0.025681706 0.11337763 -0.010718
000180 5a 45 13 bd 3c 6e 87 3d ff 19 79 bd 25 54 21 bd
       -0.03595481 0.066128224 -0.060815807 -0.039386887
000190 7a 89 42 3d a8 c3 a8 3d 4f 5f dd bc 27 28 ac bc
       0.04749439 0.082404435 -0.027022986 -0.02101524
0001a0 0f b1 a1 3d b7 2c 36 bd a0 0b c4 bc 38 fa be bd
       0.07895099 -0.044476237 -0.023931324 -0.09325069
0001b0 d3 26 9e bb 97 2a da 3d 5c 9b 8f bd a4 06 d4 be
       -0.0048264056 0.106526546 -0.07012054 -0.41411316
0001c0 86 da 3a 3f bc 6d 95 3d 67 8b 54 be 35 2b d4 3d
       0.7298969 0.07296321 -0.20756303 0.103598036
0001d0 34 58 12 3e f9 70 8b 3c ee 30 f7 3c 43 ce e5 3d
       0.1429146 0.017021643 0.030174699 0.11220982
0001e0 40 c4 49 3e 01 3d 6f bd 6e 48 c6 3d 6b f4 11 bd
       0.1970377 -0.058407787 0.096817836 -0.035633486
0001f0 e3 9e 00 3d 3a fe 9f 3c 8b 90 3f be c9 15 fb bc
       0.031401526 0.019530404 -0.18707483 -0.030650036
000200 3f a0 13 bd cd 42 0e 3d 0e 63 a7 bc c1 9a 50 bc
       -0.036041494 0.034731675 -0.020432975 -0.012732209
000210 fa 0e 59 3c 5e e7 ac bc d8 7c 70 bb f8 44 f0 bc
       0.0132482 -0.021106418 -0.0036695506 -0.029329762
000220 2d a8 0d 3d 92 8d a3 bb ce 3e 4b bd bf cc 31 3d
       0.034584213 -0.0049912417 -0.049620442 0.04340815
000230 e2 22 b0 3d 3f 7a 84 3d 12 55 53 3d b6 36 16 be
       0.08600403 0.06468629 0.0515948 -0.14669308
000240 38 c4 18 3d 8f b6 20 3d e2 78 4f bd 54 20 89 bd
       0.037296504 0.0392366 -0.050652392 -0.06695619
000250 5d a6 5e bc fb ec 5f 3d b2 4a 96 bd 75 65 54 bd
       -0.013589469 0.05466936 -0.07338466 -0.05185457
000260 3b 28 7a 3d 68 17 e2 3d d9 40 18 bd 65 a1 fb 3d
       0.061073523 0.11039621 -0.03717122 0.12286643
000270 5f bb 16 3d 2e 7d 12 bd 8e a4 fd 3d 44 68 f6 bd
       0.036799785 -0.035763912 0.12384902 -0.12031606
000280 58 cb 29 b9 d5 bb 38 be ec b7 43 bd da 7e f0 bd
       -0.00016192847 -0.18040402 -0.047782823 -0.11742945
000290 29 2c a1 bc e8 2b 95 bd 92 60 44 3e 22 ff 07 be
       -0.019674378 -0.07283765 0.19177464 -0.13280919
0002a0 19 bb aa 3b 4c 9a 1a bc 4e f4 27 3e 42 0f dd bc
       0.005210292 -0.009436201 0.16401789 -0.026984815
0002b0 75 e7 cb bc b7 ef a6 3d 03 06 d6 3d 61 bb fe bb
       -0.02489064 0.08151191 0.104503654 -0.007773802
0002c0 d4 3c 54 3c ae 4c 28 3e 33 48 14 3e c0 96 18 3e
       0.012953956 0.16435501 0.14480667 0.14901257
0002d0 35 e4 5f bc 9f 28 b4 bd f7 9c d2 3b b3 29 14 3e
       -0.013665249 -0.0879681 0.006427403 0.14469032
0002e0 22 db 52 bd cd 6d a7 3d 71 b6 a5 3d a1 66 d4 3d
       -0.051478513 0.0817524 0.080914386 0.103711374
0002f0 3a d2 17 bd 7c 30 de bc d6 67 24 3e 05 86 18 be
       -0.037065722 -0.027122729 0.16055235 -0.14894874
000300 4a a6 63 bd 09 4c 04 3e a0 58 b9 bd 22 18 cf bb
       -0.055578507 0.1291963 -0.09050107 -0.0063200155
000310 b2 29 43 be 29 31 c8 3d 47 0c 9d bc 65 60 d0 3d
       -0.19058874 0.097750016 -0.019170893 0.10174636
000320 7d 06 a5 3c f8 6e a2 3c 21 5e 07 3e 73 86 53 bd
       0.020144695 0.019828305 0.13219501 -0.051641893
000330 63 3c e4 3c fe e7 5a 3c 9b c8 d6 39 6a 14 9f bd
       0.027860826 0.013360975 0.00040966723 -0.077675655
000340 a3 f2 b0 bd 40 81 98 3d c2 9b cf 3d 06 36 96 3d
       -0.08640029 0.074465275 0.1013713 0.07334523
000350 a4 4b 63 3e 33 f7 30 bd 69 4d 3e 3e 70 9e 80 3e
       0.22196823 -0.043204498 0.18584217 0.25120878
000360 49 3f a3 bc 81 a5 93 3b e7 d7 09 be 15 7a c1 bd
       -0.019927638 0.0045058136 -0.13461266 -0.094471134
000370 28 8f 47 bd 87 dc 0b bd f5 d1 a0 3e c2 da 26 bf
       -0.04872051 -0.03414586 0.31410185 -0.6517755
000380 03 06 15 3e e1 ce f9 bd fa a0 12 bf 8c b8 51 3d
       0.14553075 -0.12197662 -0.5727688 0.05120139
000390 af 78 3c 3c 6d 73 3f be 69 0b af bb 71 14 67 bc
       0.011503383 -0.18696375 -0.0053419364 -0.014103995
0003a0 b8 cd 74 bd 89 85 9c 3d 4a 95 34 3e e2 e9 73 3d
       -0.0597665 0.07642657 0.17635074 0.05954922
0003b0 15 4c 16 3e 55 0f 21 3e 40 fc 2b be 78 43 c0 3d
       0.1467746 0.15728505 -0.16795444 0.09387869
0003c0 d3 04 24 be ee 1c 12 bd d0 94 31 3d 78 6e f6 bc
       -0.16017465 -0.03567212 0.04335481 -0.030081972
0003d0 d9 d4 f8 bb 34 97 50 bd 5f 0a d9 3b f5 2d ad bd
       -0.007593733 -0.05092545 0.006623551 -0.08456031
0003e0 c1 e1 97 bb ac 6d f0 bd 7d 37 2d 3c c8 1a 8b 3d
       -0.0046350663 -0.11739668 0.0105723115 0.067922175
0003f0 5c f3 03 3d 6b 35 6b bd ea 6a 5e bd 22 41 d0 bd
       0.032214507 -0.05742399 -0.05430118 -0.10168673

fc1.bias f4 [64]
000000 1a 14 69 3e 0d 3e 09 be 38 bb 9b bd 7f 6d 58 3e
       0.22761574 -0.13402577 -0.076040685 0.2113552
000010 9c e5 fb bd 21 20 40 be 6e 12 00 bf fc 9e 08 3f
       -0.12299654 -0.18762256 -0.5002812 0.5336759
000020 43 6d 9f 3d 0d 83 1b 3f aa ec 3f 3e da 07 08 3e
       0.07784512 0.6074684 0.18742624 0.13284245
000030 c9 f5 7f be 01 95 e5 3e b9 67 65 be be f6 8d 3e
       -0.24996103 0.44840243 -0.22402848 0.27727312
000040 3c b9 51 3f 92 5f 45 3f 95 46 d7 3d f3 bb 0c 3f
       0.8192327 0.77098954 0.10511509 0.5497429
000050 19 b2 89 bd b6 60 2f bd 01 39 f7 3e 75 ef 59 be
       -0.067234226 -0.04281684 0.48285678 -0.21282752
000060 f3 96 07 be a3 94 6d 3d de fb 2f 3e 00 37 69 be
       -0.13241176 0.05800308 0.17185923 -0.22774887
000070 a1 d5 4b 3e ee 0d c6 3e 0e fb 09 bd 20 21 81 be
       0.19905712 0.38682503 -0.03368669 -0.25220585
000080 96 8d 37 3e 76 d6 1b 3f d9 7e 0d bd 34 d6 2b 3e
       0.17925104 0.60874116 -0.0345448 0.16780931
000090 5d 9d 3f be 93 4e 15 be b1 55 3e be 62 f2 70 3e
       -0.18712373 -0.14580755 -0.18587376 0.23529962
0000a0 ae 00 73 be 04 78 83 be 95 1f 5e 3f ad 1b 72 3e
       -0.23730728 -0.25677502 0.8676694 0.2364337
0000b0 0b e4 5d bd 82 4e 1a be 71 e9 8a bd 8d 30 41 be
       -0.054172557 -0.15069011 -0.06782807 -0.18866177
0000c0 9f 3c 16 bf 27 50 60 3e 36 a1 d3 3c 29 52 1b be
       -0.5868625 0.21905576 0.025833707 -0.1516806
0000d0 e9 89 9b bd a0 d7 ae b9 ff 0b bc 3e 24 e8 a4 3d
       -0.07594664 -0.0003334852 0.36727902 0.0805209
0000e0 ee 6e 1a be e3 00 1d be c7 38 b0 be c8 70 bd 3e
       -0.15081379 -0.1533237 -0.34418318 0.37000108
0000f0 5e 31 eb 3d 03 b0 86 3e bb 1c 15 3d 11 e8 c0 bd
       0.114840254 0.2630616 0.036404353 -0.09419263

fc2.weight f4 [64, 64]
000000 43 c6 e0 bd 2d b6 6f 3f bc d6 6e 3e d1 77 2a 3d
       -0.109753154 0.93637353 0.23324102 0.041618172
000010 8b 14 8a be a4 28 60 3f 70 a8 67 3f 9b 3c 07 be
       -0.26968798 0.8756201 0.9049139 -0.13206713
000020 90 bf 9b bd c5 3c c7 be 4a e4 c8 be 09 ef bd be
       -0.07604897 -0.3891355 -0.3923667 -0.37096432
000030 7d 46 86 be 1f d3 a4 3d 8c fa 5c 3e b9 6b fb be
       -0.26225653 0.08048081 0.21579951 -0.49105623
000040 ec 22 ff be c6 e2 ac bf 22 7b d9 bd c7 bb 4d bf
       -0.4983133 -1.3506706 -0.10619189 -0.8036465
000050 c3 68 70 3f 37 48 d0 be 11 e9 97 be 41 a0 54 3f
       0.93909854 -0.40680096 -0.29670003 0.8305703
000060 62 14 47 3f a0 7f 2f bf 67 83 0c bf 53 3b ae 3d
       0.77765477 -0.68554115 -0.54888004 0.08507409
000070 2a df a4 3c 44 f1 da be 8f d0 fc 3c 7f d5 71 3e
       0.020125944 -0.42762196 0.030861167 0.23616599
000080 7b 28 27 bf 42 81 8f be 5e 36 36 3f 13 b8 89 bf
       -0.65296143 -0.28028303 0.7117671 -1.07593
000090 02 a5 47 3f a4 a5 43 be 6d 05 b8 3e ef d7 6b bf
       0.77986157 -0.19106156 0.3594164 -0.92126364
0000a0 58 fc cb 3e fa 14 ad bd 18 fb 69 bf 62 eb 8a 3e
       0.3984096 -0.084512666 -0.91398764 0.27132708
0000b0 97 cf 64 bc d8 32 1e 3e d7 8f 36 bf ee 82 db be
       -0.013965509 0.15449083 -0.7131323 -0.4287333
0000c0 db 6f 28 3f 82 c3 74 bf 9c 2a 4c 3e 0f 3f fa be
       0.6579568 -0.9561082 0.19938129 -0.48876235
0000d0 c1 53 cb 3e 9c 62 e1 bd d1 08 27 bf 35 1c 61 3e
       0.39712337 -0.11005136 -0.6524783 0.21983416
0000e0 82 45 f6 3e 89 58 bf 3e 28 43 dd be 0a 6c c1 3d
       0.48099905 0.37372234 -0.432153 0.09444435
0000f0 ad 94 6a 3d 8d 7c 93 3e 4f a9 d3 be 27 e6 04 3f
       0.057270695 0.28805962 -0.4134011 0.51913685
000100 99 f4 cc 3e 21 0d 3c 3e 6b 2f 8c bd 70 b5 40 3f
       0.40030363 0.18364383 -0.06844982 0.7527685
000110 09 85 a0 3c fd 4f da 3e 7c 21 f9 3e cd ad 24 be
       0.019594686 0.4263915 0.4865836 -0.16081925
000120 86 6b 8b 3d ef c4 d4 3e 4f 0f 04 3f 37 73 e1 3e
       0.06807618 0.41556498 0.5158586 0.44033214
000130 d9 d0 f4 be e1 34 9e 3c 93 04 23 3e 60 1f 47 3e
       -0.47815588 0.019312324 0.15919714 0.19445562
000140 05 d7 86 3e 34 b8 a6 be 27 9d 18 3d cf 5a 9d bc
       0.26335922 -0.3256241 0.037259247 -0.01920834
000150 fd 88 4e be a0 a4 9c 3d 8a 15 85 3e 07 69 68 3d
       -0.20169444 0.07648587 0.25992996 0.056740787
000160 78 05 40 3e 00 ef 46 bf 67 63 17 3e b5 31 bc bd
       0.18752086 -0.77708435 0.14784013 -0.09189168
000170 a8 2f 2b 3e d8 a0 6f 3c f9 6a 93 be 24 9f b1 3d
       0.16717398 0.0146257505 -0.2879255 0.08672932
000180 45 f0 11 bd e5 c3 13 bf d6 d1 bb be 4b f2 97 3e
       -0.03562953 -0.57720786 -0.3668353 0.29677042
000190 db e6 9f bd 25 7c aa be 84 cf 90 3d db e5 e5 3d
       -0.07807704 -0.3329784 0.070708305 0.11225482
0001a0 55 20 0b 3e 8d fd 12 be 23 9f 92 be 09 c1 15 3e
       0.13586552 -0.14354534 -0.28637037 0.14624418
0001b0 22 93 8c be a4 06 29 3d ad cb c7 be ba f3 26 bf
       -0.27456003 0.0412661 -0.3902258 -0.6521565
0001c0 cc 30 a4 bc 3d 05 0f 3e 65 ce d9 bd 97 69 af be
       -0.0200428 0.13966842 -0.1063507 -0.34260246
0001d0 20 f4 7e be 64 98 59 be c8 76 fc 3e c0 42 e4 3d
       -0.24897814 -0.21249539 0.49309373 0.11145544
0001e0 04 14 fc 3e e0 40 11 be 6a ed ef bd fa 66 b0 be
       0.4923402 -0.14184904 -0.11715205 -0.34453565
0001f0 c8 cf 67 bd ca 32 28 3f 71 d0 33 3e c7 e2 76 3d
       -0.05659464 0.657025 0.17559983 0.060274865
000200 c3 51 eb bc c1 34 22 be f7 b1 44 3f 02 27 86 be
       -0.02872551 -0.15840437 0.7683405 -0.26201636
000210 12 77 2a be ef de 8c 3d 25 25 83 3f 12 bb 4a bf
       -0.16646984 0.06878459 1.0245711 -0.79191697
000220 c9 9a ac 3e 8b 53 89 bd a3 79 c0 be 31 41 f0 3e
       0.33711842 -0.06705388 -0.375928 0.46924737
000230 20 ae 8a 3e ac f5 9a bf ed 2a 4c 3f 99 28 b7 be
       0.27085972 -1.2106223 0.79753 -0.3577316
000240 a2 13 f7 bf c4 42 f9 bf 1e eb 59 3e 01 fe 87 bf
       -1.9302866 -1.94735 0.21281096 -1.0624391
000250 df f6 4e ba 21 2a d6 3e 2d ab 00 bf 27 96 c3 3d
       -0.0007895063 0.41829017 -0.50261194 0.09550124
000260 4e 13 01 3e 3c c7 45 be d3 11 e2 be db e6 9b bd
       0.1260502 -0.19314283 -0.44154224 -0.076123916
000270 e7 fb 3a be ca 8b e5 be f4 42 02 bf f1 29 fb 3d
       -0.18260156 -0.44833213 -0.5088341 0.12263859
000280 e1 d0 ed bd 63 7d b9 bf 92 5f 37 be 52 9a 19 be
       -0.11612106 -1.449139 -0.17907551 -0.15000275
000290 d6 d9 db 3e 14 28 88 3e ee 55 04 3f 14 ee dd bd
       0.42939633 0.26593077 0.5169362 -0.108364254
0002a0 cd b7 fc bd 42 d5 26 be c9 7a e2 bf d9 19 ee be
       -0.12339745 -0.16292289 -1.7693721 -0.46504095
0002b0 2e 21 05 be 79 6f a7 3e e5 c9 47 be c3 18 7f bd
       -0.13000938 0.32702234 -0.1951061 -0.062279474
0002c0 f7 07 4c 3e 14 16 70 3c 85 45 df 3d 80 38 18 3e
       0.19924913 0.014653701 0.10901932 0.14865303
0002d0 69 e0 aa be a3 4d 3d bd 5c b2 0a bf d5 f9 f5 3c
       -0.33374336 -0.04621662 -0.54178405 0.030026356
0002e0 c3 5b 56 3f 8b 96 02 3e e8 e2 bf 3d 3d b8 e2 be
       0.8373377 0.1275274 0.09369451 -0.44281188
0002f0 0a 8c 22 3e c9 c4 b6 3e e6 93 b2 be 5f d2 ab be
       0.15873733 0.3569701 -0.34878463 -0.33558938
000300 aa 72 f2 3e b7 40 84 3f bf 37 20 bf 78 76 e2 3e
       0.47353107 1.0332249 -0.6258506 0.4423101
000310 84 46 44 3f 4e b4 96 3e e5 57 ed be d7 f3 2a 3f
       0.766701 0.29434437 -0.4635612 0.6677832
000320 4d d9 8b bf 7b 95 fe bd 9c a4 3a 3f e8 aa 9a bf
       -1.092569 -0.12430855 0.72907424 -1.2083406
000330 f2 60 70 bf 56 40 5a 3f 0a 11 a6 bf 0d a5 bc be
       -0.93897927 0.8525442 -1.297395 -0.36844674
000340 95 bd 48 3f 58 d0 12 3f 8b f2 3d bf da 31 3d 3f
       0.7841428 0.5734916 -0.74198216 0.7390419
000350 65 70 ef 3e 64 61 8d bf f1 d8 22 3f 71 52 ce 3e
       0.46765438 -1.1045346 0.63612276 0.40297273
000360 83 51 37 3f ed e5 c4 be 2b ca c7 be 99 20 2d 3f
       0.7160875 -0.3845667 -0.3902143 0.67627865
000370 c0 65 5f 3f 4e 2d ba be f5 09 06 3f b6 f1 0f 3f
       0.87264633 -0.3636269 0.52358943 0.56228197
000380 5c 1d 1f bf 43 a7 63 3f c0 b0 ff 3e cf 4f 28 bf
       -0.62154174 0.88927096 0.49939537 -0.6574678
000390 84 1d f3 3e 8d c6 94 be ae 76 13 bf ba 11 ed be
       0.47483456 -0.29057732 -0.57602966 -0.46302587
0003a0 45 e0 9e 3e 06 96 e7 be 07 2a 38 3f a2 60 22 3f
       0.3103048 -0.45231646 0.7193913 0.634287
0003b0 7c cd 5a 3f f0 dc 4e bf 26 10 92 3e 28 a3 93 3e
       0.85469794 -0.80805874 0.28527945 0.28835416
0003c0 f0 09 33 bf 73 a6 28 bf 3a db 06 bf 95 41 fe 3e
       -0.6993704 -0.6587898 -0.52678263 0.4965941
0003d0 5b ac dd 3e 77 be 89 3e 46 91 7e 3d b7 7b 16 bf
       0.4329556 0.26903126 0.062150262 -0.58782524
0003e0 8d ad c5 be fb fa 11 3f 22 81 6c 3f f3 47 be 3e
       -0.3860897 0.5702359 0.9238454 0.37164268
0003f0 6f 82 b1 3d 66 bf 01 3f 0a 2c cc bd 93 a3 71 3f
       0.08667456 0.50682676 -0.09969337 0.9439022

fc2.bias f4 [64]
000000 15 68 5d bf 84 31 01 3e 03 74 1f bf d7 bf f7 bd
       -0.8648694 0.12616545 -0.62286395 -0.120971374
000010 bf f8 37 be 82 28 22 3f f8 d8 a5 3f 49 a1 c0 3e
       -0.17965983 0.6334306 1.2956839 0.3762305
000020 5b 37 9e be 3f c4 4a 3d a2 ed ce bf ab 3d cc bf
       -0.30901608 0.04950356 -1.616627 -1.595632
000030 bb 38 34 be 30 28 49 be c8 bb c6 3f 1e f6 be bd
       -0.17599766 -0.19644237 1.5526056 -0.09324287
000040 56 6a d2 be 76 c8 ab 3f 8f 3e 78 3e 0a 43 ad 3f
       -0.41096753 1.3420551 0.24242614 1.3536084
000050 21 cd a0 be 6a 51 97 be e4 8b 2d bf bd 58 da be
       -0.314065 -0.29554302 -0.6779158 -0.42645827
000060 48 63 aa 3e 4c f9 22 bf 09 db 0c bd 8b 09 43 bf
       0.3327887 -0.63661647 -0.034388576 -0.76186436
000070 33 f8 d3 3d 0f f0 85 bd a2 27 ba be db 81 59 bd
       0.103500746 -0.06539928 -0.36358362 -0.053102355
000080 99 0b 9d 3e d7 3c bb be 86 13 ab 3e e4 60 14 bc
       0.3067291 -0.36569855 0.33413333 -0.009056304
000090 69 6e 0e be b4 3a 7d 3d 15 91 76 bf 38 aa 9b bd
       -0.13909306 0.06182356 -0.9631513 -0.07600826
0000a0 24 41 d5 bf c3 6f 6c bd 9a 5d 17 3f 3f 2f 07 3c
       -1.6660504 -0.05772377 0.591272 0.00825101
0000b0 88 13 af bd 35 0c 7f bf 87 29 b0 be 19 a6 46 bb
       -0.08548647 -0.99628 -0.34406683 -0.0030311404
0000c0 05 fe 0d 3f e7 82 69 3e b5 b4 80 3f f4 cf 42 3f
       0.5546573 0.22803842 1.0055147 0.7609856
0000d0 0a c1 22 3f e3 af c1 bd ed f5 5c 3d 15 cf 58 3f
       0.63575804 -0.09457376 0.05394547 0.8469098
0000e0 3b 95 ca 3d 66 d3 92 bb 37 ac b5 3f b1 cf d3 3f
       0.09891745 -0.004480767 1.4193181 1.6547757
0000f0 b9 b2 c2 bd fe a9 0d bf 2e 2f 05 bc 3d 14 b8 bf
       -0.09506745 -0.5533751 -0.008128924 -1.4381176

value.weight f4 [1, 64]
000000 8f 2d e0 c0 c0 7c df c0 6d 29 cd c0 57 5d d1 40
       -7.0055614 -6.9839783 -6.411307 6.542644
000010 8f 7f d3 40 dd 9d d7 c0 a4 84 e0 40 05 a1 c5 40
       6.609321 -6.7380204 7.0161915 6.1759057
000020 c6 0b ca c0 43 a6 c3 c0 80 cc e2 c0 cc 8b ec c0
       -6.313937 -6.1140456 -7.0874634 -7.392065
000030 fa b7 d2 40 8c 3b d7 40 c0 a8 d1 40 25 26 d7 40
       6.584958 6.726019 6.5518494 6.7234063
000040 86 6c c8 c0 2e b1 e4 40 3a 86 d2 c0 6b 05 d4 40
       -6.2632475 7.1466284 -6.578885 6.6256614
000050 3f 34 d3 40 f0 51 d1 40 dc fb d2 c0 be bd cf 40
       6.6001277 6.541252 -6.5932446 6.491912
000060 06 9b cf c0 10 28 cf c0 82 80 d1 40 ea bb c7 c0
       -6.4876738 -6.4736404 6.546937 -6.2416887
000070 84 b1 d6 c0 54 f1 cf c0 7d 9a d1 40 a6 c1 d4 40
       -6.7091694 -6.498209 6.5501084 6.6486387
000080 98 41 d4 c0 c1 3c cd 40 3d af ce 40 91 9c d5 c0
       -6.633007 6.4136662 6.4588914 -6.675362
000090 41 1f e0 c0 eb 20 c7 40 53 25 ea c0 c0 d7 d3 c0
       -7.003815 6.2227683 -7.317056 -6.6200867
0000a0 48 67 e8 c0 91 89 cd c0 c2 ed e1 40 85 88 d4 40
       -7.2626076 -6.423043 7.060273 6.641665
0000b0 12 13 d3 40 06 61 e6 c0 91 01 d2 40 bd a8 d1 40
       6.596078 -7.1993437 6.562691 6.551848
0000c0 94 43 c4 40 ed 95 d5 c0 2f 38 e1 40 f1 60 c7 40
       6.1332493 -6.6745515 7.0381083 6.2305837
0000d0 62 46 c8 40 91 41 cc c0 42 2a d2 c0 63 a4 d3 40
       6.2585917 -6.3830037 -6.5676584 6.6138167
0000e0 7f af d1 40 53 64 d3 40 2f 3e d6 40 53 80 ea 40
       6.552673 6.6059966 6.695091 7.3281646
0000f0 e1 4f cc c0 1b fa c7 40 5d 6f d2 c0 0f e6 e0 c0
       -6.384751 6.2492805 -6.576094 -7.0280833

exp_avg f4 [1, 8]
000000 d2 20 14 ba 78 3c 17 bb 31 62 24 bb b3 dd 0b bb
       -0.00056506426 -0.0023076814 -0.002508294 -0.002134186
000010 2f 01 d4 3b 9a 2a f2 3a f8 a9 2e ba dc bd 8a bb
       0.0064698677 0.0018475831 -0.00066629006 -0.004234059

exp_avg_sq f4 [1, 8]
000000 ba 39 dd 38 82 0c ba 38 77 6f cd 38 30 ce ed 38
       0.000105488536 8.871501e-05 9.795924e-05 0.00011339446
000010 de 85 c7 38 b6 62 c4 38 98 69 cd 38 d2 b0 03 39
       9.513994e-05 9.364395e-05 9.79483e-05 0.00012559004
