drl/ran2/Ant20000_ran2_weights.pth (torch, 292848 bytes, 36 tensors)

log_std f4 [1, 8]
0	0xbfb303e9	-1.3985568
1	0xbff1d4b0	-1.8893032
2	0xbf9e7deb	-1.2382177
3	0xbfacf76f	-1.3513011
4	0xbfb7d0be	-1.4360578
5	0xbfb70c52	-1.4300635
6	0xbfa7c5c7	-1.3107232
7	0xbfb499e2	-1.4109461

fc1.weight f4 [64, 111]
0	0xbe5d4c70	-0.2161119
1	0x3bd29b66	0.0064272163
2	0x3e1da99f	0.15396737
3	0xbcdb0719	-0.026736783
4	0x3e0dde7a	0.138544
5	0xbda4cc43	-0.08046772
6	0xbd30b5e4	-0.043142214
7	0x3d5c1c9d	0.053738225
8	0x3da99a4d	0.08281384
9	0x3d6d1622	0.057882436
10	0xbe5dacc4	-0.21647936
11	0xbe3b4609	-0.18288435
12	0x3de36949	0.11104066
13	0xbdd4e0c7	-0.103944354
14	0xbbfe7a91	-0.007766076
15	0x3d02b5e8	0.03191176
16	0x3b2e9cb8	0.0026643705
17	0x3ca3dea8	0.020003632
18	0xbdda7bd2	-0.10668148
19	0xbd215073	-0.039383363
20	0xbe3ab9b4	-0.18234903
21	0x3ceae1b1	0.028672071
22	0xbe3c8b0a	-0.18412414
23	0xbd0f4c48	-0.034984857
24	0x3bda7f1a	0.0066679837
25	0xbce4c7d9	-0.027927326
26	0x3ddc45be	0.1075549
27	0xbbff4fee	-0.007791511
28	0xbd0e1d58	-0.034695953
29	0x3d688712	0.056769438
30	0xbd8d5421	-0.06900812
31	0xbccac91d	-0.024754101
32	0x3d8a4097	0.06750601
33	0x3dc1da0b	0.094654165
34	0x3deeb8a3	0.116563104
35	0xbe317f08	-0.17333615
36	0xbdef37b8	-0.116805494
37	0x3c21e031	0.009880112
38	0x3da74501	0.08167458
39	0xbd9a9d98	-0.0754959
40	0xbe11837d	-0.14210315
41	0x3dc5b330	0.09653318
42	0xbc54437c	-0.012955543
43	0xbe0fe86b	-0.14053504
44	0x3d2261a5	0.039643902
45	0x3c927a06	0.017880451
46	0x3dcae5f9	0.09907145
47	0xbb467c39	-0.0030286445
48	0xbd02ba2d	-0.031915832
49	0xbe0972d6	-0.13422713
50	0xbdca0e77	-0.0986604
51	0x3ceba39c	0.028764538
52	0xbdc3c089	-0.095582075
53	0xbd640c1c	-0.05567561
54	0x3d8a220a	0.06744774
55	0x3c98ccbb	0.01865231
56	0xbd60a1bd	-0.054841746
57	0x3c8f711e	0.017509993
58	0xbe553b83	-0.20823483
59	0xbd1e2d01	-0.038617138
60	0x3da7355a	0.08164473
61	0xbbed2239	-0.0072367457
62	0x3deb5dcd	0.114925005
63	0xbde4b0eb	-0.11166557
64	0x3c7c63fd	0.015404698
65	0x3e30cdd4	0.17266017
66	0xbe8c319d	-0.27381602
67	0xbc9827f6	-0.018573742
68	0x3da9d257	0.08292072
69	0x3d386406	0.045017265
70	0x3d661cef	0.056179937
71	0xbdde031b	-0.10840436
72	0x3d46e4f7	0.0485582
73	0xbdc164c7	-0.0944305
74	0xbd085434	-0.033283427
75	0x3d88a865	0.06672744
76	0x3d1214b5	0.03566428
77	0x3ccfc6b2	0.0253633
78	0xbda4868c	-0.08033475
79	0x3d804fb6	0.06265204
80	0x3d0a80cc	0.033814237
81	0xbbccda9b	-0.0062516457
82	0x3c7abd29	0.015303888
83	0x3d0479ca	0.03234271
84	0x3e54d134	0.2078293
85	0xbdfd85b3	-0.12379017
86	0xbc4f76fa	-0.012662644
87	0x3e002d77	0.12517343
88	0xbd8b77cf	-0.06809961
89	0xbd820d3a	-0.06350179
90	0x3d828ef7	0.06374925
91	0x3d551777	0.05202433
92	0xbcbb853a	-0.022890676
93	0x3e0cff53	0.13769273
94	0xbe2677f2	-0.16256693
95	0x3e08256e	0.13295528
96	0xb9bae2a3	-0.00035645542
97	0x3db03ad3	0.0860497
98	0xbbc3c7c5	-0.005974742
99	0xbe0f7a2d	-0.1401145
100	0xbdd906c5	-0.10596994
101	0xbd1950b4	-0.03743048
102	0x3dcc30d5	0.099702515
103	0x3e19a541	0.15004446
104	0xbcd8b505	-0.026453504
105	0xbe2c7809	-0.16842665
106	0xbd49f3ac	-0.04930465
107	0x3c5e194b	0.013555835
108	0x3de61c48	0.11235863
109	0xbc87efc4	-0.016593821
110	0x3d5b0dce	0.053479962
111	0x3d14bad8	0.036311
112	0xbc6de3e6	-0.014519667
113	0xbefbb14c	-0.49158704
114	0x3e4e1615	0.20125611
115	0xbe2f253e	-0.1710405
116	0xbd531e05	-0.0515423
117	0xbe3f7ccb	-0.18699948
118	0x3e3aec73	0.1825426
119	0x3dbf2a3e	0.09334229
120	0xbe3ec733	-0.18630676
121	0xbcc28acd	-0.023747826
122	0xbd24bc06	-0.040218376
123	0xbcb705c0	-0.022341609
124	0xbd9ca1ce	-0.07648049
125	0xbe109eb6	-0.14123043
126	0xbe14914a	-0.14508548
127	0xbc8dbce8	-0.017301992
128	0xbc2fce04	-0.01073027
129	0xbd2f95aa	-0.04286734
130	0xbd848d6b	-0.06472286
131	0xbddc45e4	-0.10755518
132	0x3dfa616f	0.12225615
133	0xbc8e51d3	-0.017373001
134	0xbdcb0079	-0.099121995
135	0x3ddcf2e8	0.10788518
136	0xbd920a24	-0.071308404
137	0xbd7c5b18	-0.06161031
138	0xbdeebca4	-0.11657074
139	0xba2d24c7	-0.00066049065
140	0xbd88406d	-0.06652913
141	0xbd6a2087	-0.057159927
142	0x3cd37f3c	0.025817506
143	0x3d51dd9c	0.051236734
144	0xbe0b2c13	-0.13591032
145	0xbd6c6b95	-0.057719786
146	0x3dc7c915	0.0975515
147	0xbdcf86c2	-0.10133125
148	0xbd1e18d9	-0.038597915
149	0x3e2c1d66	0.1680809
150	0xbd749c18	-0.059719175
151	0xbd219329	-0.039446983
152	0xbdb32a56	-0.08748309
153	0xbd364b18	-0.04450521
154	0x3e660fb7	0.22466932
155	0x3e31541a	0.17317238
156	0x3d1e1031	0.03858966
157	0xbdc3d6ee	-0.09562479
158	0xbdd9e754	-0.106398255
159	0xbe29c9b5	-0.16580851
160	0x3d8179b3	0.063220404
161	0xbd7e7092	-0.062119074
162	0x3d01cbe9	0.031688605
163	0xbca4d521	-0.020121159
164	0x3de21992	0.110400334
165	0xbd742d03	-0.05961324
166	0xbcc259f2	-0.02372453
167	0x3e48be95	0.19603951
168	0x3e7946c8	0.24343407
169	0x3d6c931f	0.057757493
170	0xbd70ccd7	-0.0587891
171	0x3d921777	0.07133382
172	0xbd7ac36a	-0.061221518
173	0x3d426a8e	0.0474649
174	0x3e354899	0.17703475
175	0xbd18dc2c	-0.037319347
176	0xbcf9beeb	-0.030486545
177	0xbe254c7b	-0.16142456
178	0xbbbe9fe6	-0.005817401
179	0x3cb4bb1d	0.022061879
180	0x3d6e70b4	0.05821295
181	0x3cc3ecca	0.02391662
182	0x3e88122e	0.2657637
183	0x3dd8492e	0.10560833
184	0x3c4b2bb6	0.012400558
185	0x3c9173c2	0.017755393
186	0xbbded8c2	-0.006800742
187	0xbd83ca94	-0.06435123
188	0xbd5b3889	-0.053520713
189	0xbbcf3656	-0.006323616
190	0x3e2fb665	0.17159422
191	0x3ba2fdb3	0.004974091
192	0x3d739e7a	0.059477307
193	0x3d1d8f8d	0.03846698
194	0xbdeacd78	-0.11464971
195	0xbe0d14e3	-0.13777499
196	0xbdac9111	-0.08426107
197	0x3d991574	0.07474795
198	0xbc349260	-0.011021227
199	0x3dbcd024	0.09219387
200	0x3d803d45	0.06261686
201	0xbd1ea134	-0.038727954
202	0xbd1d8ef3	-0.038466405
203	0x3cb09751	0.021556528
204	0x3daba2a4	0.083806306
205	0x3ced2ef1	0.028953047
206	0x3e20f76a	0.15719381
207	0x3ce7c613	0.028292691
208	0x3e1b95c3	0.15193848
209	0x3d46ecfc	0.04856585
210	0xbd3a0d7f	-0.045423027
211	0x3e2c3a69	0.16819157
212	0xb9baafc3	-0.00035607637
213	0xbcd031c9	-0.025414364
214	0x3d5b4cce	0.053540044
215	0x3b8ff11a	0.004392755
216	0xbd9d88a9	-0.076920815
217	0x3d1ebf42	0.038756616
218	0x3caafd22	0.020872656
219	0xbc195c47	-0.00936038
220	0x3d5439fe	0.05181312
221	0xbd6ff7b9	-0.058585856
222	0x3b817cf0	0.0039516613
223	0xbe2d8a43	-0.16947274
224	0xbd264c2d	-0.04059999
225	0x3d8721a5	0.06598214
226	0x3eca1031	0.39465478
227	0x3df63341	0.12021495
228	0xbe849bfe	-0.25900263
229	0x3e20201d	0.1563725
230	0x3e026db8	0.12737167
231	0x3e38a722	0.18032506
232	0x3e8e2c48	0.2776816
233	0xbe99427a	-0.2993353
234	0xbc191d82	-0.009345414
235	0xbdbd4190	-0.09241021
236	0xbb62c5fd	-0.0034602873
237	0xbd49c8a2	-0.049263604
238	0xbd8f6251	-0.07001174
239	0x3b364e20	0.0027817562
240	0x3db5e336	0.08881228
241	0x3bf884bd	0.007584183
242	0x3d6c5387	0.057696845
243	0x3b86f6f0	0.0041187927
244	0x3c9addac	0.01890453
245	0x3d66b1bc	0.056321844
246	0x3dd43fd5	0.103637375
247	0xbe2214cc	-0.15828246
248	0x3d75f0ca	0.060044087
249	0x3d141477	0.03615233
250	0x3d5e5906	0.054284118
251	0xbbc24f5f	-0.005929872
252	0x3ccb361c	0.024806075
253	0xbdfa762b	-0.1222957
254	0xbcc476bc	-0.023982398
255	0x3d132748	0.035926133

fc1.bias f4 [64]
0	0x3c91b71e	0.017787512
1	0xbc8b92bd	-0.017037744
2	0xbddde3d5	-0.10834471
3	0xbd7fac7f	-0.062420364
4	0xbdf12c63	-0.11776044
5	0x3c189a0e	0.009314073
6	0xbc2189e8	-0.00985954
7	0x3c732633	0.01484065
8	0xbdab8091	-0.083741315
9	0xbc46c071	-0.012130843
10	0x3c42167f	0.011846184
11	0xbd1fd6e4	-0.039023295
12	0xbc8a837e	-0.016908403
13	0x3d5526f2	0.052039094
14	0x39ee35d7	0.0004543501
15	0x3cf26a78	0.029591784
16	0x3c228945	0.009920423
17	0xbcd2c347	-0.025727881
18	0x3d72d91d	0.059289087
19	0x3d09d5d9	0.033651207
20	0x3df7ec8b	0.12105664
21	0xbc0b5b2d	-0.008505625
22	0xbdcba9f4	-0.09944525
23	0x3d665d00	0.056241035
24	0x3d62dac5	0.055384416
25	0x3e09e869	0.13467564
26	0x3b3ac3c1	0.0028498026
27	0xbd26014c	-0.04052858
28	0x3ca3ece5	0.020010421
29	0xbd36e228	-0.044649273
30	0xb6b326f0	-5.3391486e-06
31	0xbd1adc0b	-0.037807506
32	0xbc400f3b	-0.011722381
33	0x3d7923a4	0.060825005
34	0x3cb26fdb	0.021781852
35	0xbcc4eaf0	-0.024037808
36	0x3d2257d0	0.039634526
37	0x3c76bdce	0.015059901
38	0xbcbe899a	-0.023258973
39	0x3d25c8ed	0.04047482
40	0xbce086f7	-0.027408106
41	0x3d5ddca7	0.05416551
42	0x3beb61e5	0.007183301
43	0xbcd08c98	-0.025457665
44	0xbc3ccea0	-0.011523873
45	0x3da1a72b	0.07893213
46	0xbdc0ab78	-0.09407705
47	0x3bef545e	0.0073037585
48	0xbb503b9b	-0.003177381
49	0x3dda2914	0.10652366
50	0xbe0c50ca	-0.13702694
51	0x3d8cbb6b	0.06871685
52	0xbdbaba7a	-0.09117599
53	0xbb3b62a1	-0.0028592723
54	0xbc5d356b	-0.013501505
55	0x3dbfb4eb	0.09360679
56	0x3969156d	0.00022228593
57	0x3c0a90e5	0.008457397
58	0x3c3ce26c	0.011528593
59	0x3d0d7b47	0.034541395
60	0xbbdd5716	-0.006754766
61	0x3d2a9500	0.041646004
62	0x3ca6e7ec	0.02037426
63	0xbdf78bfc	-0.12087247

fc2.weight f4 [64, 64]
0	0x3dd8375c	0.10557434
1	0xbd85bcc6	-0.06530146
2	0xbe1c407d	-0.15258975
3	0xbd292efb	-0.04130457
4	0x3e65ef48	0.2245456
5	0xbd1e646a	-0.03866998
6	0x3e671303	0.22565846
7	0xbd75c10f	-0.05999857
8	0x3cb2b63d	0.021815414
9	0x3e873c6f	0.26413295
10	0x3da3531a	0.07974835
11	0x3d53bdd5	0.05169471
12	0xbe045660	-0.12923574
13	0xbeb6b140	-0.35682106
14	0x3d568f53	0.05238278
15	0xbd645231	-0.055742446
16	0x3e695521	0.2278638
17	0xbd323c84	-0.043514743
18	0x3dcfb7a9	0.10142452
19	0xbdf4366c	-0.11924443
20	0xbd0cb446	-0.03435161
21	0xbcec4cd4	-0.028845228
22	0xbe3a7e54	-0.18212253
23	0x3d4a070f	0.049323138
24	0x3d695189	0.056962524
25	0x3e5ae3bd	0.21375938
26	0xbc24850f	-0.010041489
27	0x3d7bcfd7	0.06147751
28	0xbd7beb36	-0.06150361
29	0xbd4b0449	-0.049564634
30	0xbd148165	-0.036256213
31	0xbe083549	-0.13301577
32	0x3d09c236	0.03363248
33	0x3dd2dac9	0.10295636
34	0x3ce83ee9	0.02835031
35	0xbd47e6f2	-0.04880423
36	0x3dae2a3e	0.08504151
37	0x3deef9ef	0.11668765
38	0x3eba58c8	0.3639586
39	0xbd1477bf	-0.03624701
40	0x3e32cec5	0.17461689
41	0x3de95233	0.113926314
42	0xbd926f6c	-0.07150158
43	0x3e37ab11	0.1793635
44	0x3ddb8b72	0.107199565
45	0xbdd9e6fe	-0.106397614
46	0x3e336905	0.1752053
47	0xbd8443e6	-0.06458263
48	0x3e251228	0.16120207
49	0xbd90e6d2	-0.070752755
50	0x3db68178	0.08911413
51	0x3cff0c76	0.031133872
52	0xbc711b69	-0.014716008
53	0xbe41f4dc	-0.18941063
54	0xbdba092a	-0.09083779
55	0x3d3ca95d	0.046059955
56	0xbd517f9c	-0.05114709
57	0xbe5031ee	-0.20331547
58	0x3e5993f0	0.2124784
59	0xbda50f28	-0.080595315
60	0xbbebfd77	-0.007201846
61	0xbe65428c	-0.22388667
62	0xbdf9191f	-0.121629946
63	0x3d0b6ea1	0.03404105
64	0xbc95c03d	-0.018280143
65	0x3ee195d8	0.44059634
66	0xbe61d16a	-0.22052541
67	0x3e02f92b	0.12790363
68	0xbcd0cf0d	-0.025489355
69	0xbd89c5a3	-0.06727149
70	0x3e91b96f	0.28461787
71	0x3e46891d	0.19388242
72	0x3dd2470b	0.102674566
73	0x3e03a62e	0.12856361
74	0x3d0df772	0.03465981
75	0xbe13bb75	-0.14426978
76	0xbe3d6185	-0.18494232
77	0xbc045b18	-0.008078359
78	0x3df83223	0.12118938
79	0x3ddb157a	0.10697456
80	0xbe359f45	-0.17736538
81	0xbe18885d	-0.14895768
82	0x39eec864	0.000455442
83	0xbde94e90	-0.11391938
84	0x3ce771f2	0.028252576
85	0xbde88cd5	-0.113549866
86	0xbd1e1615	-0.038595278
87	0x3cb22543	0.021746283
88	0xbdc99714	-0.09843269
89	0xbe0e319b	-0.1388611
90	0x3d42cfda	0.047561504
91	0xbdcd933e	-0.1003785
92	0x3d2c1570	0.042012632
93	0xbd9d29d8	-0.07673997
94	0x3d981d46	0.074274585
95	0x3d8f34bf	0.069924824
96	0xbde1ace8	-0.110193074
97	0x3ca05cef	0.019575564
98	0xbe3eec5e	-0.18644854
99	0xbd4ebf7d	-0.050475586
100	0x3e2b4fc5	0.16729648
101	0x3e1282fc	0.14307779
102	0x3d7bbfb2	0.06146211
103	0xbe28dcd4	-0.16490489
104	0xbd46d85a	-0.048546173
105	0x3cfaaa68	0.030598834
106	0x3dc0b30c	0.094091505
107	0xbe13e676	-0.14443383
108	0xbd367166	-0.04454174
109	0x3bc9bbdd	0.0061564283
110	0xbe13cc7f	-0.14433478
111	0xbdc37944	-0.09544614
112	0xbb897987	-0.0041953954
113	0xbdc470b7	-0.09591811
114	0xbc014e16	-0.007892152
115	0x3d51bd5d	0.05120598
116	0x3c8f577a	0.017497767
117	0xbd98c8dc	-0.07460186
118	0xbdb92739	-0.09040684
119	0xbd8d37c1	-0.068954
120	0x3e96a785	0.29424682
121	0x3de02c16	0.10945909
122	0xbd9a5117	-0.07534998
123	0x3e3a3f96	0.18188319
124	0x3d4ac82b	0.0495073
125	0xbd948318	-0.07251567
126	0xbdb95502	-0.09049417
127	0x3e360e32	0.17778853
128	0xbe7c0566	-0.24611434
129	0xbd1751e7	-0.036943343
130	0xbe1968c0	-0.14981365
131	0xbda74e3e	-0.081692204
132	0xbd4811ce	-0.048845105
133	0x3d061b14	0.032740667
134	0xbd1e5bd2	-0.038661785
135	0xbd9e1f85	-0.077208556
136	0xbdab468c	-0.08363065
137	0x3dfad827	0.12248259
138	0xbe1ac81a	-0.15115395
139	0xbe189f43	-0.14904504
140	0x3d2acf5b	0.041701656
141	0x3dfe9aa1	0.12431837
142	0x3db8936f	0.09012496
143	0x3d59ea56	0.053201996
144	0xbe839c77	-0.2570531
145	0xbe0b3403	-0.1359406
146	0x3ee35607	0.4440157
147	0xba9236aa	-0.0011155207
148	0x3ddbbe11	0.10729612
149	0xbe4c5a7e	-0.19956395
150	0xbd1e21b4	-0.03860636
151	0xbdc58bc3	-0.09645798
152	0x3e0cb828	0.13742125
153	0x3da26418	0.079292476
154	0x3d852ae2	0.0650232
155	0xbe019338	-0.12653816
156	0x3c58d79b	0.013234998
157	0xba9664df	-0.0011474154
158	0x3de8adfb	0.11361309
159	0xbb9888e7	-0.004654992
160	0x3d703917	0.058648195
161	0x3dcaa31a	0.098943904
162	0x3dafbdff	0.08581161
163	0x3bdf8b02	0.006821991
164	0xbe262775	-0.16225989
165	0xbd12d867	-0.03585091
166	0x3d91ef3e	0.0712571
167	0xbe767d9f	-0.24071358
168	0xbd2d78d3	-0.042351555
169	0x3e99c560	0.30033398
170	0xbe65433d	-0.2238893
171	0xbdc663f0	-0.0968703
172	0x3e3ebefb	0.18627541
173	0xbe40210f	-0.18762611
174	0x3dcf3f44	0.10119489
175	0x3de16626	0.110058114
176	0xbba89ec6	-0.0051458804
177	0x3deb31e6	0.11484127
178	0xbdd274f6	-0.10276215
179	0xbdd44006	-0.10363774
180	0xbd48c062	-0.049011596
181	0xbbc53777	-0.006018575
182	0x3d8825b5	0.06647817
183	0xbd74daa9	-0.059778843
184	0xbe43c7aa	-0.19119135
185	0x3c33fbc1	0.010985316
186	0x3d5a717c	0.053330883
187	0x3d8603f2	0.06543721
188	0x3dab0072	0.08349694
189	0x3e2e5635	0.17025073
190	0xbdf10768	-0.11768991
191	0xbd6c3b62	-0.05767382
192	0x3c73a433	0.014870691
193	0x3ca88edc	0.020575933
194	0x3c82eaf2	0.015981171
195	0xbe01346e	-0.12617657
196	0xbea1e357	-0.3161876
197	0x3d570787	0.052497413
198	0xbdd489c9	-0.10377843
199	0xbd580f92	-0.052749224
200	0x3dda3b58	0.1065585
201	0x3e93bbca	0.2885421
202	0xbd21755f	-0.039418574
203	0x3e7a87f9	0.24465932
204	0xbe06eb26	-0.1317564
205	0x3db69cc6	0.08916621
206	0x3e77389d	0.2414269
207	0xbdab7593	-0.08372035
208	0xbad3a9e0	-0.0016148649
209	0x3da0b9bf	0.07847928
210	0xbd470117	-0.048585024
211	0xbe46c468	-0.1941086
212	0x3c51472b	0.012773315
213	0xbd55443a	-0.05206702
214	0x3df6e0fb	0.1205463
215	0xbdd7b695	-0.10532872
216	0xbd6ef412	-0.058338232
217	0x3dbbc9e8	0.0916937
218	0x3de8ea43	0.11372807
219	0xbe907cd6	-0.28220242
220	0xbe25f375	-0.16206153
221	0x3ddb6860	0.10713267
222	0x3d0cfd27	0.034421112
223	0x3e06c7db	0.13162176
224	0xbbffbe44	-0.007804664
225	0xbe42463f	-0.1897211
226	0xbdf31d2a	-0.11870797
227	0x3e4a0caf	0.19731401
228	0xbd761149	-0.06007508
229	0x3d4a7b43	0.049433958
230	0xbcbd9db7	-0.023146493
231	0xbce5f9f6	-0.028073292
232	0xbd0ef365	-0.034900088
233	0x3d73d5e6	0.05953016
234	0xbdfbe927	-0.1230033
235	0x3c43889c	0.011934426
236	0x3dcfce4f	0.10146772
237	0x3cf64c88	0.03006579
238	0xbe5e92a9	-0.21735634
239	0xbd8b9688	-0.06815821
240	0xbe84a146	-0.25904292
241	0xbc835d16	-0.016035598
242	0x3dc7af50	0.09750235
243	0xbda2bdb5	-0.0794634
244	0xbd03f81b	-0.032219034
245	0x3d4c1dbf	0.049833056
246	0x3e4b02e6	0.19825324
247	0xbd257367	-0.04039326
248	0xbd37ccef	-0.044873174
249	0xbba87145	-0.005140456
250	0x3e94c8d4	0.2905947
251	0x3d2062b4	0.03915663
252	0xbe93a4cd	-0.2883667
253	0xbe5407c0	-0.20706081
254	0xbcae1984	-0.021252401
255	0xbd069c61	-0.03286398

fc2.bias f4 [64]
0	0x3cfd0526	0.030886244
1	0x3bdcd56a	0.006739308
2	0x3d4c7597	0.04991683
3	0xbda1c9a3	-0.07899787
4	0x3c6fa30c	0.014626276
5	0x3d312886	0.043251537
6	0x3ddee638	0.108837545
7	0x3c4f56ab	0.012654941
8	0xbd0e5e88	-0.03475812
9	0x3d4ae715	0.049536783
10	0x3adfcbeb	0.0017074322
11	0xbc1eb66c	-0.009687047
12	0xbc744932	-0.014910029
13	0x3ccc46a0	0.02493602
14	0x3d608dcd	0.05482273
15	0x3dab246d	0.08356557
16	0x3d1f51ef	0.038896497
17	0x3d712c03	0.058879863
18	0x39e734db	0.00044099134
19	0x3a890ff8	0.001045703
20	0xbb4a4385	-0.0030862999
21	0x3cd2e6e9	0.025744872
22	0xb92382e9	-0.00015593659
23	0xbc29d80d	-0.010366452
24	0xbd2c3f93	-0.042052817
25	0xbc75ab28	-0.01499442
26	0xbd58fccf	-0.052975472
27	0x3b881bfc	0.0041537266
28	0xbcd3c8ed	-0.025852645
29	0xbc3ab156	-0.011394819
30	0x3c720ce5	0.014773582
31	0xbb417caf	-0.002952378
32	0x3d4c0073	0.049805116
33	0xbbb37b55	-0.005477349
34	0x3cabdf76	0.020980578
35	0x3d236812	0.03989417
36	0x3c5c6737	0.013452343
37	0xbc377504	-0.011197332
38	0x3d8930fa	0.06698795
39	0xbd27c212	-0.040956564
40	0xbd56948e	-0.052387767
41	0x3c2230aa	0.009899298
42	0x3c7897e0	0.015172929
43	0x3e0df134	0.13861543
44	0x3c0ee761	0.008722157
45	0xbd94f1fb	-0.072727166
46	0xbca17731	-0.019710155
47	0x3d6831e2	0.056688197
48	0x3cda5e37	0.026656253
49	0x3ccbc564	0.024874397
50	0x3a9c2f7d	0.0011916008
51	0x3cc1c3d7	0.023652954
52	0x3d12894c	0.035775468
53	0xbd8b5493	-0.068032406
54	0xb9f1b614	-0.0004610276
55	0x3d665d0c	0.05624108
56	0x3b3dc378	0.002895562
57	0xbde396fb	-0.111127816
58	0x3cd8ba48	0.026456013
59	0x3dd499ca	0.103808954
60	0x3ccfb0b1	0.025352808
61	0xbc91d874	-0.017803408
62	0x3dd3533f	0.10318612
63	0x3b50c87b	0.0031857777

mu.weight f4 [8, 64]
0	0x3d347d6d	0.044064928
1	0x3d7a7309	0.061144862
2	0xbe13f3a0	-0.14448404
3	0xbd4ad297	-0.04951724
4	0xbe1413a3	-0.14460616
5	0xbdb3acd8	-0.08773202
6	0x3e06713c	0.13129133
7	0x3d2bb085	0.04191639
8	0x3dafc413	0.0858232
9	0xbe2c1f9d	-0.16808935
10	0xbd7bfd5a	-0.06152091
11	0xbcbb98c5	-0.022899995
12	0xbd09a70c	-0.033606574
13	0x3e02e25c	0.12781662
14	0xbd8f8b49	-0.070089884
15	0x3bd30405	0.006439688
16	0x3cdfffa3	0.027343577
17	0xbe00ce94	-0.12578803
18	0xbe5e756c	-0.2172448
19	0xbe8e3c65	-0.27780452
20	0xbe06b295	-0.13154061
21	0xbd380b0c	-0.04493241
22	0x3d5f96c6	0.054587148
23	0x3cf7f791	0.030269416
24	0xbe12d895	-0.14340432
25	0x3d99a22d	0.07501636
26	0xbe136ab5	-0.14396174
27	0xbe4abe2e	-0.1979911
28	0x3e45828f	0.19288085
29	0x3d638ccb	0.055554193
30	0xbcb88e8a	-0.022528905
31	0x3e04832a	0.1294066
32	0xbe6ea825	-0.2330633
33	0xbd146343	-0.036227476
34	0x3da2a42c	0.079414696
35	0xbd878d48	-0.06618744
36	0x3e602906	0.21890649
37	0xbe5520bf	-0.20813273
38	0x3d5e0135	0.05420037
39	0x3ccb5972	0.024822924
40	0xbcc20127	-0.02368219
41	0xbe6ce936	-0.23135838
42	0xbdfdf289	-0.123997755
43	0xbe0e660a	-0.13906112
44	0xbea47096	-0.32117146
45	0xbe03bca7	-0.12864934
46	0x3df5250e	0.11969958
47	0xbec1a1b0	-0.3781867
48	0x3e355dda	0.17711583
49	0x3da07838	0.0783543
50	0xbe1bc0ba	-0.15210238
51	0x3dd9c1bf	0.10632657
52	0x3e901c31	0.28146508
53	0x3d015da1	0.031583432
54	0x3e02ee3a	0.12786189
55	0x3ea259d9	0.31709173
56	0x3deff4cf	0.117166154
57	0xba1e2e05	-0.0006034079
58	0xbe5f87c6	-0.21829137
59	0x3ce71082	0.028206114
60	0x3ad5840f	0.0016289967
61	0xbdb7ee15	-0.089809574
62	0xbe26032d	-0.16212149
63	0x3b605a10	0.003423337
64	0x3bc4a4ef	0.006001107
65	0x3d39c692	0.045355387
66	0x3ea09b4a	0.31368476
67	0xbd6165b3	-0.05502863
68	0xbe0eb06f	-0.13934492
69	0xbe4ee558	-0.20204675
70	0x3d9dfe5c	0.07714531
71	0x3bf5b154	0.007497946
72	0xbde3150a	-0.11087997
73	0x3e4ea84b	0.20181386
74	0x3e1c2597	0.15248714
75	0xbcacafa8	-0.021079853
76	0xbe3da34b	-0.18519323
77	0x3d74f91f	0.059807893
78	0x3d631dc3	0.055448305
79	0x3d942ee6	0.07235508
80	0x3dcbd05d	0.099518515
81	0xbd1baa99	-0.03800449
82	0xbe8b9c89	-0.27267864
83	0x3cf9da4c	0.0304996
84	0x3d26cb3d	0.040721167
85	0x3caefc5f	0.021360574
86	0xbe75acb0	-0.23991656
87	0xbd12631c	-0.03573905
88	0x3c77a13d	0.015114126
89	0x3dd330df	0.10312056
90	0x3df9e51c	0.12201902
91	0x3e15e39f	0.14637612
92	0xbd17ce30	-0.03706187
93	0x3cc7b98a	0.024380464
94	0x3d8dcd38	0.06923908
95	0xbe924ca7	-0.28574106
96	0xbd3a27f9	-0.045448277
97	0xbe0c0454	-0.13673526
98	0xbd4e4e2e	-0.050367527
99	0x3e380734	0.17971498
100	0xbe14e73e	-0.14541337
101	0x3dbccb55	0.0921847
102	0xbd85d250	-0.065342546
103	0x3e204b5e	0.1565375
104	0x3cd8d2a7	0.026467634
105	0x3d099ebd	0.03359865
106	0xbc471e2e	-0.0121531915
107	0xbe8baa7f	-0.27278516
108	0x3d9d8dcc	0.07693061
109	0x3ddb5a75	0.10710613
110	0x3c2ba111	0.010475413
111	0x3dba2f07	0.09091001
112	0xbdf5e2a3	-0.12006118
113	0x3c9006ae	0.01758131
114	0xbe4952cb	-0.1966049
115	0x3d3d5349	0.046222005
116	0xbd98e5cb	-0.074657045
117	0x3e005822	0.1253362
118	0x3bba81cc	0.0056917425
119	0x3d5432bf	0.051806208
120	0xbe1516fa	-0.14559546
121	0x3dc2c569	0.09510309
122	0xbe45a3c4	-0.19300753
123	0x3e4f4b3d	0.20243545
124	0x3e1636ad	0.14669295
125	0x3da37bae	0.079825744
126	0xbe2a65b3	-0.16640358
127	0x3e020c59	0.12700023
128	0x3e070ea3	0.13189177
129	0x3e5f0e3e	0.21782777
130	0xbde29272	-0.110630885
131	0x3d849d33	0.06475296
132	0x3d0e9359	0.03480849
133	0x3e4bef62	0.19915536
134	0xbea54a72	-0.3228336
135	0xbe0e132d	-0.13874502
136	0xbd32c0d5	-0.04364093
137	0x3da7db25	0.081960954
138	0x3e34f987	0.17673312
139	0x3c8bbbdd	0.017057354
140	0xbd094be9	-0.03351966
141	0x3dd7036d	0.104987
142	0xbd03d7ea	-0.032188334
143	0x3dedaff6	0.116058275
144	0xbd84bf47	-0.06481796
145	0xbde63a8f	-0.11241638
146	0xbd2f7ea6	-0.04284539
147	0x3c360b2c	0.011111062
148	0x3da8af35	0.08236543
149	0xbdbafbb0	-0.09130037
150	0xbce141a8	-0.027497128
151	0x3d92cfc0	0.071685314
152	0xbd2cd00f	-0.042190608
153	0x3e2d9d4c	0.16954535
154	0x3dd16b33	0.10225525
155	0x3ebdcd26	0.37070578
156	0xbdc3f784	-0.09568694
157	0xbdf2471e	-0.11829971
158	0xbe06739e	-0.13130042
159	0x3c561f48	0.0130689815
160	0xbe4a288d	-0.19742031
161	0xbe793cef	-0.2433965
162	0xbe503df7	-0.20336138
163	0x3e7260dd	0.23669763
164	0x3e41983b	0.18905728
165	0x3d61e332	0.05514831
166	0x3ddc290f	0.10750019
167	0xbe1eadc4	-0.15495974
168	0x3ca45d44	0.020064004
169	0xbd2ef6f9	-0.042716
170	0x3e2f5d37	0.17125402
171	0xbe800f5a	-0.25011712
172	0x3dba9c74	0.09111872
173	0x3d00e3ec	0.031467363
174	0x3e56ae40	0.20964909
175	0xbd701508	-0.058613807
176	0x3dc73ed8	0.09728783
177	0x3d1f1aa8	0.03884378
178	0x3e30a810	0.17251611
179	0xbe18630e	-0.14881536
180	0xbc5aa4bf	-0.013344943
181	0x3d2a7df8	0.04162404
182	0xbd988eef	-0.074491374
183	0xbe292c3c	-0.1652078
184	0xbc26765c	-0.010160055
185	0x3d8defbe	0.06930493
186	0x3e112f27	0.14178143
187	0x3c2a9144	0.010410611
188	0xbc8d2cbf	-0.01723325
189	0x3d7ed97b	0.062219124
190	0x3e0acc1b	0.13554423
191	0xbccda47e	-0.02510285
192	0xbe47522c	-0.1946494
193	0x3e132a6f	0.14371656
194	0x3d33eb3a	0.0439255
195	0x3e22097c	0.1582393
196	0xbe0d3359	-0.13789119
197	0x3d9d3fcc	0.07678184
198	0x3dae0a4e	0.08498059
199	0x3de49c13	0.11162581
200	0x3bc31b50	0.0059541836
201	0x3dd3941e	0.103309855
202	0xbdf71582	-0.12064649
203	0x3e0a3967	0.1349846
204	0xbdf586b2	-0.11988582
205	0x3c7ebbc5	0.015547697
206	0xbd52c266	-0.051454924
207	0xbdcd9539	-0.100382276
208	0xbe22e528	-0.15907729
209	0x3df89b5e	0.12139009
210	0xbd0b8008	-0.034057647
211	0xbe29264d	-0.16518517
212	0x3dfbc609	0.122936316
213	0xbd22e4fc	-0.039769158
214	0xbe0d595f	-0.13803624
215	0xbd05d5af	-0.032674488
216	0x3db11dcb	0.08648261
217	0xbcdbcbc4	-0.026830561
218	0xbdf5ea33	-0.120075606
219	0x3d39ede9	0.045392904
220	0x3d542161	0.051789645
221	0x3de50155	0.11181895
222	0x3e082360	0.13294744
223	0xbd1aba9e	-0.03777563
224	0xbde2e47f	-0.110787384
225	0x3d5cc4e0	0.053898692
226	0xbe072c99	-0.13200606
227	0xbb141838	-0.0022597443
228	0x3d770745	0.060309667
229	0xbd03ce6e	-0.03217929
230	0x3db2be2b	0.08727678
231	0x3e18fed3	0.14940958
232	0xbd4eaed1	-0.050459687
233	0xbc6e7216	-0.014553567
234	0x3df6ae89	0.12045009
235	0xbd92becb	-0.07165297
236	0xbe0a92ed	-0.1353261
237	0x3e169682	0.14705852
238	0x3d265093	0.040604185
239	0xbd8a650e	-0.06757556
240	0x3cdbc7b3	0.026828622
241	0xbe0f05a0	-0.1396699
242	0x3cb07f24	0.021545
243	0xbd9fd3a0	-0.07804036
244	0xbc584688	-0.01320041
245	0x3eb697e0	0.35662746
246	0x3be9f899	0.007140231
247	0x3ce3a9f7	0.027791006
248	0x3e84d6d3	0.25945148
249	0xbd7096a0	-0.058737397
250	0xbd0376a3	-0.032095563
251	0xbe9235b6	-0.28556603
252	0xbd99472c	-0.07484278
253	0x3d03b0ba	0.03215096
254	0x3de6c3ca	0.112678126
255	0x3e2012e0	0.156322

mu.bias f4 [8]
0	0xbc90453c	-0.017611139
1	0xbd1a4296	-0.037661158
2	0xbca9d32c	-0.020730577
3	0xbd2f0ebb	-0.042738657
4	0x3d3d8df2	0.046277948
5	0x3da0d548	0.0785318
6	0x3d5c7f80	0.05383253
7	0x3d84bc9d	0.06481288

fc1.weight f4 [64, 111]
0	0xbe955851	-0.29168943
1	0x3f047b2e	0.5175046
2	0x3db83e49	0.08996255
3	0xbe3ed7d6	-0.18637022
4	0xbda4f70b	-0.08054932
5	0x3d8233d6	0.06357543
6	0x3c8cc82d	0.017185295
7	0x3d3c6051	0.045990292
8	0xbe0d83ba	-0.13819781
9	0xbde005dc	-0.109386176
10	0xbd9a9135	-0.07547227
11	0x3d952958	0.07283276
12	0x3e101ea8	0.14074194
13	0xbde516ca	-0.11185987
14	0xbcca374e	-0.024684574
15	0xbe02b461	-0.12764122
16	0xbc739de4	-0.014869187
17	0x3e56a100	0.20959854
18	0xbda76dbb	-0.08175226
19	0xbcdddd72	-0.027083132
20	0x3d6ec255	0.0582908
21	0xbb5ee62c	-0.0034011705
22	0x3ce85d87	0.02836491
23	0xbcd0cb66	-0.025487613
24	0x3d03f02d	0.03221147
25	0xbcdf3ebf	-0.0272516
26	0x3c9f5191	0.019448074
27	0xbdbda937	-0.09260791
28	0xbe8279b5	-0.2548348
29	0xbdc1c633	-0.094616316
30	0x3dd50ddd	0.10403035
31	0x3e2e1cad	0.17003126
32	0x3de3d0b7	0.111237936
33	0x3c15f3ba	0.009152347
34	0xbd8dcf9d	-0.06924365
35	0x3e131df7	0.143669
36	0xbd860266	-0.06543426
37	0x3cdee3cb	0.02720823
38	0x3d1866c6	0.037207387
39	0xbc055c70	-0.008139715
40	0xbda4102e	-0.080108985
41	0x3d940c29	0.07228882
42	0xbe466f4e	-0.19378397
43	0xbcd59daf	-0.026076166
44	0xbe436eff	-0.1908531
45	0xbd010833	-0.03150196
46	0xbcd4cf5a	-0.02597778
47	0xbe2c52a3	-0.16828398
48	0xbd9d878d	-0.0769187
49	0x3e0bc72e	0.136502
50	0xbdca3716	-0.09873788
51	0x3dba5dcf	0.09099924
52	0xbea17961	-0.31537917
53	0x3d2cf633	0.04222698
54	0x3da5493c	0.08070609
55	0x3d1ace90	0.03779465
56	0xbcb30057	-0.021850748
57	0x3d91b2b5	0.07114164
58	0xbde67830	-0.11253393
59	0xbe048c83	-0.12944226
60	0xbd3454b8	-0.044026107
61	0x3d94d539	0.072672315
62	0xbbc4fa50	-0.006011285
63	0xbd68c420	-0.056827664
64	0x3da1d3ac	0.07901701
65	0x3d8d3864	0.06895521
66	0xbdebb3b6	-0.115088865
67	0xbc8cb5a8	-0.017176464
68	0x3dc587e3	0.09645059
69	0x3e0ce93a	0.13760844
70	0x3db6d86b	0.08927997
71	0x3cb4ce1b	0.022070935
72	0xbda82050	-0.08209288
73	0xbda2de86	-0.07952599
74	0xbca68d8b	-0.020331165
75	0x3c6c1b1a	0.014410758
76	0xbdee5337	-0.11636966
77	0x3cdf016f	0.027222363
78	0x3be56c24	0.0070014168
79	0xbcb70929	-0.022343235
80	0xbddf182b	-0.108932815
81	0xbdc96471	-0.09833611
82	0x3cf76b54	0.030202545
83	0x3d71de08	0.059049636
84	0xbe393f2d	-0.18090506
85	0x3c29eae4	0.010370944
86	0xbdc30a9e	-0.095235094
87	0xbc4e0fde	-0.012577025
88	0xbd6aa73a	-0.057288386
89	0x3e5c3f7c	0.21508592
90	0xbe3ad748	-0.18246186
91	0x3d2eaaeb	0.04264347
92	0xbd8c5e79	-0.06853957
93	0x3cd26271	0.025681706
94	0x3de83288	0.11337763
95	0xbc2f9a8d	-0.010718
96	0xbd13455a	-0.03595481
97	0x3d876e3c	0.066128224
98	0xbd7919ff	-0.060815807
99	0xbd215425	-0.039386887
100	0x3d42897a	0.04749439
101	0x3da8c3a8	0.082404435
102	0xbcdd5f4f	-0.027022986
103	0xbcac2827	-0.02101524
104	0x3da1b10f	0.07895099
105	0xbd362cb7	-0.044476237
106	0xbcc40ba0	-0.023931324
107	0xbdbefa38	-0.09325069
108	0xbb9e26d3	-0.0048264056
109	0x3dda2a97	0.106526546
110	0xbd8f9b5c	-0.07012054
111	0xbedb9f67	-0.42895052
112	0x3f43dc37	0.76507896
113	0x3da10e54	0.07864061
114	0xbe6b48a5	-0.2297693
115	0x3e1627b9	0.1466359
116	0x3e354021	0.17700244
117	0x3cca673e	0.024707433
118	0x3c07dee5	0.008292888
119	0x3df3fcb7	0.11913436
120	0x3e5b702d	0.2142951
121	0xbd59fb7d	-0.053218354
122	0x3e041109	0.12897123
123	0xbd29144e	-0.04127913
124	0x3d07402b	0.03302018
125	0x3d00cc0d	0.031444598
126	0xbe4bfb17	-0.19920002
127	0xbcd24ee5	-0.025672385
128	0xbd5d3421	-0.054004792
129	0x3d35c512	0.044377394
130	0xbc99dc31	-0.018781753
131	0xbc38bd38	-0.011275582
132	0x3c83af5a	0.016074825
133	0xbc9decda	-0.019277979
134	0x3ba8d5f1	0.005152457
135	0xbd0a64c0	-0.03378749
136	0x3d008d68	0.031384856
137	0xbae7bbad	-0.0017679833
138	0xbd4b3ece	-0.049620442
139	0x3d31ccbf	0.04340815
140	0x3db022e2	0.08600403
141	0x3d847a3f	0.06468629
142	0x3d535512	0.0515948
143	0xbe1636b6	-0.14669308
144	0x3d18c438	0.037296504
145	0x3d20b68f	0.0392366
146	0xbd4f78e2	-0.050652392
147	0xbd892054	-0.06695619
148	0xbc5ea65d	-0.013589469
149	0x3d5fecfb	0.05466936
150	0xbd964ab2	-0.07338466
151	0xbd546575	-0.05185457
152	0x3d7a283b	0.061073523
153	0x3de21768	0.11039621
154	0xbd1840d9	-0.03717122
155	0x3dfba165	0.12286643
156	0x3d16bb5f	0.036799785
157	0xbd127d2e	-0.035763912
158	0x3dfda48e	0.12384902
159	0xbdf66844	-0.12031606
160	0xb929cb58	-0.00016192847
161	0xbe38bbd5	-0.18040402
162	0xbd43b7ec	-0.047782823
163	0xbdf07eda	-0.11742945
164	0xbca12c29	-0.019674378
165	0xbd952be8	-0.07283765
166	0x3e446092	0.19177464
167	0xbe07ff22	-0.13280919
168	0x3baabb19	0.005210292
169	0xbc1a9a4c	-0.009436201
170	0x3e27f44e	0.16401789
171	0xbcdd0f42	-0.026984815
172	0xbccbe775	-0.02489064
173	0x3da6efb7	0.08151191
174	0x3dd60603	0.104503654
175	0xbbfebb61	-0.007773802
176	0x3c543cd4	0.012953956
177	0x3e284cae	0.16435501
178	0x3e144833	0.14480667
179	0x3e1896c0	0.14901257
180	0xbc5fe435	-0.013665249
181	0xbdb4289f	-0.0879681
182	0x3bd29cf7	0.006427403
183	0x3e1429b3	0.14469032
184	0xbd52db22	-0.051478513
185	0x3da76dcd	0.0817524
186	0x3da5b671	0.080914386
187	0x3dd466a1	0.103711374
188	0xbd17d23a	-0.037065722
189	0xbcde307c	-0.027122729
190	0x3e2467d6	0.16055235
191	0xbe188605	-0.14894874
192	0xbd63a64a	-0.055578507
193	0x3e044c09	0.1291963
194	0xbdb958a0	-0.09050107
195	0xbbcf1822	-0.0063200155
196	0xbe4329b2	-0.19058874
197	0x3dc83129	0.097750016
198	0xbc9d0c47	-0.019170893
199	0x3dd06065	0.10174636
200	0x3ca5067d	0.020144695
201	0x3ca26ef8	0.019828305
202	0x3e075e21	0.13219501
203	0xbd538673	-0.051641893
204	0x3ce43c63	0.027860826
205	0x3c5ae7fe	0.013360975
206	0x39d6c89b	0.00040966723
207	0xbd9f146a	-0.077675655
208	0xbdb0f2a3	-0.08640029
209	0x3d988140	0.074465275
210	0x3dcf9bc2	0.1013713
211	0x3d963606	0.07334523
212	0x3e634ba4	0.22196823
213	0xbd30f733	-0.043204498
214	0x3e3e4d69	0.18584217
215	0x3e809e70	0.25120878
216	0xbca33f49	-0.019927638
217	0x3b93a581	0.0045058136
218	0xbe09d7e7	-0.13461266
219	0xbdc17a15	-0.094471134
220	0xbd478f28	-0.04872051
221	0xbd0bdc87	-0.03414586
222	0x3ebee46c	0.37283647
223	0xbf2e805a	-0.681646
224	0x3e0a2972	0.13492373
225	0xbe44f7c6	-0.19235143
226	0xbf17dc40	-0.5932045
227	0x3d6e13d1	0.058124367
228	0x3c03ff4c	0.008056473
229	0xbe48c473	-0.1960619
230	0xbcdb492d	-0.026768291
231	0xbd2880f7	-0.041138615
232	0xbda17321	-0.07883287
233	0x3d8a6ac2	0.06758644
234	0x3e56dfbf	0.2098379
235	0x3d7b2a48	0.06131962
236	0x3e2d1b0e	0.16904852
237	0x3e17a522	0.14809087
238	0xbe22f969	-0.15915455
239	0x3deda659	0.11603994
240	0xbe1ec0d8	-0.15503252
241	0xbd402927	-0.046914246
242	0x3d128dee	0.035779886
243	0xbc81b0b3	-0.015831327
244	0xbc29feb7	-0.01037567
245	0xbd5fc76d	-0.054633547
246	0x3cb6bf0a	0.022307891
247	0xbdda551d	-0.10660765
248	0xbc40c754	-0.0117662735
249	0xbdf06dac	-0.11739668
250	0x3c2d377d	0.0105723115
251	0x3d8b1ac8	0.067922175
252	0x3d03f35c	0.032214507
253	0xbd6b356b	-0.05742399
254	0xbd5e6aea	-0.05430118
255	0xbdd04122	-0.10168673

fc1.bias f4 [64]
0	0x3e8abde7	0.2709801
1	0xbe05f97e	-0.13083455
2	0xbd94e6a5	-0.072705545
3	0x3e6119e2	0.2198253
4	0xbe29d0bd	-0.16583534
5	0xbe1bde09	-0.15221418
6	0xbf05819d	-0.521509
7	0x3f136516	0.5757612
8	0x3dd47f64	0.1037586
9	0x3f1c5ce9	0.6107927
10	0x3e54d925	0.20785959
11	0x3e0ac7af	0.13552736
12	0xbe6064d7	-0.21913467
13	0x3ef41900	0.47675323
14	0xbe513a49	-0.2043239
15	0x3e8ff080	0.28113174
16	0x3f5d3453	0.86407965
17	0x3f509c40	0.8148842
18	0x3df27095	0.118378796
19	0x3f13a9ab	0.5768077
20	0xbd1e4007	-0.03863528
21	0xbd733292	-0.0593744
22	0x3f026c50	0.5094652
23	0xbe69c245	-0.22828014
24	0xbdfef30c	-0.12448701
25	0x3da3dbc1	0.08000899
26	0x3e33ddea	0.17565122
27	0xbe739055	-0.23785527
28	0x3e5de141	0.21667959
29	0x3ec9e090	0.3942914
30	0x3c13bc53	0.009017068
31	0xbe8d45d6	-0.27592343
32	0x3e5d6641	0.21621038
33	0x3f297ecf	0.6620912
34	0xbc57a53c	-0.013161954
35	0x3e2f14da	0.17097798
36	0xbe3c46f0	-0.18386436
37	0xbe28a222	-0.16468099
38	0xbe4ebd72	-0.20189455
39	0x3e6bbbb8	0.23020828
40	0xbe5cf7c2	-0.21578887
41	0xbe8a8a53	-0.27058658
42	0x3f6a93ab	0.91631573
43	0x3e870406	0.26370257
44	0xbd8d1977	-0.06889623
45	0xbe2605e5	-0.16213186
46	0xbda766c7	-0.081739
47	0xbe59834e	-0.21241495
48	0xbf20fd14	-0.62886167
49	0x3e732ef1	0.23748375
50	0x3d3e7858	0.046501487
51	0xbe45004d	-0.19238396
52	0xbca810f5	-0.020515898
53	0x3c988ea7	0.01862271
54	0x3ec5d093	0.38635692
55	0x3e1fd348	0.15607941
56	0xbe3109e6	-0.17288932
57	0xbe259593	-0.1617034
58	0xbebf48af	-0.3736014
59	0x3ecc1b69	0.39864662
60	0x3e121b4e	0.14268228
61	0x3e91d679	0.28483942
62	0x3da1bd6d	0.07897458
63	0xbdebe42e	-0.11518131

fc2.weight f4 [64, 64]
0	0xbdcd0fb1	-0.100127585
1	0x3f73380b	0.9500739
2	0x3de960ee	0.11395441
3	0x3bbd7f19	0.0057829735
4	0xbe816f88	-0.25280404
5	0x3f66751d	0.9002245
6	0x3f675a3d	0.9037207
7	0xbda32551	-0.07966102
8	0xbd317c11	-0.04333121
9	0xbeaa9869	-0.33319405
10	0xbeaea258	-0.34108233
11	0xbeb98cf7	-0.3624036
12	0xbebeefcc	-0.37292325
13	0x3dee836e	0.11646162
14	0x3e721a8c	0.2364294
15	0xbee97b74	-0.45602
16	0xbee1f25c	-0.44130218
17	0xbfa6c2f2	-1.3028243
18	0xbdfbdd8f	-0.12298118
19	0xbf4834b0	-0.78205395
20	0x3f626b13	0.8844463
21	0xbece72ca	-0.40321952
22	0xbeaa1054	-0.33215582
23	0x3f2f4fe8	0.684813
24	0x3f3fe7af	0.74962896
25	0xbf3dc485	-0.7412799
26	0xbf1cd02c	-0.61255145
27	0x3dd5a193	0.104312085
28	0x3d225caa	0.039639153
29	0xbf0a487a	-0.5401684
30	0xbe133254	-0.14374667
31	0x3ea1628b	0.31520495
32	0xbeee6f33	-0.46569213
33	0xbe3bef0d	-0.1835291
34	0x3f3592be	0.70927036
35	0xbf7224ea	-0.94587576
36	0x3f4a6166	0.7905487
37	0xbe4e4f7a	-0.20147505
38	0x3ea17602	0.31535345
39	0xbf839cf8	-1.0282278
40	0x3ecf767a	0.40520078
41	0xbe402ba7	-0.18766652
42	0xbf5b5085	-0.8566974
43	0x3e8c72ff	0.27431485
44	0x3e1f5827	0.15560971
45	0x3e273d08	0.16331875
46	0xbf47ccf9	-0.7804714
47	0xbf0f77f4	-0.5604241
48	0x3f214a2c	0.630038
49	0xbf5ad7c8	-0.85485506
50	0x3e55b389	0.20869268
51	0xbef84dbc	-0.48496807
52	0x3f0417bc	0.51598716
53	0xbdcc6752	-0.09980644
54	0xbf48f9f1	-0.7850638
55	0x3df8f839	0.1215672
56	0x3f1f2bde	0.6217631
57	0x3ec96e8b	0.3934215
58	0xbf1627d2	-0.5865451
59	0x3e52fb61	0.20603706
60	0x3ba3251e	0.00497879
61	0x3d9d51a9	0.07681591
62	0xbed6c11e	-0.41944212
63	0x3ee2ed0c	0.44321477
64	0x3ed607ea	0.41802913
65	0x3e3efdfc	0.18651575
66	0xbd6df9a9	-0.058099423
67	0x3f3c50e1	0.7356091
68	0xbcb2e4ab	-0.021837553
69	0x3ef9c91b	0.48786244
70	0x3ee8f3e3	0.4549857
71	0xbdd33322	-0.10312487
72	0x3d7abd4d	0.061215688
73	0x3ed4497d	0.41462317
74	0x3ef2e8d2	0.47443253
75	0x3ed13918	0.40863872
76	0xbef6c474	-0.48196757
77	0x3cb171b5	0.021660665
78	0x3e318102	0.17334369
79	0x3e2e1cb2	0.17003134
80	0x3e8d6ed0	0.27623606
81	0xbe9c9a91	-0.30586675
82	0xbc6d9df7	-0.014502994
83	0xbd8db7b6	-0.06919806
84	0xbe5c7a31	-0.21530987
85	0x3d809a20	0.06279397
86	0x3ea5673c	0.32305324
87	0x3d561952	0.05227024
88	0x3dfb7710	0.12278569
89	0xbf4058e4	-0.75135636
90	0x3de131d2	0.109958306
91	0xbd6bd28d	-0.057573844
92	0x3e364673	0.17800312
93	0x3d5b64a1	0.053562764
94	0xbe7a60c0	-0.2445097
95	0x3dd7ed95	0.10543362
96	0xbd0b2d65	-0.03397884
97	0xbf0931f0	-0.53591824
98	0xbec978c3	-0.39349946
99	0x3eb2bd84	0.34910214
100	0xbde23f9f	-0.11047291
101	0xbe883f12	-0.2661062
102	0x3ce21b55	0.027600924
103	0x3e00fe69	0.1259705
104	0x3dc8a36c	0.09796795
105	0xbe278b1a	-0.16361657
106	0xbe57d70d	-0.21078129
107	0x3e178cf9	0.1479987
108	0xbe8614f6	-0.26187867
109	0x3d6c4ec6	0.05769231
110	0xbec39228	-0.38197446
111	0xbf17fb1e	-0.5936755
112	0xbc910efb	-0.017707339
113	0x3e4014c4	0.18757921
114	0xbdc79e83	-0.097470306
115	0xbe8e85a2	-0.2783633
116	0xbe69e71d	-0.22842069
117	0xbe43664e	-0.19081995
118	0x3f04d886	0.5189289
119	0x3d6fd634	0.05855389
120	0x3ee57642	0.44816786
121	0xbe197f25	-0.14989908
122	0xbd9fe926	-0.078081414
123	0xbead705f	-0.33874795
124	0xbc8330b5	-0.016014436
125	0x3f38ff0a	0.7226416
126	0x3e4e72f7	0.20161043
127	0x3c5959e1	0.013266058
128	0xbe5843d3	-0.21119623
129	0xbe31be52	-0.17357758
130	0x3f6bb467	0.9207215
131	0xbe89fab2	-0.26949078
132	0xbe605303	-0.21906666
133	0x3d09d6d1	0.03365213
134	0x3f86d73c	1.0534434
135	0xbf6f7a81	-0.935463
136	0x3e99981e	0.2999887
137	0xbdcd4ddf	-0.10024618
138	0xbeeee9b1	-0.46662667
139	0x3f153fc5	0.5830043
140	0x3e722721	0.23647739
141	0xbfaee534	-1.3663697
142	0x3f5827f7	0.8443598
143	0xbebe4a2e	-0.3716597
144	0xc00cf897	-2.2026727
145	0xc0170d63	-2.360192
146	0x3e614916	0.22000536
147	0xbf97bd5c	-1.1854663
148	0xbc61ab01	-0.013773681
149	0x3ee973aa	0.45596057
150	0xbf07d93d	-0.53065854
151	0x3e23f24f	0.16010402
152	0x3e20a118	0.15686452
153	0xbdde4b2c	-0.10854182
154	0xbee45379	-0.44594935
155	0xbddc2584	-0.10749343
156	0xbe517b86	-0.20457277
157	0xbee86771	-0.4539142
158	0xbf195e6e	-0.59909713
159	0x3d839ae8	0.064260304
160	0xbe1eacc5	-0.15495594
161	0xbfcdda25	-1.6082197
162	0xbe9842c2	-0.29738432
163	0xbdedc329	-0.116094895
164	0x3ee1e1dc	0.4411763
165	0x3eb03731	0.34417108
166	0x3f0a3575	0.5398782
167	0x3bae64f7	0.0053220945
168	0xbd718853	-0.0589679
169	0xbde77335	-0.11301271
170	0xbff82933	-1.9387573
171	0xbf0c03f9	-0.5469356
172	0xbe2d968c	-0.1695196
173	0x3ebd9f85	0.37035766
174	0xbe3644ef	-0.17799734
175	0x3ca2088d	0.019779468
176	0x3e79224a	0.24329486
177	0x3c034d44	0.008014027
178	0x3d447d23	0.047970902
179	0x3e060b95	0.13090356
180	0xbeab50e3	-0.3346015
181	0xbce66314	-0.028123416
182	0xbf19daf4	-0.6009972
183	0x3da4f752	0.08054985
184	0x3f60c6fc	0.87803626
185	0x3df00e34	0.11721459
186	0x3d3e1d5c	0.046414718
187	0xbee1d67f	-0.4410896
188	0x3df92c6e	0.121666774
189	0x3e9e5a54	0.3092829
190	0xbecd467b	-0.40092835
191	0xbea1035f	-0.31447884
192	0x3eee0631	0.464891
193	0x3f85aea2	1.0443919
194	0xbf2f677b	-0.68517274
195	0x3ee73132	0.4515472
196	0x3f59b108	0.85035753
197	0x3ea3dde2	0.3200522
198	0xbf0b3f22	-0.5439321
199	0x3f49935f	0.78740495
200	0xbf9211f4	-1.1411729
201	0xbe2f1991	-0.17099597
202	0x3f424845	0.75891525
203	0xbf9f7f8e	-1.2460802
204	0xbf81e1ad	-1.0146996
205	0x3f6e3d7f	0.93062586
206	0xbfb78767	-1.4338197
207	0xbebd863c	-0.37016475
208	0x3f6e7604	0.9314883
209	0x3f24fad4	0.64445233
210	0xbf4280e5	-0.7597793
211	0x3f548372	0.8301307
212	0x3ef4ae8b	0.47789416
213	0xbf8fd08b	-1.1235517
214	0x3f40d579	0.75325733
215	0x3ee22bc0	0.44174004
216	0x3f3f3523	0.74690455
217	0xbee0c742	-0.43902022
218	0xbec8d8ae	-0.39227813
219	0x3f31a26a	0.6938845
220	0x3f739f49	0.95164925
221	0xbef490c0	-0.47766685
222	0x3f09b348	0.53789186
223	0x3f1c0602	0.6094667
224	0xbf1a6b52	-0.6032001
225	0x3f7731f0	0.96560574
226	0x3f088426	0.5332664
227	0xbf2c4906	-0.67298925
228	0x3efab9ae	0.48969787
229	0xbe971958	-0.29511523
230	0xbf11cb31	-0.5695067
231	0xbf0662ec	-0.5249469
232	0x3ea0aa2b	0.31379828
233	0xbf085cbe	-0.53266513
234	0x3f552113	0.8325359
235	0x3f33dd9a	0.7026001
236	0x3f714d41	0.94258505
237	0xbf6b324e	-0.91873634
238	0x3e92d218	0.28675914
239	0x3ed2b3f8	0.4115293
240	0xbf433239	-0.7624851
241	0xbf29c0aa	-0.6630961
242	0xbf06483b	-0.52453965
243	0x3f0da1a8	0.5532479
244	0x3edbd655	0.4293696
245	0x3e94160e	0.28923076
246	0x3b8cf819	0.0043020365
247	0xbf28e663	-0.6597654
248	0xbef75ae6	-0.48311538
249	0x3f19909d	0.5998629
250	0x3f7a6dca	0.97823775
251	0x3ecb2341	0.39675334
252	0x3d6c3923	0.057671677
253	0x3f0e7a23	0.55655116
254	0xbda65f54	-0.08123651
255	0x3f7bc9e0	0.9835491

fc2.bias f4 [64]
0	0xbf5c5907	-0.86073345
1	0x3e0db8ac	0.13839978
2	0xbf376740	-0.7164192
3	0xbdf33645	-0.118755855
4	0xbe3dca0d	-0.18534108
5	0x3f24a995	0.6432126
6	0x3fc63bd3	1.5487007
7	0x3eab2456	0.3342616
8	0xbe827b04	-0.25484478
9	0x3d1ce1fa	0.038301446
10	0xbfe8f246	-1.8198936
11	0xbfe3fd82	-1.781174
12	0xbe45faa2	-0.1933389
13	0xbe4f188b	-0.20224206
14	0x3fdc5706	1.7214057
15	0xbddb9702	-0.10722162
16	0xbecb159a	-0.39664918
17	0x3fc4f91e	1.5388525
18	0x3e87edf2	0.26548725
19	0x3fc4f22f	1.5386409
20	0xbeadf14a	-0.3397315
21	0xbeb0d3fc	-0.3453673
22	0xbf49248c	-0.7857139
23	0xbee4117f	-0.44544598
24	0x3ebb521c	0.36586082
25	0xbf3ee56e	-0.7456883
26	0xbc5e2f1d	-0.013561037
27	0xbf44e42c	-0.7691066
28	0x3de4b265	0.111668386
29	0xbdc2645e	-0.094918
30	0xbee023d6	-0.4377734
31	0xbd2e1cad	-0.042507816
32	0x3eb63525	0.3558742
33	0xbe9ecd85	-0.31016174
34	0x3eb0d788	0.34539437
35	0xbd214572	-0.03937287
36	0xbdecd487	-0.11563974
37	0x3dac3b64	0.08409765
38	0xbf717d6d	-0.9433201
39	0xbd902e0e	-0.07040034
40	0xbfeefada	-1.8670304
41	0xbd896ce1	-0.0671022
42	0x3f1cd96b	0.61269253
43	0x3d06d765	0.03292026
44	0xbd93ad25	-0.07210759
45	0xbf843be6	-1.033078
46	0xbebea3d7	-0.37234375
47	0x3cb5334a	0.022119183
48	0x3f288212	0.6582347
49	0x3e835956	0.25654095
50	0x3f7b90c0	0.98267746
51	0x3f3e5e9f	0.7436313
52	0x3f3ee7f5	0.7457269
53	0xbdc70a67	-0.09718781
54	0x3d451676	0.048117124
55	0x3f4febe1	0.812193
56	0x3e001f00	0.12511826
57	0x3cb55b3f	0.022138236
58	0x3fceef60	1.6166801
59	0x3febb134	1.8413453
60	0xbe1ac9e2	-0.15116075
61	0xbf0d9bef	-0.5531606
62	0xbc9b3c58	-0.018949673
63	0xbfce4ffd	-1.611816

value.weight f4 [1, 64]
0	0xc0e43050	-7.1308975
1	0xc0e525f9	-7.1608853
2	0xc0d22e03	-6.5681167
3	0x40d746dd	6.7274003
4	0x40d95519	6.791638
5	0xc0db08e2	-6.8448343
6	0x40e47e2f	7.1404033
7	0x40ca5eec	6.324087
8	0xc0d00a83	-6.501283
9	0xc0c8c12c	-6.2735806
10	0xc0e6c60b	-7.211675
11	0xc0f08563	-7.5162826
12	0x40d8b134	6.7716312
13	0x40dd2e04	6.911867
14	0x40d5a24b	6.676061
15	0x40dd3515	6.9127297
16	0xc0ce246a	-6.441945
17	0x40e8aae0	7.270859
18	0xc0d88c7c	-6.767149
19	0x40d7ff06	6.749881
20	0x40d8e891	6.7783895
21	0x40d6f16e	6.7169714
22	0xc0d84725	-6.7586846
23	0x40d58956	6.6730146
24	0xc0d4834a	-6.6410265
25	0xc0d489da	-6.6418276
26	0x40d77e40	6.7341614
27	0xc0cbbcfe	-6.3668203
28	0xc0dca88c	-6.8955746
29	0xc0d58edf	-6.6736903
30	0x40d72019	6.722668
31	0x40dac5cf	6.8366466
32	0xc0d95877	-6.792049
33	0x40d01b04	6.503298
34	0x40d4c26b	6.6487327
35	0xc0dbaf8b	-6.8651786
36	0xc0e50440	-7.156769
37	0x40cdc2a8	6.4300117
38	0xc0ee29eb	-7.442617
39	0xc0d9150c	-6.783819
40	0xc0ec60d1	-7.3868184
41	0xc0d1f096	-6.5606184
42	0x40e6bfe6	7.210925
43	0x40da89c6	6.829318
44	0x40d9361c	6.787855
45	0xc0eae444	-7.3403645
46	0x40d80b90	6.7514114
47	0x40d79e28	6.738056
48	0x40c9ccf5	6.306269
49	0xc0db19ea	-6.8469133
50	0x40e583c8	7.1723366
51	0x40cb8d31	6.3609853
52	0x40cd96bb	6.4246497
53	0xc0d218bd	-6.56552
54	0xc0d83960	-6.757004
55	0x40d796ac	6.7371426
56	0x40d8b0d9	6.771588
57	0x40d96ec5	6.7947717
58	0x40da37b8	6.8193016
59	0x40ee79e0	7.4523773
60	0xc0d19500	-6.5494385
61	0x40c97734	6.295801
62	0xc0d85788	-6.760685
63	0xc0e4df9e	-7.152297

exp_avg f4 [1, 8]
0	0xb9b227a8	-0.00033980352
1	0xbbb391f0	-0.0054800436
2	0xbab63cb6	-0.0013903591
3	0x3ab50c8c	0.0013812943
4	0xba2e9baf	-0.0006660772
5	0xbadacdf6	-0.0016693461
6	0x39d71842	0.0004102607
7	0x3b32bc81	0.0027273002

exp_avg_sq f4 [1, 8]
0	0x38c7d5e3	9.528899e-05
1	0x38a378c8	7.794943e-05
2	0x38d0bdb3	9.953547e-05
3	0x38d89022	0.000103265294
4	0x38a403e4	7.820854e-05
5	0x38be0802	9.0613976e-05
6	0x38f4a22c	0.000116650335
7	0x38dde78f	0.00010581232

exp_avg f4 [64, 111]
0	0x39c07628	0.00036709127
1	0xba2cd041	-0.00065923115
2	0x39cee8bc	0.00039464782
3	0x38c7cc75	9.5271425e-05
4	0x3824202b	3.9130606e-05
5	0x392ecc77	0.00016670102
6	0xb9d6eea5	-0.00040995065
7	0x3a17100b	0.00057625835
8	0x39b44654	0.00034384674
9	0x3ab3fe03	0.0013732318
10	0x3954211d	0.00020230231
11	0xb9ca3e12	-0.00038574688
12	0xba27facb	-0.00064079155
13	0xbac6d6ab	-0.0015170177
14	0xba733457	-0.00092775136
15	0x3b0ac452	0.0021174145
16	0x3b758d35	0.00374682
17	0xba092afb	-0.000523254
18	0x3b4de377	0.0031416097
19	0xbbbdb70a	-0.005789642
20	0xbaeb745a	-0.0017963753
21	0xbab47367	-0.0013767303
22	0x3a3ba69b	0.000715831
23	0xbb2b65a4	-0.0026153112
24	0x3a34f390	0.0006902749
25	0xbae35bf2	-0.0017346127
26	0xbb4b86c6	-0.0031055673
27	0x00000000	0.0
28	0x00000000	0.0
29	0x00000000	0.0
30	0x00000000	0.0
31	0x00000000	0.0
32	0x00000000	0.0
33	0x00000000	0.0
34	0x00000000	0.0
35	0x00000000	0.0
36	0x00000000	0.0
37	0x00000000	0.0
38	0x00000000	0.0
39	0x00000000	0.0
40	0x00000000	0.0
41	0x00000000	0.0
42	0x00000000	0.0
43	0x00000000	0.0
44	0x00000000	0.0
45	0x00000000	0.0
46	0x00000000	0.0
47	0x00000000	0.0
48	0x00000000	0.0
49	0x00000000	0.0
50	0x00000000	0.0
51	0x00000000	0.0
52	0x00000000	0.0
53	0x00000000	0.0
54	0x00000000	0.0
55	0x00000000	0.0
56	0x00000000	0.0
57	0x00000000	0.0
58	0x00000000	0.0
59	0x00000000	0.0
60	0x00000000	0.0
61	0x00000000	0.0
62	0x00000000	0.0
63	0x00000000	0.0
64	0x00000000	0.0
65	0x00000000	0.0
66	0x00000000	0.0
67	0x00000000	0.0
68	0x00000000	0.0
69	0x00000000	0.0
70	0x00000000	0.0
71	0x00000000	0.0
72	0x00000000	0.0
73	0x00000000	0.0
74	0x00000000	0.0
75	0x00000000	0.0
76	0x00000000	0.0
77	0x00000000	0.0
78	0x00000000	0.0
79	0x00000000	0.0
80	0x00000000	0.0
81	0x00000000	0.0
82	0x00000000	0.0
83	0x00000000	0.0
84	0x00000000	0.0
85	0x00000000	0.0
86	0x00000000	0.0
87	0x00000000	0.0
88	0x00000000	0.0
89	0x00000000	0.0
90	0x00000000	0.0
91	0x00000000	0.0
92	0x00000000	0.0
93	0x00000000	0.0
94	0x00000000	0.0
95	0x00000000	0.0
96	0x00000000	0.0
97	0x00000000	0.0
98	0x00000000	0.0
99	0x00000000	0.0
100	0x00000000	0.0
101	0x00000000	0.0
102	0x00000000	0.0
103	0x00000000	0.0
104	0x00000000	0.0
105	0x00000000	0.0
106	0x00000000	0.0
107	0x00000000	0.0
108	0x00000000	0.0
109	0x00000000	0.0
110	0x00000000	0.0
111	0x39b0b87e	0.00033706793
112	0x39e8842b	0.0004434896
113	0xb90441d5	-0.00012613025
114	0xb9361a42	-0.00017366654
115	0xb983729f	-0.00025071666
116	0xbadbe14f	-0.0016775521
117	0x37e9e005	2.7880082e-05
118	0xb9aa00c2	-0.0003242549
119	0xb93257e6	-0.00017008148
120	0x3a9fc297	0.001218873
121	0xb977f111	-0.0002364556
122	0xb9ac401f	-0.0003285417
123	0x3a2d2a70	0.000660575
124	0x3b646ee9	0.0034856147
125	0xba1d83a8	-0.0006008693
126	0x3a9b391d	0.0011842583
127	0x3a450d6f	0.00075169554
128	0xba63369e	-0.00086675014
129	0xba0e6797	-0.0005432306
130	0xb9e6be6e	-0.000440109
131	0xbab8d59a	-0.0014101744
132	0x3b938661	0.004502103
133	0xb9c4f8cb	-0.00037569398
134	0xb8880e45	-6.487643e-05
135	0xba603074	-0.0008552142
136	0xbb18e12d	-0.0023327575
137	0xba70916e	-0.0009176944
138	0x00000000	0.0
139	0x00000000	0.0
140	0x00000000	0.0
141	0x00000000	0.0
142	0x00000000	0.0
143	0x00000000	0.0
144	0x00000000	0.0
145	0x00000000	0.0
146	0x00000000	0.0
147	0x00000000	0.0
148	0x00000000	0.0
149	0x00000000	0.0
150	0x00000000	0.0
151	0x00000000	0.0
152	0x00000000	0.0
153	0x00000000	0.0
154	0x00000000	0.0
155	0x00000000	0.0
156	0x00000000	0.0
157	0x00000000	0.0
158	0x00000000	0.0
159	0x00000000	0.0
160	0x00000000	0.0
161	0x00000000	0.0
162	0x00000000	0.0
163	0x00000000	0.0
164	0x00000000	0.0
165	0x00000000	0.0
166	0x00000000	0.0
167	0x00000000	0.0
168	0x00000000	0.0
169	0x00000000	0.0
170	0x00000000	0.0
171	0x00000000	0.0
172	0x00000000	0.0
173	0x00000000	0.0
174	0x00000000	0.0
175	0x00000000	0.0
176	0x00000000	0.0
177	0x00000000	0.0
178	0x00000000	0.0
179	0x00000000	0.0
180	0x00000000	0.0
181	0x00000000	0.0
182	0x00000000	0.0
183	0x00000000	0.0
184	0x00000000	0.0
185	0x00000000	0.0
186	0x00000000	0.0
187	0x00000000	0.0
188	0x00000000	0.0
189	0x00000000	0.0
190	0x00000000	0.0
191	0x00000000	0.0
192	0x00000000	0.0
193	0x00000000	0.0
194	0x00000000	0.0
195	0x00000000	0.0
196	0x00000000	0.0
197	0x00000000	0.0
198	0x00000000	0.0
199	0x00000000	0.0
200	0x00000000	0.0
201	0x00000000	0.0
202	0x00000000	0.0
203	0x00000000	0.0
204	0x00000000	0.0
205	0x00000000	0.0
206	0x00000000	0.0
207	0x00000000	0.0
208	0x00000000	0.0
209	0x00000000	0.0
210	0x00000000	0.0
211	0x00000000	0.0
212	0x00000000	0.0
213	0x00000000	0.0
214	0x00000000	0.0
215	0x00000000	0.0
216	0x00000000	0.0
217	0x00000000	0.0
218	0x00000000	0.0
219	0x00000000	0.0
220	0x00000000	0.0
221	0x00000000	0.0
222	0x3a5cf167	0.0008428306
223	0x3a8c8dcc	0.0010723411
224	0xb8c1e39d	-9.2453534e-05
225	0xba272b81	-0.0006377027
226	0xb9a2bb0e	-0.00031038414
227	0x393e2e4b	0.00018137057
228	0xb9273366	-0.00015945508
229	0x39e0dd8a	0.0004288967
230	0xba052633	-0.00050792395
231	0x3a9e8175	0.0012093025
232	0xba3ccfbb	-0.0007202585
233	0xba7ba5dc	-0.0009599605
234	0x3a7ec235	0.000971827
235	0x3ac926ce	0.0015346648
236	0x3ae19fe0	0.0017213784
237	0x3b1dca7a	0.0024076984
238	0xba629f58	-0.000864496
239	0xbb12f1ad	-0.0022421882
240	0xba4cc858	-0.0007811836
241	0x38744f73	5.8248126e-05
242	0x3ab2e4e1	0.0013648533
243	0x3ae784e2	0.0017663504
244	0x3a668ed8	0.0008795089
245	0x3b021ccb	0.0019853588
246	0x37ff4431	3.0430123e-05
247	0xba6c3077	-0.00090099074
248	0xbb1e6db3	-0.0024174273
249	0x00000000	0.0
250	0x00000000	0.0
251	0x00000000	0.0
252	0x00000000	0.0
253	0x00000000	0.0
254	0x00000000	0.0
255	0x00000000	0.0
