drl/ran2/Ant25000_ran2_weights.pth (torch, 292848 bytes, 36 tensors)

log_std f4 [1, 8]
-1.4116412 -1.8508567 -1.1828487 -1.3119273 -1.3717579 -1.4048036 -1.3206425 -1.3848985
00000000: a9b0 b4bf dfe8 ecbf 9667 97bf 3ced a7bf
00000010: c395 afbf 9bd0 b3bf d00a a9bf 5b44 b1bf

fc1.weight f4 [64, 111]
-0.25361872 -0.008797496 0.14443026 -0.031851247 0.11630579 -0.10356744 -0.037166245 0.055987217
0.07528819 0.054921344 -0.21323994 -0.19971988 0.1083031 -0.106382504 -0.021588894 0.036241427
0.017831136 0.0134275425 -0.106290005 -0.014585162 -0.14836411 0.0185242 -0.16604452 -0.044178687
0.012691992 -0.031296626 0.10680081 -0.007791511 -0.034695953 0.056769438 -0.06900812 -0.024754101
0.06750601 0.094654165 0.116563104 -0.17333615 -0.116805494 0.009880112 0.08167458 -0.0754959
-0.14210315 0.09653318 -0.012955543 -0.14053504 0.039643902 0.017880451 0.09907145 -0.0030286445
-0.031915832 -0.13422713 -0.0986604 0.028764538 -0.095582075 -0.05567561 0.06744774 0.01865231
-0.054841746 0.017509993 -0.20823483 -0.038617138 0.08164473 -0.0072367457 0.114925005 -0.11166557
0.015404698 0.17266017 -0.27381602 -0.018573742 0.08292072 0.045017265 0.056179937 -0.10840436
0.0485582 -0.0944305 -0.033283427 0.06672744 0.03566428 0.0253633 -0.08033475 0.06265204
0.033814237 -0.0062516457 0.015303888 0.03234271 0.2078293 -0.12379017 -0.012662644 0.12517343
-0.06809961 -0.06350179 0.06374925 0.05202433 -0.022890676 0.13769273 -0.16256693 0.13295528
-0.00035645542 0.0860497 -0.005974742 -0.1401145 -0.10596994 -0.03743048 0.099702515 0.15004446
-0.026453504 -0.16842665 -0.04930465 0.013555835 0.11235863 -0.016593821 0.053479962 -0.0122776
-0.039916806 -0.48966947 0.19626568 -0.17575063 -0.02762113 -0.19305839 0.20986988 0.098487645
-0.17952347 0.002264625 -0.095188156 -0.011606834 -0.0919691 -0.10592376 -0.122609146 -0.031371348
-0.002535746 -0.036192395 -0.0652206 -0.06617027 0.10942856 0.019747352 -0.11140537 0.107121326
-0.059326444 -0.067180336 -0.11657074 -0.00066049065 -0.06652913 -0.057159927 0.025817506 0.051236734
-0.13591032 -0.057719786 0.0975515 -0.10133125 -0.038597915 0.1680809 -0.059719175 -0.039446983
-0.08748309 -0.04450521 0.22466932 0.17317238 0.03858966 -0.09562479 -0.106398255 -0.16580851
0.063220404 -0.062119074 0.031688605 -0.020121159 0.110400334 -0.05961324 -0.02372453 0.19603951
0.24343407 0.057757493 -0.0587891 0.07133382 -0.061221518 0.0474649 0.17703475 -0.037319347
-0.030486545 -0.16142456 -0.005817401 0.022061879 0.05821295 0.02391662 0.2657637 0.10560833
0.012400558 0.017755393 -0.006800742 -0.06435123 -0.053520713 -0.006323616 0.17159422 0.004974091
0.059477307 0.03846698 -0.11464971 -0.13777499 -0.08426107 0.07474795 -0.011021227 0.09219387
0.06261686 -0.038727954 -0.038466405 0.021556528 0.083806306 0.028953047 0.15719381 0.028292691
0.15193848 0.04856585 -0.045423027 0.16819157 -0.00035607637 -0.025414364 0.053540044 0.004392755
-0.076920815 0.038756616 0.020872656 -0.00936038 0.05181312 -0.058585856 -0.013289053 -0.15195505
-0.019016711 0.055954747 0.40349165 0.1294034 -0.25233445 0.19634858 0.13355857 0.17919898
0.28082073 -0.3279129 0.0005168805 -0.08552973 -0.033648506 -0.03266112 -0.045575596 0.0037265841
0.08849608 0.035273843 0.07027888 0.00838177 0.009568368 0.044180308 0.062906586 -0.15995784
0.06542824 0.03615233 0.054284118 -0.005929872 0.024806075 -0.1222957 -0.023982398 0.035926133
00000000: 50da 81be 5f23 10bc 87e5 133e 7476 02bd
00000010: bb31 ee3d 2a1b d4bd a23b 18bd da52 653d
00000020: b230 9a3d 34f5 603d 925b 5abe 5e83 4cbe
00000030: 04ce dd3d 12df d9bd 31db b0bc e471 143d
00000040: 9a12 923c 32ff 5b3c 93ae d9bd 9af6 6ebc
00000050: c3ec 17be 10c0 973c 9307 2abe b6f4 34bd
00000060: 13f2 4f3c e430 00bd 62ba da3d ee4f ffbb
00000070: 581d 0ebd 1287 683d 2154 8dbd 1dc9 cabc
00000080: 9740 8a3d 0bda c13d a3b8 ee3d 087f 31be
00000090: b837 efbd 31e0 213c 0145 a73d 989d 9abd
000000a0: 7d83 11be 30b3 c53d 7c43 54bc 6be8 0fbe
000000b0: a561 223d 067a 923c f9e5 ca3d 397c 46bb
000000c0: 2dba 02bd d672 09be 770e cabd 9ca3 eb3c
000000d0: 89c0 c3bd 1c0c 64bd 0a22 8a3d bbcc 983c
000000e0: bda1 60bd 1e71 8f3c 833b 55be 012d 1ebd
000000f0: 5a35 a73d 3922 edbb cd5d eb3d ebb0 e4bd
00000100: fd63 7c3c d4cd 303e 9d31 8cbe f627 98bc
00000110: 57d2 a93d 0664 383d ef1c 663d 1b03 debd
00000120: f7e4 463d c764 c1bd 3454 08bd 65a8 883d
00000130: b514 123d b2c6 cf3c 8c86 a4bd b64f 803d
00000140: cc80 0a3d 9bda ccbb 29bd 7a3c ca79 043d
00000150: 34d1 543e b385 fdbd fa76 4fbc 772d 003e
00000160: cf77 8bbd 3a0d 82bd f78e 823d 7717 553d
00000170: 3a85 bbbc 53ff 0c3e f277 26be 6e25 083e
00000180: a3e2 bab9 d33a b03d c5c7 c3bb 2d7a 0fbe
00000190: c506 d9bd b450 19bd d530 cc3d 41a5 193e
000001a0: 05b5 d8bc 0978 2cbe acf3 49bd 4b19 5e3c
000001b0: 481c e63d c4ef 87bc ce0d 5b3d fd27 49bc
000001c0: ce7f 23bd f5b5 fabe dff9 483e f9f7 33be
000001d0: b545 e2bc 19b1 45be 21e8 563e e4b3 c93d
000001e0: 00d5 37be 1a6a 143b 02f2 c2bd 972a 3ebc
000001f0: 4c5a bcbd 8eee d8bd 811a fbbd 3e7f 00bd
00000200: c22e 26bb 7a3e 14bd 6192 85bd 4784 87bd
00000210: 151c e03d 33c5 a13c 8028 e4bd 6d62 db3d
00000220: 4900 73bd d895 89bd a4bc eebd c724 2dba
00000230: 6d40 88bd 8720 6abd 3c7f d33c 9cdd 513d
00000240: 132c 0bbe 956b 6cbd 15c9 c73d c286 cfbd
00000250: d918 1ebd 661d 2c3e 189c 74bd 2993 21bd
00000260: 562a b3bd 184b 36bd b70f 663e 1a54 313e
00000270: 3110 1e3d eed6 c3bd 54e7 d9bd b5c9 29be
00000280: b379 813d 9270 7ebd e9cb 013d 21d5 a4bc
00000290: 9219 e23d 032d 74bd f259 c2bc 95be 483e
000002a0: c846 793e 1f93 6c3d d7cc 70bd 7717 923d
000002b0: 6ac3 7abd 8e6a 423d 9948 353e 2cdc 18bd
000002c0: ebbe f9bc 7b4c 25be e69f bebb 1dbb b43c
000002d0: b470 6e3d caec c33c 2e12 883e 2e49 d83d
000002e0: b62b 4b3c c273 913c c2d8 debb 94ca 83bd
000002f0: 8938 5bbd 5636 cfbb 65b6 2f3e b3fd a23b
00000300: 7a9e 733d 8d8f 1d3d 78cd eabd e314 0dbe
00000310: 1191 acbd 7415 993d 6092 34bc 24d0 bc3d
00000320: 453d 803d 34a1 1ebd f38e 1dbd 5197 b03c
00000330: a4a2 ab3d f12e ed3c 6af7 203e 13c6 e73c
00000340: c395 1b3e fcec 463d 7f0d 3abd 693a 2c3e
00000350: c3af bab9 c931 d0bc ce4c 5b3d 1af1 8f3b
00000360: a988 9dbd 42bf 1e3d 22fd aa3c 475c 19bc
00000370: fe39 543d b9f7 6fbd 54ba 59bc 1b9a 1bbe
00000380: efc8 9bbc ce30 653d 7596 ce3e 5382 043e
00000390: fb31 81be 9a0f 493e 94c3 083e f07f 373e
000003a0: bcc7 8f3e 33e4 a7be 437f 073a 362a afbd
000003b0: 04d3 09bd abc7 05bd 7aad 3abd b539 743b
000003c0: 6f3d b53d 4e7b 103d 60ee 8f3d b153 093c
000003d0: a5c4 1c3c 69f6 343d 2bd5 803d fdcb 23be
000003e0: 3eff 853d 7714 143d 0659 5e3d 5f4f c2bb
000003f0: 1c36 cb3c 2b76 fabd bc76 c4bc 4827 133d

fc1.bias f4 [64]
0.014273246 -0.03578523 -0.10750271 -0.0748326 -0.116778634 0.008963331 -0.007604717 0.0061080917
-0.09221095 -0.035749353 0.012481349 -0.041827492 -0.022237867 0.04991158 0.017216466 0.023863485
-0.006167028 -0.020465547 0.0646365 0.05081588 0.14739284 -0.00671471 -0.09926957 0.06967846
0.055515703 0.11952574 -0.0012413241 -0.043413203 0.0071112984 -0.027704261 -0.00049547537 -0.047892004
-0.0354697 0.0517002 0.034583014 -0.009216361 0.040085252 -0.0015469558 -0.042127836 0.044415608
-0.03037423 0.054564513 0.0007190206 -0.01232076 -0.008673758 0.09998734 -0.09679124 0.014666456
-0.015444937 0.09869693 -0.15911402 0.085542634 -0.094893895 0.00031417861 -0.0010679275 0.11067331
-0.0031282916 0.02658029 0.019111227 0.028206002 0.0040202173 0.037575413 0.04542085 -0.14869273
00000000: 55da 693c 8993 12bd 612a dcbd d641 99bd
00000010: a329 efbd efda 123c fd30 f9bb 6326 c83b
00000020: 18d9 bcbd ea6d 12bd 927e 4c3c 4e53 2bbd
00000030: 302c b6bc 1670 4c3d 8c09 8d3c 5b7d c33c
00000040: c814 cabb 5da7 a7bc 2460 843d 5024 503d
00000050: 26ee 163e 1207 dcbb d84d cbbd 95b3 8e3d
00000060: 6f64 633d e9c9 f43d edb3 a2ba 0bd2 31bd
00000070: e505 e93b 0cf4 e2bc cae2 01ba 682a 44bd
00000080: ad48 11bd 97c3 533d eba6 0d3d 3800 17bc
00000090: 6f30 243d 39c3 caba 3d8e 2cbd 24ed 353d
000000a0: 61d3 f8bc 0a7f 5f3d a87c 3c3a 03dd 49bc
000000b0: 611c 0ebc 2ac6 cc3d 7c3a c6bd 934b 703c
000000c0: c30c 7dbc 9e21 ca3d c9ee 22be fa30 af3d
000000d0: bb57 c2bd 57b8 a439 b3f9 8bba b0a8 e23d
000000e0: 0604 4dbb e9be d93c 268f 9c3c 4610 e73c
000000f0: 07bc 833b ade8 193d 370b 3a3d e842 18be

fc2.weight f4 [64, 64]
0.09419096 -0.05807263 -0.1526726 -0.033325188 0.22163872 -0.023985729 0.24031404 -0.08115194
-0.0032052486 0.27283117 0.073749945 0.05716345 -0.1271245 -0.36024666 0.023572296 -0.04657118
0.21625544 -0.01302217 0.1221224 -0.11538835 -0.020052187 -0.0043073865 -0.20289825 0.057680905
0.058956098 0.19402081 -0.016339526 0.060589712 -0.099271014 -0.06699257 -0.03141129 -0.14681938
0.031931136 0.10326455 0.04682558 -0.036979955 0.07106528 0.109806344 0.36386222 -0.058324087
0.19772428 0.07906538 -0.077721715 0.19108744 0.101505086 -0.10563363 0.18623652 -0.053684037
0.15227087 -0.0743093 0.080950804 0.02737512 -0.019790325 -0.19834891 -0.10946254 0.03951873
-0.050312478 -0.19989584 0.24348618 -0.08970198 0.00983004 -0.22687502 -0.1531126 0.048276674
-0.019743655 0.4373281 -0.22183031 0.15180922 -0.034593407 -0.07610215 0.3125112 0.17526764
0.082703285 0.14770354 0.022776615 -0.12825353 -0.19165517 -0.0036347164 0.13521415 0.102534644
-0.16801187 -0.15303269 0.005785806 -0.11494872 0.012739916 -0.10693304 -0.018504463 0.016917534
-0.10781075 -0.15050626 0.06192951 -0.08890449 0.05066563 -0.06676564 0.094858915 0.070745416
-0.11211053 0.013532778 -0.18676588 -0.056942556 0.16771543 0.14041364 0.06218076 -0.18724689
-0.054020494 0.018832577 0.104741216 -0.14262663 -0.04769442 0.010036987 -0.14388861 -0.11012894
-0.012201783 -0.100186914 0.005585471 0.059597544 0.016510544 -0.07892946 -0.10495061 -0.07346275
0.29209903 0.09690011 -0.055589087 0.16265029 0.04838868 -0.08458469 -0.08859278 0.20976163
-0.22976577 -0.043426964 -0.13625649 -0.07540689 -0.037359517 0.051053833 -0.029896341 -0.10338238
-0.067965835 0.12604778 -0.14215504 -0.139619 0.043194678 0.12487559 0.074882425 0.0424484
-0.2509934 -0.13350688 0.4561149 -0.004354921 0.09724446 -0.20723183 -0.039205875 -0.10559896
0.14068435 0.07369144 0.05746716 -0.13210107 0.023417158 0.0028850425 0.112879045 0.0046572047
0.052853446 0.09135255 0.08696237 0.020417465 -0.15722533 -0.029707247 0.052638352 -0.23671818
-0.04740063 0.29864877 -0.23694596 -0.09686038 0.18549961 -0.19533405 0.10935242 0.118056916
0.0067502 0.11411551 -0.09406951 -0.09150707 -0.052809127 0.0045774397 0.06954178 -0.05635718
-0.19944653 0.028021658 0.052800823 0.07656193 0.08930317 0.17742805 -0.11025165 -0.054820336
-0.006809431 0.008680373 0.010576021 -0.12753165 -0.3081578 0.07487422 -0.086913034 -0.07074354
0.119104005 0.29813665 -0.06295041 0.26519662 -0.13398188 0.081672184 0.24383187 -0.06866571
0.0061339005 0.0636197 -0.04633751 -0.20411325 0.0045311134 -0.03006657 0.11369915 -0.11414193
-0.04052818 0.106319286 0.096292034 -0.28057137 -0.17576085 0.10320047 0.031520274 0.10894186
0.012623143 -0.17060666 -0.12059833 0.19271888 -0.059386607 0.06929168 -0.036090188 -0.07572772
-0.02934968 0.035691142 -0.14737713 0.058396358 0.11179766 0.04581117 -0.19759127 -0.06924049
-0.2544524 -0.017942952 0.09958909 -0.039478876 -0.045726564 0.033721283 0.1726515 -0.035944473
-0.056066424 -0.011823074 0.3083147 0.026932443 -0.28704485 -0.20664236 -0.028729878 -0.03229524
00000000: 31e7 c03d 91dd 6dbd 3556 1cbe fe7f 08bd
00000010: 43f5 623e b87d c4bc e214 763e fd32 a6bd
00000020: 260f 52bb 87b0 8b3e 360a 973d 3924 6a3d
00000030: ed2c 02be 4072 b8be b01a c13c 6cc1 3ebd
00000040: 1172 5d3e f15a 55bc 4f1b fa3d ba50 ecbd
00000050: 7c44 a4bc fa24 8dbb 8fc4 4fbe d042 6c3d
00000060: f37b 713d 64ad 463e 78da 85bc eb2c 783d
00000070: 9a4e cbbd 6733 89bd 20a9 00bd d257 16be
00000080: 39ca 023d 5d7c d33d 2ecc 3f3d 4b78 17bd
00000090: ac8a 913d 26e2 e03d 264c ba3e 3de5 6ebd
000000a0: 3c78 4a3e 08ed a13d 902c 9fbd 6dac 433e
000000b0: e6e1 cf3d 7256 d8bd c9b4 3e3e cbe3 5bbd
000000c0: e5ec 1b3e 792f 98bd 89c9 a53d ca41 e03c
000000d0: 521f a2bc fa1b 4bbe e52d e0bd 64de 213d
000000e0: 7514 4ebd 7fb1 4cbe 7154 793e acb5 b7bd
000000f0: 2d0e 213c ed51 68be 8dc9 1cbe c3bd 453d
00000100: 72bd a1bc 78e9 df3e 7c27 63be e073 1b3e
00000110: d1b1 0dbd 72db 9bbd 7801 a03e 5c79 333e
00000120: 5760 a93d 993f 173e 0696 ba3c e554 03be
00000130: 4141 44be 6c34 6ebb 9475 0a3e affd d13d
00000140: 4e0b 2cbe 9ab4 1cbe dc96 bd3b 3c6a ebbd
00000150: 15bb 503c b6ff dabd ac96 97bc a496 8a3c
00000160: e2cb dcbd 501e 1abe cca9 7d3d 8f13 b6bd
00000170: c386 4f3d 6dbc 88bd 6445 c23d f9e2 903d
00000180: 359a e5bd 96b8 5d3c 8e3f 3fbe 993c 69bd
00000190: 98bd 2b3e 98c8 0f3e 41b1 7e3d a6bd 3fbe
000001a0: 9844 5dbd c746 9a3c 9082 d63d b70c 12be
000001b0: 395b 43bd 2d72 243c 8957 13be 488b e1bd
000001c0: fde9 47bc cc2e cdbd 5406 b73b 8e1c 743d
000001d0: 1f41 873c c5a5 a1bd 58f0 d6bd a373 96bd
000001e0: 018e 953e 9173 c63d 62b1 63bd cc8d 263e
000001f0: 3533 463d bd3a adbd 2270 b5bd c1cb 563e
00000200: b847 6bbe 79e0 31bd d286 0bbe ed6e 9abd
00000210: 4b06 19bd d31d 513d 2ce9 f4bc 24ba d3bd
00000220: ac31 8bbd ab12 013e 1791 11be 48f8 0ebe
00000230: e7ec 303d c6be ff3d f55b 993d 60de 2d3d
00000240: 3582 80be 07b6 08be e487 e93e bab3 8ebb
00000250: 1a28 c73d 9534 54be 5796 20bd 4444 d8bd
00000260: 8f0f 103e 8aeb 963d af62 6b3d 8145 07be
00000270: 57d5 bf3c fb12 3d3b 212d e73d 779b 983b
00000280: db7c 583d 0c17 bb3d 5419 b23d 8742 a73c
00000290: adff 20be 9d5c f3bc 509b 573d 4066 72be
000002a0: 2a27 42bd 7ee8 983e f6a1 72be bc5e c6bd
000002b0: 9cf3 3d3e a605 48be 29f4 df3d d3c7 f13d
000002c0: c830 dd3b 64b5 e93d 84a7 c0bd 0f68 bbbd
000002d0: 624e 58bd 59fe 953b ec6b 8e3d c9d6 66bd
000002e0: b63b 4cbe ad8d e53c ad45 583d 80cc 9c3d
000002f0: 95e4 b63d b3af 353e 9ecb e1bd 4a8b 60bd
00000300: a621 dfbb 2038 0e3c 0c47 2d3c a897 02be
00000310: dcc6 9dbe a857 993d 76ff b1bd fde1 90bd
00000320: cdec f33d 5ea5 983e 25ec 80bd dac7 873e
00000330: 8c32 09be bf43 a73d 10af 793e 9ca0 8cbd
00000340: e3fe c83b 0c4b 823d 67cc 3dbd 1003 51be
00000350: bc79 943b 2b4e f6bc 1adb e83d 3fc3 e9bd
00000360: e000 26bd edbd d93d c234 c53d 0da7 8fbe
00000370: a7fa 33be c55a d33d 671b 013d e91c df3d
00000380: 4dd1 4e3c 83b3 2ebe 42fc f6bd 1958 453e
00000390: 5f3f 73bd cce8 8d3d 4ed3 13bd 2317 9bbd
000003a0: bd6e f0bc e030 123d 08ea 16be 0531 6f3d
000003b0: 2cf6 e43d 7ea4 3b3d 5e55 4abe f5cd 8dbd
000003c0: 9647 82be 19fd 92bc 5df5 cb3d 9ab4 21bd
000003d0: c74b 3bbd 541f 0a3d 8ecb 303e 833a 13bd
000003e0: e8a5 65bd 91b5 41bc 6ddb 9d3e 6da1 dc3c
000003f0: 8bf7 92be 0e9a 53be ec5a ebbc 0348 04bd

fc2.bias f4 [64]
0.022344142 -0.008194385 0.04087917 -0.096106425 0.016400347 0.06183096 0.11679484 0.02547163
-0.037532076 0.047988802 0.0053809835 -0.023203453 -0.009693462 0.0032187218 0.07776357 0.07693021
0.049265873 0.086445674 -0.032725904 -0.02610713 -0.008942078 0.033524513 -0.010847657 -0.0064991256
-0.056354485 -0.0054103723 -0.057537246 0.016194375 -0.014567066 -0.008792086 0.00023759076 0.0021735826
0.042937856 -0.004753575 0.026911845 0.04852869 0.00011403145 -0.007695838 0.06711258 -0.04623967
-0.058358647 0.0061342088 0.0221911 0.14669888 -0.013063641 -0.07096067 -0.016923953 0.063751854
0.03718584 0.031565044 -0.0026345046 0.022534866 0.03482496 -0.078798346 0.0021329864 0.051508475
0.006283813 -0.11700127 0.042422865 0.10670905 0.026801787 -0.010817084 0.113968186 0.015653795
00000000: 100b b73c be41 06bc eb70 273d 72d3 c4bd
00000010: 055a 863c 7642 7d3d 2232 ef3d e1a9 d03c
00000020: 3cbb 19bd e88f 443d f652 b03b 2b15 bebc
00000030: 54d1 1ebc 31f1 523b 8242 9f3d 968d 9d3d
00000040: 03cb 493d 6e0a b13d 990b 06bd 9fde d5bc
00000050: cb81 12bc 0051 093d 5fba 31bc 9ef6 d4bb
00000060: f6d3 66bd 7e49 b1bb 2dac 6bbd 11aa 843c
00000070: b4aa 6ebc ae0c 10bc c921 7939 aa72 0e3b
00000080: 9bdf 2f3d e1c3 9bbb 3b76 dc3c 05c6 463d
00000090: 2b24 ef38 5e2d fcbb 5272 893d cf65 3dbd
000000a0: 7a09 6fbd 7901 c93b 1cca b53c 3b38 163e
000000b0: e208 56bc d453 91bd 1aa4 8abc 5590 823d
000000c0: 2e50 183d 594a 013d a7a7 2cbb 0a9b b83c
000000d0: 9ea4 0e3d 0761 a1bd 93c9 0b3b 8dfa 523d
000000e0: 72e8 cd3b 5d9e efbd 99c3 2d3d 468a da3d
000000f0: 6c8f db3c 243a 31bc 2768 e93d 633c 803c

mu.weight f4 [8, 64]
0.034333024 0.07969106 -0.14602809 -0.057810526 -0.15508598 -0.09049334 0.14425811 0.055758048
0.064080715 -0.16192508 -0.064963154 -0.04294449 -0.033821817 0.14633192 -0.073367454 0.019178558
0.019480124 -0.13978294 -0.24661517 -0.2896222 -0.12929344 -0.06440748 0.052284718 0.03311644
-0.17024866 0.0892982 -0.1314449 -0.16173854 0.18674459 0.06073499 -0.008092046 0.117561504
-0.2298744 -0.045811515 0.072660506 -0.061881848 0.2126124 -0.19344643 0.08088171 0.015985355
-0.023876596 -0.24995174 -0.143905 -0.14790308 -0.34825632 -0.13760978 0.121967554 -0.39038247
0.18145287 0.08155498 -0.16128848 0.10171903 0.30141228 0.033283547 0.13282359 0.30867168
0.11711123 0.009398724 -0.21893665 0.02674223 -0.018685114 -0.11235904 -0.15810052 0.014590414
0.011330376 0.050064005 0.31754577 -0.05128904 -0.13266596 -0.19737823 0.07288588 0.012028376
-0.09856072 0.21121128 0.15338105 -0.019966874 -0.18458498 0.06529124 0.055830423 0.07685986
0.09571524 -0.045339275 -0.2888074 0.03240327 0.037835203 0.01824359 -0.2458734 -0.04229679
0.010780957 0.10491134 0.12698704 0.14217067 -0.03559539 0.035252895 0.06750832 -0.2787238
-0.04901726 -0.12519431 -0.058069758 0.17975032 -0.13143447 0.11052172 -0.083159134 0.16063565
0.031897433 0.046112932 -0.013448455 -0.27959663 0.08906817 0.10309924 0.011525157 0.08911185
-0.11718467 0.015704483 -0.19964457 0.030650979 -0.0823216 0.11886299 -0.011403106 0.034696687
-0.13829479 0.09657705 -0.18548496 0.20862032 0.15358381 0.097029775 -0.16868342 0.12749584
0.13855396 0.22720313 -0.12358059 0.07703311 0.038993698 0.20367023 -0.37470275 -0.14477775
-0.06390991 0.09383561 0.1959821 0.038668428 -0.03709584 0.107827716 -0.050272323 0.10785442
-0.073756136 -0.10829768 -0.045316614 0.005262811 0.088667065 -0.09621774 -0.03542475 0.09131972
-0.057719514 0.14608432 0.12274555 0.39139223 -0.11065277 -0.12487622 -0.15413861 0.013779002
-0.18691003 -0.26862803 -0.20980184 0.2479145 0.19134139 0.070752874 0.11285723 -0.17866604
0.04634221 -0.028637385 0.17255135 -0.25013307 0.096205205 0.049764507 0.22172663 -0.061245177
0.10788873 0.026505124 0.18561916 -0.14038445 -0.014052454 0.03809525 -0.07014512 -0.18724512
0.017737364 0.05124939 0.16356081 0.009728801 -0.016428575 0.03138673 0.13310456 -0.024527516
-0.18497986 0.14912191 0.0350532 0.15849113 -0.13792545 0.05693591 0.083733365 0.11545551
0.031520516 0.10498607 -0.12630798 0.13953006 -0.10474372 0.022168037 -0.04779035 -0.100686274
-0.16699013 0.112023875 -0.027255766 -0.1550959 0.10589849 -0.033308852 -0.15105268 -0.039116573
0.058132567 -0.04248476 -0.12726605 0.059314724 0.05562966 0.10340786 0.11551866 -0.024961766
-0.10595658 0.03436544 -0.13754217 -0.007010554 0.05838167 -0.020055069 0.0920802 0.13340992
-0.046957217 0.012042486 0.11067237 -0.06269034 -0.13027497 0.13884158 0.060655724 -0.06546417
0.030292045 -0.14228076 0.036887262 -0.06386379 -0.024046801 0.3420952 0.0054135267 0.03832916
0.2563089 -0.056364916 -0.033088233 -0.29706988 -0.0903807 0.029494733 0.112007715 0.14680988
00000000: c9a0 0c3d 1135 a33d 6388 15be bbca 6cbd
00000010: dcce 1ebe 9254 b9bd 66b8 133e 8d62 643d
00000020: c03c 833d b0cf 25be 670b 85bd 90e6 2fbd
00000030: bf88 0abd 09d8 153e ad41 96bd 5a1c 9d3c
00000040: c894 9f3c 4223 0fbe b088 7cbe 5c49 94be
00000050: 8065 04be 12e8 83bd 8028 563d 1ba5 073d
00000060: aa55 2ebe fae1 b63d 7e99 06be ca9e 25be
00000070: f939 3f3e 41c5 783d 8094 04bc 16c4 f03d
00000080: 3264 6bbe dba4 3bbd 08cf 943d d277 7dbd
00000090: 11b7 593e d216 46be 4fa5 a53d b8f3 823c
000000a0: da98 c3bc 59f3 7fbe d55b 13be e873 17be
000000b0: a74e b2be 94e9 0cbe 20ca f93d 36e0 c7be
000000c0: c8ce 393e 4c06 a73d cf28 25be 1152 d03d
000000d0: b652 9a3e 5454 083d e802 083e 370a 9e3e
000000e0: 03d8 ef3d 1bfd 193c ee30 60be 8512 db3c
000000f0: 8611 99bc 7f1c e6bd 1ae5 21be a20c 6f3c
00000100: 0ba3 393c ea0f 4d3d 5c95 a23e 7514 52bd
00000110: 96d9 07be 851d 4abe 3145 953d aa12 453c
00000120: 34da c9bd c547 583e ec0f 1d3e 9291 a3bc
00000130: d803 3dbe 6ab7 853d 71ae 643d b468 9d3d
00000140: 5a06 c43d adb5 39bd 90de 93be 4bb9 043d
00000150: 16f9 1a3d 9573 953c 3dc6 7bbe 663f 2dbd
00000160: 9ca2 303c c2db d63d e408 023e 3095 113e
00000170: 79cc 11bd 5765 103d cd41 8a3d e3b4 8ebe
00000180: 53c6 48bd f032 00be 8eda 6dbd 7810 383e
00000190: c296 06be 3659 e23d 564f aabd ac7d 243e
000001a0: e2a6 023d eae0 3c3d e956 5cbc 4a27 8fbe
000001b0: 5f69 b63d b225 d33d 03d4 3c3c 4680 b63d
000001c0: 84fe efbd b0a6 803c a06f 4cbe c317 fb3c
000001d0: 3a98 a8bd 706e f33d 18d4 3abc 1d1e 0e3d
000001e0: 269d 0dbe 30ca c53d c5ef 3dbe 91a0 553e
000001f0: 1345 1d3e 8cb7 c63d 59bb 2cbe 458e 023e
00000200: 17e1 0d3e f0a7 683e d217 fdbd 89c3 9d3d
00000210: dbb7 1f3d ee8e 503e 0ad9 bfbe 9e40 14be
00000220: 33e3 82bd e22c c03d 88af 483e c962 1e3d
00000230: cff1 17bd c7d4 dc3d 5aea 4dbd c7e2 dc3d
00000240: 750d 97bd 2dcb ddbd ea9d 39bd a973 ac3b
00000250: 1497 b53d ce0d c5bd 8b19 11bd d505 bb3d
00000260: 4c6b 6cbd 2197 153e 0562 fb3d 9064 c83e
00000270: eb9d e2bd 1bbf ffbd 83d6 1dbe 53c1 613c
00000280: 5865 3fbe 9d89 89be 4bd6 56be 4cdd 7d3e
00000290: ffee 433e e2e6 903d b121 e73d 3bf4 36be
000002a0: 54d1 3d3d f398 eabc 4db1 303e 7111 80be
000002b0: 3c07 c53d ded5 4b3d 4e0c 633e 39dc 7abd
000002c0: c4f4 dc3d 4621 d93c f312 3e3e f1c0 0fbe
000002d0: 443c 66bc c409 1c3d 3fa8 8fbd 2fbd 3fbe
000002e0: f34d 913c e1ea 513d 7c7c 273e 8d65 1f3c
000002f0: 3895 86bc 5f8f 003d 904c 083e eeed c8bc
00000300: 5c6b 3dbe 6ab3 183e f293 0f3d 804b 223e
00000310: 543c 0dbe a135 693d 667c ab3d f073 ec3d
00000320: a81b 013d f002 d73d e156 01be f8e0 0e3e
00000330: e083 d6bd be99 b53c d0bf 43bd 9b34 cebd
00000340: 76ff 2abe c66c e53d 7c47 dfbc 76d1 1ebe
00000350: 4fe1 d83d dd6e 08bd 8ead 1abe b338 20bd
00000360: 6a1c 6e3d 8004 2ebd 0852 02be fff3 723d
00000370: eddb 633d 80c7 d33d 0c95 ec3d 9e7c ccbc
00000380: c3ff d8bd c7c2 0c3d dbd7 0cbe cab8 e5bb
00000390: 9e21 6f3d 874a a4bc 8b94 bc3d 9c9c 083e
000003a0: 3656 40bd d94d 453c 32a8 e23d cb63 80bd
000003b0: cd66 05be 7d2c 0e3e 2372 783d 1412 86bd
000003c0: 0627 f83c 0cb2 11be 1917 173d 05cb 82bd
000003d0: ccfd c4bc 1a27 af3e f463 b13b 0aff 1c3d
000003e0: ec3a 833e e6de 66bd 8787 07bd 8b19 98be
000003f0: 8419 b9bd f09e f13c 4d64 e53d 5455 163e

mu.bias f4 [8]
-0.017580917 -0.041835118 -0.013119218 -0.046866372 0.055156704 0.090087526 0.040881757 0.06693129
00000000: db05 90bc 4d5b 2bbd fdf1 56bc f4f6 3fbd
00000010: ffeb 613d cf7f b83d a173 273d 4613 893d

fc1.weight f4 [64, 111]
-0.31697652 0.54568565 0.13420859 -0.19327651 -0.09271047 0.06397317 0.014063037 0.047050424
-0.15655124 -0.10770174 -0.07697198 0.0673048 0.161721 -0.10202456 -0.004424534 -0.12869819
-0.057744395 0.21259573 -0.10162608 -0.009177588 0.06037612 -0.014237598 0.030971063 -0.018281003
0.022231972 -0.0382456 0.018575061 -0.09260791 -0.2548348 -0.094616316 0.10403035 0.17003126
0.111237936 0.009152347 -0.06924365 0.143669 -0.06543426 0.02720823 0.037207387 -0.008139715
-0.080108985 0.07228882 -0.19378397 -0.026076166 -0.1908531 -0.03150196 -0.02597778 -0.16828398
-0.0769187 0.136502 -0.09873788 0.09099924 -0.31537917 0.04222698 0.08070609 0.03779465
-0.021850748 0.07114164 -0.11253393 -0.12944226 -0.044026107 0.072672315 -0.006011285 -0.056827664
0.07901701 0.06895521 -0.115088865 -0.017176464 0.09645059 0.13760844 0.08927997 0.022070935
-0.08209288 -0.07952599 -0.020331165 0.014410758 -0.11636966 0.027222363 0.0070014168 -0.022343235
-0.108932815 -0.09833611 0.030202545 0.059049636 -0.18090506 0.010370944 -0.095235094 -0.012577025
-0.057288386 0.21508592 -0.18246186 0.04264347 -0.06853957 0.025681706 0.11337763 -0.010718
-0.03595481 0.066128224 -0.060815807 -0.039386887 0.04749439 0.082404435 -0.027022986 -0.02101524
0.07895099 -0.044476237 -0.023931324 -0.09325069 -0.0048264056 0.106526546 -0.07012054 -0.41522944
0.8058167 0.078981265 -0.23047374 0.20736113 0.17583191 0.01485138 -0.013097654 0.10215342
0.1978828 -0.051862746 0.11363266 -0.033242278 0.05113679 0.027185827 -0.21378237 -0.047477026
-0.04164665 0.033467367 -0.0074266545 -0.0057876618 0.009782448 -0.015068372 -0.009435995 -0.022616751
0.03502501 -0.008519122 -0.049620442 0.04340815 0.08600403 0.06468629 0.0515948 -0.14669308
0.037296504 0.0392366 -0.050652392 -0.06695619 -0.013589469 0.05466936 -0.07338466 -0.05185457
0.061073523 0.11039621 -0.03717122 0.12286643 0.036799785 -0.035763912 0.12384902 -0.12031606
-0.00016192847 -0.18040402 -0.047782823 -0.11742945 -0.019674378 -0.07283765 0.19177464 -0.13280919
0.005210292 -0.009436201 0.16401789 -0.026984815 -0.02489064 0.08151191 0.104503654 -0.007773802
0.012953956 0.16435501 0.14480667 0.14901257 -0.013665249 -0.0879681 0.006427403 0.14469032
-0.051478513 0.0817524 0.080914386 0.103711374 -0.037065722 -0.027122729 0.16055235 -0.14894874
-0.055578507 0.1291963 -0.09050107 -0.0063200155 -0.19058874 0.097750016 -0.019170893 0.10174636
0.020144695 0.019828305 0.13219501 -0.051641893 0.027860826 0.013360975 0.00040966723 -0.077675655
-0.08640029 0.074465275 0.1013713 0.07334523 0.22196823 -0.043204498 0.18584217 0.25120878
-0.019927638 0.0045058136 -0.13461266 -0.094471134 -0.04872051 -0.03414586 0.39856517 -0.70568895
0.113463596 -0.22439006 -0.65175056 0.07056801 0.0595844 -0.21408583 -0.030411841 -0.03639326
-0.111768536 0.09425388 0.23497301 0.07511597 0.17199813 0.14513609 -0.16710763 0.12795456
-0.15489957 -0.034906518 0.007388049 0.008170757 0.01224103 -0.07532125 0.024206642 -0.12249681
-0.011744842 -0.11739668 0.0105723115 0.067922175 0.032214507 -0.05742399 -0.05430118 -0.10168673
00000000: bf4a a2be 0eb2 0b3f fa6d 093e 47ea 45be
00000010: fdde bdbd 5e04 833d a768 663c f2b7 403d
00000020: f84e 20be bb92 dcbd 7ca3 9dbd 19d7 893d
00000030: 319a 253e 41f2 d0bd aefb 90bb 75c9 03be
00000040: 6385 6cbd b2b2 593e 5621 d0bd 985d 16bc
00000050: f34c 773d d044 69bc 07b7 fd3c 0bc2 95bc
00000060: d31f b63c 6ba7 1cbd ba2a 983c 37a9 bdbd
00000070: b579 82be 33c6 c1bd dd0d d53d ad1c 2e3e
00000080: b7d0 e33d baf3 153c 9dcf 8dbd f71d 133e
00000090: 6602 86bd cbe3 de3c c666 183d 705c 05bc
000000a0: 2e10 a4bd 290c 943d 4e6f 46be af9d d5bc
000000b0: ff6e 43be 3308 01bd 5acf d4bc a352 2cbe
000000c0: 8d87 9dbd 2ec7 0b3e 1637 cabd cf5d ba3d
000000d0: 6179 a1be 33f6 2c3d 3c49 a53d 90ce 1a3d
000000e0: 5700 b3bc b5b2 913d 3078 e6bd 838c 04be
000000f0: b854 34bd 39d5 943d 50fa c4bb 20c4 68bd
00000100: acd3 a13d 6438 8d3d b6b3 ebbd a8b5 8cbc
00000110: e387 c53d 3ae9 0c3e 6bd8 b63d 1bce b43c
00000120: 5020 a8bd 86de a2bd 8b8d a6bc 1a1b 6c3c
00000130: 3753 eebd 6f01 df3c 246c e53b 2909 b7bc
00000140: 2b18 dfbd 7164 c9bd 546b f73c 08de 713d
00000150: 2d3f 39be e4ea 293c 9e0a c3bd de0f 4ebc
00000160: 3aa7 6abd 7c3f 5c3e 48d7 3abe ebaa 2e3d
00000170: 795e 8cbd 7162 d23c 8832 e83d 8d9a 2fbc
00000180: 5a45 13bd 3c6e 873d ff19 79bd 2554 21bd
00000190: 7a89 423d a8c3 a83d 4f5f ddbc 2728 acbc
000001a0: 0fb1 a13d b72c 36bd a00b c4bc 38fa bebd
000001b0: d326 9ebb 972a da3d 5c9b 8fbd f498 d4be
000001c0: 014a 4e3f eec0 a13d 4f01 6cbe 7a56 543e
000001d0: 480d 343e 3453 733c 8b97 56bc d035 d13d
000001e0: caa1 4a3e 086e 54bd 3db8 e83d 0e29 08bd
000001f0: d074 513d d0b4 de3c c4e9 5abe 4577 42bd
00000200: ad95 2abd 1415 093d 4b5b f3bb 6da6 bdbb
00000210: 9046 203c 55e1 76bc 6e99 1abc c446 b9bc
00000220: 6376 0f3d ca93 0bbc ce3e 4bbd bfcc 313d
00000230: e222 b03d 3f7a 843d 1255 533d b636 16be
00000240: 38c4 183d 8fb6 203d e278 4fbd 5420 89bd
00000250: 5da6 5ebc fbec 5f3d b24a 96bd 7565 54bd
00000260: 3b28 7a3d 6817 e23d d940 18bd 65a1 fb3d
00000270: 5fbb 163d 2e7d 12bd 8ea4 fd3d 4468 f6bd
00000280: 58cb 29b9 d5bb 38be ecb7 43bd da7e f0bd
00000290: 292c a1bc e82b 95bd 9260 443e 22ff 07be
000002a0: 19bb aa3b 4c9a 1abc 4ef4 273e 420f ddbc
000002b0: 75e7 cbbc b7ef a63d 0306 d63d 61bb febb
000002c0: d43c 543c ae4c 283e 3348 143e c096 183e
000002d0: 35e4 5fbc 9f28 b4bd f79c d23b b329 143e
000002e0: 22db 52bd cd6d a73d 71b6 a53d a166 d43d
000002f0: 3ad2 17bd 7c30 debc d667 243e 0586 18be
00000300: 4aa6 63bd 094c 043e a058 b9bd 2218 cfbb
00000310: b229 43be 2931 c83d 470c 9dbc 6560 d03d
00000320: 7d06 a53c f86e a23c 215e 073e 7386 53bd
00000330: 633c e43c fee7 5a3c 9bc8 d639 6a14 9fbd
00000340: a3f2 b0bd 4081 983d c29b cf3d 0636 963d
00000350: a44b 633e 33f7 30bd 694d 3e3e 709e 803e
00000360: 493f a3bc 81a5 933b e7d7 09be 157a c1bd
00000370: 288f 47bd 87dc 0bbd bc10 cc3e 08a8 34bf
00000380: 9a5f e83d 82c6 65be 20d9 26bf f685 903d
00000390: c60e 743d 5139 5bbe 4122 f9bc 1911 15bd
000003a0: e7e6 e4bd 2e08 c13d c49c 703e 67d6 993d
000003b0: 4720 303e 8e9e 143e 431e 2bbe 8506 033e
000003c0: fe9d 1ebe 23fa 0ebd 7217 f23b a4de 053c
000003d0: 9a8e 483c 0742 9abd 024d c63c 9cdf fabd
000003e0: 706d 40bc ac6d f0bd 7d37 2d3c c81a 8b3d
000003f0: 5cf3 033d 6b35 6bbd ea6a 5ebd 2241 d0bd

fc1.bias f4 [64]
0.31783628 -0.13343364 -0.05301857 0.20855938 -0.17669523 -0.09904312 -0.5165146 0.58525735
0.13017897 0.654842 0.21697952 0.12624018 -0.22549573 0.4951319 -0.19863367 0.30182272
0.90230125 0.8543519 0.14940596 0.5934769 -0.048804715 -0.06835076 0.52667075 -0.27166983
-0.13296477 0.11763723 0.19736142 -0.2555265 0.22508529 0.42155325 0.04103419 -0.3219635
0.24959984 0.7014852 0.0005752133 0.18570219 -0.21176203 -0.19847326 -0.20632398 0.23929031
-0.2000854 -0.30368185 0.9587125 0.26331648 -0.113437764 -0.14774317 -0.09809214 -0.21782167
-0.6580505 0.29393196 0.08314221 -0.24694924 -0.026061509 0.008215621 0.3955036 0.20854466
-0.18861152 -0.18538778 -0.4181941 0.4300976 0.17576051 0.27972513 0.09497304 -0.14845003
00000000: 70bb a23e d4a2 08be 002a 59bd 9790 553e
00000010: 98ef 34be 1fd7 cabd 4d3a 04bf 6dd3 153f
00000020: a34d 053e baa3 273f e12f 5e3e 1b45 013e
00000030: 5ae8 66be ee81 fd3e a066 4bbe 8288 9a3e
00000040: 37fd 663f ceb6 5a3f e0fd 183e 1aee 173f
00000050: 74e7 47bd 7cfb 8bbd e5d3 063f 4f18 8bbe
00000060: eb27 08be caeb f03d 1d19 4a3e 5fd4 82be
00000070: c27c 663e d4d5 d73e 7813 283d 66d8 a4be
00000080: 1a97 7f3e 8994 333f e9c9 163a b728 3e3e
00000090: 25d8 58be 933c 4bbe 9846 53be 8508 753e
000000a0: 30e3 4cbe 307c 9bbe 2f6e 753f 6bd1 863e
000000b0: 0f52 e8bd fc49 17be 88e4 c8bd a50c 5fbe
000000c0: ff75 28bf 407e 963e 7746 aa3d 43e0 7cbe
000000d0: f27e d5bc d09a 063c 737f ca3e bb8c 553e
000000e0: 6123 41be 4bd6 3dbe 891d d6be c135 dc3e
000000f0: 90fa 333e 2238 8f3e 3a81 c23d 4903 18be

fc2.weight f4 [64, 64]
-0.09410986 0.9297003 0.090394065 -0.090883344 -0.2060998 0.74123114 0.9142903 -0.059849247
-0.047185604 -0.2661143 -0.35859063 -0.3157464 -0.4512996 0.12505412 0.28724647 -0.38134375
-0.41128486 -1.2801408 -0.0978826 -0.76986647 0.8101542 -0.4081536 -0.41387495 0.6427733
0.73836714 -0.7015616 -0.6238142 0.051422555 0.020551115 -0.6643146 -0.23155473 0.36215532
-0.3475605 -0.13222168 0.68508065 -0.9310802 0.83288485 -0.22343902 0.38278073 -1.0293932
0.3961129 -0.15386525 -0.8440105 0.2642109 0.24711135 0.20958365 -0.81921977 -0.6428403
0.6229057 -0.8025192 0.22109203 -0.47196984 0.5714391 -0.039964303 -0.91737586 0.04150686
0.6952893 0.4166824 -0.67446625 0.29307196 -0.040570155 -0.06773298 -0.44364366 0.37273833
0.4296117 0.21320896 -0.12144235 0.7424899 -0.04233058 0.49333218 0.42434785 -0.05513963
0.056381375 0.372015 0.45986864 0.38060102 -0.45702392 0.03232117 0.21392883 0.11837974
0.26644826 -0.31288773 -0.066751525 -0.10177621 -0.21681558 0.028314093 0.3507593 0.107507125
0.08097866 -0.7725976 0.035298012 -0.022601217 0.19019529 0.06110205 -0.22612283 0.14203645
-0.06947649 -0.5224842 -0.3819223 0.35878277 -0.07367296 -0.21809542 0.0047178986 0.10834211
0.09715351 -0.19503976 -0.17539339 0.13740344 -0.22325149 0.0831108 -0.36297053 -0.5566015
-0.018003535 0.17155017 -0.13122745 -0.18215595 -0.20248307 -0.19637081 0.5038508 -0.017816516
0.41158193 -0.1352486 0.0032743465 -0.34550574 -0.06712941 0.7529437 0.17822348 -0.011595522
-0.50286824 -0.14085464 0.94594824 -0.2064603 -0.29560316 0.03338108 1.0798744 -1.061484
0.27483153 -0.13987085 -0.53076124 0.6196307 0.35826156 -1.5190551 0.8560081 -0.41057438
-2.3995094 -2.77766 0.18619898 -1.3702145 0.003882647 0.42211324 -0.50513643 0.27446774
0.17834353 -0.06719045 -0.46305335 -0.09883534 -0.23163873 -0.5147706 -0.5828149 0.054417487
-0.22633922 -1.6215489 -0.42396933 -0.119349234 0.48555133 0.49633282 0.4510928 0.06353493
0.04654174 -0.059944183 -2.0527508 -0.66925305 -0.22165228 0.3916912 -0.17259414 0.08636936
0.2915371 -0.035523392 -0.046198346 0.0866306 -0.34177616 0.05214999 -0.6600416 0.14714481
0.98267275 0.12069348 -0.01771878 -0.5349189 0.09263537 0.27870116 -0.47620276 -0.27867386
0.4932933 1.0049379 -0.7515441 0.49019065 0.9139524 0.3130443 -0.6540057 0.94737214
-1.141789 -0.19367006 0.7576077 -1.2604098 -1.0829685 0.9708555 -1.5484456 -0.37074658
1.0698248 0.7165733 -0.78614783 0.9427682 0.50304693 -1.1191095 0.8603632 0.47771385
0.7366528 -0.5042298 -0.3874119 0.71054316 0.9723104 -0.5030884 0.5486168 0.66608727
-0.5824494 1.0668266 0.563406 -0.684185 0.4596712 -0.36632282 -0.5909417 -0.57808787
0.30665198 -0.57524663 0.9777151 0.7856192 1.0222754 -1.003737 0.27119836 0.48621282
-0.8162187 -0.6618097 -0.5391019 0.57861793 0.45985255 0.27747983 -0.04669515 -0.71625596
-0.4763722 0.61788356 1.0063361 0.4013556 0.06235495 0.61582035 -0.12341664 1.0020039
00000000: acbc c0bd d700 6e3f 8620 b93d 0c21 babd
00000010: d30b 53be 53c1 3d3f ee0e 6a3f 7c24 75bd
00000020: b145 41bd 2240 88be 3199 b7be 83a9 a1be
00000030: be10 e7be 300e 003e f811 933e 7d3f c3be
00000040: ee93 d2be a7db a3bf ac76 c8bd f815 45bf
00000050: 4466 4f3f 82f9 d0be 6be7 d3be ca8c 243f
00000060: a105 3d3f 8b99 33bf 4ab2 1fbf 75a0 523d
00000070: d05a a83c 8610 2abf af1c 6dbe 6c6c b93e
00000080: 73f3 b1be 1f65 07be 7261 2f3f 465b 6ebf
00000090: f137 553f 33cd 64be d6fb c33e 28c3 83bf
000000a0: 4fcf ca3e da8e 1dbe 1211 58bf a746 873e
000000b0: c20a 7d3e 199d 563e 63b8 51bf 2f91 24bf
000000c0: bf76 1f3f e671 4dbf f365 623e 08a6 f1be
000000d0: d549 123f 9cb1 23bd 25d9 6abf 1903 2a3d
000000e0: 7bfe 313f 6557 d53e d2a9 2cbf 870d 963e
000000f0: e42c 26bd 97b7 8abd 4325 e3be 8fd7 be3e
00000100: 11f6 db3e 7353 5a3e c4b6 f8bd d113 3e3f
00000110: d562 2dbd 0996 fc3e 1f44 d93e 18da 61bd
00000120: 28f0 663d c078 be3e e773 eb3e 23de c23e
00000130: 0aff e9be 3463 043d 2910 5b3e 1471 f23d
00000140: e86b 883e d232 a0be 06b5 88bd 0c70 d0bd
00000150: e704 5ebe f5f2 e73c b996 b33e b22c dc3d
00000160: 24d8 a53d f5c8 45bf a694 103d 3026 b9bc
00000170: 8ec2 423e 2546 7a3d be8c 67be 0172 113e
00000180: b149 8ebd 86c1 05bf 528b c3be 60b2 b73e
00000190: d9e1 96bd 6854 5fbe 9a98 9a3b 78e2 dd3d
000001a0: 6bf8 c63d 81b8 47be 539a 33be 7db3 0c3e
000001b0: 0a9c 64be ff35 aa3d 46d7 b9be 707d 0ebf
000001c0: 267c 93bc d9aa 2f3e 7d60 06be 1787 3abe
000001d0: b957 4fbe 6e15 49be 5efc 003f f1f3 91bc
000001e0: deba d23e 9c7e 0abe 6b96 563b 21e6 b0be
000001f0: 257b 89bd ebc0 403f 3780 363e 25fb 3dbc
00000200: f9bb 00bf 333c 10be aa29 723f 546a 53be
00000210: 4c59 97be 99ba 083d 5339 8a3f b5de 87bf
00000220: b8b6 8c3e 4e3a 0fbe f8df 07bf 1ea0 1e3f
00000230: 0f6e b73e 6670 c2bf 5923 5b3f ce36 d2be
00000240: 9091 19c0 2ec5 31c0 f2aa 3e3e 3063 afbf
00000250: 0274 7e3b 3a1f d83e 9f50 01bf 0987 8c3e
00000260: b09f 363e 269b 89bd 5415 edbe 2f6a cabd
00000270: b432 6dbe 02c8 03bf 5b33 15bf dfe4 5e3d
00000280: 78c5 67be ea8e cfbf 8212 d9be 5f6d f4bd
00000290: 2f9a f83e 561f fe3e a3f5 e63e 9a1e 823d
000002a0: 8da2 3e3d 0888 75bd 4560 03c0 2b54 2bbf
000002b0: d1f8 62be c08b c83e 85bc 30be 6be2 b03d
000002c0: 5a44 953e fa80 11bd 7a3a 3dbd 626b b13d
000002d0: 49fd aebe 3a9b 553d 7cf8 28bf 21ad 163e
000002e0: 7190 7b3f 252e f73d fa26 91bc 72f0 08bf
000002f0: 9db7 bd3d ebb1 8e3e d9d0 f3be 57ae 8ebe
00000300: f090 fc3e cea1 803f 3265 40bf 45fa fa3e
00000310: c9f8 693f 5847 a03e eb6c 27bf fb86 723f
00000320: 2426 92bf 7251 46be 94f2 413f 1c55 a1bf
00000330: b69e 8abf fc89 783f 7733 c6bf 7fd2 bdbe
00000340: 05f0 883f 5971 373f fc40 49bf 4259 713f
00000350: afc7 003f fb3e 8fbf c340 5c3f e996 f43e
00000360: 4795 3c3f 3415 01bf da5a c6be 28e6 353f
00000370: 56e9 783f 67ca 00bf 2772 0c3f b284 2a3f
00000380: 671b 15bf c68d 883f 603b 103f c026 2fbf
00000390: 065a eb3e aa8e bbbe f547 17bf 91fd 13bf
000003a0: 7d01 9d3e 5d43 13bf 894b 7a3f 571e 493f
000003b0: ecd9 823f 747a 80bf 83da 8a3e e3f0 f83e
000003c0: b5f3 50bf 5c6c 29bf 9502 0abf 4e20 143f
000003d0: cb71 eb3e d611 8e3e 6a43 3fbd 8d5c 37bf
000003e0: 0fe7 f3be 9e2d 1e3f 9fcf 803f 7b7e cd3e
000003f0: e767 7f3d 67a6 1d3f ddc1 fcbd aa41 803f

fc2.bias f4 [64]
-0.87654793 0.13969976 -0.8097392 -0.12254173 -0.21721143 0.6605108 1.6566193 0.30347303
-0.31356665 0.01832705 -1.9168164 -1.8596961 -0.2194802 -0.23116396 1.7789303 -0.12752901
-0.39324072 1.6262066 0.28967533 1.4780792 -0.38579115 -0.38487124 -0.8857084 -0.4265944
0.41894853 -0.84791815 0.004387072 -0.7624078 0.13847247 -0.11503209 -0.5065657 -0.033110514
0.39152586 -0.28400755 0.36658543 -0.0659735 -0.10503402 0.104428425 -0.9147261 -0.044350713
-1.9580235 -0.06073377 0.6773433 0.05013101 -0.08279397 -1.1192783 -0.3990838 0.035255495
0.77131563 0.301336 0.9595117 0.7518859 0.8506726 -0.079127915 0.04784424 0.81925476
0.11047763 0.02035041 1.7119405 1.9301376 -0.19840434 -0.53142077 -0.0115437405 -1.6984928
00000000: 7265 60bf 740d 0f3e 114b 4fbf 29f7 fabd
00000010: ac6c 5ebe 3c17 293f 1a0c d43f d160 9b3e
00000020: cf8b a0be 9c22 963c 3d5a f5bf 860a eebf
00000030: 6bbf 60be 3fb6 6cbe fdb3 e33f f796 02be
00000040: d956 c9be 8a27 d03f 5350 943e b331 bd3f
00000050: 6b86 c5be d80d c5be c9bd 62bf 956a dabe
00000060: 6c80 d63e 2a11 59bf 6dc1 8f3b 282d 43bf
00000070: bacb 0d3e f295 ebbd 4aae 01bf e49e 07bd
00000080: 1476 c83e 7069 91be 16b1 bb3e 1d1d 87bd
00000090: 141c d7bd 92de d53d 7d2b 6abf 18a9 35bd
000000a0: 84a0 fabf f9c3 78bd 5f66 2d3f 2d56 4d3d
000000b0: e38f a9bd 8344 8fbf b654 ccbe 1168 103d
000000c0: f174 453f b648 9a3e 8fa2 753f 987b 403f
000000d0: aec5 593f d10d a2bd 52f8 433d aeba 513f
000000e0: 1842 e23d e7b5 a63c de20 db3f c00e f73f
000000f0: 822a 4bbe 310b 08bf f521 3dbc 3668 d9bf

value.weight f4 [1, 64]
-7.2095532 -7.2421627 -6.675086 6.8269196 6.8908544 -6.91201 7.2179904 6.4168043
-6.6272054 -6.428743 -7.289263 -7.5938706 6.8720455 7.013448 6.7536497 7.0145473
-6.5442715 7.3484488 -6.865497 6.8274736 6.8798866 6.8066874 -6.8728967 6.7549076
-6.7257643 -6.75728 6.8368683 -6.445038 -6.9950085 -6.765112 6.8068123 6.9368925
-6.881165 6.5783863 6.7816367 -6.9692206 -7.2894607 6.5228066 -7.5250206 -6.9044733
-7.464406 -6.6503134 7.316689 6.9304123 6.8924527 -7.426535 6.849533 6.8368587
6.4360275 -6.943699 7.2711964 6.4372497 6.538587 -6.665033 -6.861139 6.816152
6.875794 6.8950043 6.8968887 7.529965 -6.644254 6.2394805 -6.861343 -7.2298846
00000000: a9b4 e6c0 ccbf e7c0 4e9a d5c0 2076 da40
00000010: e181 dc40 302f ddc0 c7f9 e640 7656 cd40
00000020: 1112 d4c0 43b8 cdc0 a441 e9c0 fd00 f3c0
00000030: cce7 db40 2b6e e040 e61d d840 2c77 e040
00000040: ac6a d1c0 7e26 eb40 27b2 dbc0 aa7a da40
00000050: 0828 dc40 62d0 d940 c5ee dbc0 3428 d840
00000060: 7639 d7c0 a33b d8c0 a0c7 da40 c03d cec0
00000070: 1cd7 dfc0 cc7b d8c0 68d1 d940 06fb dd40
00000080: 8132 dcc0 2482 d240 2b03 d940 db03 dfc0
00000090: 4343 e9c0 d5ba d040 f8cc f0c0 72f1 dcc0
000000a0: 6adc eec0 5ecf d4c0 5122 ea40 f0c5 dd40
000000b0: f98e dc40 2da6 edc0 602f db40 8cc7 da40
000000c0: f0f3 cd40 c832 dec0 a4ad e840 f3fd cd40
000000d0: 1b3c d140 f347 d5c0 738e dbc0 eb1d da40
000000e0: 8106 dc40 e0a3 dc40 50b3 dc40 79f5 f040
000000f0: bb9d d4c0 d3a9 c740 1f90 dbc0 375b e7c0

exp_avg f4 [1, 8]
-0.0010976287 -0.0015564575 -0.0032666032 -6.812708e-06 -0.0031490012 0.0049140314 -0.0028533933 0.0024700742
00000000: 4fde 8fba 0c02 ccba 8214 56bb b798 e4b6
00000010: 795f 4ebb e205 a13b ffff 3abb f8e0 213b

exp_avg_sq f4 [1, 8]
0.00011004122 9.801931e-05 0.0001028537 0.000113019436 0.00011782249 0.00012639136 8.502588e-05 0.00010479862
00000000: eec5 e638 b78f cd38 29b3 d738 d904 ed38
00000010: 7817 f738 ec87 0439 ec4f b238 55c7 db38

exp_avg f4 [64, 111]
-0.0006964766 -0.003535319 0.00014954172 0.00012989335 0.0005371696 0.0016359477 -0.0025989534 0.00023103968
0.0015157218 -0.0022248812 0.0018873947 0.00028072178 -0.002189218 -0.009841788 -0.001761068 0.0004953992
0.00013025267 0.0009818389 -0.00507067 -0.0005592602 0.00400569 -0.003931816 -0.0006897082 0.009901425
-0.0022347278 0.005256105 0.00024749464 0.0 0.0 0.0 0.0 0.0
0.0 0.0 0.0 0.0 0.0 0.0 0.0 0.0
0.0 0.0 0.0 0.0 0.0 0.0 0.0 0.0
0.0 0.0 0.0 0.0 0.0 0.0 0.0 0.0
0.0 0.0 0.0 0.0 0.0 0.0 0.0 0.0
0.0 0.0 0.0 0.0 0.0 0.0 0.0 0.0
0.0 0.0 0.0 0.0 0.0 0.0 0.0 0.0
0.0 0.0 0.0 0.0 0.0 0.0 0.0 0.0
0.0 0.0 0.0 0.0 0.0 0.0 0.0 0.0
0.0 0.0 0.0 0.0 0.0 0.0 0.0 0.0
0.0 0.0 0.0 0.0 0.0 0.0 0.0 3.40865e-05
0.00011532924 0.00017758858 0.000325144 -0.0010204203 0.00021436246 0.00070759177 -0.0010559456 -0.00016337652
-0.0017137496 -0.00022896145 0.0017402603 -0.00023665477 0.00094940513 0.0015801536 -0.001794215 0.00083104044
-0.003704577 -0.0027139862 -0.0015336826 -0.0012294963 3.3961567e-06 0.0011180378 0.000121398814 -0.0015503727
0.0032239915 0.00023747592 0.0 0.0 0.0 0.0 0.0 0.0
0.0 0.0 0.0 0.0 0.0 0.0 0.0 0.0
0.0 0.0 0.0 0.0 0.0 0.0 0.0 0.0
0.0 0.0 0.0 0.0 0.0 0.0 0.0 0.0
0.0 0.0 0.0 0.0 0.0 0.0 0.0 0.0
0.0 0.0 0.0 0.0 0.0 0.0 0.0 0.0
0.0 0.0 0.0 0.0 0.0 0.0 0.0 0.0
0.0 0.0 0.0 0.0 0.0 0.0 0.0 0.0
0.0 0.0 0.0 0.0 0.0 0.0 0.0 0.0
0.0 0.0 0.0 0.0 0.0 0.0 0.0 0.0
0.0 0.0 0.0 0.0 0.0 0.0 -0.00022414696 -0.0043361327
-3.302086e-05 -0.00041413386 0.0011801844 0.0011254174 -0.0020041885 -0.0010852406 0.0017295233 -0.003115541
0.0021199612 0.001200893 -0.0028948598 -0.01565706 -0.00041143424 -0.00094103295 0.0005809563 0.0013415022
-0.0075844107 -0.0028810087 -0.0041265166 -0.0043266173 -0.000440194 0.010654474 0.0013171432 0.015384938
-0.00863173 0.0 0.0 0.0 0.0 0.0 0.0 0.0
00000000: c193 36ba cfb0 67bb 4dce 1c39 fb33 0839
00000010: d7d0 0c3a 4c6d d63a 3453 2abb 3e43 7239
00000020: 2fab c63a 50cf 11bb 7562 f73a d72d 9339
00000030: fc78 0fbb 733f 21bc a3d3 e6ba addd 013a
00000040: 6f94 0839 0cb1 803a dd27 a6bb 519b 12ba
00000050: 2a42 833b 77d6 80bb 89cd 34ba 9639 223c
00000060: 8374 12bb 683b ac3b 2bc2 8139 0000 0000
00000070: 0000 0000 0000 0000 0000 0000 0000 0000
00000080: 0000 0000 0000 0000 0000 0000 0000 0000
00000090: 0000 0000 0000 0000 0000 0000 0000 0000
000000a0: 0000 0000 0000 0000 0000 0000 0000 0000
000000b0: 0000 0000 0000 0000 0000 0000 0000 0000
000000c0: 0000 0000 0000 0000 0000 0000 0000 0000
000000d0: 0000 0000 0000 0000 0000 0000 0000 0000
000000e0: 0000 0000 0000 0000 0000 0000 0000 0000
000000f0: 0000 0000 0000 0000 0000 0000 0000 0000
00000100: 0000 0000 0000 0000 0000 0000 0000 0000
00000110: 0000 0000 0000 0000 0000 0000 0000 0000
00000120: 0000 0000 0000 0000 0000 0000 0000 0000
00000130: 0000 0000 0000 0000 0000 0000 0000 0000
00000140: 0000 0000 0000 0000 0000 0000 0000 0000
00000150: 0000 0000 0000 0000 0000 0000 0000 0000
00000160: 0000 0000 0000 0000 0000 0000 0000 0000
00000170: 0000 0000 0000 0000 0000 0000 0000 0000
00000180: 0000 0000 0000 0000 0000 0000 0000 0000
00000190: 0000 0000 0000 0000 0000 0000 0000 0000
000001a0: 0000 0000 0000 0000 0000 0000 0000 0000
000001b0: 0000 0000 0000 0000 0000 0000 1af8 0e38
000001c0: eadc f138 1237 3a39 1778 aa39 a0bf 85ba
000001d0: 7cc6 6039 ae7d 393a a867 8aba 0d50 2bb9
000001e0: e59f e0ba 5f15 70b9 7219 e43a 8826 78b9
000001f0: 80e1 783a 281d cf3a dd2b ebba 2eda 593a
00000200: 7dc8 72bb 22dd 31bb d905 c9ba 0d27 a1ba
00000210: 87e9 6336 208b 923a 7e97 fe38 e035 cbba
00000220: 9a49 533b f502 7939 0000 0000 0000 0000
00000230: 0000 0000 0000 0000 0000 0000 0000 0000
00000240: 0000 0000 0000 0000 0000 0000 0000 0000
00000250: 0000 0000 0000 0000 0000 0000 0000 0000
00000260: 0000 0000 0000 0000 0000 0000 0000 0000
00000270: 0000 0000 0000 0000 0000 0000 0000 0000
00000280: 0000 0000 0000 0000 0000 0000 0000 0000
00000290: 0000 0000 0000 0000 0000 0000 0000 0000
000002a0: 0000 0000 0000 0000 0000 0000 0000 0000
000002b0: 0000 0000 0000 0000 0000 0000 0000 0000
000002c0: 0000 0000 0000 0000 0000 0000 0000 0000
000002d0: 0000 0000 0000 0000 0000 0000 0000 0000
000002e0: 0000 0000 0000 0000 0000 0000 0000 0000
000002f0: 0000 0000 0000 0000 0000 0000 0000 0000
00000300: 0000 0000 0000 0000 0000 0000 0000 0000
00000310: 0000 0000 0000 0000 0000 0000 0000 0000
00000320: 0000 0000 0000 0000 0000 0000 0000 0000
00000330: 0000 0000 0000 0000 0000 0000 0000 0000
00000340: 0000 0000 0000 0000 0000 0000 0000 0000
00000350: 0000 0000 0000 0000 0000 0000 0000 0000
00000360: 0000 0000 0000 0000 0000 0000 0000 0000
00000370: 0000 0000 0000 0000 fe08 6bb9 1e16 8ebb
00000380: e17f 0ab8 1b20 d9b9 6bb0 9a3a be82 933a
00000390: b458 03bb a23e 8eba 2cb1 e23a 1b2e 4cbb
000003a0: 0cef 0a3b 4867 9d3a b0b7 3dbb 3c43 80bc
000003b0: c5b5 d7b9 a7af 76ba 514b 183a 58d5 af3a
000003c0: a686 f8bb 4ecf 3cbb bb37 87bb 4cc6 8dbb
000003d0: d7c9 e6b9 1a90 2e3c fea3 ac3a 1b11 7c3c
000003e0: 1a6c 0dbc 0000 0000 0000 0000 0000 0000
000003f0: 0000 0000 0000 0000 0000 0000 0000 0000

exp_avg_sq f4 [64, 111]
1.4049692e-05 3.2025768e-05 1.0693354e-06 1.3824005e-06 8.780726e-06 1.909529e-05 1.1395452e-05 2.1217473e-05
8.221264e-06 1.4220981e-05 9.382328e-06 2.1418153e-05 2.3338715e-05 0.000371991 5.5231554e-05 8.398931e-05
7.012126e-05 8.927321e-05 7.70531e-05 0.00018561557 8.2103616e-05 0.00038980166 2.9452123e-05 0.000171635
5.7324552e-05 0.0003888141 0.00013478639 0.0 0.0 0.0 0.0 0.0
0.0 0.0 0.0 0.0 0.0 0.0 0.0 0.0
0.0 0.0 0.0 0.0 0.0 0.0 0.0 0.0
0.0 0.0 0.0 0.0 0.0 0.0 0.0 0.0
0.0 0.0 0.0 0.0 0.0 0.0 0.0 0.0
0.0 0.0 0.0 0.0 0.0 0.0 0.0 0.0
0.0 0.0 0.0 0.0 0.0 0.0 0.0 0.0
0.0 0.0 0.0 0.0 0.0 0.0 0.0 0.0
0.0 0.0 0.0 0.0 0.0 0.0 0.0 0.0
0.0 0.0 0.0 0.0 0.0 0.0 0.0 0.0
0.0 0.0 0.0 0.0 0.0 0.0 0.0 1.2417514e-05
2.3038056e-05 8.4891616e-07 1.255559e-06 7.4420414e-06 1.4603907e-05 7.3811602e-06 2.0134015e-05 6.1586343e-06
1.1624775e-05 7.89988e-06 1.9879202e-05 1.892044e-05 0.00028372498 3.606418e-05 6.3850675e-05 5.7294343e-05
6.777866e-05 5.0595063e-05 0.00014081998 6.595598e-05 0.00024396204 4.0190596e-05 0.00012518665 5.9283324e-05
0.00025102973 0.00011450237 0.0 0.0 0.0 0.0 0.0 0.0
0.0 0.0 0.0 0.0 0.0 0.0 0.0 0.0
0.0 0.0 0.0 0.0 0.0 0.0 0.0 0.0
0.0 0.0 0.0 0.0 0.0 0.0 0.0 0.0
0.0 0.0 0.0 0.0 0.0 0.0 0.0 0.0
0.0 0.0 0.0 0.0 0.0 0.0 0.0 0.0
0.0 0.0 0.0 0.0 0.0 0.0 0.0 0.0
0.0 0.0 0.0 0.0 0.0 0.0 0.0 0.0
0.0 0.0 0.0 0.0 0.0 0.0 0.0 0.0
0.0 0.0 0.0 0.0 0.0 0.0 0.0 0.0
0.0 0.0 0.0 0.0 0.0 0.0 1.846744e-05 6.55182e-05
1.7078005e-06 1.932147e-06 1.6372955e-05 4.017837e-05 1.5332394e-05 4.8987557e-05 1.5707554e-05 2.449151e-05
1.7322873e-05 4.6706078e-05 6.765492e-05 0.00081207074 0.00010522822 0.00019227872 0.00018160524 0.00022745338
0.00014420386 0.00037208945 0.00013336615 0.00097643276 5.2264888e-05 0.00041058025 8.919161e-05 0.00091780984
0.000414392 0.0 0.0 0.0 0.0 0.0 0.0 0.0
00000000: f8b6 6b37 6853 0638 1686 8f35 eb8a b935
00000010: ee50 1337 d32e a037 182f 3f37 2dfc b137
00000020: 0fee 0937 a696 6e37 cb68 1d37 22ab b337
00000030: 82c7 c337 c907 c339 6ea8 6738 6b23 b038
00000040: 110e 9338 3138 bb38 9197 a138 cda1 4239
00000050: 0b2f ac38 4b5e cc39 f40f f737 ebf8 3339
00000060: c56f 7038 bfd9 cb39 7255 0d39 0000 0000
00000070: 0000 0000 0000 0000 0000 0000 0000 0000
00000080: 0000 0000 0000 0000 0000 0000 0000 0000
00000090: 0000 0000 0000 0000 0000 0000 0000 0000
000000a0: 0000 0000 0000 0000 0000 0000 0000 0000
000000b0: 0000 0000 0000 0000 0000 0000 0000 0000
000000c0: 0000 0000 0000 0000 0000 0000 0000 0000
000000d0: 0000 0000 0000 0000 0000 0000 0000 0000
000000e0: 0000 0000 0000 0000 0000 0000 0000 0000
000000f0: 0000 0000 0000 0000 0000 0000 0000 0000
00000100: 0000 0000 0000 0000 0000 0000 0000 0000
00000110: 0000 0000 0000 0000 0000 0000 0000 0000
00000120: 0000 0000 0000 0000 0000 0000 0000 0000
00000130: 0000 0000 0000 0000 0000 0000 0000 0000
00000140: 0000 0000 0000 0000 0000 0000 0000 0000
00000150: 0000 0000 0000 0000 0000 0000 0000 0000
00000160: 0000 0000 0000 0000 0000 0000 0000 0000
00000170: 0000 0000 0000 0000 0000 0000 0000 0000
00000180: 0000 0000 0000 0000 0000 0000 0000 0000
00000190: 0000 0000 0000 0000 0000 0000 0000 0000
000001a0: 0000 0000 0000 0000 0000 0000 0000 0000
000001b0: 0000 0000 0000 0000 0000 0000 d154 5037
000001c0: d941 c137 13e1 6335 ae84 a835 a6b6 f936
000001d0: 4e03 7537 afab f736 78e5 a837 44a6 ce36
000001e0: 0708 4337 ba89 0437 43c2 a637 56b7 9e37
000001f0: ecc0 9439 9e43 1738 92e7 8538 554f 7038
00000200: 6424 8e38 0936 5438 13a9 1339 d951 8a38
00000210: 10d0 7f39 5392 2838 8944 0339 fca6 7838
00000220: a49c 8339 fe20 f038 0000 0000 0000 0000
00000230: 0000 0000 0000 0000 0000 0000 0000 0000
00000240: 0000 0000 0000 0000 0000 0000 0000 0000
00000250: 0000 0000 0000 0000 0000 0000 0000 0000
00000260: 0000 0000 0000 0000 0000 0000 0000 0000
00000270: 0000 0000 0000 0000 0000 0000 0000 0000
00000280: 0000 0000 0000 0000 0000 0000 0000 0000
00000290: 0000 0000 0000 0000 0000 0000 0000 0000
000002a0: 0000 0000 0000 0000 0000 0000 0000 0000
000002b0: 0000 0000 0000 0000 0000 0000 0000 0000
000002c0: 0000 0000 0000 0000 0000 0000 0000 0000
000002d0: 0000 0000 0000 0000 0000 0000 0000 0000
000002e0: 0000 0000 0000 0000 0000 0000 0000 0000
000002f0: 0000 0000 0000 0000 0000 0000 0000 0000
00000300: 0000 0000 0000 0000 0000 0000 0000 0000
00000310: 0000 0000 0000 0000 0000 0000 0000 0000
00000320: 0000 0000 0000 0000 0000 0000 0000 0000
00000330: 0000 0000 0000 0000 0000 0000 0000 0000
00000340: 0000 0000 0000 0000 0000 0000 0000 0000
00000350: 0000 0000 0000 0000 0000 0000 0000 0000
00000360: 0000 0000 0000 0000 0000 0000 0000 0000
00000370: 0000 0000 0000 0000 87ea 9a37 d166 8938
00000380: 9437 e535 08aa 0136 a758 8937 3285 2838
00000390: 119e 8037 fd77 4d38 b7c3 8337 1e73 cd37
000003a0: 9650 9137 45e6 4338 f5e1 8d38 25e1 543a
000003b0: f8ad dc38 6d9e 4939 496d 3e39 8d80 6e39
000003c0: 6e35 1739 0015 c339 34d8 0b39 4bf7 7f3a
000003d0: ff36 5b38 2643 d739 620c bb38 2d99 703a
000003e0: c142 d939 0000 0000 0000 0000 0000 0000
000003f0: 0000 0000 0000 0000 0000 0000 0000 0000
