drl/ran2/Ant30000_ran2_weights.pth (torch, 292784 bytes, 36 tensors)

log_std f4 [1, 8]
-1.3973387 -1.8227487 -1.1649704 -1.3751467 -1.3544008 -1.3910865 -1.2964612 -1.4507383
00000000: ffdb b2bf d44f e9bf c01d 95bf cf04 b0bf
00000010: 015d adbf 1f0f b2bf 71f2 a5bf cbb1 b9bf

fc1.weight f4 [64, 111]
-0.27964935 -0.015488935 0.12283303 -0.025985284 0.11887142 -0.116138406 -0.044363208 0.058004387
0.080650665 0.03676334 -0.21699944 -0.21374288 0.10201415 -0.111103065 0.0076629957 0.03508832
0.030205945 0.009965211 -0.102943905 -0.017969903 -0.136515 0.0006931634 -0.14250119 -0.021003434
0.0026641793 -0.021440642 0.1253841 -0.007791511 -0.034695953 0.056769438 -0.06900812 -0.024754101
0.06750601 0.094654165 0.116563104 -0.17333615 -0.116805494 0.009880112 0.08167458 -0.0754959
-0.14210315 0.09653318 -0.012955543 -0.14053504 0.039643902 0.017880451 0.09907145 -0.0030286445
-0.031915832 -0.13422713 -0.0986604 0.028764538 -0.095582075 -0.05567561 0.06744774 0.01865231
-0.054841746 0.017509993 -0.20823483 -0.038617138 0.08164473 -0.0072367457 0.114925005 -0.11166557
0.015404698 0.17266017 -0.27381602 -0.018573742 0.08292072 0.045017265 0.056179937 -0.10840436
0.0485582 -0.0944305 -0.033283427 0.06672744 0.03566428 0.0253633 -0.08033475 0.06265204
0.033814237 -0.0062516457 0.015303888 0.03234271 0.2078293 -0.12379017 -0.012662644 0.12517343
-0.06809961 -0.06350179 0.06374925 0.05202433 -0.022890676 0.13769273 -0.16256693 0.13295528
-0.00035645542 0.0860497 -0.005974742 -0.1401145 -0.10596994 -0.03743048 0.099702515 0.15004446
-0.026453504 -0.16842665 -0.04930465 0.013555835 0.11235863 -0.016593821 0.053479962 -0.010958995
-0.024906458 -0.5872341 0.22898895 -0.21153261 -0.03600002 -0.17713186 0.21558207 0.07926358
-0.14740972 -0.010358751 -0.11776981 -0.0052068373 -0.08069015 -0.084723346 -0.11019053 -0.0108684655
0.006152075 -0.048712987 -0.07333645 -0.08797464 0.12749359 0.051300123 -0.10483391 0.09265039
-0.047627266 -0.06955057 -0.11657074 -0.00066049065 -0.06652913 -0.057159927 0.025817506 0.051236734
-0.13591032 -0.057719786 0.0975515 -0.10133125 -0.038597915 0.1680809 -0.059719175 -0.039446983
-0.08748309 -0.04450521 0.22466932 0.17317238 0.03858966 -0.09562479 -0.106398255 -0.16580851
0.063220404 -0.062119074 0.031688605 -0.020121159 0.110400334 -0.05961324 -0.02372453 0.19603951
0.24343407 0.057757493 -0.0587891 0.07133382 -0.061221518 0.0474649 0.17703475 -0.037319347
-0.030486545 -0.16142456 -0.005817401 0.022061879 0.05821295 0.02391662 0.2657637 0.10560833
0.012400558 0.017755393 -0.006800742 -0.06435123 -0.053520713 -0.006323616 0.17159422 0.004974091
0.059477307 0.03846698 -0.11464971 -0.13777499 -0.08426107 0.07474795 -0.011021227 0.09219387
0.06261686 -0.038727954 -0.038466405 0.021556528 0.083806306 0.028953047 0.15719381 0.028292691
0.15193848 0.04856585 -0.045423027 0.16819157 -0.00035607637 -0.025414364 0.053540044 0.004392755
-0.076920815 0.038756616 0.020872656 -0.00936038 0.05181312 -0.058585856 -0.04371863 -0.1495782
0.009651837 -0.01094451 0.43446696 0.09878938 -0.28104332 0.20951194 0.1633187 0.1704036
0.30937797 -0.32505584 -0.018681258 -0.079591006 -0.025484728 -0.05215639 -0.04035798 0.036749925
0.052088678 0.022850478 0.045990303 0.008151854 0.015742145 0.062301677 0.050861415 -0.1550824
0.068485245 0.03615233 0.054284118 -0.005929872 0.024806075 -0.1222957 -0.023982398 0.035926133
00000000: 332e 8fbe 4dc5 7dbc e28f fb3d 17df d4bc
00000010: dc72 f33d f9d9 edbd 32b6 35bd 0296 6d3d
00000020: 2d2c a53d 2895 163d 1a35 5ebe 6adf 5abe
00000030: cbec d03d 018a e3bd de19 fb3b c5b8 0f3d
00000040: 7572 f73c 2045 233c 41d4 d2bd 9e35 93bc
00000050: 97ca 0bbe 69b5 353a d5eb 11be 650f acbc
00000060: 8399 2e3b 49a4 afbc b164 003e ee4f ffbb
00000070: 581d 0ebd 1287 683d 2154 8dbd 1dc9 cabc
00000080: 9740 8a3d 0bda c13d a3b8 ee3d 087f 31be
00000090: b837 efbd 31e0 213c 0145 a73d 989d 9abd
000000a0: 7d83 11be 30b3 c53d 7c43 54bc 6be8 0fbe
000000b0: a561 223d 067a 923c f9e5 ca3d 397c 46bb
000000c0: 2dba 02bd d672 09be 770e cabd 9ca3 eb3c
000000d0: 89c0 c3bd 1c0c 64bd 0a22 8a3d bbcc 983c
000000e0: bda1 60bd 1e71 8f3c 833b 55be 012d 1ebd
000000f0: 5a35 a73d 3922 edbb cd5d eb3d ebb0 e4bd
00000100: fd63 7c3c d4cd 303e 9d31 8cbe f627 98bc
00000110: 57d2 a93d 0664 383d ef1c 663d 1b03 debd
00000120: f7e4 463d c764 c1bd 3454 08bd 65a8 883d
00000130: b514 123d b2c6 cf3c 8c86 a4bd b64f 803d
00000140: cc80 0a3d 9bda ccbb 29bd 7a3c ca79 043d
00000150: 34d1 543e b385 fdbd fa76 4fbc 772d 003e
00000160: cf77 8bbd 3a0d 82bd f78e 823d 7717 553d
00000170: 3a85 bbbc 53ff 0c3e f277 26be 6e25 083e
00000180: a3e2 bab9 d33a b03d c5c7 c3bb 2d7a 0fbe
00000190: c506 d9bd b450 19bd d530 cc3d 41a5 193e
000001a0: 05b5 d8bc 0978 2cbe acf3 49bd 4b19 5e3c
000001b0: 481c e63d c4ef 87bc ce0d 5b3d 5b8d 33bc
000001c0: a108 ccbc f954 16bf 147c 6a3e 019c 58be
000001d0: c274 13bd 0e62 35be 8cc1 5c3e f254 a23d
000001e0: 93f2 16be c0b7 29bc 4c31 f1bd 1e9e aabb
000001f0: e140 a5bd 6f83 adbd 93ab e1bd a611 32bc
00000200: 5897 c93b 4587 47bd 6c31 96bd 0c2c b4bd
00000210: ae8d 023e 1420 523d 29b3 d6bd 7dbf bd3d
00000220: cf14 43bd 8770 8ebd a4bc eebd c724 2dba
00000230: 6d40 88bd 8720 6abd 3c7f d33c 9cdd 513d
00000240: 132c 0bbe 956b 6cbd 15c9 c73d c286 cfbd
00000250: d918 1ebd 661d 2c3e 189c 74bd 2993 21bd
00000260: 562a b3bd 184b 36bd b70f 663e 1a54 313e
00000270: 3110 1e3d eed6 c3bd 54e7 d9bd b5c9 29be
00000280: b379 813d 9270 7ebd e9cb 013d 21d5 a4bc
00000290: 9219 e23d 032d 74bd f259 c2bc 95be 483e
000002a0: c846 793e 1f93 6c3d d7cc 70bd 7717 923d
000002b0: 6ac3 7abd 8e6a 423d 9948 353e 2cdc 18bd
000002c0: ebbe f9bc 7b4c 25be e69f bebb 1dbb b43c
000002d0: b470 6e3d caec c33c 2e12 883e 2e49 d83d
000002e0: b62b 4b3c c273 913c c2d8 debb 94ca 83bd
000002f0: 8938 5bbd 5636 cfbb 65b6 2f3e b3fd a23b
00000300: 7a9e 733d 8d8f 1d3d 78cd eabd e314 0dbe
00000310: 1191 acbd 7415 993d 6092 34bc 24d0 bc3d
00000320: 453d 803d 34a1 1ebd f38e 1dbd 5197 b03c
00000330: a4a2 ab3d f12e ed3c 6af7 203e 13c6 e73c
00000340: c395 1b3e fcec 463d 7f0d 3abd 693a 2c3e
00000350: c3af bab9 c931 d0bc ce4c 5b3d 1af1 8f3b
00000360: a988 9dbd 42bf 1e3d 22fd aa3c 475c 19bc
00000370: fe39 543d b9f7 6fbd 4e12 33bd 072b 19be
00000380: bd22 1e3c 9a50 33bc 7472 de3e 1652 ca3d
00000390: e9e4 8fbe 4c8a 563e 043d 273e 487e 2e3e
000003a0: ca66 9e3e b86d a6be 7009 99bc 9c00 a3bd
000003b0: 59c5 d0bc f0a1 55bd 694e 25bd 1787 163d
000003c0: f05a 553d ed30 bb3c 5460 3c3d 5b8f 053c
000003d0: acf5 803c 0b30 7f3d 0f54 503d eccd 1ebe
000003e0: fe41 8c3d 7714 143d 0659 5e3d 5f4f c2bb
000003f0: 1c36 cb3c 2b76 fabd bc76 c4bc 4827 133d

fc1.bias f4 [64]
0.00979614 -0.016356133 -0.12346564 -0.07319551 -0.11845312 -0.0031908045 -0.005295981 0.016213171
-0.090922475 -0.039153624 0.01229462 -0.068563305 -0.033674195 0.054985274 0.006786488 0.030971562
-0.017928574 -0.033377286 0.043300398 0.060634404 0.15526049 0.0011711734 -0.09994124 0.07310476
0.058519274 0.14113945 0.0028839663 -0.053618524 -0.0033221268 -0.019940844 -0.009682159 -0.05279765
-0.03281062 0.055850502 0.035056233 -0.003378215 0.04550269 0.0018953984 -0.033094916 0.05637229
-0.01854076 0.07268586 0.01900402 -0.022370804 -0.02304026 0.10978755 -0.086942814 0.024759855
-0.0070646475 0.10488807 -0.18048638 0.10207069 -0.112513766 -0.012454521 0.026475 0.1294244
1.4683705e-05 0.04069373 0.019972663 0.007143785 0.0042302716 0.017412895 0.033236936 -0.15804778
00000000: fd7f 203c 4cfd 85bc 8edb fcbd 87e7 95bd
00000010: 8d97 f2bd d11c 51bb e989 adbb 7cd1 843c
00000020: 9035 babd 8d5f 20bd 606f 493c eb6a 8cbd
00000030: f4ed 09bd 3d38 613d 3061 de3b 13b8 fd3c
00000040: f2de 92bc 9fb6 08bd c25b 313d c85b 783d
00000050: 9bfc 1e3e 0f82 993a fead ccbd f3b7 953d
00000060: e8b1 6f3d dc86 103e ed00 3d3b 199f 5bbd
00000070: 0ab8 59bb fb5a a3bc eba1 1ebc 5942 58bd
00000080: 6e64 06bd 7fc3 643d 2097 0f3d 0b65 5dbb
00000090: 0761 3a3d 046f f83a 898e 07bd a1e6 663d
000000a0: cbe2 97bc 53dc 943d 52ae 9b3c fa42 b7bc
000000b0: edbe bcbc 4cd8 e03d 130f b2bd 2ed5 ca3c
000000c0: 8f7e e7bb 8ecf d63d 6cd1 38be 700a d13d
000000d0: 9e6d e6bd 0c0e 4cbc 19e2 d83c d487 043e
000000e0: 085a 7637 78ae 263d b69d a33c 6916 ea3b
000000f0: 179e 8a3b 7da5 8e3c 7423 083d 47d7 21be

fc2.weight f4 [64, 64]
0.082317024 -0.08162919 -0.16010752 -0.05542908 0.22129256 -0.017817345 0.23768605 -0.11561795
-0.009857164 0.2984541 0.031543005 0.05231196 -0.12610579 -0.3689756 0.01745941 -0.0532931
0.2240281 -0.044870406 0.10596133 -0.095383994 -0.012491351 -0.013153419 -0.21916707 0.07111298
0.058280975 0.22692147 -0.017119281 0.040307082 -0.123617664 -0.07814162 -0.042155746 -0.17170963
0.042603936 0.13793364 0.02098143 -0.021281516 0.0792151 0.09059081 0.36566696 -0.06233261
0.19801684 0.07858454 -0.0981451 0.20471425 0.10729834 -0.07469268 0.17516942 -0.08111179
0.12856421 -0.058247283 0.079204306 0.029346025 -0.011766401 -0.2472347 -0.098460905 0.020834126
-0.039485823 -0.22703736 0.2570336 -0.107528456 -0.006670432 -0.24161488 -0.16861035 0.03778614
-0.010600281 0.43948427 -0.23179351 0.15315111 -0.02325058 -0.05943662 0.3084281 0.16539998
0.08084794 0.159434 0.016099328 -0.12283195 -0.18494594 -0.009088398 0.10923458 0.09874389
-0.16318649 -0.15502799 0.012825087 -0.117762506 0.030005889 -0.10746669 -0.013083977 0.035141625
-0.0895514 -0.14199637 0.05789309 -0.08583832 0.03890588 -0.0684201 0.10729755 0.08025671
-0.114242055 0.017115217 -0.17862526 -0.06683404 0.16375113 0.13428807 0.060499717 -0.17337863
-0.04733338 0.0015120942 0.09120086 -0.12934259 -0.037318755 0.025101343 -0.12769379 -0.09608739
-0.017832033 -0.10179964 0.0017866043 0.06580261 0.039887547 -0.09146209 -0.1111574 -0.072641
0.2973292 0.10126003 -0.05669209 0.16583672 0.043124426 -0.076125905 -0.09435188 0.21340893
-0.24918255 -0.03418913 -0.1465127 -0.08385327 -0.029282667 0.07351892 -0.045207947 -0.11455054
-0.08375767 0.15339907 -0.1520973 -0.14837612 0.05088492 0.09201016 0.07686949 0.051867228
-0.27434185 -0.1541148 0.4499724 0.00057680963 0.1266112 -0.20699535 -0.06345651 -0.07745726
0.14568405 0.09728243 0.06912229 -0.14703295 0.00091969257 -0.025550675 0.10391185 0.02909872
0.08161904 0.11772301 0.07154577 -0.010400648 -0.15833151 -0.044126686 0.027848378 -0.24271661
-0.02227586 0.28957695 -0.24931853 -0.09980755 0.17992216 -0.17100899 0.1362648 0.14782384
-0.0053657047 0.09043137 -0.12416252 -0.096351504 -0.06853847 0.01942144 0.06619181 -0.061168604
-0.22698231 0.026022935 0.07212887 0.082848914 0.114525326 0.17121442 -0.12672605 -0.07365745
-0.0033317725 0.024480652 0.023176517 -0.10928423 -0.28486001 0.08266318 -0.09846728 -0.09551675
0.12305828 0.28975528 -0.04997747 0.27234367 -0.16311987 0.07712782 0.25193426 -0.092791714
0.020288063 0.05361429 -0.03735238 -0.24385558 0.014274492 -0.013562668 0.1198198 -0.11635667
-0.043109074 0.1132405 0.10731917 -0.2824547 -0.18802924 0.10588847 0.033294544 0.09716786
0.012588874 -0.15691823 -0.13182998 0.16102174 -0.083382346 0.07131142 -0.06304985 -0.08706499
-0.022802774 0.005460588 -0.17200987 0.061637368 0.12163668 0.050281957 -0.16963398 -0.043935318
-0.2647215 -0.026712354 0.10310554 -0.022190148 -0.024124837 0.021292884 0.17193767 -0.032712225
-0.042569987 -0.039239645 0.3171047 0.008325227 -0.284803 -0.21465899 -0.027092515 -0.028132016
00000000: d495 a83d 342d a7bd 3af3 23be 9a09 63bd
00000010: 849a 623e aef5 91bc f963 733e 1bc9 ecbd
00000020: f17f 21bc face 983e 3d33 013d 1145 563d
00000030: e021 01be 5fea bcbe 0907 8f3c de49 5abd
00000040: 9f67 653e 08ca 37bd 4102 d93d af58 c3bd
00000050: 86a8 4cbc 7081 57bc 556d 60be afa3 913d
00000060: 08b8 6e3d 1a5e 683e bc3d 8cbc 0a19 253d
00000070: 422b fdbd b708 a0bd 81ab 2cbd a6d4 2fbe
00000080: 7781 2e3d 7a3e 0d3e 3fe1 ab3c 9356 aebc
00000090: 873b a23d ad87 b93d b338 bb3e 7b50 7fbd
000000a0: edc4 4a3e eef0 a03d 4c00 c9bd 9da0 513e
000000b0: 3bbf db3d 7af8 98bd 9d5f 333e f01d a6bd
000000c0: 56a6 033e b494 6ebd de35 a23d 1367 f03c
000000d0: ddc7 40bc 182b 7dbe dfa5 c9bd 54ac aa3c
000000e0: e3bb 21bd 7b7c 68be e899 833e e137 dcbd
000000f0: a493 dabb e469 77be 31a8 2cbe a4c5 1a3d
00000100: cdac 2dbc 1504 e13e 475b 6dbe a5d3 1c3e
00000110: 0078 bebc d073 73bd 4aea 9d3e 9d5e 293e
00000120: 9b93 a53d ab42 233e bde2 833c 518f fbbd
00000130: 7862 3dbe 81e7 14bc 61b6 df3d 3d3a ca3d
00000140: 5c1a 27be a8bf 1ebe 5020 523c 782d f1bd
00000150: e9ce f53c 7f17 dcbd 2d5e 56bc aaf0 0f3d
00000160: b966 b7bd 7f67 11be 4e21 6d3d 00cc afbd
00000170: c65b 1f3d d61f 8cbd d1be db3d a15d a43d
00000180: bdf7 e9bd 3635 8c3c 8ae9 36be 49e0 88bd
00000190: 60ae 273e d082 093e 8dce 773d 2b8a 31be
000001a0: a5e0 41bd 7631 c63a 84c7 ba3d 6272 04be
000001b0: 8ddb 18bd 55a1 cd3c 29c2 02be 77c9 c4bd
000001c0: 7c14 92bc 547c d0bd 7e2c ea3a 85c3 863d
000001d0: 2061 233d 7a50 bbbd 7ea6 e3bd cec4 94bd
000001e0: 883b 983e 6b61 cf3d f735 68bd 1ad1 293e
000001f0: 3da3 303d e6e7 9bbd 8f3b c1bd df87 5a3e
00000200: b629 7fbe e709 0cbd 6d07 16be 43bb abbd
00000210: 34e2 efbc 1691 963d f82b 39bd 7999 eabd
00000220: 2489 abbd a514 1d3e 65bf 1bbe e9ef 17be
00000230: b56c 503d d36f bc3d c06d 9d3d bb72 543d
00000240: 8976 8cbe 45d0 1dbe c862 e63e 0a35 173a
00000250: 5ea6 013e 97f6 53be 7df5 81bd e9a1 9ebd
00000260: 332e 153e 033c c73d fd8f 8d3d ce8f 16be
00000270: 8617 713a a64f d1bc bccf d43d 7060 ee3c
00000280: e227 a73d c318 f13d 9786 923d 7b67 2abc
00000290: a821 22be 2fbe 34bd 4822 e43c b48a 78be
000002a0: dd7b b6bc 6e43 943e 5b4d 7fbe e767 ccbd
000002b0: 843d 383e fb1c 2fbe 0089 0b3e 225f 173e
000002c0: cbd2 afbb 1534 b93d eb48 febd f053 c5bd
000002d0: e65d 8cbd b619 9f3c 928f 873d ee8b 7abd
000002e0: 0d6e 68be 0d2e d53c 4db8 933d b1ac a93d
000002f0: 418c ea3d d552 2f3e 79c4 01be b8d9 96bd
00000300: de59 5abb a68b c83c aedc bd3c 69d0 dfbd
00000310: 2cd9 91be 504b a93d 37a9 c9bd 499e c3bd
00000320: fb05 fc3d ce5a 943e 2db5 4cbd a170 8b3e
00000330: e508 27be 31f5 9d3d 87fd 803e 9509 bebd
00000340: 2733 a63c a89a 5b3d cffe 18bd 47b5 79be
00000350: 8fdf 693c f435 5ebc 1564 f53d 684c eebd
00000360: 2493 30bd a3ea e73d 27ca db3d e79d 90be
00000370: bd8a 40be 0edc d83d dc5f 083d f1ff c63d
00000380: 9141 4e3c 2caf 20be 70fe 06be e2e2 243e
00000390: 5dc4 aabd b90b 923d 4820 81bd 214f b2bd
000003a0: e2cc babc bbee b23b 5b23 30be 7777 7c3d
000003b0: a71c f93d 74f4 4d3d 88b4 2dbe 85f5 33bd
000003c0: 9489 87be ded3 dabc ff28 d33d 1dc8 b5bc
000003d0: 73a1 c5bc 6a6e ae3c 6e10 303e 41fd 05bd
000003e0: de5d 2ebd c0b9 20bd 8c5b a23e 8866 083c
000003f0: b3d1 91be 91cf 5bbe 1ff1 ddbc 1d75 e6bc

fc2.bias f4 [64]
0.022483598 -0.0032301717 0.057104956 -0.110200666 0.006117312 0.065486975 0.12595831 0.027563052
-0.039153315 0.044297222 0.0073517994 -0.0250398 -0.021008147 0.0053539677 0.07085859 0.102555916
0.061296478 0.10351268 -0.029640533 -0.030954931 -0.011665668 0.011565965 -0.0125716925 0.012295431
-0.047495034 -0.017187182 -0.05158361 0.018697787 -0.01774441 -0.0014140819 -0.0020352348 0.0008221048
0.044134345 0.0024904537 0.019603524 0.05497016 0.013748947 -0.005262189 0.07289236 -0.0480301
-0.05461248 0.029269515 0.034561798 0.14406486 -0.0037839676 -0.07477641 -0.021003418 0.07069263
0.029558368 0.03437595 0.006991571 0.015125107 0.041665938 -0.08710213 -0.0030885534 0.045547247
0.012318696 -0.112459786 0.046500932 0.10214106 0.019040696 -0.020740042 0.12040582 0.027786532
00000000: 862f b83c 4ab1 53bb e3e6 693d e3b0 e1bd
00000010: bb73 c83b 091e 863d 37fb 003e e9cb e13c
00000020: 3a5f 20bd 0171 353d 5de7 f03b 4420 cdbc
00000030: 4719 acbc 5670 af3b 4f1e 913d d608 d23d
00000040: 0412 7b3d 75fe d33d b4d0 f2bc 3295 fdbc
00000050: 5c21 3fbc 2c7f 3d3c 80f9 4dbc c772 493c
00000060: 278a 42bd 22cc 8cbc 5649 53bd 1a2c 993c
00000070: ba5c 91bc b758 b9ba 9361 05bb 8582 573a
00000080: 37c6 343d e136 233b 9297 a03c 6428 613d
00000090: 4343 613c 716e acbb 9748 953d 36bb 44bd
000000a0: 56b1 5fbd 9fc6 ef3c ac90 0d3d bd85 133e
000000b0: 71fc 77bb 6024 99bd 5c0f acbc 4cc7 903d
000000c0: 6424 f23c cccd 0c3d 8c19 e53b 4ccf 773c
000000d0: e7a9 2a3d 9a62 b2bd 5469 4abb c08f 3a3d
000000e0: 5bd4 493c 5151 e6bd c377 3e3d 552f d13d
000000f0: 3cfb 9b3c 05e7 a9bc 5497 f63d 95a0 e33c

mu.weight f4 [8, 64]
0.045760226 0.06267399 -0.14698267 -0.035642426 -0.15664358 -0.07651556 0.1528348 0.0787363
0.037098475 -0.1605629 -0.06832298 -0.043788675 -0.033283636 0.16593115 -0.058759246 0.03960063
0.00893696 -0.14430481 -0.24746361 -0.30904886 -0.09882743 -0.068654284 0.04081646 0.055434562
-0.19362605 0.08172346 -0.14678338 -0.13197224 0.18374746 0.051024366 -8.7861845e-05 0.089675464
-0.22736564 -0.05207908 0.08688735 -0.056889873 0.21647765 -0.1976877 0.099535 -0.028894814
-0.013448458 -0.24229667 -0.12889631 -0.14870894 -0.3725588 -0.14625135 0.12839338 -0.38558394
0.19759172 0.07655343 -0.13707554 0.0896822 0.32538858 0.023984306 0.14498724 0.30442336
0.13139659 -0.006627028 -0.21965753 0.019198032 -0.019126423 -0.12758946 -0.14509453 0.035578493
0.006347505 0.05893471 0.32233644 -0.04649908 -0.13608533 -0.18613437 0.082266204 0.0012156009
-0.11072327 0.20733643 0.16459422 -0.019661525 -0.17554916 0.075232916 0.054351583 0.08209273
0.08493925 -0.048088633 -0.2956711 0.017355355 0.038969267 0.009660551 -0.24698359 -0.040275004
0.010978163 0.11231773 0.118899375 0.13389502 -0.016445786 0.021745162 0.06812697 -0.28161284
-0.04818735 -0.12340799 -0.06783063 0.16305195 -0.1258259 0.09765999 -0.071191914 0.14247997
0.033819348 0.049323738 -0.01685737 -0.28128505 0.10268978 0.10730134 0.0071796756 0.09491741
-0.11575022 0.0073828516 -0.20106779 0.02141793 -0.084889784 0.12995484 -0.0045600687 0.02686303
-0.1360356 0.093647145 -0.18603203 0.21999137 0.15611066 0.09068352 -0.17852429 0.13536967
0.15278958 0.23107539 -0.13039586 0.09790297 0.03923707 0.18472812 -0.4113192 -0.13984543
-0.08574683 0.08706496 0.19546431 0.041707765 -0.031895928 0.11212873 -0.034516264 0.11488564
-0.07838874 -0.1073268 -0.025069732 -0.0057825944 0.11904529 -0.08296183 -0.044527024 0.1047364
-0.047950078 0.14830238 0.0987132 0.3975719 -0.10553936 -0.13543451 -0.16688125 0.014749518
-0.18922238 -0.25964332 -0.22084342 0.23469539 0.19628373 0.06986447 0.12585764 -0.16966386
0.037382066 -0.020069225 0.18600056 -0.26596308 0.08278758 0.02030355 0.21030661 -0.05104322
0.12335032 0.02891971 0.20907205 -0.14130957 -0.013552377 0.021948237 -0.069644965 -0.19592811
0.024240615 0.047973376 0.18429388 0.0012931812 -0.023476198 0.05394598 0.140406 -0.021873554
-0.19630171 0.14271532 0.03533562 0.16062741 -0.12795526 0.055577047 0.06848816 0.103721716
0.013090909 0.100109026 -0.12470094 0.13674393 -0.09430617 0.025094949 -0.041866727 -0.10855383
-0.17322654 0.11668819 -0.021201199 -0.14659359 0.12990096 -0.035435703 -0.1513677 -0.03236214
0.07060919 -0.04652071 -0.10457079 0.043708384 0.050291 0.107246205 0.114946 -0.038456768
-0.103637785 0.022827359 -0.11387728 -0.009106249 0.053487547 -0.037156943 0.10303949 0.13192739
-0.05798383 0.008937543 0.113527715 -0.06814515 -0.11816488 0.15162086 0.07844778 -0.05545894
0.011449893 -0.14523473 0.04247377 -0.062339745 -0.036129493 0.3471387 -0.006857528 0.031674057
0.2658651 -0.049063507 -0.023937259 -0.3018355 -0.087935194 0.029230688 0.116405554 0.14069554
00000000: 136f 3b3d 395b 803d a082 16be cbfd 11bd
00000010: 2d67 20be 31b4 9cbd ba80 1c3e 7f40 a13d
00000020: 92f4 173d 9a6a 24be ebec 8bbd c15b 33bd
00000030: 6c54 08bd dbe9 293e 89ad 70bd 4534 223d
00000040: 546c 123c a4c4 13be 1a67 7dbe a73b 9ebe
00000050: 0966 cabd 9e9a 8cbd 292f 273d 5a0f 633d
00000060: e845 46be a15e a73d 624e 16be bb23 07be
00000070: 4b28 3c3e edfe 503d 7842 b8b8 c5a7 b73d
00000080: 8ad2 68be e050 55bd fff1 b13d 5b05 69bd
00000090: 51ac 5d3e a56e 4abe 02d9 cb3d d1b4 ecbc
000000a0: ec56 5cbc 9e1c 78be 65fd 03be 2847 18be
000000b0: 07c0 bebe eac2 15be 8e79 033e 426b c5be
000000c0: 7c55 4a3e 0bc8 9c3d 885d 0cbe 4dab b73d
000000d0: 5599 a63e bc7a c43c 8977 143e 61dd 9b3e
000000e0: d48c 063e 8a27 d9bb e7ed 60be 3145 9d3c
000000f0: 04af 9cbc d0a6 02be a993 14be c1ba 113d
00000100: bbfe cf3b 8665 713d 4809 a53e d275 3ebd
00000110: f459 0bbe 029a 3ebe 2f7b a83d cc54 9f3a
00000120: e2c2 e2bd 0050 543e 638b 283e 3511 a1bc
00000130: 29c3 33be b713 9a3d c49f 5e3d 3c20 a83d
00000140: a1f4 ad3d 96f8 44bd 3462 97be d12c 8e3c
00000150: 3d9e 1f3d 4a47 1e3c 44e9 7cbe 67f7 24bd
00000160: c1dd 333c d706 e63d 8481 f33d c71b 093e
00000170: 50b9 86bc e922 b23c 2786 8b3d 8f2f 90be
00000180: 1960 45bd 54bd fcbd c9ea 8abd 17f7 263e
00000190: 81d8 00be f601 c83d 11cd 91bd 45e6 113e
000001a0: 2886 0a3d b007 4a3d 7818 8abc 9804 90be
000001b0: 054f d23d cec0 db3d 7c43 eb3b 0f64 c23d
000001c0: 740e edbd d9eb f13b b7e4 4dbe a874 af3c
000001d0: b2da adbd e212 053e a16c 95bb db0f dc3c
000001e0: eb4c 0bbe 13ca bf3d 2e7f 3ebe 6b45 613e
000001f0: 79db 1f3e 48b8 b93d 12cf 36be 599e 0a3e
00000200: df74 1c3e 079f 6c3e 7e86 05be 5a81 c83d
00000210: 0db7 203d 5e29 3d3e 6e98 d2be a433 0fbe
00000220: 099c afbd 1d4f b23d cc27 483e c3d5 2a3d
00000230: 4ea5 02bd bfa3 e53d ed60 0dbd 2a49 eb3d
00000240: 478a a0bd 27ce dbbd 0a5f cdbc eb7b bdbb
00000250: 04ce f33d e4e7 a9bd f861 36bd 0a80 d63d
00000260: 4d67 44bd 94dc 173e 252a ca3d 8b8e cb3e
00000270: 0525 d8bd 58af 0abe ebe2 2abe f6a7 713c
00000280: 83c3 41be f8ef 84be c724 62be fd53 703e
00000290: 9afe 483e 1a15 8f3d d3e0 003e 5dbc 2dbe
000002a0: f01d 193d 3768 a4bc ee76 3e3e 502c 88be
000002b0: 898c a93d a153 a63c 9e5a 573e b212 51bd
000002c0: 189f fc3d 07e9 ec3c fc16 563e 75b3 10be
000002d0: ca0a 5ebc cacc b33c 05a2 8ebd 61a1 48be
000002e0: 4194 c63c bb7f 443d 89b7 3c3e f67f a93a
000002f0: 2851 c0bc 76f6 5c3d 97c6 0f3e 2b30 b3bc
00000300: 5103 49be f723 123e 15bc 103d 837b 243e
00000310: b406 03be c2a4 633d 8543 8c3d 0d6c d43d
00000320: 417b 563c f605 cd3d 3563 ffbd 9a06 0c3e
00000330: 9823 c1bd ec93 cd3c 727c 2bbd 7851 debd
00000340: 4c62 31be 38fa ee3d 23ae adbc a11c 16be
00000350: c204 053e 0725 11bd 2200 1bbe 2a8e 04bd
00000360: 8d9b 903d 808c 3ebd 3629 d6bd 9007 333d
00000370: f0fd 4d3d e6a3 db3d cf68 eb3d d884 1dbd
00000380: 0c40 d4bd 7100 bb3c 7e38 e9bd 6032 15bc
00000390: c215 5b3d e131 18bd 5e06 d33d f917 073e
000003a0: 7480 6dbd c66e 123c 3881 e83d af8f 8bbd
000003b0: 6e00 f2bd 8042 1b3e 3ba9 a03d ea28 63bd
000003c0: 5598 3b3c 6ab8 14be faf8 2d3d f657 7fbd
000003d0: 85fc 13bd 2abc b13e 1db5 e0bb a8bc 013d
000003e0: 781f 883e d1f6 48bd 1218 c4bc 2f8a 9abe
000003f0: 5e17 b4bd 3275 ef3c 0966 ee3d 7e12 103e

mu.bias f4 [8]
-0.017054515 -0.046427395 -0.010489871 -0.046252653 0.0538375 0.09675868 0.034115877 0.06731561
00000000: e9b5 8bbc a72a 3ebd b5dd 2bbc 6c73 3dbd
00000010: b684 5c3d 6a29 c63d 17bd 0b3d c4dc 893d

fc1.weight f4 [64, 111]
-0.34074357 0.5352285 0.19718452 -0.22314756 -0.11892778 0.056697678 0.034122124 0.046302933
-0.16296057 -0.111052535 -0.091827646 0.050352547 0.16844916 -0.119740225 -0.013173745 -0.13001668
-0.07072542 0.22891818 -0.1322111 -0.017213067 0.056451812 -0.023010677 0.022335574 -0.017122269
0.016222842 -0.062041137 0.023332141 -0.09260791 -0.2548348 -0.094616316 0.10403035 0.17003126
0.111237936 0.009152347 -0.06924365 0.143669 -0.06543426 0.02720823 0.037207387 -0.008139715
-0.080108985 0.07228882 -0.19378397 -0.026076166 -0.1908531 -0.03150196 -0.02597778 -0.16828398
-0.0769187 0.136502 -0.09873788 0.09099924 -0.31537917 0.04222698 0.08070609 0.03779465
-0.021850748 0.07114164 -0.11253393 -0.12944226 -0.044026107 0.072672315 -0.006011285 -0.056827664
0.07901701 0.06895521 -0.115088865 -0.017176464 0.09645059 0.13760844 0.08927997 0.022070935
-0.08209288 -0.07952599 -0.020331165 0.014410758 -0.11636966 0.027222363 0.0070014168 -0.022343235
-0.108932815 -0.09833611 0.030202545 0.059049636 -0.18090506 0.010370944 -0.095235094 -0.012577025
-0.057288386 0.21508592 -0.18246186 0.04264347 -0.06853957 0.025681706 0.11337763 -0.010718
-0.03595481 0.066128224 -0.060815807 -0.039386887 0.04749439 0.082404435 -0.027022986 -0.02101524
0.07895099 -0.044476237 -0.023931324 -0.09325069 -0.0048264056 0.106526546 -0.07012054 -0.420314
0.81426096 0.07770865 -0.28187975 0.23508474 0.18947715 -0.023449855 -0.009340993 0.11144365
0.22093719 -0.01710071 0.11210778 -0.053222172 0.04429857 0.024108741 -0.23634276 -0.023831854
-0.0585466 0.00038559688 0.002278082 -0.012475013 0.00513261 -0.014665658 0.0032449362 -0.0028608262
0.032221884 0.0022870312 -0.049620442 0.04340815 0.08600403 0.06468629 0.0515948 -0.14669308
0.037296504 0.0392366 -0.050652392 -0.06695619 -0.013589469 0.05466936 -0.07338466 -0.05185457
0.061073523 0.11039621 -0.03717122 0.12286643 0.036799785 -0.035763912 0.12384902 -0.12031606
-0.00016192847 -0.18040402 -0.047782823 -0.11742945 -0.019674378 -0.07283765 0.19177464 -0.13280919
0.005210292 -0.009436201 0.16401789 -0.026984815 -0.02489064 0.08151191 0.104503654 -0.007773802
0.012953956 0.16435501 0.14480667 0.14901257 -0.013665249 -0.0879681 0.006427403 0.14469032
-0.051478513 0.0817524 0.080914386 0.103711374 -0.037065722 -0.027122729 0.16055235 -0.14894874
-0.055578507 0.1291963 -0.09050107 -0.0063200155 -0.19058874 0.097750016 -0.019170893 0.10174636
0.020144695 0.019828305 0.13219501 -0.051641893 0.027860826 0.013360975 0.00040966723 -0.077675655
-0.08640029 0.074465275 0.1013713 0.07334523 0.22196823 -0.043204498 0.18584217 0.25120878
-0.019927638 0.0045058136 -0.13461266 -0.094471134 -0.04872051 -0.03414586 0.4230874 -0.71733063
0.08956844 -0.17576699 -0.6974426 0.09436711 0.124615826 -0.22662812 -0.049025673 -0.066836
-0.15876362 0.10418261 0.3017903 0.08161751 0.17522237 0.15396361 -0.19056277 0.14793946
-0.14896823 -0.0154894125 0.014960608 0.026841016 0.008550184 -0.07481922 0.006832737 -0.1259741
-0.051837165 -0.11739668 0.0105723115 0.067922175 0.032214507 -0.05742399 -0.05430118 -0.10168673
00000000: f175 aebe bc04 093f bdea 493e cb80 64be
00000010: 6890 f3bd d33b 683d a4c3 0b3d 25a8 3d3d
00000020: 23df 26be 836f e3bd 2210 bcbd 793e 4e3d
00000030: f07d 2c3e 5d3a f5bd b1d6 57bc 1823 05be
00000040: 7dd8 90bd 8769 6a3e 5962 07be 6b02 8dbc
00000050: 043a 673d e380 bcbc 18f9 b63c 0044 8cbc
00000060: c4e5 843c d91e 7ebd 0c23 bf3c 37a9 bdbd
00000070: b579 82be 33c6 c1bd dd0d d53d ad1c 2e3e
00000080: b7d0 e33d baf3 153c 9dcf 8dbd f71d 133e
00000090: 6602 86bd cbe3 de3c c666 183d 705c 05bc
000000a0: 2e10 a4bd 290c 943d 4e6f 46be af9d d5bc
000000b0: ff6e 43be 3308 01bd 5acf d4bc a352 2cbe
000000c0: 8d87 9dbd 2ec7 0b3e 1637 cabd cf5d ba3d
000000d0: 6179 a1be 33f6 2c3d 3c49 a53d 90ce 1a3d
000000e0: 5700 b3bc b5b2 913d 3078 e6bd 838c 04be
000000f0: b854 34bd 39d5 943d 50fa c4bb 20c4 68bd
00000100: acd3 a13d 6438 8d3d b6b3 ebbd a8b5 8cbc
00000110: e387 c53d 3ae9 0c3e 6bd8 b63d 1bce b43c
00000120: 5020 a8bd 86de a2bd 8b8d a6bc 1a1b 6c3c
00000130: 3753 eebd 6f01 df3c 246c e53b 2909 b7bc
00000140: 2b18 dfbd 7164 c9bd 546b f73c 08de 713d
00000150: 2d3f 39be e4ea 293c 9e0a c3bd de0f 4ebc
00000160: 3aa7 6abd 7c3f 5c3e 48d7 3abe ebaa 2e3d
00000170: 795e 8cbd 7162 d23c 8832 e83d 8d9a 2fbc
00000180: 5a45 13bd 3c6e 873d ff19 79bd 2554 21bd
00000190: 7a89 423d a8c3 a83d 4f5f ddbc 2728 acbc
000001a0: 0fb1 a13d b72c 36bd a00b c4bc 38fa bebd
000001b0: d326 9ebb 972a da3d 5c9b 8fbd 6633 d7be
000001c0: 6873 503f b625 9f3d 8b52 90be 0eba 703e
000001d0: 4c06 423e e919 c0bc f70a 19bc 923c e43d
000001e0: 5c3d 623e ca16 8cbc c498 e53d 7eff 59bd
000001f0: 6b72 353d b27f c53c d603 72be 053b c3bc
00000200: 8fce 6fbd f029 ca39 e04b 153b ff63 4cbc
00000210: 742f a83b 3a48 70bc ffa8 543b b37c 3bbb
00000220: 18fb 033d 04e2 153b ce3e 4bbd bfcc 313d
00000230: e222 b03d 3f7a 843d 1255 533d b636 16be
00000240: 38c4 183d 8fb6 203d e278 4fbd 5420 89bd
00000250: 5da6 5ebc fbec 5f3d b24a 96bd 7565 54bd
00000260: 3b28 7a3d 6817 e23d d940 18bd 65a1 fb3d
00000270: 5fbb 163d 2e7d 12bd 8ea4 fd3d 4468 f6bd
00000280: 58cb 29b9 d5bb 38be ecb7 43bd da7e f0bd
00000290: 292c a1bc e82b 95bd 9260 443e 22ff 07be
000002a0: 19bb aa3b 4c9a 1abc 4ef4 273e 420f ddbc
000002b0: 75e7 cbbc b7ef a63d 0306 d63d 61bb febb
000002c0: d43c 543c ae4c 283e 3348 143e c096 183e
000002d0: 35e4 5fbc 9f28 b4bd f79c d23b b329 143e
000002e0: 22db 52bd cd6d a73d 71b6 a53d a166 d43d
000002f0: 3ad2 17bd 7c30 debc d667 243e 0586 18be
00000300: 4aa6 63bd 094c 043e a058 b9bd 2218 cfbb
00000310: b229 43be 2931 c83d 470c 9dbc 6560 d03d
00000320: 7d06 a53c f86e a23c 215e 073e 7386 53bd
00000330: 633c e43c fee7 5a3c 9bc8 d639 6a14 9fbd
00000340: a3f2 b0bd 4081 983d c29b cf3d 0636 963d
00000350: a44b 633e 33f7 30bd 694d 3e3e 709e 803e
00000360: 493f a3bc 81a5 933b e7d7 09be 157a c1bd
00000370: 288f 47bd 87dc 0bbd e99e d83e fba2 37bf
00000380: a96f b73d 43fc 33be 998b 32bf 8b43 c13d
00000390: 9536 ff3d 3411 68be 25cf 48bd 50e1 88bd
000003a0: ee92 22be b15d d53d 4284 9a3e 1527 a73d
000003b0: 7e6d 333e a3a8 1d3e e322 43be 717d 173e
000003c0: 218b 18be 4ec7 7dbc 571d 753c b1e1 db3c
000003d0: 1216 0c3c d23a 99bd 27e5 df3b 5bff 00be
000003e0: 3553 54bd ac6d f0bd 7d37 2d3c c81a 8b3d
000003f0: 5cf3 033d 6b35 6bbd ea6a 5ebd 2241 d0bd

fc1.bias f4 [64]
0.36495242 -0.147729 -0.030014291 0.21979342 -0.20259367 -0.08768481 -0.54504055 0.6248639
0.14374466 0.7019975 0.23128581 0.13375889 -0.23572715 0.51174235 -0.16750403 0.31111696
0.9380171 0.8868467 0.17261069 0.6152783 -0.033981677 -0.077453814 0.5421295 -0.27746534
-0.13004169 0.12108861 0.20773122 -0.26183066 0.24166952 0.42962003 0.077831015 -0.3459282
0.27013445 0.7530202 0.0041063544 0.18873021 -0.25767934 -0.2423733 -0.21516311 0.23680486
-0.18166745 -0.35157588 1.0053957 0.27401686 -0.12702887 -0.13354439 -0.11073925 -0.21863046
-0.6462661 0.32467815 0.10367214 -0.27612004 0.004614783 0.021117818 0.40931866 0.24834812
-0.2136505 -0.21080288 -0.46200252 0.4492514 0.18144551 0.28952006 0.11982742 -0.15656613
00000000: 0bdb ba3e 4546 17be 88e0 f5bc 8711 613e
00000010: b774 4fbe 1894 b3bd c787 0bbf 15f7 1f3f
00000020: cd31 133e 1cb6 333f 30d6 6c3e 17f8 083e
00000030: 7562 71be 8c01 033f 2d86 2bbe b94a 9f3e
00000040: e321 703f 6308 633f dbc0 303e e182 1d3f
00000050: 5f30 0bbd 1ba0 9ebd 00c9 0a3f f00f 8ebe
00000060: a629 05be 4efd f73d 7eb7 543e ab0e 86be
00000070: 3778 773e 28f7 db3e de65 9f3d 801d b1be
00000080: 104f 8a3e efc5 403f 998e 863b 7e42 413e
00000090: 8cee 83be b530 78be b853 5cbe f97c 723e
000000a0: 0807 3abe c101 b4be ceb0 803f f04b 8c3e
000000b0: db13 02be dcbf 08be 43cb e2bd aae0 5fbe
000000c0: b271 25bf 373c a63e 0f52 d43d 9b5f 8dbe
000000d0: 9b37 973b 46ff ac3c 3792 d13e f84e 7e3e
000000e0: 32c7 5abe b6dc 57be 988b ecbe 4804 e63e
000000f0: dacc 393e f93b 943e 1468 f53d df52 20be

fc2.weight f4 [64, 64]
-0.054328796 0.9259229 0.0706625 -0.14645559 -0.16248497 0.6621787 0.9346234 -0.02054165
-0.014274976 -0.24243031 -0.33975163 -0.27515274 -0.51378244 0.13002391 0.35327524 -0.30343258
-0.3750462 -1.25447 -0.12456905 -0.7465683 0.73501027 -0.4446042 -0.48944262 0.53107667
0.6796287 -0.69622993 -0.64076406 0.03726594 0.046833426 -0.69990116 -0.3681489 0.47240847
-0.2726613 -0.069117054 0.7891028 -0.9012392 0.8875851 -0.27619278 0.4036019 -1.0227069
0.30817685 -0.17676339 -0.8304323 0.27528492 0.2598609 0.30047792 -0.8224894 -0.72429985
0.60095876 -0.75708485 0.24000606 -0.50909656 0.6916775 -0.04987265 -0.911494 0.025182733
0.726885 0.49635428 -0.7505666 0.34858248 -0.042459607 -0.19409679 -0.4171893 0.29076967
0.43336323 0.179893 -0.12850249 0.7291824 -0.05969693 0.50463915 0.44668174 -0.05823203
0.045642845 0.34409952 0.42146337 0.38912913 -0.43390453 0.010235388 0.2354974 0.09625952
0.23864925 -0.3229996 -0.084775805 -0.13670675 -0.22391936 0.025279427 0.39276442 0.14270884
0.028401883 -0.72972685 0.014816409 -0.0071951635 0.17264614 0.089679234 -0.1443217 0.1409286
-0.09735712 -0.505876 -0.40583137 0.39013463 -0.08794814 -0.16602762 -0.014115199 0.16297138
0.16938935 -0.19521664 -0.1539677 0.11525957 -0.19577561 0.07353566 -0.32809395 -0.5632801
0.00085605367 0.15246049 -0.15997654 -0.13108027 -0.1630649 -0.16493371 0.49130908 -0.046086855
0.39783785 -0.15348783 0.015798863 -0.37614706 -0.07637962 0.7484019 0.17111893 -0.03465624
-0.6471081 -0.08422487 0.9779769 -0.106568776 -0.34097064 0.041045748 1.1670456 -1.0869857
0.30152985 -0.19273028 -0.5536244 0.69412535 0.37820518 -1.5388818 0.8435464 -0.4781416
-2.4885979 -3.0591307 0.15402247 -1.50797 0.007987934 0.39552236 -0.4935951 0.34209758
0.1727423 -0.057665575 -0.50403893 -0.08407879 -0.14467204 -0.51602095 -0.5975965 0.04483207
-0.27473366 -1.6623826 -0.5154881 -0.08018509 0.5315587 0.5427375 0.4263296 0.09274095
0.13936771 -0.02877388 -2.2517054 -0.74734616 -0.26513568 0.38990465 -0.1804102 0.11960109
0.33076993 -0.0550169 -0.08756549 0.052223887 -0.33775482 0.08735618 -0.7140567 0.20090555
1.1211822 0.14585055 -0.06816286 -0.527818 0.026389383 0.23416646 -0.5254895 -0.2872798
0.46167818 0.9869554 -0.79891664 0.48462105 0.9752096 0.28451496 -0.7662585 1.0168853
-1.1803263 -0.20851663 0.73890805 -1.2856348 -1.1295198 0.9961199 -1.6044264 -0.3693264
1.1630111 0.7517676 -0.779396 1.0374053 0.516707 -1.0951846 0.9454655 0.52069575
0.73881906 -0.5493832 -0.35224405 0.7243867 0.97727954 -0.59579736 0.56861854 0.71623564
-0.57196796 1.1193061 0.5634532 -0.6944898 0.43836427 -0.4114674 -0.6049547 -0.63042927
0.3208374 -0.6397288 1.0339799 0.8415677 1.112378 -1.0459511 0.30004224 0.61901283
-0.873364 -0.65982795 -0.5514292 0.5990665 0.45641184 0.2794039 -0.12069021 -0.77517176
-0.5193863 0.6327521 1.0493021 0.3999756 0.066226654 0.6877086 -0.141723 1.0593325
00000000: df87 5ebd 4809 6d3f 80b7 903d 74f8 15be
00000010: 7662 26be 8b84 293f 7b43 6f3f f646 a8bc
00000020: 97e1 69bc a73f 78be edf3 adbe d2e0 8cbe
00000030: 3f87 03bf fd24 053e 7ee0 b43e 845b 9bbe
00000040: 0e06 c0be 7992 a0bf 0f1e ffbd 1a1f 3fbf
00000050: a229 3c3f 29a3 e3be 3998 fabe a4f4 073f
00000060: 25fc 2d3f 203c 32bf 1d09 24bf 2ca4 183d
00000070: 68d4 3f3d b92c 33bf 037e bcbe 86df f13e
00000080: 439a 8bbe 3e8d 8dbd a402 4a3f 9db7 66bf
00000090: c738 633f 2469 8dbe e9a4 ce3e 0fe8 82bf
000000a0: 5bc9 9d3e 7601 35be 3697 54bf 25f2 8c3e
000000b0: 7d0c 853e 3ed8 993e aa8e 52bf b76b 39bf
000000c0: 6fd8 193f 50d0 41bf 26c4 753e 2754 02bf
000000d0: c711 313f 4447 4cbd ac57 69bf 054c ce3c
000000e0: 2315 3a3f 2622 fe3e 2225 40bf 6779 b23e
000000f0: 20ea 2dbd 4fc1 46be d699 d5be c3df 943e
00000100: c9e1 dd3e df35 383e 2896 03be b3ab 3a3f
00000110: c584 74bd 0830 013f 78b3 e43e b684 6ebd
00000120: fef3 3a3d d02d b03e 0cca d73e ef3b c73e
00000130: bc28 debe 54b2 273c 3b26 713e b623 c53d
00000140: 7860 743e 3460 a5be f09e adbd dbfc 0bbe
00000150: 1e4b 65be cd16 cf3c 6b18 c93e 4422 123e
00000160: 11ab e83c 61cf 3abf 86c0 723c 68c5 ebbb
00000170: 26ca 303e bfa9 b73d 11c9 13be 964f 103e
00000180: 2b63 c7bd 1781 01bf 21c9 cfbe babf c73e
00000190: 281e b4bd 2503 2abe 7043 67bc f8e1 263e
000001a0: 6774 2d3e dfe6 47be b5a9 1dbe 360d ec3d
000001b0: 6779 48be dd99 963d eefb a7be 2033 10bf
000001c0: ca68 603a 9a1e 1c3e e4d0 23be e839 06be
000001d0: 7cfa 26be 62e4 28be dd8c fb3e 92c5 3cbd
000001e0: 67b1 cb3e ea2b 1dbe 9e6c 813c 5996 c0be
000001f0: eb6c 9cbd 4497 3f3f cd39 2f3e b4f3 0dbd
00000200: e0a8 25bf 177e acbd b25c 7a3f bb40 dabd
00000210: b493 aebe 961f 283d c061 953f 5922 8bbf
00000220: 1f62 9a3e 165b 45be 54ba 0dbf 33b2 313f
00000230: 1ca4 c13e 14fa c4bf a8f2 573f face f4be
00000240: 3045 1fc0 ccc8 43c0 11b8 1d3e 2905 c1bf
00000250: d3df 023c e881 ca3e 7fb8 fcbe 6a27 af3e
00000260: 5ce3 303e bd32 6cbd b208 01bf 8031 acbd
00000270: e824 14be f319 04bf 16fc 18bf d5a1 373d
00000280: e4a9 8cbe f4c8 d4bf 07f7 03bf 1538 a4bd
00000290: 3b14 083f d8f0 0a3f e047 da3e f8ee bd3d
000002a0: 69b6 0e3e 33b7 ebbc f11b 10c0 1452 3fbf
000002b0: ddbf 87be 95a1 c73e 74bd 38be 6bf1 f43d
000002c0: ad5a a93e 6759 61bd 8955 b3bd b7e8 553d
000002d0: 33ee acbe cce7 b23d 6bcc 36bf 2fba 4d3e
000002e0: e682 8f3f d959 153e f898 8bbd 151f 07bf
000002f0: 8c2e d83c 55c9 6f3e 7b86 06bf 5716 93be
00000300: 1561 ec3e 1ca9 7c3f cd85 4cbf 4020 f83e
00000310: 56a7 793f f2ab 913e 8429 44bf 4c29 823f
00000320: ef14 97bf 6285 55be 1429 3d3f ae8f a4bf
00000330: 1b94 90bf b701 7f3f d85d cdbf 5a18 bdbe
00000340: 8cdd 943f d773 403f 7f86 47bf b2c9 843f
00000350: e946 043f 022f 8cbf 070a 723f 514c 053f
00000360: 3f23 3d3f 61a4 0cbf 5559 b4be 6871 393f
00000370: fe2e 7a3f 2d86 18bf fc90 113f 385b 373f
00000380: 7e6c 12bf 6c45 8f3f 783e 103f 15ca 31bf
00000390: 4871 e03e dbab d2be 50de 1abf d063 21bf
000003a0: cd44 a43e 44c5 23bf 7459 843f fb70 573f
000003b0: 6762 8e3f bae1 85bf 239f 993e a077 1e3f
000003c0: c894 5fbf 7cea 28bf 772a 0dbf 6c5c 193f
000003d0: d0ae e93e 070e 8f3e 6e2c f7bd a871 46bf
000003e0: 80f6 04bf 0bfc 213f 884f 863f 9ac9 cc3e
000003f0: d7a1 873d ac0d 303f d61f 11be 3598 873f

fc2.bias f4 [64]
-0.871913 0.14593804 -0.891701 -0.12848528 -0.22685105 0.68303686 1.6867362 0.26400608
-0.28161576 -0.0038764111 -1.9363495 -1.8684218 -0.23865919 -0.23267913 1.8129365 -0.15003476
-0.35048643 1.6138988 0.31711945 1.3967589 -0.40699935 -0.43776113 -0.9711515 -0.4925032
0.48106903 -0.9383475 0.010742488 -0.7357929 0.14423762 -0.12740278 -0.57222176 -0.042327218
0.42211044 -0.303214 0.3416237 -0.07482462 -0.07519793 0.11533759 -0.9370658 -0.064524606
-1.9922714 -0.054434814 0.6598363 0.051797993 -0.0956117 -1.1305258 -0.42850447 0.03491482
0.8788421 0.32377446 0.947971 0.73972964 0.9447616 -0.06430386 0.05552822 0.8355025
0.1098561 0.013126159 1.7229279 1.9543936 -0.2376095 -0.498876 -0.0006547366 -1.6903596
00000000: b135 5fbf c870 153e 8446 64bf a591 03be
00000010: a44b 68be 81db 2e3f f9e6 d73f ce2b 873e
00000020: f12f 90be 630b 7ebb 4dda f7bf 7228 efbf
00000030: 1363 74be 7043 6ebe 4e0e e83f b6a2 19be
00000040: f572 b3be 3c94 ce3f 7b5d a23e ffc8 b23f
00000050: 3862 d0be 3a22 e0be 629d 78bf 6129 fcbe
00000060: ae4e f63e 8b37 70bf 4301 303c ec5c 3cbf
00000070: 07b3 133e e075 02be 207d 12bf 4e5f 2dbd
00000080: dc1e d83e de3e 9bbe 4de9 ae3e a63d 99bd
00000090: 5f01 9abd 1d36 ec3d 8be3 6fbf 7a25 84bd
000000a0: c002 ffbf 0af7 5ebd 08eb 283f 222a 543d
000000b0: 11d0 c3bd 12b5 90bf f064 dbbe d802 0f3d
000000c0: ccfb 603f c4c5 a53e 3aae 723f ec5e 3d3f
000000d0: e5db 713f beb1 83bd 8f71 633d 7ee3 553f
000000e0: 3cfc e03d 1a0f 573c e788 dc3f 9229 fa3f
000000f0: e84f 73be ad6c ffbe a1a2 2bba b45d d8bf

value.weight f4 [1, 64]
-7.345312 -7.3857617 -6.83781 7.02971 7.090761 -7.029933 7.349693 6.566207
-6.8131385 -6.6330314 -7.4209647 -7.72557 7.0768757 7.215492 6.885351 7.220792
-6.709122 7.480481 -7.0682273 6.9612136 7.076533 7.0018544 -7.0406585 6.927398
-6.8957443 -6.927213 7.036902 -6.5781274 -7.196562 -6.9565988 6.992015 7.139133
-7.0626926 6.727644 6.9869328 -7.1716037 -7.471363 6.689274 -7.660147 -7.120637
-7.596108 -6.7910323 7.4738846 7.130337 7.099183 -7.563061 7.0520754 7.034726
6.6070323 -7.1355243 7.4139495 6.5721765 6.707402 -6.8354244 -7.066568 6.952207
7.094827 7.09638 7.02859 7.6616673 -6.831574 6.3733997 -7.063584 -7.361587
00000000: cc0c ebc0 2958 ecc0 57cf dac0 62f3 e040
00000010: 84e7 e240 36f5 e0c0 af30 eb40 5e1e d240
00000020: 3b05 dac0 cb41 d4c0 8b78 edc0 df37 f7c0
00000030: c475 e240 4fe5 e640 cc54 dc40 ba10 e740
00000040: 21b1 d6c0 1a60 ef40 eb2e e2c0 43c2 de40
00000050: f572 e240 310f e040 134d e1c0 3fad dd40
00000060: f0a9 dcc0 bbab ddc0 4d2e e140 0580 d2c0
00000070: 3c4a e6c0 759c dec0 96be df40 c773 e440
00000080: 9401 e2c0 dc48 d740 f494 df40 c77d e5c0
00000090: 6815 efc0 880e d640 ed1f f5c0 42dc e3c0
000000a0: 5113 f3c0 2350 d9c0 102a ef40 b92b e440
000000b0: 822c e340 9904 f2c0 9aaa e140 7a1c e140
000000c0: cf6c d340 3756 e4c0 133f ed40 454f d240
000000d0: 0aa3 d640 ccbb dac0 5321 e2c0 7b78 de40
000000e0: d308 e340 8c15 e340 36ea e040 612c f540
000000f0: 419c dac0 e4f2 cb40 e108 e2c0 1f92 ebc0

exp_avg f4 [1, 8]
-0.0015258532 -0.0037994252 -0.0023884792 0.00038690475 -0.0024560932 -0.0044949576 -0.0049544955 -0.0011579092
00000000: 23ff c7ba c7ff 78bb 0888 1cbb 7ad9 ca39
00000010: 68f6 20bb 704a 93bb 5259 a2bb fcc4 97ba

exp_avg_sq f4 [1, 8]
0.00010793652 9.139294e-05 0.00012905574 0.00012465612 0.000101926555 0.00010333466 9.961803e-05 0.00012670808
00000000: fa5b e238 36aa bf38 2353 0739 1fb6 0239
00000010: 67c1 d538 60b5 d838 06ea d038 f1dc 0439

exp_avg f4 [64, 111]
0.0008612083 -0.00040342083 0.00037400346 -0.00038497066 -0.0012601098 -0.0008271185 -0.00076680153 0.0014371267
-0.00016274699 0.0005963334 0.00019970092 -0.0016445577 -0.0004084303 0.0029692994 0.00023476189 0.0016687214
0.0011508921 0.0005598444 -0.00020828027 -0.00036685736 -0.0006963573 -0.006714138 -0.0059072184 0.0055800453
0.0018220133 0.006853305 -0.0013354039 0.0 0.0 0.0 0.0 0.0
0.0 0.0 0.0 0.0 0.0 0.0 0.0 0.0
0.0 0.0 0.0 0.0 0.0 0.0 0.0 0.0
0.0 0.0 0.0 0.0 0.0 0.0 0.0 0.0
0.0 0.0 0.0 0.0 0.0 0.0 0.0 0.0
0.0 0.0 0.0 0.0 0.0 0.0 0.0 0.0
0.0 0.0 0.0 0.0 0.0 0.0 0.0 0.0
0.0 0.0 0.0 0.0 0.0 0.0 0.0 0.0
0.0 0.0 0.0 0.0 0.0 0.0 0.0 0.0
0.0 0.0 0.0 0.0 0.0 0.0 0.0 0.0
0.0 0.0 0.0 0.0 0.0 0.0 0.0 -0.0011267925
-0.001449808 0.00019592387 7.579329e-06 0.000877726 -0.000695416 -1.9522973e-05 0.00089146453 0.0009068287
-0.0008040844 0.00083552615 -0.0003821289 -0.00025102502 -0.0057978285 0.0030199043 0.002229964 0.0012450626
0.0001809713 -3.2745545e-05 -0.0030652082 -0.0003376672 0.0019365428 -0.0009726661 -0.00015930292 -0.0013549264
-0.000704058 -0.0013954943 0.0 0.0 0.0 0.0 0.0 0.0
0.0 0.0 0.0 0.0 0.0 0.0 0.0 0.0
0.0 0.0 0.0 0.0 0.0 0.0 0.0 0.0
0.0 0.0 0.0 0.0 0.0 0.0 0.0 0.0
0.0 0.0 0.0 0.0 0.0 0.0 0.0 0.0
0.0 0.0 0.0 0.0 0.0 0.0 0.0 0.0
0.0 0.0 0.0 0.0 0.0 0.0 0.0 0.0
0.0 0.0 0.0 0.0 0.0 0.0 0.0 0.0
0.0 0.0 0.0 0.0 0.0 0.0 0.0 0.0
0.0 0.0 0.0 0.0 0.0 0.0 0.0 0.0
0.0 0.0 0.0 0.0 0.0 0.0 0.002200446 0.002414525
0.00021797621 -0.00047797975 0.0002445025 -0.0008429366 0.00020814559 -0.000951663 -0.0014580428 0.0026628624
-0.0008376175 -0.0010467272 0.0025611545 0.0046076663 0.0019679237 -0.00043490197 0.0014844337 -0.0015144806
-0.0015358762 -0.001113801 0.001572588 -0.0048672655 -0.007401521 0.008519473 0.0019812325 0.0014455251
-0.0030794095 0.0 0.0 0.0 0.0 0.0 0.0 0.0
00000000: b6c2 613a 3a82 d3b9 e515 c439 e3d5 c9b9
00000010: 452a a5ba fcd2 58ba 2e03 49ba f85d bc3a
00000020: 10a7 2ab9 4253 1c3a cf66 5139 338e d7ba
00000030: 9622 d6b9 9498 423b 6a2a 7639 00b9 da3a
00000040: 88d9 963a 86c2 123a cf65 5ab9 c356 c0b9
00000050: bf8b 36ba 4602 dcbb 5791 c1bb d0d8 b63b
00000060: 9fd0 ee3a b091 e03b b808 afba 0000 0000
00000070: 0000 0000 0000 0000 0000 0000 0000 0000
00000080: 0000 0000 0000 0000 0000 0000 0000 0000
00000090: 0000 0000 0000 0000 0000 0000 0000 0000
000000a0: 0000 0000 0000 0000 0000 0000 0000 0000
000000b0: 0000 0000 0000 0000 0000 0000 0000 0000
000000c0: 0000 0000 0000 0000 0000 0000 0000 0000
000000d0: 0000 0000 0000 0000 0000 0000 0000 0000
000000e0: 0000 0000 0000 0000 0000 0000 0000 0000
000000f0: 0000 0000 0000 0000 0000 0000 0000 0000
00000100: 0000 0000 0000 0000 0000 0000 0000 0000
00000110: 0000 0000 0000 0000 0000 0000 0000 0000
00000120: 0000 0000 0000 0000 0000 0000 0000 0000
00000130: 0000 0000 0000 0000 0000 0000 0000 0000
00000140: 0000 0000 0000 0000 0000 0000 0000 0000
00000150: 0000 0000 0000 0000 0000 0000 0000 0000
00000160: 0000 0000 0000 0000 0000 0000 0000 0000
00000170: 0000 0000 0000 0000 0000 0000 0000 0000
00000180: 0000 0000 0000 0000 0000 0000 0000 0000
00000190: 0000 0000 0000 0000 0000 0000 0000 0000
000001a0: 0000 0000 0000 0000 0000 0000 0000 0000
000001b0: 0000 0000 0000 0000 0000 0000 e2b0 93ba
000001c0: 7c07 beba ea70 4d39 f151 fe36 3217 663a
000001d0: 944c 36ba 44c5 a3b7 2cb1 693a 3eb8 6d3a
000001e0: 31c9 52ba 3607 5b3a 7958 c8b9 029c 83b9
000001f0: b6fb bdbb 96e9 453b 9624 123b 5e31 a33a
00000200: 1dc3 3d39 4358 09b8 a9e1 48bb ed08 b1b9
00000210: 98d3 fd3a 84fa 7eba 8d0a 27b9 c997 b1ba
00000220: 8890 38ba 05e9 b6ba 0000 0000 0000 0000
00000230: 0000 0000 0000 0000 0000 0000 0000 0000
00000240: 0000 0000 0000 0000 0000 0000 0000 0000
00000250: 0000 0000 0000 0000 0000 0000 0000 0000
00000260: 0000 0000 0000 0000 0000 0000 0000 0000
00000270: 0000 0000 0000 0000 0000 0000 0000 0000
00000280: 0000 0000 0000 0000 0000 0000 0000 0000
00000290: 0000 0000 0000 0000 0000 0000 0000 0000
000002a0: 0000 0000 0000 0000 0000 0000 0000 0000
000002b0: 0000 0000 0000 0000 0000 0000 0000 0000
000002c0: 0000 0000 0000 0000 0000 0000 0000 0000
000002d0: 0000 0000 0000 0000 0000 0000 0000 0000
000002e0: 0000 0000 0000 0000 0000 0000 0000 0000
000002f0: 0000 0000 0000 0000 0000 0000 0000 0000
00000300: 0000 0000 0000 0000 0000 0000 0000 0000
00000310: 0000 0000 0000 0000 0000 0000 0000 0000
00000320: 0000 0000 0000 0000 0000 0000 0000 0000
00000330: 0000 0000 0000 0000 0000 0000 0000 0000
00000340: 0000 0000 0000 0000 0000 0000 0000 0000
00000350: 0000 0000 0000 0000 0000 0000 0000 0000
00000360: 0000 0000 0000 0000 0000 0000 0000 0000
00000370: 0000 0000 0000 0000 5c35 103b 023d 1e3b
00000380: 8b90 6439 5b99 fab9 9230 8039 85f8 5cba
00000390: a841 5a39 0679 79ba cc1b bfba 6b83 2e3b
000003a0: 8f93 5bba 5632 89ba 0bd9 273b e8fb 963b
000003b0: 48f8 003b 8e03 e4b9 5491 c23a 8981 c6ba
000003c0: 744f c9ba f6fc 91ba 4c1f ce3a 957d 9fbb
000003d0: 7588 f2bb 4295 0b3c 91d7 013b c677 bd3a
000003e0: ebcf 49bb 0000 0000 0000 0000 0000 0000
000003f0: 0000 0000 0000 0000 0000 0000 0000 0000

exp_avg_sq f4 [64, 111]
1.8274519e-05 3.8191927e-05 1.4727731e-06 2.3532914e-06 1.3269851e-05 2.5238389e-05 1.6333264e-05 2.5726602e-05
1.0390945e-05 1.7628581e-05 1.1436299e-05 2.7890208e-05 2.2310529e-05 0.00043026774 7.341651e-05 8.027023e-05
9.832319e-05 0.00012002473 7.507684e-05 0.0002238618 8.763173e-05 0.0004878079 4.5174926e-05 0.00011624849
6.443368e-05 0.0005258302 0.00017125899 0.0 0.0 0.0 0.0 0.0
0.0 0.0 0.0 0.0 0.0 0.0 0.0 0.0
0.0 0.0 0.0 0.0 0.0 0.0 0.0 0.0
0.0 0.0 0.0 0.0 0.0 0.0 0.0 0.0
0.0 0.0 0.0 0.0 0.0 0.0 0.0 0.0
0.0 0.0 0.0 0.0 0.0 0.0 0.0 0.0
0.0 0.0 0.0 0.0 0.0 0.0 0.0 0.0
0.0 0.0 0.0 0.0 0.0 0.0 0.0 0.0
0.0 0.0 0.0 0.0 0.0 0.0 0.0 0.0
0.0 0.0 0.0 0.0 0.0 0.0 0.0 0.0
0.0 0.0 0.0 0.0 0.0 0.0 0.0 1.609713e-05
2.5681718e-05 1.1550947e-06 1.7080058e-06 1.0561928e-05 1.7752463e-05 8.273689e-06 2.2550043e-05 7.7716195e-06
1.2665521e-05 8.361073e-06 2.2622198e-05 1.7066546e-05 0.00034684894 5.8737096e-05 7.318199e-05 6.601901e-05
8.271422e-05 4.489337e-05 0.00014728543 5.2870382e-05 0.00027282984 3.492623e-05 7.839465e-05 4.33524e-05
0.00030998042 0.00016371495 0.0 0.0 0.0 0.0 0.0 0.0
0.0 0.0 0.0 0.0 0.0 0.0 0.0 0.0
0.0 0.0 0.0 0.0 0.0 0.0 0.0 0.0
0.0 0.0 0.0 0.0 0.0 0.0 0.0 0.0
0.0 0.0 0.0 0.0 0.0 0.0 0.0 0.0
0.0 0.0 0.0 0.0 0.0 0.0 0.0 0.0
0.0 0.0 0.0 0.0 0.0 0.0 0.0 0.0
0.0 0.0 0.0 0.0 0.0 0.0 0.0 0.0
0.0 0.0 0.0 0.0 0.0 0.0 0.0 0.0
0.0 0.0 0.0 0.0 0.0 0.0 0.0 0.0
0.0 0.0 0.0 0.0 0.0 0.0 1.6420012e-05 6.081076e-05
1.2948502e-06 2.5758504e-06 1.8156574e-05 3.889003e-05 1.2732916e-05 3.54024e-05 1.6862114e-05 2.534872e-05
1.4886995e-05 3.983518e-05 5.8636142e-05 0.0007599199 0.00012489353 0.00016409642 0.00016946986 0.0002928706
0.00010116325 0.0004031419 8.3375955e-05 0.00091278984 0.00010359875 0.00018938689 6.143828e-05 0.0009611521
0.0004189805 0.0 0.0 0.0 0.0 0.0 0.0 0.0
00000000: 3b4c 9937 4530 2038 19ac c535 3ded 1d36
00000010: 93a1 5e37 07b7 d337 6b03 8937 75cf d737
00000020: c554 2e37 17e1 9337 88de 3f37 c4f5 e937
00000030: 7f27 bb37 8f95 e139 30f7 9938 c056 a838
00000040: dc32 ce38 c9b5 fb38 9272 9d38 72bc 6a39
00000050: edc6 b738 78c0 ff39 357a 3d38 6fca f338
00000060: 9220 8738 ded7 093a fc93 3339 0000 0000
00000070: 0000 0000 0000 0000 0000 0000 0000 0000
00000080: 0000 0000 0000 0000 0000 0000 0000 0000
00000090: 0000 0000 0000 0000 0000 0000 0000 0000
000000a0: 0000 0000 0000 0000 0000 0000 0000 0000
000000b0: 0000 0000 0000 0000 0000 0000 0000 0000
000000c0: 0000 0000 0000 0000 0000 0000 0000 0000
000000d0: 0000 0000 0000 0000 0000 0000 0000 0000
000000e0: 0000 0000 0000 0000 0000 0000 0000 0000
000000f0: 0000 0000 0000 0000 0000 0000 0000 0000
00000100: 0000 0000 0000 0000 0000 0000 0000 0000
00000110: 0000 0000 0000 0000 0000 0000 0000 0000
00000120: 0000 0000 0000 0000 0000 0000 0000 0000
00000130: 0000 0000 0000 0000 0000 0000 0000 0000
00000140: 0000 0000 0000 0000 0000 0000 0000 0000
00000150: 0000 0000 0000 0000 0000 0000 0000 0000
00000160: 0000 0000 0000 0000 0000 0000 0000 0000
00000170: 0000 0000 0000 0000 0000 0000 0000 0000
00000180: 0000 0000 0000 0000 0000 0000 0000 0000
00000190: 0000 0000 0000 0000 0000 0000 0000 0000
000001a0: 0000 0000 0000 0000 0000 0000 0000 0000
000001b0: 0000 0000 0000 0000 0000 0000 5308 8737
000001c0: 126f d737 c008 9b35 a23e e535 2333 3137
000001d0: 20eb 9437 39cf 0a37 d929 bd37 da62 0237
000001e0: 007e 5437 8946 0c37 cdc4 bd37 212a 8f37
000001f0: 47d9 b539 7a5c 7638 4879 9938 b073 8a38
00000200: dc76 ad38 e44b 3c38 a270 1a39 24c1 5d38
00000210: 9a0a 8f39 c17d 1238 cf67 a438 49d5 3538
00000220: de84 a239 e6aa 2b39 0000 0000 0000 0000
00000230: 0000 0000 0000 0000 0000 0000 0000 0000
00000240: 0000 0000 0000 0000 0000 0000 0000 0000
00000250: 0000 0000 0000 0000 0000 0000 0000 0000
00000260: 0000 0000 0000 0000 0000 0000 0000 0000
00000270: 0000 0000 0000 0000 0000 0000 0000 0000
00000280: 0000 0000 0000 0000 0000 0000 0000 0000
00000290: 0000 0000 0000 0000 0000 0000 0000 0000
000002a0: 0000 0000 0000 0000 0000 0000 0000 0000
000002b0: 0000 0000 0000 0000 0000 0000 0000 0000
000002c0: 0000 0000 0000 0000 0000 0000 0000 0000
000002d0: 0000 0000 0000 0000 0000 0000 0000 0000
000002e0: 0000 0000 0000 0000 0000 0000 0000 0000
000002f0: 0000 0000 0000 0000 0000 0000 0000 0000
00000300: 0000 0000 0000 0000 0000 0000 0000 0000
00000310: 0000 0000 0000 0000 0000 0000 0000 0000
00000320: 0000 0000 0000 0000 0000 0000 0000 0000
00000330: 0000 0000 0000 0000 0000 0000 0000 0000
00000340: 0000 0000 0000 0000 0000 0000 0000 0000
00000350: 0000 0000 0000 0000 0000 0000 0000 0000
00000360: 0000 0000 0000 0000 0000 0000 0000 0000
00000370: 0000 0000 0000 0000 b5bd 8937 0e0f 7f38
00000380: b7ca ad35 c6dc 2c36 f24e 9837 da1d 2338
00000390: 759f 5537 0a7d 1438 1d73 8d37 f6a3 d437
000003a0: 28c3 7937 b314 2738 14f0 7538 5c35 473a
000003b0: daf5 0239 4c11 2c39 b8b3 3139 6d8c 9939
000003c0: 9b27 d438 ca5c d339 20da ae38 4a48 6f3a
000003d0: 2843 d938 2896 4639 6dd8 8038 d3f5 7b3a
000003e0: 9caa db39 0000 0000 0000 0000 0000 0000
000003f0: 0000 0000 0000 0000 0000 0000 0000 0000
