drl/ran2/Ant35000_ran2_weights.pth (torch, 292784 bytes, 36 tensors)

log_std f4 [1, 8]
00000000: 9cc7 adbf 3ee8 ecbf 558b 99bf 08d1 a5bf
00000010: 7033 afbf 9713 b6bf 61a2 9ebf 37a8 b3bf
-1.3576541 -1.8508375 -1.1995646 -1.2954416 -1.3687572 -1.4224728 -1.2393304 -1.403571

fc1.weight f4 [64, 111]
00000000: f5af 9bbe 3c0b 7cbc e6b9 cd3d 63cc 22bd
00000010: 7064 c73d 71ce 01be 165f d0bc c722 693d
00000020: 40e0 933d 5b27 383d ed3b 78be 70ca 4ebe
00000030: a5ce d03d 76ba d9bd c9ad cbbb 6fa8 3a3d
00000040: b40e 513d fe20 873c 358e c0bd 8c82 02bd
00000050: 02ec 04be 68b5 abbb 0cbf e6bd 5ecd d1bc
00000060: cdd4 fd3c e867 9abc 2a0c 013e ee4f ffbb
00000070: 581d 0ebd 1287 683d 2154 8dbd 1dc9 cabc
00000080: 9740 8a3d 0bda c13d a3b8 ee3d 087f 31be
00000090: b837 efbd 31e0 213c 0145 a73d 989d 9abd
000000a0: 7d83 11be 30b3 c53d 7c43 54bc 6be8 0fbe
000000b0: a561 223d 067a 923c f9e5 ca3d 397c 46bb
000000c0: 2dba 02bd d672 09be 770e cabd 9ca3 eb3c
000000d0: 89c0 c3bd 1c0c 64bd 0a22 8a3d bbcc 983c
000000e0: bda1 60bd 1e71 8f3c 833b 55be 012d 1ebd
000000f0: 5a35 a73d 3922 edbb cd5d eb3d ebb0 e4bd
00000100: fd63 7c3c d4cd 303e 9d31 8cbe f627 98bc
00000110: 57d2 a93d 0664 383d ef1c 663d 1b03 debd
00000120: f7e4 463d c764 c1bd 3454 08bd 65a8 883d
00000130: b514 123d b2c6 cf3c 8c86 a4bd b64f 803d
00000140: cc80 0a3d 9bda ccbb 29bd 7a3c ca79 043d
00000150: 34d1 543e b385 fdbd fa76 4fbc 772d 003e
00000160: cf77 8bbd 3a0d 82bd f78e 823d 7717 553d
00000170: 3a85 bbbc 53ff 0c3e f277 26be 6e25 083e
00000180: a3e2 bab9 d33a b03d c5c7 c3bb 2d7a 0fbe
00000190: c506 d9bd b450 19bd d530 cc3d 41a5 193e
000001a0: 05b5 d8bc 0978 2cbe acf3 49bd 4b19 5e3c
000001b0: 481c e63d c4ef 87bc ce0d 5b3d 55ee 6abc
000001c0: ffde afbc 9fe0 20bf 999b 543e 85e8 81be
000001d0: 5bfc 6fbd eda2 28be de77 693e 393d 863d
000001e0: 18de d7bd f4b2 96bc 85a2 0ebe ec30 01bc
000001f0: 05e4 8ebd d440 8abd ace4 e8bd b7e0 8abc
00000200: 6650 f4bb ea18 27bd 06a0 b0bd 8ffc 90bd
00000210: b723 ee3d 9981 dfba 04b4 f3bd 9976 ad3d
00000220: 3bea 35bd 9781 b1bd a4bc eebd c724 2dba
00000230: 6d40 88bd 8720 6abd 3c7f d33c 9cdd 513d
00000240: 132c 0bbe 956b 6cbd 15c9 c73d c286 cfbd
00000250: d918 1ebd 661d 2c3e 189c 74bd 2993 21bd
00000260: 562a b3bd 184b 36bd b70f 663e 1a54 313e
00000270: 3110 1e3d eed6 c3bd 54e7 d9bd b5c9 29be
00000280: b379 813d 9270 7ebd e9cb 013d 21d5 a4bc
00000290: 9219 e23d 032d 74bd f259 c2bc 95be 483e
000002a0: c846 793e 1f93 6c3d d7cc 70bd 7717 923d
000002b0: 6ac3 7abd 8e6a 423d 9948 353e 2cdc 18bd
000002c0: ebbe f9bc 7b4c 25be e69f bebb 1dbb b43c
000002d0: b470 6e3d caec c33c 2e12 883e 2e49 d83d
000002e0: b62b 4b3c c273 913c c2d8 debb 94ca 83bd
000002f0: 8938 5bbd 5636 cfbb 65b6 2f3e b3fd a23b
00000300: 7a9e 733d 8d8f 1d3d 78cd eabd e314 0dbe
00000310: 1191 acbd 7415 993d 6092 34bc 24d0 bc3d
00000320: 453d 803d 34a1 1ebd f38e 1dbd 5197 b03c
00000330: a4a2 ab3d f12e ed3c 6af7 203e 13c6 e73c
00000340: c395 1b3e fcec 463d 7f0d 3abd 693a 2c3e
00000350: c3af bab9 c931 d0bc ce4c 5b3d 1af1 8f3b
00000360: a988 9dbd 42bf 1e3d 22fd aa3c 475c 19bc
00000370: fe39 543d b9f7 6fbd f9fa a0bd 6265 1abe
00000380: e166 093d cb14 04bb 0050 f83e 9ce4 c13d
00000390: ed5b 99be 0857 653e f870 2a3e a55b 193e
000003a0: 3c90 963e 75e9 a3be 52e7 34bc d08e 8bbd
000003b0: c522 d6bc 8024 1dbd 514d 2dbd 02d1 ee3c
000003c0: b754 0d3d b76f 663d 9cb3 0c3d c402 5f3c
000003d0: 6bf8 503d 19df 703d d391 dc3c 436d 2dbe
000003e0: ab80 903d 7714 143d 0659 5e3d 5f4f c2bb
000003f0: 1c36 cb3c 2b76 fabd bc76 c4bc 4827 133d
-0.30407682 -0.015383538 0.10045223 -0.0397457 0.09735954 -0.12676407 -0.025435966 0.056917932
0.07220507 0.044959407 -0.2424161 -0.20194411 0.10195664 -0.10631268 -0.006215785 0.045570787
0.051039413 0.016495224 -0.09402124 -0.03186278 -0.12980655 -0.005240131 -0.11266908 -0.025610622
0.03098526 -0.018848374 0.12602296 -0.007791511 -0.034695953 0.056769438 -0.06900812 -0.024754101
0.06750601 0.094654165 0.116563104 -0.17333615 -0.116805494 0.009880112 0.08167458 -0.0754959
-0.14210315 0.09653318 -0.012955543 -0.14053504 0.039643902 0.017880451 0.09907145 -0.0030286445
-0.031915832 -0.13422713 -0.0986604 0.028764538 -0.095582075 -0.05567561 0.06744774 0.01865231
-0.054841746 0.017509993 -0.20823483 -0.038617138 0.08164473 -0.0072367457 0.114925005 -0.11166557
0.015404698 0.17266017 -0.27381602 -0.018573742 0.08292072 0.045017265 0.056179937 -0.10840436
0.0485582 -0.0944305 -0.033283427 0.06672744 0.03566428 0.0253633 -0.08033475 0.06265204
0.033814237 -0.0062516457 0.015303888 0.03234271 0.2078293 -0.12379017 -0.012662644 0.12517343
-0.06809961 -0.06350179 0.06374925 0.05202433 -0.022890676 0.13769273 -0.16256693 0.13295528
-0.00035645542 0.0860497 -0.005974742 -0.1401145 -0.10596994 -0.03743048 0.099702515 0.15004446
-0.026453504 -0.16842665 -0.04930465 0.013555835 0.11235863 -0.016593821 0.053479962 -0.014339049
-0.021468638 -0.62842745 0.20762481 -0.2537271 -0.058590274 -0.16468401 0.22799632 0.06554646
-0.10540408 -0.018395878 -0.13929184 -0.007885199 -0.06977085 -0.06750646 -0.11371741 -0.016952856
-0.0074558733 -0.040795244 -0.08624272 -0.07079422 0.11627906 -0.0017052173 -0.1189957 0.08469886
-0.044412833 -0.086672954 -0.11657074 -0.00066049065 -0.06652913 -0.057159927 0.025817506 0.051236734
-0.13591032 -0.057719786 0.0975515 -0.10133125 -0.038597915 0.1680809 -0.059719175 -0.039446983
-0.08748309 -0.04450521 0.22466932 0.17317238 0.03858966 -0.09562479 -0.106398255 -0.16580851
0.063220404 -0.062119074 0.031688605 -0.020121159 0.110400334 -0.05961324 -0.02372453 0.19603951
0.24343407 0.057757493 -0.0587891 0.07133382 -0.061221518 0.0474649 0.17703475 -0.037319347
-0.030486545 -0.16142456 -0.005817401 0.022061879 0.05821295 0.02391662 0.2657637 0.10560833
0.012400558 0.017755393 -0.006800742 -0.06435123 -0.053520713 -0.006323616 0.17159422 0.004974091
0.059477307 0.03846698 -0.11464971 -0.13777499 -0.08426107 0.07474795 -0.011021227 0.09219387
0.06261686 -0.038727954 -0.038466405 0.021556528 0.083806306 0.028953047 0.15719381 0.028292691
0.15193848 0.04856585 -0.045423027 0.16819157 -0.00035607637 -0.025414364 0.053540044 0.004392755
-0.076920815 0.038756616 0.020872656 -0.00936038 0.05181312 -0.058585856 -0.07860369 -0.15077737
0.03354538 -0.0020153995 0.48498535 0.09467432 -0.29952946 0.22396481 0.16644657 0.14976366
0.29406917 -0.3201405 -0.011041479 -0.06814349 -0.026139626 -0.038364887 -0.042310063 0.029152397
0.03450462 0.056258883 0.034350976 0.013611499 0.05101816 0.058806513 0.026925003 -0.16936211
0.070557915 0.03615233 0.054284118 -0.005929872 0.024806075 -0.1222957 -0.023982398 0.035926133

fc1.bias f4 [64]
00000000: 2a01 873c 7307 d1bb d597 03be 98d9 a9bd
00000010: a859 08be 8d27 e33a ac9b 203b 742c d33c
00000020: f750 b8bd 0b7d 31bd 048a b63c 429c 95bd
00000030: 8b9d 29bd d281 503d df60 f33b aa09 393d
00000040: 6da9 f8bc 6d26 21bd 6980 853d 4f7a 943d
00000050: e315 193e 53fc 7bbb 88cc b1bd ad66 933d
00000060: 6964 803d 3293 f03d 603f 843c 5b32 57bd
00000070: 5fc9 1abc 1f2a c6bc 788c febb d49f 6abd
00000080: ff0a ccbc ea88 503d e816 1e3d 864b 66bc
00000090: 2eb8 673d 6253 fb3b f9dc babc ccc9 953d
000000a0: cebb b5bc 9b73 973d 90ca d53c c4c9 d7bc
000000b0: a53b 9fbc fa78 043e db95 cbbd 1ddf f93c
000000c0: 17c4 7abc cc4c e73d 5b51 42be bae8 f43d
000000d0: 54e3 fbbd dc6a fdbb 75da 9a3c 1e63 ff3d
000000e0: c398 9bbb 03a4 e53c 7684 013d 55ab 223b
000000f0: 293e dd3b 2cb8 53ba 7d58 373d e955 34be
0.016480047 -0.006379062 -0.12850888 -0.08293456 -0.13315451 0.0017330513 0.002450685 0.025778033
-0.08999818 -0.04333214 0.022282608 -0.073051944 -0.04141001 0.050905056 0.0074273194 0.045175232
-0.030354226 -0.039343286 0.06518633 0.07249891 0.14949755 -0.0038449958 -0.08681589 0.07197318
0.06269152 0.11746825 0.0161435 -0.052538257 -0.009447425 -0.024190007 -0.00776821 -0.05728133
-0.024907587 0.05091182 0.038596064 -0.014056092 0.05657213 0.007669852 -0.022810446 0.0731388
-0.022184279 0.07395097 0.026097566 -0.026341327 -0.01943762 0.12936774 -0.09940692 0.030501897
-0.0153055405 0.11293945 -0.18976347 0.119584516 -0.12299219 -0.007733686 0.018902997 0.12470077
-0.004748435 0.028032308 0.031620465 0.002482136 0.006751795 -0.0008076455 0.044762123 -0.17610897

fc2.weight f4 [64, 64]
00000000: dfaf b93d 4877 73bd 3c0c 1dbe 5288 13bd
00000010: 497d 793e 58b1 16bb 09e6 813e eb84 bebd
00000020: 53de 6a3c 33bd 953e 365a d03c 6ce1 7d3d
00000030: d930 00be 3808 b6be 6ba5 e23c 4d7b 40bd
00000040: 0e12 623e 8d00 34bd 89cc dd3d d03a d5bd
00000050: be50 92bc 0d88 6abd a8b6 4bbe 6b43 bd3d
00000060: aeb7 493d e7d4 6e3e fb73 acbc 85e1 983d
00000070: 62a1 f7bd 917d 65bd 4a16 60bc de27 2fbe
00000080: fa37 d93c 4c55 fc3d 9d17 993c 52c5 3cbd
00000090: 4017 a13d d49b a93d 9985 bc3e 5bb6 5bbd
000000a0: e726 613e 8573 8d3d 31f9 dcbd b965 473e
000000b0: 2387 a13d 7c8e a2bd 5ebe 3c3e 4fb7 97bd
000000c0: 818d 0a3e 51df a2bd e8f8 b63d b7ad 183d
000000d0: 7790 063c 7757 65be 4568 d3bd d2cc f43c
000000e0: aca9 32bd b97b 55be 36d6 7b3e 2594 febd
000000f0: d4e9 53bc c13b 6dbe de51 1dbe cec3 653d
00000100: f57e 8f3b 1447 ed3e 967c 75be a414 253e
00000110: 47cb 95bc 21de 97bd 3da6 9e3e f872 323e
00000120: 255e b43d 8979 0e3e 1f21 ae3c 9920 cbbd
00000130: c78e 38be 7eb3 d2bb 2928 c33d 3414 bc3d
00000140: 1fcd 19be 8bbd 16be 3b83 e03c 2b3d 06be
00000150: 0b87 843c 4afa 1cbe 31c0 d73b 03d4 273d
00000160: 6964 c2bd c26c 16be 5589 d23c d3f8 c5bd
00000170: d290 1e3d 30fc 81bd 6a9e d53d 4ec4 a03d
00000180: 8775 ebbd 0baa 5b3c 2d52 28be 38af 94bd
00000190: 1aa1 213e 4f4b 043e c8c2 6c3d 6545 24be
000001a0: 170c 09bd df48 4a3c 5e8e c23d b7c2 14be
000001b0: f3a6 0ebd 3f6d 7a3c f895 09be c99a cbbd
000001c0: fd6a afbc 4755 a4bd 3191 103c 9f44 833d
000001d0: 4431 3a3d 9844 c1bd c5dd e4bd 1e56 5cbd
000001e0: 8c4c 9c3e 3393 ff3d 136a 91bd dd60 123e
000001f0: 1593 663d 8cb0 94bd e054 c3bd da8c 643e
00000200: b795 81be d5e9 07bd c9e6 0ebe 5f75 babd
00000210: caa9 1abd 5e93 933d 0305 3abd 8c41 f5bd
00000220: 9643 6cbd 0184 193e 906b 0bbe 943e 06be
00000230: 8183 393d 8436 be3d 065b 9d3d afb3 343d
00000240: 25f4 87be 8002 09be 2557 e53e 66ae 25bc
00000250: eea1 ac3d 6785 53be 51ea 88bd 92ca b7bd
00000260: 7602 183e c64e b53d d432 4a3d 1ba7 09be
00000270: 01f9 4e3c b7b7 2cbb e32a b73d 0d40 ea3c
00000280: 45f1 953d d8a9 013e 58d9 b43d e179 06bd
00000290: 79e1 21be 802e acbc 3504 d53c eaf1 75be
000002a0: 1aaf 9cbc 4d9f 903e 05ba 84be 2161 b2bd
000002b0: a3f7 2f3e 8f8b 2abe ef97 0d3e fd6c 2d3e
000002c0: df4a 84bb 7f8f bc3d 96cb d6bd 8862 acbd
000002d0: c903 41bd 84df 883c 4b8c 8b3d 3d30 75bd
000002e0: 1482 60be 2cfa f23c 79f7 8b3d 0ff9 ab3d
000002f0: 097c e73d 8d71 303e 8884 0fbe 8d14 8bbd
00000300: e020 e23a 5542 3b3d a1a4 9a3c a7fe d6bd
00000310: be10 94be f685 893d 9e44 f1bd 9caf c2bd
00000320: 9e06 0a3e 0ee5 8d3e d2f6 ebbc 09a2 8d3e
00000330: 525b 34be a34e ae3d 3d9a 803e 0403 d2bd
00000340: 83cd cf3c 4159 803d 4094 17bd 7aca 90be
00000350: 047d 013c e735 48bb 03ee f53d 1a1a 0bbe
00000360: 38dd 5dbd 95de 013e 3ad8 a13d 813e a8be
00000370: 6ac2 49be 06eb d83d 6e49 e93c 782e 6a3d
00000380: 2cd0 c43c 13bc 15be 75cb f7bd 2148 543e
00000390: c97a a2bd d028 743d fa0d 84bd 8b2e c7bd
000003a0: 8a2b c4bc ea38 fabb 373f 31be 495f 3d3d
000003b0: f0b8 253e 0a22 723d 7de6 2dbe 6144 44bd
000003c0: b7a3 86be 50a3 423c 0ffa e43d f537 0ebd
000003d0: 148d 00bd 068c 443a 6846 1d3e 878f a6bc
000003e0: b625 94bc 4760 73bd abcd a83e 7035 09bd
000003f0: b2c4 8bbe da70 5ebe 1119 cebc df7d cabc
0.09066748 -0.059439927 -0.15336698 -0.036018677 0.24364199 -0.0022993889 0.25370815 -0.09302696
0.014335233 0.2924591 0.02543364 0.061982557 -0.12518634 -0.35553145 0.027666768 -0.04699259
0.220772 -0.043945838 0.108300276 -0.10411608 -0.017860767 -0.057258654 -0.19893897 0.092413746
0.049247436 0.23323403 -0.021051398 0.074648894 -0.12091328 -0.056027953 -0.013677189 -0.17105052
0.02651595 0.123209566 0.018688018 -0.046086617 0.07865763 0.08281675 0.36820677 -0.053640705
0.21987496 0.06906799 -0.10789717 0.19472398 0.078871034 -0.07937333 0.18431994 -0.0740801
0.13530542 -0.079527505 0.08934194 0.037275042 0.008213154 -0.22396646 -0.10322622 0.029882822
-0.043618843 -0.20847978 0.24593434 -0.124306 -0.012934167 -0.23167326 -0.15363261 0.056094937
0.004379148 0.4634329 -0.23973307 0.16121155 -0.018285407 -0.074154146 0.30986205 0.1742667
0.08807019 0.1391355 0.021256028 -0.09918327 -0.18023215 -0.0064300885 0.09529144 0.09183541
-0.15019654 -0.14720742 0.027406326 -0.13109271 0.016177675 -0.15329853 0.0065841903 0.040973675
-0.09491808 -0.14689925 0.02570025 -0.096666 0.03871233 -0.06346929 0.10430606 0.07849942
-0.11497026 0.013407241 -0.16437598 -0.07259983 0.15784112 0.12919353 0.057802945 -0.16042097
-0.033458795 0.012346475 0.09499811 -0.14527403 -0.034827184 0.015284835 -0.13436115 -0.09941632
-0.02141332 -0.08024078 0.008823679 0.06409573 0.04545714 -0.09436911 -0.11175112 -0.053793065
0.3052715 0.12479248 -0.0710031 0.14294763 0.056292612 -0.07260236 -0.09537673 0.22319356
-0.25309536 -0.033181984 -0.13955225 -0.09104418 -0.03775958 0.072058424 -0.045414936 -0.11975393
-0.057681642 0.14991762 -0.1361525 -0.13109809 0.045291428 0.09287742 0.07683377 0.044116672
-0.26553455 -0.1337986 0.44793049 -0.010112381 0.08429323 -0.20656358 -0.06685317 -0.08974184
0.14844689 0.088529155 0.04936488 -0.13442652 0.012632609 -0.002635462 0.08943727 0.028594995
0.07321409 0.12662446 0.088305175 -0.032831077 -0.15808667 -0.021018267 0.026002983 -0.24018064
-0.019126464 0.28246537 -0.25923172 -0.08709932 0.1718431 -0.166548 0.1382749 0.16936107
-0.0040372456 0.09207057 -0.1048805 -0.08417231 -0.04712275 0.016708143 0.06813868 -0.059860457
-0.21924621 0.029660307 0.06834311 0.083971135 0.11302955 0.17230816 -0.140154 -0.06791029
0.0017252229 0.045717556 0.01887733 -0.1049779 -0.28919023 0.06715004 -0.11780666 -0.09506151
0.13479087 0.27713817 -0.028804217 0.27662686 -0.17612961 0.085110925 0.25117674 -0.102544814
0.02536655 0.06267024 -0.037006617 -0.28279477 0.007903341 -0.0030549706 0.12008288 -0.13584176
-0.05416605 0.12682565 0.0790257 -0.32860187 -0.1970307 0.10591702 0.028477397 0.057173222
0.024025045 -0.14622526 -0.12099353 0.2073064 -0.07933576 0.059609234 -0.06447978 -0.09725674
-0.023946542 -0.007636179 -0.17309271 0.04623345 0.1618383 0.059114493 -0.16982456 -0.047916774
-0.2629678 0.011879757 0.111805074 -0.034721334 -0.031384543 0.0007497672 0.15358889 -0.020332111
-0.018084388 -0.05941799 0.32969412 -0.033498228 -0.27298504 -0.21722737 -0.025158437 -0.024718223

fc2.bias f4 [64]
00000000: 983b 9f3c 8407 49bb f1cd 333d 09fa eabd
00000010: 7c93 01bc 9138 8a3d 2bba 083e 651b 263d
00000020: 86cb 23bd 22c5 463d 08dd c23b 84ed b8bc
00000030: 591f b2bc a71c a53c 305e 873d c604 d53d
00000040: a7ce 903d 8468 e83d 22d2 20bd 10ff 0abd
00000050: 5236 0abc 5762 2c3c ab76 22ba af03 4d3c
00000060: f8d4 47bd 2140 b4bc a46a 5abd ee25 823c
00000070: 92e2 41bc 8877 af3b 2119 d0ba 7c1e 8abb
00000080: ebb3 293d 0129 053c d8ab 993c 146c 763d
00000090: ce1b a73c 5ba3 b4ba 2de7 a33d 47b7 30bd
000000a0: b682 6fbd 830a 1f3d 72c9 3b3d 9c1c 143e
000000b0: d361 42bc a19e 95bd 777a 26bc 2fe7 953d
000000c0: 30cb 133d e273 443d 5bdb b03b aec0 6e3c
000000d0: 6ebe ca3c e4e1 aebd 681b 143b 8296 373d
000000e0: 3e4b b93c 244d f8bd 1d50 2e3d 143a f63d
000000f0: 2db9 db3c cb67 dfbc 495b 063e dab3 2a3d
0.019437596 -0.0030674646 0.043897573 -0.11473472 -0.007908698 0.067490704 0.13352267 0.04055347
-0.039989017 0.048527844 0.005946759 -0.022574194 -0.021743463 0.020155264 0.06609762 0.10401301
0.07070666 0.1134806 -0.0392629 -0.033934653 -0.0084358025 0.010521493 -0.00061974925 0.012513085
-0.048787087 -0.022003235 -0.053324357 0.015887227 -0.011833804 0.0053548254 -0.001587663 -0.00421506
0.04143135 0.008127452 0.0187587 0.060161665 0.020399 -0.0013781594 0.08003078 -0.043143537
-0.058474265 0.038828384 0.04584641 0.14464039 -0.011864143 -0.07305647 -0.010161034 0.073194854
0.036082447 0.047962077 0.005397243 0.014572306 0.024749007 -0.08539179 0.0022599343 0.04482127
0.022618886 -0.121240884 0.04255687 0.12022796 0.026821697 -0.027271172 0.1312076 0.041675426

mu.weight f4 [8, 64]
00000000: dda2 243d 4ff0 8b3d c3d5 17be 3024 24bd
00000010: 3670 16be 4175 90bd 2d01 373e a1aa ca3d
00000020: 187f 7d3d 40e3 1abe 1f06 9bbd 62d0 2abd
00000030: da10 26bd a9e1 2a3e 9da5 70bd 0b3e 523d
00000040: 79f0 2d3c 7ce5 11be d969 8abe a67b 9ebe
00000050: 0302 d4bd aa40 a3bd 6e1e 1d3d b8a4 4f3d
00000060: 6950 45be eb5b b83d da00 16be b640 f8bd
00000070: 7185 293e d8b4 0a3d 0385 b33a 281e d43d
00000080: eb4f 66be e0e0 45bd c41b c93d 6401 83bd
00000090: 63c6 5f3e e8e4 4fbe b32e cb3d 18ab 07bd
000000a0: 531b 86bc 2986 82be 786f 0bbe 7d1e 1dbe
000000b0: 43af bfbe 9164 05be 53e6 063e 1e63 c2be
000000c0: 3ebc 443e 628d a43d aa18 18be 8490 9f3d
000000d0: 8394 a43e 216b ec3c 2613 173e acfd 9d3e
000000e0: ef7b f63d 3128 073b c0e2 54be 8ab9 433c
000000f0: 3a53 a5bc 4c50 06be e2ab 1dbe b3a0 d33c
00000100: d1b9 ca3a 6bc9 283d ffde 9d3e 5377 13bd
00000110: 258e ffbd 2179 34be a6e7 523d 177a 8d3c
00000120: e0a2 e5bd f621 473e 80c4 273e c24d f6bb
00000130: e554 29be 3bcb 9d3d 8fab 8a3d 5cda c93d
00000140: 9777 bd3d 07dc 5fbd 1f01 94be 467b 463c
00000150: 95aa 083d 080f aa3c a9ea 80be 4c29 25bd
00000160: 2f42 053b a67c e73d 08ef e23d d472 f83d
00000170: 476f 26bb f345 3e3d 551c 813d c5bb 90be
00000180: 5819 45bd 7737 fcbd 8fbc 54bd 52b6 1c3e
00000190: 0876 ecbd 4d36 ca3d 58ed 90bd bf19 183e
000001a0: 8c30 153d 80b3 403d 8bd3 90bc 19e6 8dbe
000001b0: e8a8 e83d 9a11 cd3d 8dc2 38bc cbc4 ce3d
000001c0: fdde e9bd 165b 913c 89b1 46be 4f63 5e3c
000001d0: 6e60 afbd 1db1 063e 49f4 d9bb 4595 f33c
000001e0: de69 13be fed3 be3d 9456 31be 2165 6d3e
000001f0: 84ec 2a3e 8873 d83d 2942 28be 09a2 113e
00000200: 20f8 113e 3f86 703e eda5 0fbe 3f53 c13d
00000210: 280b 563d 9605 263e 745c d8be 6abc 0fbe
00000220: 9a2d 92bd 823a c13d c82e 4f3e 8641 3b3d
00000230: 72c3 1dbd 0d74 cb3d 7c34 1dbd c361 ee3d
00000240: a6e6 acbd 1ef6 e1bd d19a e7bb 5849 263c
00000250: 6d16 ea3d 2cc2 adbd c596 63bd 33be dd3d
00000260: 3e58 20bd b55b 1a3e 6278 d53d df17 d03e
00000270: 7554 edbd 06c4 0bbe fc6d 2dbe b551 3c3c
00000280: 4f06 43be 1855 76be b610 73be eb89 7d3e
00000290: 5220 453e 6467 973d 109e 0c3e 162e 16be
000002a0: cc44 223d ec77 bcbc e33a 553e 54af 8ebe
000002b0: 0699 d33d 5852 863c 9d1c 593e 6b3e f7bc
000002c0: 631c f43d da02 e93c 5c37 5e3e a715 0fbe
000002d0: 7911 19bd a71a 4b3c 1e73 8abd db73 40be
000002e0: 4843 a43c ffbd 4c3d 0479 483e 8407 323b
000002f0: 9352 08bd 8fd4 7f3d 3ed4 093e 2351 8abc
00000300: 1b80 53be 60b8 053e b9a0 363d 104f 313e
00000310: 96d4 06be cba4 593d 9fb0 b63d c4a1 c03d
00000320: 2737 5ebc 7b87 e03d 0c49 febd e281 073e
00000330: 0385 dabd 9736 363d 7abf 52bd b19e f0bd
00000340: aad0 33be eec8 e33d d72e c4bc a315 25be
00000350: c3f8 0c3e 117e 37bd 2384 21be 52d9 03bd
00000360: 9b3a 7b3d 51df 2ebd 7048 a5bd d8f2 303d
00000370: 6786 343d aadf ae3d 6d11 f73d d52f 36bd
00000380: 3d9d ddbd 6f8a 233a bc8d f9bd ffbf 2b3b
00000390: 77ed 3c3d b42c 4cbc 270a d33d 9f62 f23d
000003a0: bfaa 8dbd 0f02 093c d20c e23d 10e4 90bd
000003b0: 75a0 07be 8c19 1a3e 759e 933d 952e 40bd
000003c0: 17b7 973c 70da 22be f76c 3a3c 459c 3cbd
000003d0: 8ee9 0abd 14d5 b43e 890a 86bc 9460 8f3c
000003e0: 1ce2 8d3e bd01 e5bc 222a 33bd c4aa 97be
000003f0: c4de b0bd fc78 003d 9ec5 ed3d 057d 153e
0.04019438 0.068329446 -0.14827637 -0.040073574 -0.14691243 -0.070536144 0.17871542 0.09895826
0.061888784 -0.15125751 -0.07569527 -0.041702636 -0.040543415 0.16687645 -0.05875169 0.0513287
0.010616415 -0.14247698 -0.2703388 -0.3095371 -0.10351946 -0.07971318 0.038359098 0.050694197
-0.19268955 0.09001907 -0.14648762 -0.12121718 0.1655481 0.033863872 0.0013696257 0.10357314
-0.22491424 -0.04831016 0.09819749 -0.063967496 0.21853022 -0.20302165 0.099210165 -0.033122152
-0.016370451 -0.2549298 -0.1361674 -0.15343662 -0.37438402 -0.13026644 0.13173799 -0.37966245
0.19212434 0.08034779 -0.14853159 0.07791236 0.32144555 0.028859677 0.14753398 0.308576
0.12035357 0.0020623321 -0.20789623 0.011946091 -0.020181287 -0.13116568 -0.153976 0.025833463
0.0015466755 0.041207712 0.30834195 -0.03600247 -0.12478284 -0.17624332 0.05149045 0.017270131
-0.112127066 0.19446549 0.16383553 -0.0075165937 -0.16536291 0.07704779 0.067710035 0.09856102
0.092513256 -0.054653194 -0.28907105 0.012114352 0.033365805 0.02075912 -0.25179031 -0.040322587
0.0020333638 0.11303072 0.11080748 0.12131277 -0.0025395916 0.046453428 0.06304232 -0.28268257
-0.048119873 -0.123152666 -0.051937636 0.15303925 -0.1154595 0.09873638 -0.0707652 0.14853571
0.03642325 0.047046185 -0.017678997 -0.27714613 0.11360341 0.10013123 -0.011276853 0.10096129
-0.11419485 0.017743628 -0.19403662 0.013573482 -0.085633144 0.13153501 -0.0066514355 0.029734263
-0.14395854 0.09317778 -0.17318183 0.23183109 0.16691786 0.10568911 -0.16431488 0.14221968
0.14254808 0.23488711 -0.1402814 0.09439706 0.052256733 0.16213068 -0.42258036 -0.14036718
-0.07137604 0.094349876 0.2023269 0.045716785 -0.03851647 0.09934244 -0.03838013 0.1163974
-0.0844243 -0.11033271 -0.007068016 0.010149322 0.11430059 -0.08484301 -0.055563707 0.10827293
-0.039146654 0.15074046 0.10423352 0.40643212 -0.115883745 -0.13648996 -0.16936487 0.01149409
-0.19045375 -0.24055898 -0.23736843 0.24759643 0.1925061 0.07392767 0.13732171 -0.14666018
0.03961639 -0.023006402 0.20823245 -0.2786814 0.10331921 0.016396686 0.21202321 -0.03018113
0.11919477 0.028443743 0.21700805 -0.13973103 -0.03737018 0.012396491 -0.06760238 -0.18794195
0.020051613 0.049985882 0.19577414 0.0027165124 -0.033281874 0.06245857 0.1345987 -0.016884392
-0.20654337 0.13058615 0.04458687 0.17315316 -0.13167033 0.053135674 0.089204066 0.09405854
-0.013562954 0.10963341 -0.12416276 0.1323314 -0.10669901 0.044485655 -0.051452138 -0.11749018
-0.17560068 0.11122309 -0.023948116 -0.16121535 0.1376677 -0.04479796 -0.15773062 -0.032189675
0.061335187 -0.04269344 -0.08070457 0.043200344 0.04407349 0.08538754 0.120638706 -0.04447921
-0.108210064 0.0006238585 -0.12185237 0.0026206968 0.0461249 -0.01246183 0.10304671 0.11835217
-0.06917333 0.008362307 0.110376015 -0.070747495 -0.13244803 0.15048808 0.07207958 -0.046919424
0.018519921 -0.1590364 0.011378518 -0.046047468 -0.03391414 0.35318816 -0.016362445 0.017502107
0.2771157 -0.02795493 -0.043741353 -0.2962247 -0.08636239 0.03136538 0.11609958 0.14598472

mu.bias f4 [8]
00000000: e7d8 21bc 91f8 50bd 3bba ffbb 11ad 41bd
00000010: 9568 5c3d 37c1 c83d e0ff fd3c b7b7 9d3d
-0.009878374 -0.0510183 -0.007804183 -0.04728419 0.053810675 0.09802478 0.0310058 0.077010565

fc1.weight f4 [64, 111]
00000000: 513d b6be d1da 0d3f 77ef 793e af8d 6ebe
00000010: 905c eabd 28bb 973d fb92 6b3d 8c04 3a3d
00000020: e8b1 24be 112c b9bd edc1 9dbd 4c25 3c3d
00000030: e31f 333e f65a 03be 6d79 95bc 9e9b 05be
00000040: cdaf b6bd 6088 643e 116a 08be 17b8 14bc
00000050: fb98 6b3d d646 e2bc 5e5a 7b3c d602 74bc
00000060: 759d 393c 96fb 91bd d1fc e23c 37a9 bdbd
00000070: b579 82be 33c6 c1bd dd0d d53d ad1c 2e3e
00000080: b7d0 e33d baf3 153c 9dcf 8dbd f71d 133e
00000090: 6602 86bd cbe3 de3c c666 183d 705c 05bc
000000a0: 2e10 a4bd 290c 943d 4e6f 46be af9d d5bc
000000b0: ff6e 43be 3308 01bd 5acf d4bc a352 2cbe
000000c0: 8d87 9dbd 2ec7 0b3e 1637 cabd cf5d ba3d
000000d0: 6179 a1be 33f6 2c3d 3c49 a53d 90ce 1a3d
000000e0: 5700 b3bc b5b2 913d 3078 e6bd 838c 04be
000000f0: b854 34bd 39d5 943d 50fa c4bb 20c4 68bd
00000100: acd3 a13d 6438 8d3d b6b3 ebbd a8b5 8cbc
00000110: e387 c53d 3ae9 0c3e 6bd8 b63d 1bce b43c
00000120: 5020 a8bd 86de a2bd 8b8d a6bc 1a1b 6c3c
00000130: 3753 eebd 6f01 df3c 246c e53b 2909 b7bc
00000140: 2b18 dfbd 7164 c9bd 546b f73c 08de 713d
00000150: 2d3f 39be e4ea 293c 9e0a c3bd de0f 4ebc
00000160: 3aa7 6abd 7c3f 5c3e 48d7 3abe ebaa 2e3d
00000170: 795e 8cbd 7162 d23c 8832 e83d 8d9a 2fbc
00000180: 5a45 13bd 3c6e 873d ff19 79bd 2554 21bd
00000190: 7a89 423d a8c3 a83d 4f5f ddbc 2728 acbc
000001a0: 0fb1 a13d b72c 36bd a00b c4bc 38fa bebd
000001b0: d326 9ebb 972a da3d 5c9b 8fbd 2efd d4be
000001c0: bacf 553f 89ad 243d 9a84 9dbe 70fd 603e
000001d0: 5ffc 493e 3afb 79bc 6a98 45bc 26a2 be3d
000001e0: aa4c 793e 3b48 8dbc 6a64 d63d 446a e5bc
000001f0: c9cd 5d3d 82f1 b83a 3c9a 72be f4e9 0abd
00000200: b0a4 54bd 86df 9a3b 3ddb 083c e860 5fbc
00000210: 7e20 e2bb 094b bfbc 6e3b a93c 78a9 6fbc
00000220: e5a9 283d dde2 473a ce3e 4bbd bfcc 313d
00000230: e222 b03d 3f7a 843d 1255 533d b636 16be
00000240: 38c4 183d 8fb6 203d e278 4fbd 5420 89bd
00000250: 5da6 5ebc fbec 5f3d b24a 96bd 7565 54bd
00000260: 3b28 7a3d 6817 e23d d940 18bd 65a1 fb3d
00000270: 5fbb 163d 2e7d 12bd 8ea4 fd3d 4468 f6bd
00000280: 58cb 29b9 d5bb 38be ecb7 43bd da7e f0bd
00000290: 292c a1bc e82b 95bd 9260 443e 22ff 07be
000002a0: 19bb aa3b 4c9a 1abc 4ef4 273e 420f ddbc
000002b0: 75e7 cbbc b7ef a63d 0306 d63d 61bb febb
000002c0: d43c 543c ae4c 283e 3348 143e c096 183e
000002d0: 35e4 5fbc 9f28 b4bd f79c d23b b329 143e
000002e0: 22db 52bd cd6d a73d 71b6 a53d a166 d43d
000002f0: 3ad2 17bd 7c30 debc d667 243e 0586 18be
00000300: 4aa6 63bd 094c 043e a058 b9bd 2218 cfbb
00000310: b229 43be 2931 c83d 470c 9dbc 6560 d03d
00000320: 7d06 a53c f86e a23c 215e 073e 7386 53bd
00000330: 633c e43c fee7 5a3c 9bc8 d639 6a14 9fbd
00000340: a3f2 b0bd 4081 983d c29b cf3d 0636 963d
00000350: a44b 633e 33f7 30bd 694d 3e3e 709e 803e
00000360: 493f a3bc 81a5 933b e7d7 09be 157a c1bd
00000370: 288f 47bd 87dc 0bbd ef35 d63e fe40 3dbf
00000380: 1f62 d73d a118 5bbe b657 34bf d3df dd3d
00000390: 5f46 f73d 68a8 6cbe 3c58 21bd 9ed7 92bd
000003a0: a906 32be dd7c 0a3e 3ca1 a43e baff a03d
000003b0: 3cba 353e 6fda 133e 3ad6 33be 74fb 0e3e
000003c0: 0b33 0ebe c478 58bb 51f1 d43c 1ab0 653c
000003d0: ec74 5f3c 0e45 6bbd 875b c03c 6bdf f0bd
000003e0: f01e adbd ac6d f0bd 7d37 2d3c c81a 8b3d
000003f0: 5cf3 033d 6b35 6bbd ea6a 5ebd 2241 d0bd
-0.35593656 0.5541201 0.24407755 -0.23296236 -0.11443436 0.07408744 0.05751322 0.045414492
-0.16083491 -0.09041608 -0.07703004 0.045934007 0.17492633 -0.12827668 -0.018246377 -0.13047644
-0.0892025 0.22317648 -0.13321711 -0.009077094 0.05751894 -0.027621668 0.015341369 -0.014893254
0.011329045 -0.07128064 0.027708443 -0.09260791 -0.2548348 -0.094616316 0.10403035 0.17003126
0.111237936 0.009152347 -0.06924365 0.143669 -0.06543426 0.02720823 0.037207387 -0.008139715
-0.080108985 0.07228882 -0.19378397 -0.026076166 -0.1908531 -0.03150196 -0.02597778 -0.16828398
-0.0769187 0.136502 -0.09873788 0.09099924 -0.31537917 0.04222698 0.08070609 0.03779465
-0.021850748 0.07114164 -0.11253393 -0.12944226 -0.044026107 0.072672315 -0.006011285 -0.056827664
0.07901701 0.06895521 -0.115088865 -0.017176464 0.09645059 0.13760844 0.08927997 0.022070935
-0.08209288 -0.07952599 -0.020331165 0.014410758 -0.11636966 0.027222363 0.0070014168 -0.022343235
-0.108932815 -0.09833611 0.030202545 0.059049636 -0.18090506 0.010370944 -0.095235094 -0.012577025
-0.057288386 0.21508592 -0.18246186 0.04264347 -0.06853957 0.025681706 0.11337763 -0.010718
-0.03595481 0.066128224 -0.060815807 -0.039386887 0.04749439 0.082404435 -0.027022986 -0.02101524
0.07895099 -0.044476237 -0.023931324 -0.09325069 -0.0048264056 0.106526546 -0.07012054 -0.4159941
0.8352009 0.04020456 -0.3076523 0.21971679 0.19725178 -0.015257651 -0.012060264 0.09308271
0.24345651 -0.017246356 0.10468371 -0.028004773 0.05415133 0.0014110061 -0.23691648 -0.03391452
-0.05191487 0.004726353 0.008353052 -0.013633944 -0.006900846 -0.02335121 0.020658221 -0.014627807
0.04117765 0.0007625053 -0.049620442 0.04340815 0.08600403 0.06468629 0.0515948 -0.14669308
0.037296504 0.0392366 -0.050652392 -0.06695619 -0.013589469 0.05466936 -0.07338466 -0.05185457
0.061073523 0.11039621 -0.03717122 0.12286643 0.036799785 -0.035763912 0.12384902 -0.12031606
-0.00016192847 -0.18040402 -0.047782823 -0.11742945 -0.019674378 -0.07283765 0.19177464 -0.13280919
0.005210292 -0.009436201 0.16401789 -0.026984815 -0.02489064 0.08151191 0.104503654 -0.007773802
0.012953956 0.16435501 0.14480667 0.14901257 -0.013665249 -0.0879681 0.006427403 0.14469032
-0.051478513 0.0817524 0.080914386 0.103711374 -0.037065722 -0.027122729 0.16055235 -0.14894874
-0.055578507 0.1291963 -0.09050107 -0.0063200155 -0.19058874 0.097750016 -0.019170893 0.10174636
0.020144695 0.019828305 0.13219501 -0.051641893 0.027860826 0.013360975 0.00040966723 -0.077675655
-0.08640029 0.074465275 0.1013713 0.07334523 0.22196823 -0.043204498 0.18584217 0.25120878
-0.019927638 0.0045058136 -0.13461266 -0.094471134 -0.04872051 -0.03414586 0.41838023 -0.73927295
0.10516762 -0.21396114 -0.70446336 0.10833707 0.12073969 -0.23111117 -0.039390787 -0.07170032
-0.17385353 0.13524194 0.32154262 0.07861276 0.17746824 0.14438795 -0.1756219 0.13963109
-0.13886659 -0.0033030966 0.025993975 0.014019037 0.013638716 -0.057438903 0.023481144 -0.117613636
-0.084531665 -0.11739668 0.0105723115 0.067922175 0.032214507 -0.05742399 -0.05430118 -0.10168673

fc1.bias f4 [64]
00000000: 4286 d13e 7d1c 1bbe 5f80 81bc 88c2 843e
00000010: 4a90 5cbe 1566 41bd 3d3e 0dbf 8d85 223f
00000020: f451 323e f279 3e3f c4c5 833e e7b6 0c3e
00000030: 73db 62be 30f0 023f 424f 3abe 770f ae3e
00000040: 0280 773f b78b 683f 8f2a 523e 589d 1f3f
00000050: d0de e3bc 5e86 b2bd c9a8 0c3f 29a3 9bbe
00000060: a976 05be 04df da3d 9f29 573e dfc8 94be
00000070: a241 803e 6383 ec3e 5ae1 e53d 2c57 c4be
00000080: 7a7c 9c3e 78d2 483f 6ab2 11ba 5d55 4e3e
00000090: 5dc9 92be 9801 8fbe 96c6 6bbe a372 7b3e
000000a0: f056 2fbe af9c c6be 7d5d 853f 3d00 8e3e
000000b0: 4886 0ebe 68ad 0dbe b5db 09be d389 6dbe
000000c0: f83c 1abf 76c5 b73e f1f2 ed3d b0d4 92be
000000d0: 2972 d13b 0e8e 433c 505b d73e 5e92 9c3e
000000e0: 2096 69be b2a6 6dbe 351a fabe 8ad9 f73e
000000f0: 80d8 693e 1756 933e 8f61 143e f4df 40be
0.40922743 -0.15147586 -0.015808282 0.25929666 -0.21539417 -0.047216494 -0.55173093 0.6348503
0.17414075 0.74404824 0.2573682 0.13741647 -0.22154026 0.5114775 -0.18194297 0.33996174
0.966797 0.9083819 0.20524047 0.6234946 -0.027816206 -0.08717035 0.54945046 -0.3039792
-0.13033547 0.10687068 0.21011971 -0.29059502 0.25050074 0.4619399 0.11224623 -0.38347757
0.30563718 0.7844615 -0.0005557897 0.20149751 -0.28669253 -0.27930903 -0.23024973 0.24555449
-0.17123008 -0.38791415 1.0419155 0.27734557 -0.13918412 -0.1383568 -0.13462718 -0.23197107
-0.6024928 0.35892838 0.11618603 -0.28677893 0.006391783 0.011935724 0.42061853 0.3058042
-0.22811174 -0.2320812 -0.4884812 0.48408157 0.22836494 0.2877662 0.1449034 -0.18835431

fc2.weight f4 [64, 64]
00000000: 34fa 0dbd 6bbd 693f 1e82 323d 0d37 32be
00000010: 1063 2abe e285 1e3f 4bad 6f3f f5af cd3c
00000020: 1f3a c33b 16f9 14be 1c03 bbbe bf86 80be
00000030: b5b5 09bf 5acf 043e 2e83 c33e 3c91 57be
00000040: f557 aebe 435a 9dbf 90e5 67bd 24e6 39bf
00000050: 0f3e 293f 009c ebbe 94a1 03bf 9a2b e63e
00000060: 4392 293f 8bdc 30bf ba0e 17bf 1bf1 3dbd
00000070: 986e 313d b081 39bf ad06 e8be c768 043f
00000080: f431 73be d940 20bd 56ea 553f 4101 75bf
00000090: 76db 693f ee01 a2be 004e e93e 4ecd 82bf
000000a0: 8999 983e 892a 3ebe e9f1 4ebf 03ef 953e
000000b0: 8fee 8e3e bd31 ca3e a7ea 51bf 188f 43bf
000000c0: 931c 143f 2756 52bf d4fd 853e badd 03bf
000000d0: b352 1d3f fbe6 0bbc 4adf 6cbf bafc 1aba
000000e0: dec7 3b3f f11b fb3e caf5 4bbf 992f c33e
000000f0: 98f0 e4bc 118e 72be e528 dcbe 541d 673e
00000100: 94bf dd3e 7aa8 3c3e dcb1 2abe 5997 343f
00000110: 9e2d 26bd 78d9 e73e 3d5c db3e 4677 10bd
00000120: 12b2 8ebc c344 a03e d91e d93e 7c35 ca3e
00000130: dd98 ebbe f30f dd3c 9bb7 8e3e 5018 bc3d
00000140: 448e 823e 2a7d 9dbe 8bee 02be 9601 03be
00000150: 54b6 3fbe 2c06 5ebb 20f5 d93e de78 713e
00000160: 3e68 713d 4b75 38bf 5f90 a4bc 5974 053b
00000170: 8126 383e 32cf 043e 9f49 d9bd 9672 1d3e
00000180: d1ae d4bd 314a f8be a6e1 c9be 32dd be3e
00000190: c1e3 02be 6e7d 16be fc47 9bbd 98b5 423e
000001a0: 504b 653e 2c77 60be bbf6 03be cf42 fb3d
000001b0: 1613 1dbe a22f 813d 5ecc 9cbe eb33 07bf
000001c0: 2657 983b a043 9c3d 17ee 79be 4706 36bd
000001d0: b689 0dbe 2bcc 1dbe ad9c d83e 2d49 9cbd
000001e0: 9c9a ce3e 426f 1bbe 2b3d 043a 1ede c0be
000001f0: 54f1 91bd 10f4 3c3f f34c ad3d 1f6b 14bc
00000200: 7f09 61bf 500e 88bd cc73 763f 537b d8bd
00000210: c319 c5be 2a41 273c ebbe 9d3f 8986 96bf
00000220: 86b6 9b3e bf8c 72be c65c 1bbf ef52 3a3f
00000230: 539c bb3e 09a6 c4bf 817e 4d3f 81d4 f7be
00000240: 4f07 20c0 17a3 51c0 e23b 263e 4ea5 c6bf
00000250: d4aa bd3c 6530 be3e a611 eebe d3bb d23e
00000260: 464a 783e d1f0 b5bd e8d8 07bf 2b36 b9bd
00000270: c8ed fbbd 4b6c 12bf a371 26bf 4b79 393d
00000280: 9d94 a3be 3e63 e2bf 61e4 0cbf d381 0cbe
00000290: 754f 0f3f 6ce2 193f bd7c c83e d3ec 8f3d
000002a0: 3124 553e e70c 4c3c 6acb 1fc0 88b0 3fbf
000002b0: 3f66 91be 6a15 b83e 3716 30be aeb5 1c3e
000002c0: 64c0 ac3e c3b6 f0bd 42bb 1dbe fd85 3f3d
000002d0: 6b6a bcbe 21d0 f93d 4420 40bf 34c8 6b3e
000002e0: 70a7 a53f 5e72 253e 25bd d2bd 3f29 17bf
000002f0: 0ab2 5cbb 99ae 613e 50e9 0dbf 0136 82be
00000300: a6dd fc3e e166 713f 13bf 4fbf c6ff 003f
00000310: 9278 833f dbe5 8a3e d8fd 51bf 1052 8d3f
00000320: ce3c 95bf 844a 5cbe 1e1f 3e3f 9641 a1bf
00000330: 59b3 93bf 2441 853f 5e27 d9bf d2ed b5be
00000340: e6ff a33f 330f 503f 3418 43bf ebb3 923f
00000350: 1499 003f 36f5 90bf df4f 803f 8cd3 003f
00000360: bbdb 443f 08be 15bf 3ca2 a3be c9ab 353f
00000370: 18b4 803f 9837 1abf 227c 113f 6023 3c3f
00000380: d64a 0ebf 41bc 973f 98cd 133f 98c5 36bf
00000390: 4cf8 cf3e 66d6 edbe 2838 14bf 790b 2bbf
000003a0: 83ff a23e 5182 2dbf c3cf 8f3f cd4b 6b3f
000003b0: 7ab0 953f 00b7 88bf d67e 9b3e 9a84 1d3f
000003c0: 65fa 6bbf 5d6e 29bf fc50 0dbf ee30 1a3f
000003d0: 40d5 ec3e 1438 963e 791b 28be c625 55bf
000003e0: 8dd3 06bf 7558 243f dce7 8a3f f9c4 dc3e
000003f0: 7036 ab3d 976e 3f3f 613b 2dbe b766 863f
-0.03466244 0.91304654 0.04358112 -0.17403813 -0.16639352 0.6192304 0.936238 0.025108317
0.0059578563 -0.14548144 -0.3652581 -0.25102803 -0.5379289 0.12969723 0.3818602 -0.21051496
-0.3405148 -1.2293171 -0.056615412 -0.7261679 0.6611032 -0.46017456 -0.51418424 0.4495514
0.662388 -0.6908652 -0.59006846 -0.046372514 0.04331836 -0.7246351 -0.45317593 0.5172238
-0.23749524 -0.039124344 0.83560693 -0.9570504 0.91350496 -0.31642097 0.45567322 -1.0218904
0.29804638 -0.18570913 -0.80837876 0.29283914 0.2791638 0.39491072 -0.81998676 -0.7639022
0.578561 -0.8216271 0.26170218 -0.515102 0.61454314 -0.008538957 -0.9252821 -0.0005912293
0.7335185 0.49044755 -0.7967192 0.38122252 -0.027946755 -0.23687007 -0.4299995 0.22569782
0.43310225 0.18423644 -0.1666941 0.7054344 -0.040570848 0.45283103 0.4284381 -0.035269998
-0.017418895 0.3130246 0.42406347 0.3949393 -0.46015063 0.026985144 0.27874455 0.09184325
0.25499165 -0.30759555 -0.1278631 -0.12793574 -0.18721896 -0.003387819 0.42569828 0.23581263
0.058937304 -0.72053975 -0.020088373 0.0020363538 0.17983438 0.12969664 -0.10609745 0.15375742
-0.10384906 -0.48494104 -0.3942997 0.37278134 -0.12782194 -0.14696285 -0.07582089 0.19014585
0.2239201 -0.2192046 -0.12887089 0.12268602 -0.15339312 0.06307913 -0.3062467 -0.52813596
0.004649061 0.07630086 -0.2440723 -0.04443958 -0.13822064 -0.15409915 0.42307034 -0.07631145
0.40352333 -0.1517916 0.0005044515 -0.37669462 -0.07126108 0.7380991 0.084619425 -0.009058743
-0.87905115 -0.06643355 0.9627044 -0.10570397 -0.38496217 0.010208407 1.2323889 -1.1759807
0.30412692 -0.23686503 -0.60688436 0.72782797 0.36642703 -1.536317 0.80271155 -0.48404315
-2.500446 -3.2755792 0.16233781 -1.5519197 0.023152746 0.37146297 -0.4649784 0.41158924
0.24247083 -0.08883823 -0.5306535 -0.09043535 -0.123012125 -0.5719649 -0.65017146 0.04528169
-0.3194932 -1.7686536 -0.5503598 -0.13721399 0.55980617 0.6011112 0.39157668 0.070275925
0.20814587 0.012454248 -2.4967904 -0.7487874 -0.2839832 0.35953838 -0.17195974 0.1530368
0.33740532 -0.11753609 -0.15403464 0.04675864 -0.3679994 0.121979006 -0.75049233 0.2302559
1.2941723 0.16156909 -0.10289983 -0.5904731 -0.0033675455 0.2203926 -0.5543413 -0.25431827
0.49387854 0.94297606 -0.8115093 0.5039028 1.027117 0.2712849 -0.8202796 1.1040668
-1.1659181 -0.215128 0.7426623 -1.259814 -1.1539108 1.0410504 -1.6965139 -0.35533005
1.2812469 0.8127319 -0.76208806 1.1461157 0.5023358 -1.1324832 1.0024375 0.50322795
0.7689778 -0.5849309 -0.31959713 0.7096525 1.005496 -0.6024108 0.56830037 0.7349148
-0.5558294 1.1854326 0.57735586 -0.71395254 0.40619123 -0.46452636 -0.5789819 -0.6681438
0.31835565 -0.6777697 1.1235279 0.9191254 1.1694481 -1.0680847 0.30370206 0.6153046
-0.92178947 -0.66184026 -0.552017 0.6023091 0.46256447 0.2933966 -0.1641673 -0.8326076
-0.5266655 0.64197475 1.0852008 0.43119028 0.083599925 0.7477812 -0.16917183 1.0500096

fc2.bias f4 [64]
00000000: eea6 5bbf ab7f 1e3e 0d56 75bf 4cf4 04be
00000010: 9f9e 6ebe 7a00 3b3f b447 db3f 74dc 493e
00000020: ce45 9dbe 1d01 a2bc b1a4 f8bf 3546 eabf
00000030: 3e08 84be 21b1 77be ed11 e73f 0f0d 31be
00000040: 63e2 acbe aa64 c83f 09b0 af3e c7df af3f
00000050: bffd e1be 15ee 01bf 0f59 84bf 4ec5 04bf
00000060: aa1c 163f b185 80bf 6465 cb3c 06fc 42bf
00000070: 5d25 1e3e 8dbc 16be f173 23bf a27a 19bd
00000080: ad6c f93e eaec 8abe fec0 b33e bc81 c9bd
00000090: 746c 31bd 5f3a eb3d 2d3a 6ebf 095d 83bd
000000a0: 4615 01c0 c31f 1dbd ec58 333f db2d 833d
000000b0: 7e5e c9bd c370 9bbf e777 efbe 704c 4e3d
000000c0: 0fce 723f 615e bc3e 3bc4 6f3f 86ef 3f3f
000000d0: a5b5 813f 118f 82bd 7f40 653d dcc1 573f
000000e0: b428 e83d 7a57 b33c d7c4 c43f 7a28 fd3f
000000f0: b647 81be 7c23 fdbe cc38 5cbb 718f c9bf
-0.8580159 0.15478389 -0.9583443 -0.12983817 -0.23302697 0.730476 1.7131257 0.19713002
-0.3071732 -0.019775921 -1.942526 -1.8302675 -0.25787538 -0.24188663 1.8052346 -0.17290138
-0.3376647 1.565572 0.34313992 1.3740166 -0.44138905 -0.5075391 -1.0339679 -0.51863563
0.5863749 -1.0040799 0.02482862 -0.7616581 0.1544394 -0.14720364 -0.6384879 -0.037470467
0.48715726 -0.27133876 0.3510818 -0.09839198 -0.04331632 0.11485743 -0.9305752 -0.064142294
-2.0169234 -0.03836037 0.7005756 0.064052306 -0.09832476 -1.2143787 -0.46771166 0.050365865
0.9484567 0.36790755 0.936588 0.7497486 1.0133559 -0.06374944 0.05596971 0.8428018
0.113358885 0.021892298 1.5372571 1.9777977 -0.25250024 -0.49441135 -0.003360319 -1.57469

value.weight f4 [1, 64]
00000000: df6d ecc0 bab6 eec0 4860 ddc0 50a8 e340
00000010: 9a7f e540 4635 e4c0 ec95 ec40 b731 d440
00000020: a7c3 dcc0 2f75 d8c0 c4dd eec0 809d f8c0
00000030: e20f e540 337e e940 07ba dd40 a5c4 e940
00000040: 3488 d9c0 cad5 f040 7edd e4c0 c865 e040
00000050: e102 e540 24c2 e240 7f08 e4c0 4c8c e040
00000060: 6214 dfc0 7872 e0c0 d2dd e340 3ee7 d3c0
00000070: 7ce9 e8c0 581a e1c0 ee95 e240 ff0d e740
00000080: e542 e4c0 d8e2 d940 9b00 e340 2c40 e8c0
00000090: 2fbe f2c0 ebeb d840 70b3 f6c0 0ca6 e7c0
000000a0: 8978 f4c0 31b1 dac0 8bfa f040 11cc e640
000000b0: bee5 e540 5ab9 f3c0 d16f e440 35a9 e340
000000c0: 9228 d640 b6c5 e6c0 874a ef40 43e8 d340
000000d0: 5e69 d940 0d4a ddc0 97e3 e4c0 03e3 df40
000000e0: 3726 e640 71a9 e540 834f e240 a391 f640
000000f0: d1b3 ddc0 7d2f cd40 8baa e4c0 12f9 ecc0
-7.388412 -7.4598055 -6.918003 7.114296 7.1718264 -7.131503 7.393301 6.6310687
-6.8988833 -6.7643046 -7.464571 -7.769226 7.158189 7.296655 6.9289584 7.3052545
-6.7978764 7.5260973 -7.1520376 7.0124245 7.1566014 7.086199 -7.126037 7.017126
-6.971238 -7.013973 7.1208277 -6.621978 -7.2785015 -7.034466 7.080802 7.2204585
-7.133166 6.808941 7.093824 -7.2578335 -7.585716 6.7787986 -7.709404 -7.2390194
-7.639714 -6.83413 7.530584 7.2124104 7.1842947 -7.616376 7.1386495 7.114405
6.6924524 -7.2116346 7.4778476 6.6221023 6.794112 -6.9152894 -7.152782 6.9964614
7.192165 7.176934 7.072206 7.705278 -6.9282002 6.412047 -7.145818 -7.405404

exp_avg f4 [1, 8]
00000000: a612 72bb 00b9 6dbb c0ff 6f3a 63e2 99bb
00000010: 6326 3eba 7bd9 91bb 6ff4 09bb adbf 37bb
-0.0036937385 -0.0036273599 0.0009155236 -0.004696177 -0.0007253645 -0.0044509745 -0.0021050235 -0.0028037832

exp_avg_sq f4 [1, 8]
00000000: 1830 e138 a9e3 de38 3f39 e238 52a9 cf38
00000010: ea6a b838 9b2a 1439 f3d2 ea38 d1f7 d838
0.00010737794 0.0001062819 0.00010787183 9.9020675e-05 8.793718e-05 0.00014130252 0.00011197282 0.00010345842

exp_avg f4 [64, 111]
00000000: f1a7 0e39 fa60 7d39 db0f 213a 33b0 4439
00000010: 9229 be38 388e b7b9 e0fd cd39 f83b 1e3a
00000020: 2b01 1f37 a998 e538 5219 a6b8 5067 423a
00000030: 21d6 07ba 0a8e ea39 569a d43a 1494 c1ba
00000040: ecf7 00ba 4561 d339 d471 9d3a f451 9cba
00000050: 775b 81ba 9af8 9ebb c913 803a 413d 75bb
00000060: 9cc4 21bb 45c8 873b 62dd 2cbb 0000 0000
00000070: 0000 0000 0000 0000 0000 0000 0000 0000
00000080: 0000 0000 0000 0000 0000 0000 0000 0000
00000090: 0000 0000 0000 0000 0000 0000 0000 0000
000000a0: 0000 0000 0000 0000 0000 0000 0000 0000
000000b0: 0000 0000 0000 0000 0000 0000 0000 0000
000000c0: 0000 0000 0000 0000 0000 0000 0000 0000
000000d0: 0000 0000 0000 0000 0000 0000 0000 0000
000000e0: 0000 0000 0000 0000 0000 0000 0000 0000
000000f0: 0000 0000 0000 0000 0000 0000 0000 0000
00000100: 0000 0000 0000 0000 0000 0000 0000 0000
00000110: 0000 0000 0000 0000 0000 0000 0000 0000
00000120: 0000 0000 0000 0000 0000 0000 0000 0000
00000130: 0000 0000 0000 0000 0000 0000 0000 0000
00000140: 0000 0000 0000 0000 0000 0000 0000 0000
00000150: 0000 0000 0000 0000 0000 0000 0000 0000
00000160: 0000 0000 0000 0000 0000 0000 0000 0000
00000170: 0000 0000 0000 0000 0000 0000 0000 0000
00000180: 0000 0000 0000 0000 0000 0000 0000 0000
00000190: 0000 0000 0000 0000 0000 0000 0000 0000
000001a0: 0000 0000 0000 0000 0000 0000 0000 0000
000001b0: 0000 0000 0000 0000 0000 0000 9764 d4b9
000001c0: 48ac 8db9 5f5b 8ab9 c069 2639 0efa a9b9
000001d0: 377d b0ba ac20 8939 fa88 62ba dfee b638
000001e0: a655 10ba d24b d538 8b8e 883a cb4b 92b9
000001f0: fa34 8fb8 4199 4b3a 16f6 1aba 6e44 d8ba
00000200: ccec 25bb 19b5 14bb 783c 25ba 78dc 473b
00000210: 3a64 a534 4a62 8839 7b68 043b ecba 483a
00000220: 556d 1838 c05a 1f3b 0000 0000 0000 0000
00000230: 0000 0000 0000 0000 0000 0000 0000 0000
00000240: 0000 0000 0000 0000 0000 0000 0000 0000
00000250: 0000 0000 0000 0000 0000 0000 0000 0000
00000260: 0000 0000 0000 0000 0000 0000 0000 0000
00000270: 0000 0000 0000 0000 0000 0000 0000 0000
00000280: 0000 0000 0000 0000 0000 0000 0000 0000
00000290: 0000 0000 0000 0000 0000 0000 0000 0000
000002a0: 0000 0000 0000 0000 0000 0000 0000 0000
000002b0: 0000 0000 0000 0000 0000 0000 0000 0000
000002c0: 0000 0000 0000 0000 0000 0000 0000 0000
000002d0: 0000 0000 0000 0000 0000 0000 0000 0000
000002e0: 0000 0000 0000 0000 0000 0000 0000 0000
000002f0: 0000 0000 0000 0000 0000 0000 0000 0000
00000300: 0000 0000 0000 0000 0000 0000 0000 0000
00000310: 0000 0000 0000 0000 0000 0000 0000 0000
00000320: 0000 0000 0000 0000 0000 0000 0000 0000
00000330: 0000 0000 0000 0000 0000 0000 0000 0000
00000340: 0000 0000 0000 0000 0000 0000 0000 0000
00000350: 0000 0000 0000 0000 0000 0000 0000 0000
00000360: 0000 0000 0000 0000 0000 0000 0000 0000
00000370: 0000 0000 0000 0000 8aed 393a f2cd c83a
00000380: 52d9 61b6 65e2 19b9 8eba 98ba 036c 8eba
00000390: fab1 833a 4ced d6b8 68d1 4eba 3da6 cd3a
000003a0: d87d 76ba d086 85b9 fffb de3a f3bd 9b3b
000003b0: abae 1fbb 68ea c639 593b 07bb cf24 ea3a
000003c0: ec58 413b af1e a23b 0164 dbba c7b7 313a
000003d0: 1175 c934 413a 29bb 6585 28ba b059 30bb
000003e0: be86 6dba 0000 0000 0000 0000 0000 0000
000003f0: 0000 0000 0000 0000 0000 0000 0000 0000
0.00013604738 0.00024164087 0.0006144025 0.00018757656 9.067649e-05 -0.0003501044 0.000392898 0.0006036158
9.4774105e-06 0.00010948006 -7.920213e-05 0.00074159075 -0.0005181749 0.00044737785 0.0016220312 -0.0014768862
-0.0004919756 0.00040317528 0.0012012073 -0.0011926279 -0.0009869178 -0.004851413 0.0009771521 -0.0037420543
-0.0024683839 0.004143747 -0.0026377072 0.0 0.0 0.0 0.0 0.0
0.0 0.0 0.0 0.0 0.0 0.0 0.0 0.0
0.0 0.0 0.0 0.0 0.0 0.0 0.0 0.0
0.0 0.0 0.0 0.0 0.0 0.0 0.0 0.0
0.0 0.0 0.0 0.0 0.0 0.0 0.0 0.0
0.0 0.0 0.0 0.0 0.0 0.0 0.0 0.0
0.0 0.0 0.0 0.0 0.0 0.0 0.0 0.0
0.0 0.0 0.0 0.0 0.0 0.0 0.0 0.0
0.0 0.0 0.0 0.0 0.0 0.0 0.0 0.0
0.0 0.0 0.0 0.0 0.0 0.0 0.0 0.0
0.0 0.0 0.0 0.0 0.0 0.0 0.0 -0.00040510736
-0.00027021975 -0.00026389488 0.00015870389 -0.00032420497 -0.0013465051 0.0002615502 -0.0008641627 8.7229295e-05
-0.00055059267 0.00010170754 0.0010418458 -0.0002790376 -6.828639e-05 0.0007766672 -0.00059113035 -0.0016499886
-0.0025318144 -0.002269095 -0.0006303261 0.00304964 3.080657e-07 0.00026013172 0.0020203877 0.0007657248
3.6341447e-05 0.0024315566 0.0 0.0 0.0 0.0 0.0 0.0
0.0 0.0 0.0 0.0 0.0 0.0 0.0 0.0
0.0 0.0 0.0 0.0 0.0 0.0 0.0 0.0
0.0 0.0 0.0 0.0 0.0 0.0 0.0 0.0
0.0 0.0 0.0 0.0 0.0 0.0 0.0 0.0
0.0 0.0 0.0 0.0 0.0 0.0 0.0 0.0
0.0 0.0 0.0 0.0 0.0 0.0 0.0 0.0
0.0 0.0 0.0 0.0 0.0 0.0 0.0 0.0
0.0 0.0 0.0 0.0 0.0 0.0 0.0 0.0
0.0 0.0 0.0 0.0 0.0 0.0 0.0 0.0
0.0 0.0 0.0 0.0 0.0 0.0 0.0007092586 0.0015320166
-3.365411e-06 -0.00014675556 -0.0011652277 -0.001086593 0.0010047548 -0.00010248515 -0.00078894803 0.0015689802
-0.00094029075 -0.0002546818 0.0017012357 0.0047528683 -0.0024365585 0.0003794015 -0.002063474 0.0017863753
0.0029502464 0.0049475054 -0.0016738178 0.0006779399 3.7524345e-07 -0.0025822076 -0.0006428569 -0.0026908927
-0.00090609107 0.0 0.0 0.0 0.0 0.0 0.0 0.0

exp_avg_sq f4 [64, 111]
00000000: 3f7c 9a37 03de ff37 2bdc d235 31c2 1e36
00000010: 698a 6037 1320 bd37 95e9 7337 45cd cf37
00000020: c173 0c37 d085 8437 3cef 1b37 3ea6 cc37
00000030: 60eb d237 7d01 cc39 fee6 6e38 1cd2 9738
00000040: ed52 bb38 d0e3 ad38 0833 9338 41b8 3f39
00000050: 1af3 9638 4c02 dc39 1b79 8137 d4ee 0639
00000060: 32a1 2f38 9d40 d739 f625 2f39 0000 0000
00000070: 0000 0000 0000 0000 0000 0000 0000 0000
00000080: 0000 0000 0000 0000 0000 0000 0000 0000
00000090: 0000 0000 0000 0000 0000 0000 0000 0000
000000a0: 0000 0000 0000 0000 0000 0000 0000 0000
000000b0: 0000 0000 0000 0000 0000 0000 0000 0000
000000c0: 0000 0000 0000 0000 0000 0000 0000 0000
000000d0: 0000 0000 0000 0000 0000 0000 0000 0000
000000e0: 0000 0000 0000 0000 0000 0000 0000 0000
000000f0: 0000 0000 0000 0000 0000 0000 0000 0000
00000100: 0000 0000 0000 0000 0000 0000 0000 0000
00000110: 0000 0000 0000 0000 0000 0000 0000 0000
00000120: 0000 0000 0000 0000 0000 0000 0000 0000
00000130: 0000 0000 0000 0000 0000 0000 0000 0000
00000140: 0000 0000 0000 0000 0000 0000 0000 0000
00000150: 0000 0000 0000 0000 0000 0000 0000 0000
00000160: 0000 0000 0000 0000 0000 0000 0000 0000
00000170: 0000 0000 0000 0000 0000 0000 0000 0000
00000180: 0000 0000 0000 0000 0000 0000 0000 0000
00000190: 0000 0000 0000 0000 0000 0000 0000 0000
000001a0: 0000 0000 0000 0000 0000 0000 0000 0000
000001b0: 0000 0000 0000 0000 0000 0000 beca 9037
000001c0: aa15 dc37 00a5 e335 f35d 0436 9df9 4b37
000001d0: 983a ab37 f389 3837 29e3 d037 df78 0137
000001e0: f796 5837 01fb 0a37 1222 c837 8871 c437
000001f0: 731e b839 6dc1 3b38 6654 9938 91a7 7938
00000200: 558a 8338 7b5d 6238 27b1 2039 8580 a038
00000210: f9e9 9839 9433 8e37 391b 0539 14ed 1438
00000220: 5c50 9539 e2f3 3639 0000 0000 0000 0000
00000230: 0000 0000 0000 0000 0000 0000 0000 0000
00000240: 0000 0000 0000 0000 0000 0000 0000 0000
00000250: 0000 0000 0000 0000 0000 0000 0000 0000
00000260: 0000 0000 0000 0000 0000 0000 0000 0000
00000270: 0000 0000 0000 0000 0000 0000 0000 0000
00000280: 0000 0000 0000 0000 0000 0000 0000 0000
00000290: 0000 0000 0000 0000 0000 0000 0000 0000
000002a0: 0000 0000 0000 0000 0000 0000 0000 0000
000002b0: 0000 0000 0000 0000 0000 0000 0000 0000
000002c0: 0000 0000 0000 0000 0000 0000 0000 0000
000002d0: 0000 0000 0000 0000 0000 0000 0000 0000
000002e0: 0000 0000 0000 0000 0000 0000 0000 0000
000002f0: 0000 0000 0000 0000 0000 0000 0000 0000
00000300: 0000 0000 0000 0000 0000 0000 0000 0000
00000310: 0000 0000 0000 0000 0000 0000 0000 0000
00000320: 0000 0000 0000 0000 0000 0000 0000 0000
00000330: 0000 0000 0000 0000 0000 0000 0000 0000
00000340: 0000 0000 0000 0000 0000 0000 0000 0000
00000350: 0000 0000 0000 0000 0000 0000 0000 0000
00000360: 0000 0000 0000 0000 0000 0000 0000 0000
00000370: 0000 0000 0000 0000 fd77 4937 244f 4b38
00000380: ccb2 8c35 22ce da35 d41d 8b37 b643 1738
00000390: b20c 3737 b58b 0538 b6a9 4e37 25b9 c737
000003a0: 4390 6a37 0396 0438 1b03 8238 cf59 3e3a
000003b0: 7541 b238 2119 1139 2e2d 1239 aaca 2839
000003c0: bf2b f438 986d 9b39 01ef 8c38 5d63 813a
000003d0: 3757 b937 ec44 6839 34cf 8038 4c53 7c3a
000003e0: 3d27 ca39 0000 0000 0000 0000 0000 0000
000003f0: 0000 0000 0000 0000 0000 0000 0000 0000
1.8416087e-05 3.0501751e-05 1.5710297e-06 2.365687e-06 1.3383667e-05 2.2545491e-05 1.4538314e-05 2.4771909e-05
8.371601e-06 1.5797938e-05 9.294421e-06 2.4396108e-05 2.5143556e-05 0.0003891102 5.695875e-05 7.239377e-05
8.932301e-05 8.291716e-05 7.0190115e-05 0.0001828382 7.1978386e-05 0.0004196338 1.5434392e-05 0.00012868206
4.1873376e-05 0.00041056136 0.00016703442 0.0 0.0 0.0 0.0 0.0
0.0 0.0 0.0 0.0 0.0 0.0 0.0 0.0
0.0 0.0 0.0 0.0 0.0 0.0 0.0 0.0
0.0 0.0 0.0 0.0 0.0 0.0 0.0 0.0
0.0 0.0 0.0 0.0 0.0 0.0 0.0 0.0
0.0 0.0 0.0 0.0 0.0 0.0 0.0 0.0
0.0 0.0 0.0 0.0 0.0 0.0 0.0 0.0
0.0 0.0 0.0 0.0 0.0 0.0 0.0 0.0
0.0 0.0 0.0 0.0 0.0 0.0 0.0 0.0
0.0 0.0 0.0 0.0 0.0 0.0 0.0 0.0
0.0 0.0 0.0 0.0 0.0 0.0 0.0 1.7260547e-05
2.6236132e-05 1.6960839e-06 1.9724218e-06 1.21578605e-05 2.0412073e-05 1.0999373e-05 2.4901312e-05 7.717142e-06
1.29097525e-05 8.283882e-06 2.3857723e-05 2.3417888e-05 0.000351179 4.4764416e-05 7.311329e-05 5.9522285e-05
6.272333e-05 5.396966e-05 0.00015324783 7.653333e-05 0.00029166022 1.6951737e-05 0.0001269401 3.5506746e-05
0.00028479367 0.00017447726 0.0 0.0 0.0 0.0 0.0 0.0
0.0 0.0 0.0 0.0 0.0 0.0 0.0 0.0
0.0 0.0 0.0 0.0 0.0 0.0 0.0 0.0
0.0 0.0 0.0 0.0 0.0 0.0 0.0 0.0
0.0 0.0 0.0 0.0 0.0 0.0 0.0 0.0
0.0 0.0 0.0 0.0 0.0 0.0 0.0 0.0
0.0 0.0 0.0 0.0 0.0 0.0 0.0 0.0
0.0 0.0 0.0 0.0 0.0 0.0 0.0 0.0
0.0 0.0 0.0 0.0 0.0 0.0 0.0 0.0
0.0 0.0 0.0 0.0 0.0 0.0 0.0 0.0
0.0 0.0 0.0 0.0 0.0 0.0 1.2008471e-05 4.8472677e-05
1.048285e-06 1.6302258e-06 1.6583981e-05 3.6064266e-05 1.0910606e-05 3.1839783e-05 1.2318071e-05 2.3808863e-05
1.3981075e-05 3.161096e-05 6.1994615e-05 0.00072613073 8.499894e-05 0.00013837639 0.00013940476 0.00016097227
0.00011642975 0.00029645558 6.720238e-05 0.0009871532 2.2094331e-05 0.0002215092 6.14211e-05 0.00096254493
0.00038557677 0.0 0.0 0.0 0.0 0.0 0.0 0.0
