drl/ran2/Ant40000_ran2_weights.pth (torch, 292720 bytes, 36 tensors)

log_std f4 [1, 8]
-1.3567328 -1.8680092 -1.1185744 -1.3210245 -1.3368791 -1.4356923 -1.2795775 -1.4442042
00000000: 6ca9 adbf ed1a efbf 722d 8fbf 5517 a9bf
00000010: db1e abbf c4c4 b7bf 32c9 a3bf afdb b8bf

fc1.weight f4 [64, 111]
-0.31961685 -0.015617408 0.1283771 -0.034269292 0.09894932 -0.13829786 -0.020737626 0.07204257
0.06690079 0.014674961 -0.23408958 -0.19599256 0.10977751 -0.10450128 0.0030110257 0.045178115
0.041939605 0.03517678 -0.103343025 -0.025205974 -0.10672145 0.00912243 -0.1685205 -0.033715427
0.0340448 -0.020582018 0.11798304 -0.007791511 -0.034695953 0.056769438 -0.06900812 -0.024754101
0.06750601 0.094654165 0.116563104 -0.17333615 -0.116805494 0.009880112 0.08167458 -0.0754959
-0.14210315 0.09653318 -0.012955543 -0.14053504 0.039643902 0.017880451 0.09907145 -0.0030286445
-0.031915832 -0.13422713 -0.0986604 0.028764538 -0.095582075 -0.05567561 0.06744774 0.01865231
-0.054841746 0.017509993 -0.20823483 -0.038617138 0.08164473 -0.0072367457 0.114925005 -0.11166557
0.015404698 0.17266017 -0.27381602 -0.018573742 0.08292072 0.045017265 0.056179937 -0.10840436
0.0485582 -0.0944305 -0.033283427 0.06672744 0.03566428 0.0253633 -0.08033475 0.06265204
0.033814237 -0.0062516457 0.015303888 0.03234271 0.2078293 -0.12379017 -0.012662644 0.12517343
-0.06809961 -0.06350179 0.06374925 0.05202433 -0.022890676 0.13769273 -0.16256693 0.13295528
-0.00035645542 0.0860497 -0.005974742 -0.1401145 -0.10596994 -0.03743048 0.099702515 0.15004446
-0.026453504 -0.16842665 -0.04930465 0.013555835 0.11235863 -0.016593821 0.053479962 -0.036811598
-0.030447064 -0.61381644 0.22500145 -0.28722668 -0.015334501 -0.17787397 0.22988896 0.07053685
-0.12409189 -0.00032433966 -0.14551193 -0.040784232 -0.05442655 -0.07884947 -0.11701005 -0.02182652
-0.0070875203 -0.033822387 -0.06498242 -0.07401286 0.11818193 0.020903321 -0.12298353 0.08506872
-0.05545654 -0.07915757 -0.11657074 -0.00066049065 -0.06652913 -0.057159927 0.025817506 0.051236734
-0.13591032 -0.057719786 0.0975515 -0.10133125 -0.038597915 0.1680809 -0.059719175 -0.039446983
-0.08748309 -0.04450521 0.22466932 0.17317238 0.03858966 -0.09562479 -0.106398255 -0.16580851
0.063220404 -0.062119074 0.031688605 -0.020121159 0.110400334 -0.05961324 -0.02372453 0.19603951
0.24343407 0.057757493 -0.0587891 0.07133382 -0.061221518 0.0474649 0.17703475 -0.037319347
-0.030486545 -0.16142456 -0.005817401 0.022061879 0.05821295 0.02391662 0.2657637 0.10560833
0.012400558 0.017755393 -0.006800742 -0.06435123 -0.053520713 -0.006323616 0.17159422 0.004974091
0.059477307 0.03846698 -0.11464971 -0.13777499 -0.08426107 0.07474795 -0.011021227 0.09219387
0.06261686 -0.038727954 -0.038466405 0.021556528 0.083806306 0.028953047 0.15719381 0.028292691
0.15193848 0.04856585 -0.045423027 0.16819157 -0.00035607637 -0.025414364 0.053540044 0.004392755
-0.076920815 0.038756616 0.020872656 -0.00936038 0.05181312 -0.058585856 -0.07130983 -0.15167882
0.010594455 0.0054515875 0.5222106 0.0685191 -0.28740358 0.22335339 0.17491628 0.1514779
0.2887837 -0.30225804 -0.012685922 -0.07305243 -0.04264247 -0.028047146 -0.035926104 0.027767312
0.055313412 0.08283256 0.046751063 0.0073840297 0.026290713 0.071867 0.028386299 -0.17056921
0.083396494 0.03615233 0.054284118 -0.005929872 0.024806075 -0.1222957 -0.023982398 0.035926133
00000000: d2a4 a3be 28e0 7fbc 4975 033e f55d 0cbd
00000010: f1a5 ca3d f49d 0dbe f4e1 a9bc 0e8b 933d
00000020: 4803 893d 3f6f 703c 2eb5 6fbe 46b2 48be
00000030: 08d3 e03d c404 d6bd a154 453b b00c 393d
00000040: ddc8 2b3d 8715 103d 82a5 d3bd c27c cebc
00000050: c790 dabd 3f76 153c a390 2cbe 3019 0abd
00000060: 8f72 0b3d 9f9b a8bc 18a1 f13d ee4f ffbb
00000070: 581d 0ebd 1287 683d 2154 8dbd 1dc9 cabc
00000080: 9740 8a3d 0bda c13d a3b8 ee3d 087f 31be
00000090: b837 efbd 31e0 213c 0145 a73d 989d 9abd
000000a0: 7d83 11be 30b3 c53d 7c43 54bc 6be8 0fbe
000000b0: a561 223d 067a 923c f9e5 ca3d 397c 46bb
000000c0: 2dba 02bd d672 09be 770e cabd 9ca3 eb3c
000000d0: 89c0 c3bd 1c0c 64bd 0a22 8a3d bbcc 983c
000000e0: bda1 60bd 1e71 8f3c 833b 55be 012d 1ebd
000000f0: 5a35 a73d 3922 edbb cd5d eb3d ebb0 e4bd
00000100: fd63 7c3c d4cd 303e 9d31 8cbe f627 98bc
00000110: 57d2 a93d 0664 383d ef1c 663d 1b03 debd
00000120: f7e4 463d c764 c1bd 3454 08bd 65a8 883d
00000130: b514 123d b2c6 cf3c 8c86 a4bd b64f 803d
00000140: cc80 0a3d 9bda ccbb 29bd 7a3c ca79 043d
00000150: 34d1 543e b385 fdbd fa76 4fbc 772d 003e
00000160: cf77 8bbd 3a0d 82bd f78e 823d 7717 553d
00000170: 3a85 bbbc 53ff 0c3e f277 26be 6e25 083e
00000180: a3e2 bab9 d33a b03d c5c7 c3bb 2d7a 0fbe
00000190: c506 d9bd b450 19bd d530 cc3d 41a5 193e
000001a0: 05b5 d8bc 0978 2cbe acf3 49bd 4b19 5e3c
000001b0: 481c e63d c4ef 87bc ce0d 5b3d c2c7 16bd
000001c0: 1f6c f9bc 1323 1dbf c866 663e 600f 93be
000001d0: 8f3d 7bbc 9824 36be 0368 6b3e a075 903d
000001e0: e423 febd 220c aab9 1401 15be 5e0d 27bd
000001f0: 60ee 5ebd d57b a1bd f7a2 efbd 88cd b2bc
00000200: 6e3e e8bb 5889 0abd 8115 85bd 0e94 97bd
00000210: 5e09 f23d 713d ab3c cade fbbd 8238 ae3d
00000220: 6626 63bd 5d1d a2bd a4bc eebd c724 2dba
00000230: 6d40 88bd 8720 6abd 3c7f d33c 9cdd 513d
00000240: 132c 0bbe 956b 6cbd 15c9 c73d c286 cfbd
00000250: d918 1ebd 661d 2c3e 189c 74bd 2993 21bd
00000260: 562a b3bd 184b 36bd b70f 663e 1a54 313e
00000270: 3110 1e3d eed6 c3bd 54e7 d9bd b5c9 29be
00000280: b379 813d 9270 7ebd e9cb 013d 21d5 a4bc
00000290: 9219 e23d 032d 74bd f259 c2bc 95be 483e
000002a0: c846 793e 1f93 6c3d d7cc 70bd 7717 923d
000002b0: 6ac3 7abd 8e6a 423d 9948 353e 2cdc 18bd
000002c0: ebbe f9bc 7b4c 25be e69f bebb 1dbb b43c
000002d0: b470 6e3d caec c33c 2e12 883e 2e49 d83d
000002e0: b62b 4b3c c273 913c c2d8 debb 94ca 83bd
000002f0: 8938 5bbd 5636 cfbb 65b6 2f3e b3fd a23b
00000300: 7a9e 733d 8d8f 1d3d 78cd eabd e314 0dbe
00000310: 1191 acbd 7415 993d 6092 34bc 24d0 bc3d
00000320: 453d 803d 34a1 1ebd f38e 1dbd 5197 b03c
00000330: a4a2 ab3d f12e ed3c 6af7 203e 13c6 e73c
00000340: c395 1b3e fcec 463d 7f0d 3abd 693a 2c3e
00000350: c3af bab9 c931 d0bc ce4c 5b3d 1af1 8f3b
00000360: a988 9dbd 42bf 1e3d 22fd aa3c 475c 19bc
00000370: fe39 543d b9f7 6fbd e30a 92bd b151 1bbe
00000380: 5d94 2d3c 3ba3 b23b 98af 053f be53 8c3d
00000390: 9026 93be c0b6 643e 411d 333e 061d 1b3e
000003a0: 75db 933e 91c1 9abe 9dd8 4fbc 839c 95bd
000003b0: dfa9 2ebd 21c3 e5bc 4027 13bd 4678 e33c
000003c0: 5190 623d 1ea4 a93d 0b7e 3f3d bbf5 f13b
000003d0: 9f5f d73c 012f 933d 628a e83c b2a9 2ebe
000003e0: c8cb aa3d 7714 143d 0659 5e3d 5f4f c2bb
000003f0: 1c36 cb3c 2b76 fabd bc76 c4bc 4827 133d

fc1.bias f4 [64]
0.014298069 -0.014922785 -0.13308553 -0.09364867 -0.13380386 0.004081743 -0.00041216292 0.03603418
-0.09163112 -0.06478995 0.009931095 -0.075715154 -0.050166663 0.03905792 0.00368258 0.055765964
-0.03848999 -0.053163677 0.06100774 0.08792985 0.14935468 -0.008527525 -0.09057466 0.07023791
0.07077977 0.12701654 0.02191043 -0.042810753 -0.013142878 -0.024638029 -0.008250268 -0.049605098
-0.039545108 0.03859253 0.041216664 -0.0007725458 0.06335098 0.007434953 -0.015962541 0.054178037
-0.023364484 0.063755505 0.008730698 -0.015027344 -0.016425965 0.13029113 -0.09657718 0.030302767
-0.022403289 0.117929064 -0.19807406 0.12503561 -0.13461113 0.008847302 0.014503508 0.12298441
0.0036674512 0.043418393 0.027192995 -0.00011462627 0.007888379 0.018566545 0.041029103 -0.19822516
00000000: 7342 6a3c b27e 74bc 9347 08be e0ca bfbd
00000010: e103 09be 24c0 853b 9217 d8b9 9498 133d
00000020: 19a9 bbbd 98b0 84bd 08b6 223c 8c10 9bbd
00000030: 8f7b 4dbd 33fb 1f3d 7157 713b da6a 643d
00000040: aea7 1dbd 28c2 59bd 41e3 793d 9114 b43d
00000050: 6ff0 183e 08b7 0bbc 357f b9bd e5d8 8f3d
00000060: fcf4 903d a010 023e 817d b33c 545a 2fbd
00000070: 3a55 57bc b1d5 c9bc 222c 07bc b72e 4bbd
00000080: 0dfa 21bd 3313 1e3d ced2 283d ac84 4aba
00000090: 29be 813d e8a0 f33b e0c3 82bc cae9 5d3d
000000a0: e066 bfbc 3f92 823d 340b 0f3c 4035 76bc
000000b0: bf8f 86bc 0a6b 053e 42ca c5bd 823d f83c
000000c0: 1a87 b7bc cb84 f13d edd3 4abe 5609 003e
000000d0: 80d7 09be 46f4 103c 1fa0 6d3c 40df fb3d
000000e0: 9f59 703b 7cd7 313d d8c3 de3c 8363 f0b8
000000f0: 423e 013c de18 983c 220e 283d 89fb 4abe

fc2.weight f4 [64, 64]
0.09582021 -0.053836346 -0.15346731 -0.028144676 0.24381329 -0.026488196 0.24663018 -0.097691745
0.027210893 0.29813698 0.025651263 0.069196 -0.14671268 -0.3533765 0.00356742 -0.06428908
0.24376018 -0.050844207 0.11550132 -0.11553229 -0.029050674 -0.04812833 -0.19677992 0.08382077
0.049203858 0.24032438 -0.026445087 0.055747535 -0.13623431 -0.052500222 -0.017345209 -0.16734785
0.02171237 0.13014683 0.021699114 -0.028843833 0.06684066 0.09047574 0.36691785 -0.067894205
0.21713927 0.06263085 -0.10342529 0.18533999 0.09912771 -0.083944514 0.19839957 -0.07026739
0.1305757 -0.06540748 0.10520527 0.027200926 0.01848898 -0.23430412 -0.11422939 0.023327723
-0.0458894 -0.22002801 0.24265045 -0.15897459 -0.01449944 -0.23784444 -0.16499086 0.08277218
-0.0017096712 0.45374617 -0.23961052 0.17008553 -0.0028635461 -0.06955284 0.30361688 0.15937139
0.10183952 0.14769417 0.01676468 -0.10165211 -0.1843845 -0.0051217764 0.10972745 0.08685525
-0.14087614 -0.13962719 0.029804854 -0.13372461 0.013356689 -0.11939492 0.013440102 0.029946538
-0.10666626 -0.15708154 0.025508218 -0.103948794 0.034718364 -0.056105107 0.10916988 0.097145975
-0.12717822 0.0045771287 -0.13436566 -0.056822143 0.16799556 0.13744684 0.05919864 -0.163683
-0.044712327 0.012953776 0.0996407 -0.15324414 -0.045085046 0.008148754 -0.14240135 -0.09512521
0.015875055 -0.10457169 0.011383882 0.06147225 0.034049496 -0.095436074 -0.12028198 -0.066226766
0.30667844 0.12527645 -0.056816876 0.1424112 0.07576719 -0.063598946 -0.09940576 0.22917639
-0.23549117 -0.030581485 -0.12684442 -0.09558748 -0.022553338 0.09351247 -0.02822679 -0.09770656
-0.058486197 0.13607249 -0.1375877 -0.14419223 0.04879804 0.105246946 0.06775615 0.048424166
-0.2708886 -0.13836429 0.4629363 -0.0029839468 0.08520153 -0.20910521 -0.06262914 -0.072546974
0.16502738 0.0798064 0.057504743 -0.13360468 0.00642507 -0.014813341 0.09140144 0.030923972
0.07437224 0.12710766 0.07478781 -0.027288081 -0.15339412 -0.025429586 0.026809813 -0.25205907
-0.0054813465 0.280441 -0.25881377 -0.07605606 0.1831156 -0.16869935 0.14849354 0.16417117
0.00019869603 0.07770779 -0.106426656 -0.06968447 -0.064017646 0.041663904 0.068619914 -0.05238703
-0.22520727 0.042460073 0.07050982 0.08563306 0.12301689 0.17916237 -0.13463275 -0.07092527
-0.030286266 0.033963393 0.012122402 -0.12093379 -0.30764812 0.081112415 -0.11743865 -0.08783757
0.1330996 0.2906195 -0.04498803 0.2691323 -0.1753859 0.07612921 0.27556336 -0.08809583
0.004852399 0.068101496 -0.04605664 -0.26964313 0.026518153 0.025680741 0.110548094 -0.13543607
-0.04889611 0.13273588 0.08908557 -0.32078287 -0.2127356 0.0941148 0.021987863 0.04995174
0.032220636 -0.13531177 -0.107767224 0.19572899 -0.062221702 0.05645342 -0.055165585 -0.124669604
-0.027130922 -0.0151007725 -0.19464208 0.069603905 0.15076089 0.05962192 -0.18991086 -0.034920268
-0.25892952 0.0031788205 0.10250878 -0.016020793 -0.030843241 -0.017553264 0.16475973 -0.044927727
-0.030617768 -0.06956997 0.34782743 -0.023085186 -0.27803826 -0.24355981 -0.034019746 -0.032369435
00000000: 633d c43d 8083 5cbd 8926 1dbe aa8f e6bc
00000010: 31aa 793e c6fd d8bc 9f8c 7c3e 9c12 c8bd
00000020: 61e9 de3c 69a5 983e 9922 d23c a2b6 8d3d
00000030: d93b 16be c4ed b4be 60cb 693b fea9 83bd
00000040: 459c 793e 0442 50bd f58b ec3d 319c ecbd
00000050: aefb edbc 3622 45bd ad80 49be 39aa ab3d
00000060: fc89 493d 9817 763e 5ea3 d8bc 8757 643d
00000070: 0281 0bbe 790a 57bd 8a17 8ebc 3c5d 2bbe
00000080: 24de b13c 3645 053e 57c2 b13c e749 ecbc
00000090: c2e3 883d 584b b93d a8dc bb3e 1e0c 8bbd
000000a0: c259 5e3e 9a44 803d a3d0 d3bd c4c9 3d3e
000000b0: 7803 cb3d 1aeb abbd 4229 4b3e 59e8 8fbd
000000c0: a3b5 053e 5bf4 85bd dc75 d73d 7ad4 de3c
000000d0: 3476 973c 6bed 6fbe 19f1 e9bd c819 bf3c
000000e0: 86f6 3bbd 064f 61be 5c79 783e 3cca 22be
000000f0: 0f8f 6dbc 7e8d 73be 5df3 28be 7684 a93d
00000100: 0c17 e0ba 6b51 e83e 765c 75be e72a 2e3e
00000110: 55aa 3bbb b871 8ebd ac73 9b3e 4132 233e
00000120: 3d91 d03d 243d 173e 1556 893c fb2e d0bd
00000130: 4acf 3cbe 93d4 a7bb c9b8 e03d 2ae1 b13d
00000140: d641 10be 6efa 0ebe 4f29 f43c 1bef 08be
00000150: 04d6 5a3c 5385 f4bd e033 5c3c 7152 f53c
00000160: d773 dabd fcd9 20be 9cf6 d03c 1be3 d4bd
00000170: d834 0e3d 78ce 65bd 7594 df3d 78f4 c63d
00000180: 023b 02be bdfb 953b 2797 09be 56be 68bd
00000190: 0707 2c3e ddbe 0c3e 467a 723d 849c 27be
000001a0: 4624 37bd 133c 543c 6c10 cc3d 08ec 1cbe
000001b0: 19ab 38bd 5a82 053c a9d1 11be 02d1 c2bd
000001c0: 670c 823c af29 d6bd 7683 3a3c 53ca 7b3d
000001d0: 7c77 0b3d fd73 c3bd 6656 f6bd e6a1 87bd
000001e0: f504 9d3e 7848 003e d0b8 68bd 3ed4 113e
000001f0: d42b 9b3d 2a40 82bd 3f95 cbbd 37ad 6a3e
00000200: 9924 71be 0686 fabc 81e3 01be 5ec3 c3bd
00000210: c7c1 b8bc 7783 bf3d de3b e7bc 601a c8bd
00000220: 398f 6fbd 9656 0b3e cae3 0cbe 21a7 13be
00000230: 74e0 473d b68b d73d bdc3 8a3d 6b58 463d
00000240: e9b1 8abe 5eaf 0dbe fd05 ed3e 528e 43bb
00000250: 247e ae3d ad1f 56be b543 80bd 8293 94bd
00000260: f0fc 283e 8a71 a33d 188a 6b3d aacf 08be
00000270: 6589 d23b a8b3 72bc ae30 bb3d 4554 fd3c
00000280: 7950 983d 8328 023e 5a2a 993d 418b dfbc
00000290: 5913 1dbe b551 d0bc 41a0 db3c e30d 81be
000002a0: de9c b3bb f695 8f3e 3d83 84be 48c3 9bbd
000002b0: a882 3b3e 86bf 2cbe b10e 183e 7d1c 283e
000002c0: 0f59 5039 4325 9f3d 38f6 d9bd bbb6 8ebd
000002d0: af1b 83bd c5a7 2a3d 9988 8c3d c893 56bd
000002e0: bc9c 66be 9dea 2d3d 7467 903d 6360 af3d
000002f0: 47f0 fb3d 5776 373e 2bdd 09be 4541 91bd
00000300: e71a f8bc 331d 0b3d 0a9d 463c 23ac f7bd
00000310: 0e84 9dbe 441e a63d ad83 f0bd 2fe4 b3bd
00000320: 434b 083e 14cc 943e 5e45 38bd b5cb 893e
00000330: 5d98 33be a2e9 9b3d a416 8d3e 966b b4bd
00000340: e000 9f3b cc78 8b3d e3a5 3cbd aa0e 8abe
00000350: 993c d93c 6b60 d23c 0a67 e23d c1af 0abe
00000360: 4a47 48bd eaeb 073e 7f72 b63d a73d a4be
00000370: 5cd7 59be 43bf c03d e41f b43c 329a 4c3d
00000380: c9f9 033d 2b8f 0abe 10b5 dcbd 2e6d 483e
00000390: 2fdc 7ebd b43b 673d 4ff5 61bd c752 ffbd
000003a0: ab41 debc 3b69 77bc 4150 47be 7e8c 8e3d
000003b0: 1061 1a3e 1d36 743d fe77 42be 8e08 0fbd
000003c0: 6992 84be c253 503b 20f0 d13d 0a3e 83bc
000003d0: f7aa fcbc ddcb 8fbc c6b6 283e 2306 38bd
000003e0: 1dd2 fabc b37a 8ebd 7016 b23e 251d bdbc
000003f0: 085b 8ebe be67 79be 4a58 0bbd d095 04bd

fc2.bias f4 [64]
0.0008991738 -0.014431282 0.04679115 -0.111507796 0.0038860685 0.07619116 0.13463059 0.04890237
-0.02638317 0.04572517 -0.004496261 -0.029924903 -0.022952504 0.03155342 0.06997014 0.13625294
0.06482847 0.119438164 -0.051403116 -0.0420548 -0.014324414 0.0012271682 -0.0011487002 0.01315882
-0.0557257 -0.025232477 -0.05643221 0.023920564 0.0027803667 0.008654639 -0.003751372 0.007821344
0.03027182 0.011612789 0.02694491 0.057008993 0.026364984 -0.008818694 0.082050316 -0.040486142
-0.06153753 0.04457359 0.043295037 0.15564856 -0.020380637 -0.063359305 -0.013550276 0.0654699
0.029586129 0.05778183 -0.0019162336 0.01955351 0.021701664 -0.096690774 0.02208237 0.041805632
0.034229815 -0.12113143 0.0445121 0.1153989 0.011202699 -0.037352048 0.12694249 0.04667343
00000000: 88b6 6b3a 2f71 6cbc 14a8 3f3d 335e e4bd
00000010: 69ad 7e3b 1c0a 9c3d 9adc 093e da4d 483d
00000020: 8521 d8bc 514a 3b3d 5f55 93bb 1225 f5bc
00000030: e406 bcbc 293e 013d 814c 8f3d e485 0b3e
00000040: cac4 843d ff9b f43d 138c 52bd a741 2cbd
00000050: f2b0 6abc efd8 a03a fc8f 96ba 1798 573c
00000060: a240 64bd 57b4 cebc 7625 67bd 0ff5 c33c
00000070: d036 363b 30cc 0d3c 94d9 75bb 1825 003c
00000080: 9cfc f73c 9143 3e3c 92bb dc3c 4382 693d
00000090: 61fb d73c 497c 10bc ff09 a83d ccd4 25bd
000000a0: c70e 7cbd cc92 363d 2356 313d 5662 1f3e
000000b0: 4bf5 a6bc 86c2 81bd fa01 5ebc 1515 863d
000000c0: 9c5e f23c a4ac 6c3d 212a fbba af2e a03c
000000d0: b0c7 b13c d005 c6bd 16e6 b43c 623c 2b3d
000000e0: 9034 0c3d c113 f8bd 5252 363d 4256 ec3d
000000f0: 868b 373c 76fe 18bd 36fd 013e a32c 3f3d

mu.weight f4 [8, 64]
0.040315747 0.07003465 -0.15374935 -0.036949117 -0.14735034 -0.06433456 0.17067884 0.107673086
0.04322692 -0.14767124 -0.08405284 -0.046324976 -0.024891721 0.17179838 -0.04250903 0.06099814
-0.0038071868 -0.14630616 -0.27910075 -0.3110562 -0.09997707 -0.09581413 0.0317133 0.06752352
-0.21581775 0.08726404 -0.14756301 -0.112924226 0.16997217 0.035971113 -0.0007195811 0.09533566
-0.22364096 -0.05293108 0.11504928 -0.07078902 0.23409492 -0.21247981 0.097702555 -0.032108683
-0.010774307 -0.2658451 -0.13878672 -0.15568459 -0.37920964 -0.13832706 0.13078067 -0.38074425
0.19567522 0.074342504 -0.14494209 0.07587216 0.3272802 0.031169327 0.1614975 0.30439445
0.109483026 -0.010148282 -0.20496409 0.014694855 -0.030596105 -0.1504793 -0.15453428 0.027990568
0.0051377183 0.046371587 0.30517462 -0.035595447 -0.117948696 -0.17882001 0.0416259 0.023629423
-0.09171897 0.19427747 0.16734678 -0.003321393 -0.15653515 0.07970344 0.07225652 0.098248824
0.091641076 -0.050606463 -0.3003462 0.003318079 0.024733799 0.02258276 -0.25184923 -0.03978311
0.007584297 0.111265674 0.10260842 0.11811723 -0.0034801948 0.05565105 0.06353352 -0.27499798
-0.042277228 -0.1014439 -0.053022914 0.15561354 -0.118455954 0.094482124 -0.07659906 0.14855726
0.03545473 0.04656967 -0.024256494 -0.280057 0.12167807 0.106398426 -0.0065292036 0.097904705
-0.1123376 0.013124577 -0.17545004 0.015863331 -0.094879866 0.12973128 -0.0033466464 0.03446799
-0.13243197 0.097048245 -0.16270131 0.23041947 0.16078413 0.10974337 -0.15600729 0.14518385
0.15716542 0.2428002 -0.14497435 0.09593757 0.045109965 0.15485567 -0.4604616 -0.1404611
-0.08244215 0.09765578 0.20177667 0.05181746 -0.041483346 0.095009744 -0.020216323 0.1000792
-0.076981775 -0.10559679 0.0009892883 0.018528637 0.102855116 -0.09027179 -0.044886805 0.09569865
-0.033295885 0.16332297 0.10255138 0.4095134 -0.12580061 -0.12782863 -0.16454431 0.001219467
-0.19824545 -0.23232138 -0.237016 0.26097596 0.20421739 0.09061066 0.14374895 -0.1550503
0.033886395 -0.028803479 0.21113266 -0.29227296 0.10828779 0.023448158 0.19916022 -0.0320196
0.115537286 0.03371128 0.20295548 -0.15022089 -0.04307398 -0.00014826542 -0.06667348 -0.19325732
0.026457777 0.065629154 0.20092587 -0.0010259579 -0.038257346 0.06516907 0.13138068 -0.029481312
-0.21552068 0.1362645 0.04750397 0.158568 -0.13472524 0.062066644 0.10127491 0.10736964
-0.01275008 0.105239145 -0.12089606 0.1251947 -0.09867182 0.049698833 -0.060941946 -0.10912137
-0.15622133 0.096664906 -0.023297464 -0.16835573 0.123881355 -0.046977673 -0.15233009 -0.044019338
0.062086925 -0.029192062 -0.07131831 0.04818757 0.03190859 0.08930672 0.12797658 -0.049571715
-0.11230035 -0.012007779 -0.1050233 -0.0025510523 0.048392225 0.0037648375 0.098451875 0.104604654
-0.05917962 0.0012681229 0.108582675 -0.07139031 -0.13437028 0.15010045 0.07083436 -0.045551665
0.019055929 -0.14549612 0.0057586255 -0.067495815 -0.027771339 0.35815802 -0.02417234 0.0037052159
0.26524046 -0.0224331 -0.0344327 -0.29099613 -0.078736596 0.010218705 0.11348689 0.14042228
00000000: 2022 253d 546e 8f3d 7870 1dbe f557 17bd
00000010: 02e3 16be d6c1 83bd 6fc6 2e3e b583 dc3d
00000020: b60e 313d 2137 17be e523 acbd 42bf 3dbd
00000030: b9e9 cbbc eaeb 2f3e f31d 2ebd 30d9 793d
00000040: ff81 79bb 48d1 15be 4be6 8ebe c242 9fbe
00000050: c7c0 ccbd 333a c4bd cee5 013d c549 8a3d
00000060: 54ff 5cbe 7db7 b23d c21a 17be d144 e7bd
00000070: 2f0d 2e3e 7256 133d 45a2 3cba 583f c33d
00000080: 2302 65be 43ce 58bd f59e eb3d d5f9 90bd
00000090: 94b6 6f3e 4f94 59be 4718 c83d 6584 03bd
000000a0: b886 30bc d91c 88be 1b1e 0ebe c86b 1fbe
000000b0: c427 c2be 9ca5 0dbe 5eeb 053e e9f0 c2be
000000c0: 165f 483e e240 983d b36b 14be dd62 9b3d
000000d0: 4591 a73e d156 ff3c 9a5f 253e 97d9 9b3e
000000e0: a338 e03d fb44 26bc 1be2 51be b0c2 703c
000000f0: afa4 fabc 3f17 1abe 3c3e 1ebe 7a4c e53c
00000100: 4e5a a83b 22f0 3d3d d93f 9c3e 88cc 11bd
00000110: 168f f1bd 981c 37be eb7f 2a3d 7e92 c13c
00000120: 28d7 bbbd acf0 463e f45c 2b3e baab 59bb
00000130: c04a 20be 8f3b a33d 3afb 933d ae36 c93d
00000140: 51ae bb3d b948 4fbd fac6 99be 2174 593b
00000150: 899e ca3c 7bff b83c 62f2 80be 9df3 22bd
00000160: b285 f83b 42df e33d 5d24 d23d 72e7 f13d
00000170: fb13 64bb 5bf2 633d dd1d 823d 89cc 8cbe
00000180: e32a 2dbd d2c1 cfbd 8e2e 59bd 2859 1f3e
00000190: 0999 f2bd d87f c13d f8df 9cbd 651f 183e
000001a0: fb38 113d d7bf 3e3d 8eb5 c6bc a263 8fbe
000001b0: 5a32 f93d 6be7 d93d eef2 d5bb 4382 c83d
000001c0: 4111 e6bd 7708 573c 2da9 33be d1f3 813c
000001d0: 6050 c2bd 47d8 043e 6953 5bbb 4f2e 0d3d
000001e0: 3f9c 07be 3bc1 c63d 2c9b 26be 15f3 6b3e
000001f0: 98a4 243e 22c1 e03d 60c0 1fbe 13ab 143e
00000200: f9ef 203e 9ea0 783e 2874 14be eb7a c43d
00000210: 3ac5 383d 7c92 1e3e 9fc1 ebbe 09d5 0fbe
00000220: 6ed7 a8bd c1ff c73d 8b9e 4e3e 8c3e 543d
00000230: 71ea 29bd 7894 c23d b49c a5bc 53f6 cc3d
00000240: 9fa8 9dbd 2143 d8bd 02ab 813a 5ec9 973c
00000250: b4a5 d23d 6be0 b8bd 3adb 37bd a7fd c33d
00000260: 4461 08bd 233e 273e 7506 d23d beab d13e
00000270: e0d1 00be 82e5 02be 4e7e 28be 86d6 9f3a
00000280: db00 4bbe a8e5 6dbe 53b4 72be a49e 853e
00000290: 5d1e 513e 1592 b93d ed32 133e 81c5 1ebe
000002a0: 76cc 0a3d 46f5 ebbc 2933 583e cda4 95be
000002b0: fdc5 dd3d 5a16 c03c a8f0 4b3e fc26 03bd
000002c0: d09e ec3d d714 0a3d 90d3 4f3e 81d3 19be
000002d0: 576e 30bd b277 1bb9 1b8c 88bd 3fe5 45be
000002e0: fbbd d83c 9468 863d 83bf 4d3e 6f79 86ba
000002f0: bcb3 1cbd 5d77 853d a888 063e cb82 f1bc
00000300: 74b1 5cbe ec88 0b3e 8693 423d a65f 223e
00000310: 6af5 09be 9839 7e3d 3869 cf3d 9de4 db3d
00000320: b6e5 50bc 9f87 d73d 5a98 f7bd 0a33 003e
00000330: 7314 cabd 0191 4b3d 439e 79bd 067b dfbd
00000340: 7cf8 1fbe 40f8 c53d 53da bebc 7265 2cbe
00000350: 82b5 fd3d a96b 40bd 6bfc 1bbe 9f4d 34bd
00000360: dc4e 7e3d 3124 efbc 560f 92bd 5460 453d
00000370: 95b2 023d 71e6 b63d 4b0c 033e b60b 4bbd
00000380: bafd e5bd 47bc 44bc 7516 d7bd 8e2f 27bb
00000390: ed36 463d 7ebb 763b 23a1 c93d f73a d63d
000003a0: 5466 72bd 2537 a63a 9860 de3d 1535 92bd
000003b0: 5d98 09be efb3 193e 9b11 913d 6294 3abd
000003c0: 2e1b 9c3c effc 14be dab2 bc3b 3f3b 8abd
000003d0: b880 e3bc 7d60 b73e 1205 c6bc 35d3 723b
000003e0: 99cd 873e 9fc5 b7bc 4e09 0dbd 72fd 94be
000003f0: a740 a1bd 5b6c 273c d16b e83d dcca 0f3e

mu.bias f4 [8]
-0.0012152904 -0.057374127 -0.013124525 -0.048116166 0.052724224 0.09539823 0.018341573 0.08197946
00000000: 614a 9fba 2201 6bbd 3f08 57bc 7515 45bd
00000010: 5bf5 573d 2660 c33d 1141 963c d9e4 a73d

fc1.weight f4 [64, 111]
-0.38261825 0.55598974 0.2701725 -0.23921387 -0.11399011 0.06916176 0.057135567 0.049358383
-0.12708607 -0.09273575 -0.081923984 0.04219381 0.1624762 -0.13961032 -0.0480599 -0.14903419
-0.10144562 0.22681153 -0.16261593 -0.020731442 0.055222142 -0.03669232 0.010961483 -0.022874963
0.016866228 -0.0821368 0.035356022 -0.09260791 -0.2548348 -0.094616316 0.10403035 0.17003126
0.111237936 0.009152347 -0.06924365 0.143669 -0.06543426 0.02720823 0.037207387 -0.008139715
-0.080108985 0.07228882 -0.19378397 -0.026076166 -0.1908531 -0.03150196 -0.02597778 -0.16828398
-0.0769187 0.136502 -0.09873788 0.09099924 -0.31537917 0.04222698 0.08070609 0.03779465
-0.021850748 0.07114164 -0.11253393 -0.12944226 -0.044026107 0.072672315 -0.006011285 -0.056827664
0.07901701 0.06895521 -0.115088865 -0.017176464 0.09645059 0.13760844 0.08927997 0.022070935
-0.08209288 -0.07952599 -0.020331165 0.014410758 -0.11636966 0.027222363 0.0070014168 -0.022343235
-0.108932815 -0.09833611 0.030202545 0.059049636 -0.18090506 0.010370944 -0.095235094 -0.012577025
-0.057288386 0.21508592 -0.18246186 0.04264347 -0.06853957 0.025681706 0.11337763 -0.010718
-0.03595481 0.066128224 -0.060815807 -0.039386887 0.04749439 0.082404435 -0.027022986 -0.02101524
0.07895099 -0.044476237 -0.023931324 -0.09325069 -0.0048264056 0.106526546 -0.07012054 -0.4040589
0.85833985 0.015895424 -0.30149227 0.22400282 0.16720705 -0.023748375 -0.007456479 0.09346212
0.22739054 -0.02730742 0.10548964 -0.032662813 0.052545175 4.1358777e-05 -0.24757214 -0.039021887
-0.045787726 -0.011539702 0.007869656 -0.01158597 -0.0022513228 -0.016991133 0.012226519 0.0072149145
0.034703985 -0.008846356 -0.049620442 0.04340815 0.08600403 0.06468629 0.0515948 -0.14669308
0.037296504 0.0392366 -0.050652392 -0.06695619 -0.013589469 0.05466936 -0.07338466 -0.05185457
0.061073523 0.11039621 -0.03717122 0.12286643 0.036799785 -0.035763912 0.12384902 -0.12031606
-0.00016192847 -0.18040402 -0.047782823 -0.11742945 -0.019674378 -0.07283765 0.19177464 -0.13280919
0.005210292 -0.009436201 0.16401789 -0.026984815 -0.02489064 0.08151191 0.104503654 -0.007773802
0.012953956 0.16435501 0.14480667 0.14901257 -0.013665249 -0.0879681 0.006427403 0.14469032
-0.051478513 0.0817524 0.080914386 0.103711374 -0.037065722 -0.027122729 0.16055235 -0.14894874
-0.055578507 0.1291963 -0.09050107 -0.0063200155 -0.19058874 0.097750016 -0.019170893 0.10174636
0.020144695 0.019828305 0.13219501 -0.051641893 0.027860826 0.013360975 0.00040966723 -0.077675655
-0.08640029 0.074465275 0.1013713 0.07334523 0.22196823 -0.043204498 0.18584217 0.25120878
-0.019927638 0.0045058136 -0.13461266 -0.094471134 -0.04872051 -0.03414586 0.41209158 -0.75746197
0.1515779 -0.2218197 -0.6942064 0.16147158 0.14217535 -0.2840447 -0.05499803 -0.08612842
-0.16692302 0.18048996 0.36653352 0.08047603 0.18530141 0.14013451 -0.14518303 0.1708008
-0.14005224 0.0051445696 0.057318963 0.021539146 0.0063917763 -0.08508526 0.023868527 -0.10248237
-0.07478593 -0.11739668 0.0105723115 0.067922175 0.032214507 -0.05742399 -0.05430118 -0.10168673
00000000: 8ae6 c3be 5855 0e3f 0d54 8a3e 7bf4 74be
00000010: a673 e9bd aea4 8d3d fc06 6a3d 042c 4a3d
00000020: da22 02be 3eec bdbd c3c7 a7bd 6bd3 2c3d
00000030: 2960 263e 02f6 0ebe 75da 44bd 6b9c 18be
00000040: b9c2 cfbd 4841 683e ca84 26be fcd4 a9bc
00000050: 9d30 623d b04a 16bd cb97 333c 4664 bbbc
00000060: 0b2b 8a3c 5737 a8bd 7ad1 103d 37a9 bdbd
00000070: b579 82be 33c6 c1bd dd0d d53d ad1c 2e3e
00000080: b7d0 e33d baf3 153c 9dcf 8dbd f71d 133e
00000090: 6602 86bd cbe3 de3c c666 183d 705c 05bc
000000a0: 2e10 a4bd 290c 943d 4e6f 46be af9d d5bc
000000b0: ff6e 43be 3308 01bd 5acf d4bc a352 2cbe
000000c0: 8d87 9dbd 2ec7 0b3e 1637 cabd cf5d ba3d
000000d0: 6179 a1be 33f6 2c3d 3c49 a53d 90ce 1a3d
000000e0: 5700 b3bc b5b2 913d 3078 e6bd 838c 04be
000000f0: b854 34bd 39d5 943d 50fa c4bb 20c4 68bd
00000100: acd3 a13d 6438 8d3d b6b3 ebbd a8b5 8cbc
00000110: e387 c53d 3ae9 0c3e 6bd8 b63d 1bce b43c
00000120: 5020 a8bd 86de a2bd 8b8d a6bc 1a1b 6c3c
00000130: 3753 eebd 6f01 df3c 246c e53b 2909 b7bc
00000140: 2b18 dfbd 7164 c9bd 546b f73c 08de 713d
00000150: 2d3f 39be e4ea 293c 9e0a c3bd de0f 4ebc
00000160: 3aa7 6abd 7c3f 5c3e 48d7 3abe ebaa 2e3d
00000170: 795e 8cbd 7162 d23c 8832 e83d 8d9a 2fbc
00000180: 5a45 13bd 3c6e 873d ff19 79bd 2554 21bd
00000190: 7a89 423d a8c3 a83d 4f5f ddbc 2728 acbc
000001a0: 0fb1 a13d b72c 36bd a00b c4bc 38fa bebd
000001b0: d326 9ebb 972a da3d 5c9b 8fbd cfe0 cebe
000001c0: 29bc 5b3f 1f37 823c 325d 9abe ff60 653e
000001d0: 5338 2b3e f48b c2bc 7b55 f4bb 1169 bf3d
000001e0: 11d9 683e cfb3 dfbc f40a d83d 71c9 05bd
000001f0: 9c39 573d a678 2d38 8d83 7dbe 6ad5 1fbd
00000200: e98b 3bbd 0511 3dbc bbef 003c 15d3 3dbc
00000210: ee8a 13bb fd30 8bbc bd51 483c 176b ec3b
00000220: c425 0e3d 4ef0 10bc ce3e 4bbd bfcc 313d
00000230: e222 b03d 3f7a 843d 1255 533d b636 16be
00000240: 38c4 183d 8fb6 203d e278 4fbd 5420 89bd
00000250: 5da6 5ebc fbec 5f3d b24a 96bd 7565 54bd
00000260: 3b28 7a3d 6817 e23d d940 18bd 65a1 fb3d
00000270: 5fbb 163d 2e7d 12bd 8ea4 fd3d 4468 f6bd
00000280: 58cb 29b9 d5bb 38be ecb7 43bd da7e f0bd
00000290: 292c a1bc e82b 95bd 9260 443e 22ff 07be
000002a0: 19bb aa3b 4c9a 1abc 4ef4 273e 420f ddbc
000002b0: 75e7 cbbc b7ef a63d 0306 d63d 61bb febb
000002c0: d43c 543c ae4c 283e 3348 143e c096 183e
000002d0: 35e4 5fbc 9f28 b4bd f79c d23b b329 143e
000002e0: 22db 52bd cd6d a73d 71b6 a53d a166 d43d
000002f0: 3ad2 17bd 7c30 debc d667 243e 0586 18be
00000300: 4aa6 63bd 094c 043e a058 b9bd 2218 cfbb
00000310: b229 43be 2931 c83d 470c 9dbc 6560 d03d
00000320: 7d06 a53c f86e a23c 215e 073e 7386 53bd
00000330: 633c e43c fee7 5a3c 9bc8 d639 6a14 9fbd
00000340: a3f2 b0bd 4081 983d c29b cf3d 0636 963d
00000350: a44b 633e 33f7 30bd 694d 3e3e 709e 803e
00000360: 493f a3bc 81a5 933b e7d7 09be 157a c1bd
00000370: 288f 47bd 87dc 0bbd abfd d23e 07e9 41bf
00000380: 3d37 1b3e b424 63be 83b7 31bf ce58 253e
00000390: 6a96 113e 4f6e 91be 9d45 61bd 1964 b0bd
000003a0: deed 2abe 5cd2 383e 48aa bb3e 9ed0 a43d
000003b0: a7bf 3d3e 6c7f 0f3e dcaa 14be 68e6 2e3e
000003c0: db69 0fbe c793 a83b 4ac7 6a3d dd72 b03c
000003d0: 1b72 d13b 2e41 aebd ee87 c33c 47e2 d1bd
000003e0: 5e29 99bd ac6d f0bd 7d37 2d3c c81a 8b3d
000003f0: 5cf3 033d 6b35 6bbd ea6a 5ebd 2241 d0bd

fc1.bias f4 [64]
0.44176123 -0.1601638 -0.004809394 0.27738497 -0.23716633 -0.015802806 -0.55546695 0.65966123
0.19925013 0.7438905 0.2697667 0.14986016 -0.19916734 0.5343596 -0.18432426 0.35616478
1.0023898 0.92076313 0.23128341 0.6265246 -0.030601805 -0.09334011 0.55761665 -0.31144536
-0.11845182 0.11785991 0.21461694 -0.2886948 0.27741274 0.4746477 0.121814184 -0.4236356
0.32592472 0.8147074 -0.04507094 0.21703792 -0.3318 -0.322829 -0.2330191 0.24362849
-0.15641692 -0.42177272 1.0710474 0.2936506 -0.15728395 -0.15304258 -0.16522169 -0.24904215
-0.5683416 0.40247428 0.12024928 -0.33665133 -0.019062456 0.0066989986 0.4481 0.35435095
-0.2429617 -0.27387053 -0.50843036 0.49257484 0.2694235 0.30198812 0.16394362 -0.22534609
00000000: 872e e23e fb01 24be 1f98 9dbb 6705 8e3e
00000010: bbdb 72be e374 81bc 1533 0ebf 8fdf 283f
00000020: 3a08 4c3e 9c6f 3e3f dc1e 8a3e f174 193e
00000030: 86f2 4bbe cacb 083f 80bf 3cbe 3b5b b63e
00000040: 4f4e 803f 22b7 6b3f 8fd5 6c3e eb63 203f
00000050: a3b0 fabc 1929 bfbd f7bf 0e3f c475 9fbe
00000060: de96 f2bd 8960 f13d 8bc4 5b3e cecf 93be
00000070: 0b09 8e3e 0605 f33e b779 f93d c4e6 d8be
00000080: 9bdf a63e aa90 503f 4e9c 38bd 303f 5e3e
00000090: b1e1 a9be d849 a5be 8f9c 6ebe bf79 793e
000000a0: c22b 20be 98f2 d7be 1518 893f 5f59 963e
000000b0: 0b0f 21be 32b7 1cbe e02f 29be e804 7fbe
000000c0: d67e 11bf 1c11 ce3e 4145 f63d 905d acbe
000000d0: de28 9cbc 4683 db3b 5d6d e53e 7d6d b53e
000000e0: f4ca 78be c238 8cbe 7e28 02bf c532 fc3e
000000f0: e1f1 893e 309e 9a3e d6e0 273e 20c1 66be

fc2.weight f4 [64, 64]
-0.020632835 0.8974723 0.01247181 -0.17430519 -0.17976986 0.5758539 0.8959529 0.07243337
-0.0027607698 -0.08502829 -0.3571393 -0.23313175 -0.5480807 0.1327753 0.39708176 -0.12158406
-0.32505038 -1.2096183 -0.010091409 -0.708569 0.6431079 -0.4889592 -0.56238586 0.39278913
0.6685082 -0.67781425 -0.57351774 -0.15527871 0.05468163 -0.731221 -0.4449506 0.5562507
-0.22927979 0.004806682 0.84108466 -1.0267833 0.93870646 -0.3609826 0.4950264 -1.01225
0.32520008 -0.14691812 -0.790294 0.30760404 0.28546157 0.47660756 -0.86954904 -0.78892225
0.5576969 -0.91322637 0.2359974 -0.5194632 0.643859 0.012756449 -0.9359701 0.04907918
0.7293457 0.5246234 -0.82612205 0.39980456 0.0037308075 -0.32012558 -0.44882676 0.15684016
0.4001276 0.25923592 -0.21264629 0.6736175 -0.056420714 0.46342438 0.42611283 -0.03659939
-0.046992503 0.30183387 0.43376768 0.34080008 -0.45615903 0.012063915 0.2531705 0.05699748
0.25144514 -0.30955642 -0.2249904 -0.13661598 -0.20811574 -0.0020766528 0.4223455 0.24593489
0.05281725 -0.7110543 -0.06719469 0.05652108 0.16093366 0.057661936 -0.09762664 0.15701263
-0.10932477 -0.45963708 -0.35950002 0.36947224 -0.05767789 -0.09346856 -0.052576907 0.13810478
0.2102138 -0.2156902 -0.11287732 0.12530282 -0.12613119 0.05069671 -0.31498843 -0.54627335
-0.013035674 0.044072296 -0.25695628 0.004875332 -0.13845593 -0.09475869 0.40466198 -0.13353872
0.41614953 -0.06756959 0.033476565 -0.38675484 -0.071834 0.72901 0.06324863 -0.029103275
-0.9857583 -0.052014142 0.97789335 -0.11498059 -0.4415106 -0.018040108 1.3379177 -1.2339765
0.38451633 -0.26834065 -0.66703147 0.72401744 0.38206825 -1.5892646 0.74615455 -0.52853686
-2.6037428 -3.4235828 0.16271365 -1.6699888 0.036709297 0.34630167 -0.4248077 0.37741295
0.21013084 -0.11169563 -0.5689476 -0.057012428 -0.08416005 -0.49279353 -0.6381166 0.045401536
-0.31695598 -1.7956698 -0.58919376 -0.0881203 0.5782565 0.6798643 0.33388913 0.04382245
0.30977273 0.048334375 -2.6337385 -0.7962124 -0.3108224 0.317665 -0.17724913 0.16405192
0.3513586 -0.11598585 -0.13846892 0.03303401 -0.3757794 0.17901912 -0.7682578 0.26344115
1.4387977 0.17068556 -0.1693748 -0.6465156 0.016208392 0.19149564 -0.56421995 -0.31889042
0.53665346 0.93205935 -0.86576873 0.52269226 1.0405089 0.25129962 -0.899787 1.1797092
-1.1799779 -0.23744081 0.76480675 -1.274278 -1.1397343 1.0525594 -1.7358766 -0.36256832
1.3484875 0.85456485 -0.77493507 1.2164792 0.4868972 -1.1732987 1.0476601 0.47091874
0.7897619 -0.62683725 -0.29843372 0.7086821 1.0131363 -0.6601628 0.6209344 0.7710528
-0.5594104 1.2463567 0.6112004 -0.6972796 0.3974675 -0.52798295 -0.55596805 -0.7244591
0.36247614 -0.6895345 1.1933157 0.9703305 1.2733923 -1.0834922 0.30784526 0.65782094
-0.9548023 -0.6474727 -0.52436835 0.6393715 0.4686005 0.28502625 -0.20969935 -0.88757145
-0.56457114 0.7000268 1.1155221 0.42955163 0.11994103 0.7853991 -0.15610974 1.0756285
00000000: 3106 a9bc bfc0 653f 9056 4c3c 0f7d 32be
00000010: 9715 38be 296b 133f 2b5d 653f f257 943d
00000020: 08ee 34bb 5023 aebd f6da b6be 17ba 6ebe
00000030: 044f 0cbf 40f6 073e 4d4e cb3e 1001 f9bd
00000040: 016d a6be c6d4 9abf 7056 25bc c764 35bf
00000050: b8a2 243f dc58 fabe 85f8 0fbf a81b c93e
00000060: 5a23 2b3f 3c85 2dbf 0fd2 12bf 6201 1fbe
00000070: d8f9 5f3d 4d31 3bbf 91d0 e3be 7266 0e3f
00000080: 52c8 6abe 5f81 9d3b 5351 573f a36d 83bf
00000090: 114f 703f b6d2 b8be 1a74 fd3e 6891 81bf
000000a0: a080 a63e b471 16be b550 4abf 477e 9d3e
000000b0: 0528 923e e805 f43e c49a 5ebf cff6 49bf
000000c0: 39c5 0e3f 34c9 69bf 4da9 713e 8afb 04bf
000000d0: f2d3 243f 6d00 513c bd9b 6fbf 4007 493d
000000e0: 66b6 3a3f b84d 063f bc7c 53bf 2fb3 cc3e
000000f0: 9080 743b 80e7 a3be 9fcc e5be b59a 203e
00000100: 86dd cc3e 92ba 843e f3bf 59be 3272 2c3f
00000110: 6819 67bd f645 ed3e 762b da3e 3ee9 15bd
00000120: 367b 40bd f889 9a3e cc16 de3e 597d ae3e
00000130: ad8d e9be baa7 453c 909f 813e 3176 693d
00000140: 6bbd 803e 2e7e 9ebe e263 66be 0fe5 0bbe
00000150: 4b1c 55be 7418 08bb ab3d d83e 5bd6 7b3e
00000160: e756 583d a807 36bf 5f9d 89bd a682 673d
00000170: cbcb 243e ec2e 6c3d 7af0 c7bd ebc7 203e
00000180: aae5 dfbd 8d55 ebbe 6310 b8be 772b bd3e
00000190: a73f 6cbd 726c bfbd e25a 57bd 576b 0d3e
000001a0: 4942 573e e4dd 5cbe 392c e7bd 624f 003e
000001b0: 8928 01be 5aa7 4f3d 2a46 a1be 92d8 0bbf
000001c0: 9493 55bc 2785 343d c68f 83be 40c1 9f3b
000001d0: 64c7 0dbe d810 c2bd db2f cf3e 60be 08be
000001e0: 8d11 d53e ed61 8abd b91e 093d bb04 c6be
000001f0: b41d 93bd 66a0 3a3f 7f88 813d fe69 eebc
00000200: a85a 7cbf c80c 55bd 3857 7a3f f27a ebbd
00000210: ad0d e2be d9c8 93bc e340 ab3f f1f2 9dbf
00000220: 53df c43e f263 89be 93c2 2abf 3559 393f
00000230: 739e c33e 066d cbbf fc03 3f3f 314e 07bf
00000240: b9a3 26c0 fb1b 5bc0 689e 263e 31c2 d5bf
00000250: 7d5c 163d 744e b13e 6580 d9be 453c c13e
00000260: 8a2c 573e aec0 e4bd 8da6 11bf dd85 69bd
00000270: 1b5c acbd 6f4f fcbe 9c5b 23bf f6f6 393d
00000280: 0e48 a2be 82d8 e5bf 67d5 16bf 6a78 b4bd
00000290: 9e08 143f 960b 2e3f 84f3 aa3e 2b7f 333d
000002a0: 889a 9e3e 44fa 453d 2c8f 28c0 93d4 4bbf
000002b0: 1d24 9fbe fda4 a23e cc80 35be 3afd 273e
000002c0: 46e5 b33e fd89 edbd ccca 0dbe ac4e 073d
000002d0: 2866 c0be ca50 373e 8bac 44bf c2e1 863e
000002e0: 862a b83f 32c8 2e3e 9670 2dbe 0c82 25bf
000002f0: 76c7 843c 6f17 443e b870 10bf 9b45 a3be
00000300: 1f62 093f 719b 6e3f 05a3 5dbf 29cf 053f
00000310: 652f 853f 58aa 803e 7158 66bf b600 973f
00000320: 8409 97bf af23 73be 60ca 433f 8b1b a3bf
00000330: d0e2 91bf 44ba 863f 3431 debf 8ea2 b9be
00000340: 3d9b ac3f c3c4 5a3f 2562 46bf 97b5 9b3f
00000350: 974a f93e a72e 96bf ba19 863f 431c f13e
00000360: d62d 4a3f 6878 20bf 4ecc 98be 316c 353f
00000370: 73ae 813f 6e00 29bf 8ff5 1e3f b763 453f
00000380: 8535 0fbf 9e88 9f3f a177 1c3f ea80 32bf
00000390: dc80 cb3e e429 07bf ec53 0ebf 2776 39bf
000003a0: 7996 b93e 5585 30bf 92be 983f 9467 783f
000003b0: 85fe a23f dfaf 8abf e59d 9d3e f466 283f
000003c0: ec6d 74bf c5c0 25bf 013d 06bf daad 233f
000003d0: 68ec ef3e f6ee 913e 6dbb 56be e237 63bf
000003e0: bc87 10bf f534 333f 6ec9 8e3f 31ee db3e
000003f0: a5a3 f53d ea0f 493f 3bdb 1fbe 32ae 893f

fc2.bias f4 [64]
-0.85508347 0.15800186 -1.0006422 -0.1477696 -0.2636659 0.77356476 1.8278468 0.13158372
-0.31571695 -0.051559556 -2.0481732 -2.0191007 -0.3020545 -0.27401707 1.8544972 -0.20981462
-0.28117934 1.7145495 0.3927508 1.3995842 -0.48836583 -0.5770662 -1.0767928 -0.62311834
0.6602712 -1.0451162 0.03883488 -0.7606951 0.19492598 -0.16785118 -0.7428696 -0.04892351
0.55950695 -0.29916438 0.32895347 -0.11396202 -0.005022709 0.09447948 -0.94432974 -0.06720101
-2.0958655 -0.0138319405 0.63226366 0.07051342 -0.12595637 -1.2549343 -0.5307018 0.05955813
1.0048198 0.43471253 0.90076464 0.76269996 1.0546368 -0.030123087 0.06221736 0.8411783
0.12302473 0.014477806 1.5139135 2.088472 -0.24843264 -0.5185743 0.0071881036 -1.6044022
00000000: c0e6 5abf 3dcb 213e 0b15 80bf ea50 17be
00000010: 38ff 86be 5708 463f e2f6 e93f e2bd 063e
00000020: a7a5 a1be 1d30 53bd 4515 03c0 f238 01c0
00000030: e3a6 9abe f74b 8cbe 2a60 ed3f a5d9 56be
00000040: bdf6 8fbe 5c76 db3f a216 c93e 9325 b33f
00000050: 160b fabe 9cba 13bf 59d4 89bf af84 1fbf
00000060: 8907 293f 5ec6 85bf 5311 1f3d eabc 42bf
00000070: ad9a 473e 2ee1 2bbe b42c 3ebf 0564 48bd
00000080: d93b 0f3f 132c 99be 976c a83e eb64 e9bd
00000090: 8995 a4bb 757e c13d 98bf 71bf afa0 89bd
000000a0: a922 06c0 5d9f 62bc 08dc 213f 5769 903d
000000b0: b5fa 00be b0a1 a0bf 13dc 07bf 3af3 733d
000000c0: ef9d 803f a492 de3e 8398 663f 4e40 433f
000000d0: 57fe 863f b1c4 f6bc a1d7 7e3d 7657 573f
000000e0: 64f4 fb3d 5234 6d3c ebc7 c13f 86a9 0540
000000f0: 2065 7ebe 49c1 04bf 2f8a eb3b 0d5d cdbf

value.weight f4 [1, 64]
-7.486904 -7.565734 -7.047542 7.225099 7.281642 -7.246054 7.4880013 6.7519484
-7.0450783 -6.9287395 -7.559271 -7.863937 7.271092 7.409447 7.023658 7.4207234
-6.941466 7.620803 -7.268922 7.112548 7.2672358 7.2099395 -7.2617626 7.1583014
-7.0811396 -7.153791 7.2315893 -6.7180715 -7.38892 -7.1390505 7.2129135 7.330011
-7.240058 6.9007425 7.267738 -7.37065 -7.7089562 6.9512463 -7.8082976 -7.4210515
-7.734413 -6.9561224 7.6226535 7.3215227 7.297511 -7.7149115 7.259321 7.2223167
6.840211 -7.318003 7.587764 6.723725 6.935385 -7.045426 -7.2644625 7.094629
7.3331904 7.2861075 7.166944 7.7999783 -7.0618777 6.558877 -7.2547226 -7.5006337
00000000: b894 efc0 7e1a f2c0 7785 e1c0 0334 e740
00000010: 3603 e940 addf e7c0 b59d ef40 f60f d840
00000020: 4871 e1c0 3cb8 ddc0 8ce5 f1c0 5fa5 fbc0
00000030: c9ac e840 311a ed40 cec1 e040 9176 ed40
00000040: 7d20 dec0 9edd f340 029b e8c0 fe99 e340
00000050: 328d e840 d3b7 e640 5c60 e8c0 ce10 e540
00000060: b298 e2c0 dbeb e4c0 2e69 e740 71fa d6c0
00000070: 0872 ecc0 1a73 e4c0 30d0 e640 738f ea40
00000080: 8eae e7c0 e2d2 dc40 4f91 e840 5ddc ebc0
00000090: c5af f6c0 9c70 de40 93dd f9c0 4179 edc0
000000a0: 5080 f7c0 8e98 dec0 c7ec f340 ea49 ea40
000000b0: 3685 e940 8ee0 f6c0 5c4c e840 381d e740
000000c0: 02e3 da40 152d eac0 f6ce f240 c128 d740
000000d0: adee dd40 2174 e1c0 7a76 e8c0 3307 e340
000000e0: 7fa9 ea40 cb27 e940 9b57 e540 6c99 f940
000000f0: e7fa e1c0 52e2 d140 b026 e8c0 3105 f0c0

exp_avg f4 [1, 8]
0.004826906 0.0018265947 -0.0009478732 -0.0022070843 -0.003636753 0.0021004195 0.005321738 -0.0017034622
00000000: 062b 9e3b 596a ef3a b27a 78ba bba4 10bb
00000010: 9756 6ebb 31a7 093b f961 ae3b b546 dfba

exp_avg_sq f4 [1, 8]
9.8204386e-05 9.077215e-05 0.00010708311 0.00012341491 9.43987e-05 0.00010669965 0.000109773806 0.00011484905
00000000: 14f3 cd38 ed5c be38 cf91 e038 f068 0139
00000010: ebf7 c538 f0c3 df38 5d36 e638 1ddb f038

exp_avg f4 [64, 111]
-0.0013302949 -0.000543157 -6.9187685e-05 0.00031898692 0.00036713976 0.00079460867 -0.0010118946 -0.0002982325
0.00019056076 4.6621226e-06 7.897005e-05 0.0005568397 -0.00048371355 -0.004131728 -0.00051902916 -0.002227779
0.004704809 0.0009858175 0.0013256932 0.00023714629 0.0020500175 0.0034009684 -0.0016621152 0.0033963164
-0.0002122891 -0.0056418823 0.00051015837 0.0 0.0 0.0 0.0 0.0
0.0 0.0 0.0 0.0 0.0 0.0 0.0 0.0
0.0 0.0 0.0 0.0 0.0 0.0 0.0 0.0
0.0 0.0 0.0 0.0 0.0 0.0 0.0 0.0
0.0 0.0 0.0 0.0 0.0 0.0 0.0 0.0
0.0 0.0 0.0 0.0 0.0 0.0 0.0 0.0
0.0 0.0 0.0 0.0 0.0 0.0 0.0 0.0
0.0 0.0 0.0 0.0 0.0 0.0 0.0 0.0
0.0 0.0 0.0 0.0 0.0 0.0 0.0 0.0
0.0 0.0 0.0 0.0 0.0 0.0 0.0 0.0
0.0 0.0 0.0 0.0 0.0 0.0 0.0 0.0012431605
0.0017330426 0.00016383156 -0.000116271935 -0.00034613238 -0.00038060476 0.00014742353 0.00046066561 -0.0010801181
0.00137073 -0.0007615359 -0.00037637202 0.0002597031 0.0054291147 -0.0012374991 0.001301884 0.0011121435
0.0015377615 0.0037388073 -0.0017792436 -9.732377e-05 -0.00664341 -0.00034150758 -0.00039636684 0.0025046973
0.001925825 0.0045893383 0.0 0.0 0.0 0.0 0.0 0.0
0.0 0.0 0.0 0.0 0.0 0.0 0.0 0.0
0.0 0.0 0.0 0.0 0.0 0.0 0.0 0.0
0.0 0.0 0.0 0.0 0.0 0.0 0.0 0.0
0.0 0.0 0.0 0.0 0.0 0.0 0.0 0.0
0.0 0.0 0.0 0.0 0.0 0.0 0.0 0.0
0.0 0.0 0.0 0.0 0.0 0.0 0.0 0.0
0.0 0.0 0.0 0.0 0.0 0.0 0.0 0.0
0.0 0.0 0.0 0.0 0.0 0.0 0.0 0.0
0.0 0.0 0.0 0.0 0.0 0.0 0.0 0.0
0.0 0.0 0.0 0.0 0.0 0.0 -0.0015412105 -0.0017156494
-7.8861776e-05 -2.6184609e-05 0.00072954 0.0016182853 -0.00080698234 -0.00092325726 0.0007409164 -0.001496796
0.00078312116 0.0008178076 -0.0006940828 -0.009107822 0.0001365115 -0.0026006585 0.0028592625 0.000427818
-0.0020236664 -0.0002738705 0.0007470793 -0.00084913865 -0.0005977323 0.0012891981 -0.0014216763 0.003316053
0.0014123039 0.0 0.0 0.0 0.0 0.0 0.0 0.0
00000000: 4a5d aeba a662 0eba db18 91b8 b33d a739
00000010: aa7c c039 494d 503a 8ca1 84ba 175c 9cb9
00000020: 44d1 4739 546f 9c36 b99c a538 e1f8 113a
00000030: ef9a fdb9 7263 87bb 750f 08ba eeff 11bb
00000040: cc2a 9a3b 8c36 813a e2c2 ad3a 79aa 7839
00000050: 9659 063b c8e2 5e3b 55db d9ba bc94 5e3b
00000060: ec99 5eb9 8adf b8bb 26bc 053a 0000 0000
00000070: 0000 0000 0000 0000 0000 0000 0000 0000
00000080: 0000 0000 0000 0000 0000 0000 0000 0000
00000090: 0000 0000 0000 0000 0000 0000 0000 0000
000000a0: 0000 0000 0000 0000 0000 0000 0000 0000
000000b0: 0000 0000 0000 0000 0000 0000 0000 0000
000000c0: 0000 0000 0000 0000 0000 0000 0000 0000
000000d0: 0000 0000 0000 0000 0000 0000 0000 0000
000000e0: 0000 0000 0000 0000 0000 0000 0000 0000
000000f0: 0000 0000 0000 0000 0000 0000 0000 0000
00000100: 0000 0000 0000 0000 0000 0000 0000 0000
00000110: 0000 0000 0000 0000 0000 0000 0000 0000
00000120: 0000 0000 0000 0000 0000 0000 0000 0000
00000130: 0000 0000 0000 0000 0000 0000 0000 0000
00000140: 0000 0000 0000 0000 0000 0000 0000 0000
00000150: 0000 0000 0000 0000 0000 0000 0000 0000
00000160: 0000 0000 0000 0000 0000 0000 0000 0000
00000170: 0000 0000 0000 0000 0000 0000 0000 0000
00000180: 0000 0000 0000 0000 0000 0000 0000 0000
00000190: 0000 0000 0000 0000 0000 0000 0000 0000
000001a0: 0000 0000 0000 0000 0000 0000 0000 0000
000001b0: 0000 0000 0000 0000 0000 0000 8bf1 a23a
000001c0: 4327 e33a 33ca 2b39 05d7 f3b8 1a79 b5b9
000001d0: e88b c7b9 b495 1a39 7e85 f139 c092 8dba
000001e0: 11aa b33a cfa1 47ba cc53 c5b9 c328 8839
000001f0: b7e6 b13b 9433 a2ba faa3 aa3a 58c5 913a
00000200: b78e c93a c706 753b 8235 e9ba 4d1a ccb8
00000210: f6b0 d9bb 5f0c b3b9 75cf cfb9 d925 243b
00000220: f76b fc3a 2962 963b 0000 0000 0000 0000
00000230: 0000 0000 0000 0000 0000 0000 0000 0000
00000240: 0000 0000 0000 0000 0000 0000 0000 0000
00000250: 0000 0000 0000 0000 0000 0000 0000 0000
00000260: 0000 0000 0000 0000 0000 0000 0000 0000
00000270: 0000 0000 0000 0000 0000 0000 0000 0000
00000280: 0000 0000 0000 0000 0000 0000 0000 0000
00000290: 0000 0000 0000 0000 0000 0000 0000 0000
000002a0: 0000 0000 0000 0000 0000 0000 0000 0000
000002b0: 0000 0000 0000 0000 0000 0000 0000 0000
000002c0: 0000 0000 0000 0000 0000 0000 0000 0000
000002d0: 0000 0000 0000 0000 0000 0000 0000 0000
000002e0: 0000 0000 0000 0000 0000 0000 0000 0000
000002f0: 0000 0000 0000 0000 0000 0000 0000 0000
00000300: 0000 0000 0000 0000 0000 0000 0000 0000
00000310: 0000 0000 0000 0000 0000 0000 0000 0000
00000320: 0000 0000 0000 0000 0000 0000 0000 0000
00000330: 0000 0000 0000 0000 0000 0000 0000 0000
00000340: 0000 0000 0000 0000 0000 0000 0000 0000
00000350: 0000 0000 0000 0000 0000 0000 0000 0000
00000360: 0000 0000 0000 0000 0000 0000 0000 0000
00000370: 0000 0000 0000 0000 7102 caba a4df e0ba
00000380: 9862 a5b8 05a7 dbb7 9a3e 3f3a a51c d43a
00000390: ab8b 53ba bf06 72ba 0f3a 423a 2430 c4ba
000003a0: 5f4a 4d3a 2462 563a 1cf3 35ba f938 15bc
000003b0: 8724 0f39 cf6f 2abb 7762 3b3b c34c e039
000003c0: 7d9f 04bb 4796 8fb9 a5d7 433a bb98 5eba
000003d0: 23b1 1cba 4ffa a83a 8a57 baba 2352 593b
000003e0: 0e1d b93a 0000 0000 0000 0000 0000 0000
000003f0: 0000 0000 0000 0000 0000 0000 0000 0000

exp_avg_sq f4 [64, 111]
1.6840528e-05 2.9429699e-05 1.9134663e-06 2.106738e-06 1.2616504e-05 2.0692021e-05 1.2771291e-05 2.3251701e-05
1.1780319e-05 2.2349968e-05 8.517645e-06 2.3035014e-05 2.6130985e-05 0.0003638841 5.270296e-05 6.97159e-05
9.596809e-05 9.11604e-05 6.2198065e-05 0.00013770978 0.000108702014 0.0003864952 6.581887e-05 0.00017974009
2.9987925e-05 0.00037139145 0.00014406061 0.0 0.0 0.0 0.0 0.0
0.0 0.0 0.0 0.0 0.0 0.0 0.0 0.0
0.0 0.0 0.0 0.0 0.0 0.0 0.0 0.0
0.0 0.0 0.0 0.0 0.0 0.0 0.0 0.0
0.0 0.0 0.0 0.0 0.0 0.0 0.0 0.0
0.0 0.0 0.0 0.0 0.0 0.0 0.0 0.0
0.0 0.0 0.0 0.0 0.0 0.0 0.0 0.0
0.0 0.0 0.0 0.0 0.0 0.0 0.0 0.0
0.0 0.0 0.0 0.0 0.0 0.0 0.0 0.0
0.0 0.0 0.0 0.0 0.0 0.0 0.0 0.0
0.0 0.0 0.0 0.0 0.0 0.0 0.0 1.9046229e-05
2.463855e-05 1.8486243e-06 2.0102964e-06 1.06705775e-05 1.7604409e-05 1.0885704e-05 2.5365824e-05 1.1871589e-05
1.7839262e-05 7.12136e-06 2.4056037e-05 2.1274796e-05 0.00031989714 4.722772e-05 7.2377705e-05 7.304491e-05
5.8978665e-05 5.793275e-05 0.00014393922 8.2525556e-05 0.00028982537 0.00010600913 0.00015785675 2.8098819e-05
0.00029822168 0.00016086214 0.0 0.0 0.0 0.0 0.0 0.0
0.0 0.0 0.0 0.0 0.0 0.0 0.0 0.0
0.0 0.0 0.0 0.0 0.0 0.0 0.0 0.0
0.0 0.0 0.0 0.0 0.0 0.0 0.0 0.0
0.0 0.0 0.0 0.0 0.0 0.0 0.0 0.0
0.0 0.0 0.0 0.0 0.0 0.0 0.0 0.0
0.0 0.0 0.0 0.0 0.0 0.0 0.0 0.0
0.0 0.0 0.0 0.0 0.0 0.0 0.0 0.0
0.0 0.0 0.0 0.0 0.0 0.0 0.0 0.0
0.0 0.0 0.0 0.0 0.0 0.0 0.0 0.0
0.0 0.0 0.0 0.0 0.0 0.0 1.2561268e-05 4.4540608e-05
2.2946824e-06 2.2291435e-06 1.4852035e-05 2.8494442e-05 1.0003754e-05 2.706546e-05 1.4512042e-05 2.462363e-05
1.1749394e-05 2.6437114e-05 5.856246e-05 0.0005941359 8.008631e-05 0.00012569624 0.00015538919 0.00018594475
8.26658e-05 0.00019740363 5.2862644e-05 0.00078772183 7.96953e-05 0.00019727713 2.777508e-05 0.0007553913
0.00032966075 0.0 0.0 0.0 0.0 0.0 0.0 0.0
00000000: c244 8d37 ccdf f637 1a69 0036 7c61 0d36
00000010: 79ab 5337 c793 ad37 4744 5637 a60c c337
00000020: 16a4 4537 317c bb37 02e7 0e37 513b c137
00000030: dd33 db37 b2c7 be39 5f0d 5d38 7034 9238
00000040: 7a42 c938 5e2d bf38 5570 8238 3066 1039
00000050: f3f6 e338 82a2 ca39 3d08 8a38 9d78 3c39
00000060: 948e fb37 51b7 c239 fa0e 1739 0000 0000
00000070: 0000 0000 0000 0000 0000 0000 0000 0000
00000080: 0000 0000 0000 0000 0000 0000 0000 0000
00000090: 0000 0000 0000 0000 0000 0000 0000 0000
000000a0: 0000 0000 0000 0000 0000 0000 0000 0000
000000b0: 0000 0000 0000 0000 0000 0000 0000 0000
000000c0: 0000 0000 0000 0000 0000 0000 0000 0000
000000d0: 0000 0000 0000 0000 0000 0000 0000 0000
000000e0: 0000 0000 0000 0000 0000 0000 0000 0000
000000f0: 0000 0000 0000 0000 0000 0000 0000 0000
00000100: 0000 0000 0000 0000 0000 0000 0000 0000
00000110: 0000 0000 0000 0000 0000 0000 0000 0000
00000120: 0000 0000 0000 0000 0000 0000 0000 0000
00000130: 0000 0000 0000 0000 0000 0000 0000 0000
00000140: 0000 0000 0000 0000 0000 0000 0000 0000
00000150: 0000 0000 0000 0000 0000 0000 0000 0000
00000160: 0000 0000 0000 0000 0000 0000 0000 0000
00000170: 0000 0000 0000 0000 0000 0000 0000 0000
00000180: 0000 0000 0000 0000 0000 0000 0000 0000
00000190: 0000 0000 0000 0000 0000 0000 0000 0000
000001a0: 0000 0000 0000 0000 0000 0000 0000 0000
000001b0: 0000 0000 0000 0000 0000 0000 77c5 9f37
000001c0: e2ae ce37 3f1e f835 a1e8 0636 c805 3337
000001d0: 2ead 9337 bea1 3637 b1c8 d437 162c 4737
000001e0: 86a5 9537 04f4 ee36 f2cb c937 4777 b237
000001f0: deb7 a739 6116 4638 7cc9 9738 b02f 9938
00000200: dc5f 7738 d1fc 7238 64ee 1639 9211 ad38
00000210: b4f3 9739 3851 de38 5986 2539 c1b5 eb37
00000220: a35a 9c39 1aad 2839 0000 0000 0000 0000
00000230: 0000 0000 0000 0000 0000 0000 0000 0000
00000240: 0000 0000 0000 0000 0000 0000 0000 0000
00000250: 0000 0000 0000 0000 0000 0000 0000 0000
00000260: 0000 0000 0000 0000 0000 0000 0000 0000
00000270: 0000 0000 0000 0000 0000 0000 0000 0000
00000280: 0000 0000 0000 0000 0000 0000 0000 0000
00000290: 0000 0000 0000 0000 0000 0000 0000 0000
000002a0: 0000 0000 0000 0000 0000 0000 0000 0000
000002b0: 0000 0000 0000 0000 0000 0000 0000 0000
000002c0: 0000 0000 0000 0000 0000 0000 0000 0000
000002d0: 0000 0000 0000 0000 0000 0000 0000 0000
000002e0: 0000 0000 0000 0000 0000 0000 0000 0000
000002f0: 0000 0000 0000 0000 0000 0000 0000 0000
00000300: 0000 0000 0000 0000 0000 0000 0000 0000
00000310: 0000 0000 0000 0000 0000 0000 0000 0000
00000320: 0000 0000 0000 0000 0000 0000 0000 0000
00000330: 0000 0000 0000 0000 0000 0000 0000 0000
00000340: 0000 0000 0000 0000 0000 0000 0000 0000
00000350: 0000 0000 0000 0000 0000 0000 0000 0000
00000360: 0000 0000 0000 0000 0000 0000 0000 0000
00000370: 0000 0000 0000 0000 3cbe 5237 1dd1 3a38
00000380: 58fe 1936 6598 1536 012d 7937 5907 ef37
00000390: ccd5 2737 a20a e337 bf78 7337 d88e ce37
000003a0: 431f 4537 45c5 dd37 f6a0 7538 c9bf 1b3a
000003b0: 03f4 a738 54cd 0339 f8ef 2239 2afa 4239
000003c0: dd5c ad38 22fe 4e39 d5b8 5d38 1e7f 4e3a
000003d0: 1722 a738 2ddc 4e39 88fe e837 7405 463a
000003e0: 51d6 ac39 0000 0000 0000 0000 0000 0000
000003f0: 0000 0000 0000 0000 0000 0000 0000 0000
