drl/ran2/Ant45000_ran2_weights.pth (torch, 292848 bytes, 36 tensors)

log_std f4 [1, 8]
-1.3838084 -1.8397578 -1.1386833 -1.3087358 -1.3306623 -1.4040959 -1.2475005 -1.4315037
00000000: a220 b1bf 2f7d ebbf 60c0 91bf a884 a7bf
00000010: 2453 aabf 6ab9 b3bf 19ae 9fbf 833b b7bf

fc1.weight f4 [64, 111]
-0.32411405 -0.02481789 0.11732932 -0.060424052 0.105163306 -0.15012854 -0.026410565 0.06557096
0.07341741 0.018745352 -0.23899294 -0.20376797 0.09607839 -0.111736715 0.01980292 0.05627948
0.035901014 0.0072968304 -0.10938347 -0.048769373 -0.10831841 0.012007318 -0.18145785 -0.023318678
0.0052608014 -0.012355033 0.121010885 -0.007791511 -0.034695953 0.056769438 -0.06900812 -0.024754101
0.06750601 0.094654165 0.116563104 -0.17333615 -0.116805494 0.009880112 0.08167458 -0.0754959
-0.14210315 0.09653318 -0.012955543 -0.14053504 0.039643902 0.017880451 0.09907145 -0.0030286445
-0.031915832 -0.13422713 -0.0986604 0.028764538 -0.095582075 -0.05567561 0.06744774 0.01865231
-0.054841746 0.017509993 -0.20823483 -0.038617138 0.08164473 -0.0072367457 0.114925005 -0.11166557
0.015404698 0.17266017 -0.27381602 -0.018573742 0.08292072 0.045017265 0.056179937 -0.10840436
0.0485582 -0.0944305 -0.033283427 0.06672744 0.03566428 0.0253633 -0.08033475 0.06265204
0.033814237 -0.0062516457 0.015303888 0.03234271 0.2078293 -0.12379017 -0.012662644 0.12517343
-0.06809961 -0.06350179 0.06374925 0.05202433 -0.022890676 0.13769273 -0.16256693 0.13295528
-0.00035645542 0.0860497 -0.005974742 -0.1401145 -0.10596994 -0.03743048 0.099702515 0.15004446
-0.026453504 -0.16842665 -0.04930465 0.013555835 0.11235863 -0.016593821 0.053479962 -0.046296615
-0.031302255 -0.6327741 0.1978542 -0.28587094 0.014025886 -0.18827233 0.2368072 0.06591883
-0.10132262 0.0051352466 -0.15512216 -0.044410508 -0.05980804 -0.06284044 -0.12460225 -0.021887563
0.009944729 -0.045965146 -0.06896108 -0.07033312 0.12501281 0.027761279 -0.11387136 0.10029393
-0.06124452 -0.07224925 -0.11657074 -0.00066049065 -0.06652913 -0.057159927 0.025817506 0.051236734
-0.13591032 -0.057719786 0.0975515 -0.10133125 -0.038597915 0.1680809 -0.059719175 -0.039446983
-0.08748309 -0.04450521 0.22466932 0.17317238 0.03858966 -0.09562479 -0.106398255 -0.16580851
0.063220404 -0.062119074 0.031688605 -0.020121159 0.110400334 -0.05961324 -0.02372453 0.19603951
0.24343407 0.057757493 -0.0587891 0.07133382 -0.061221518 0.0474649 0.17703475 -0.037319347
-0.030486545 -0.16142456 -0.005817401 0.022061879 0.05821295 0.02391662 0.2657637 0.10560833
0.012400558 0.017755393 -0.006800742 -0.06435123 -0.053520713 -0.006323616 0.17159422 0.004974091
0.059477307 0.03846698 -0.11464971 -0.13777499 -0.08426107 0.07474795 -0.011021227 0.09219387
0.06261686 -0.038727954 -0.038466405 0.021556528 0.083806306 0.028953047 0.15719381 0.028292691
0.15193848 0.04856585 -0.045423027 0.16819157 -0.00035607637 -0.025414364 0.053540044 0.004392755
-0.076920815 0.038756616 0.020872656 -0.00936038 0.05181312 -0.058585856 -0.084616944 -0.15229097
0.041830637 -0.0018456649 0.5200871 0.07465078 -0.28506258 0.22061528 0.17815372 0.10719477
0.2947638 -0.29537416 -0.027247557 -0.06646019 -0.040171817 -0.023149878 -0.053147573 0.032152995
0.030153919 0.08932662 0.022679828 0.02001865 0.002186603 0.05010115 0.014892726 -0.17320926
0.08483031 0.03615233 0.054284118 -0.005929872 0.024806075 -0.1222957 -0.023982398 0.035926133
00000000: 47f2 a5be e34e cbbc 5b4a f03d 367f 77bd
00000010: dc5f d73d 4cbb 19be f85a d8bc 114a 863d
00000020: de5b 963d da8f 993c 91ba 74be 8da8 50be
00000030: bfc4 c43d 38d6 e4bd bc39 a23c 5085 663d
00000040: f10c 133d 401a ef3b 7104 e0bd 65c2 47bd
00000050: 0bd6 ddbd 58ba 443c 16d0 39be d006 bfbc
00000060: cd62 ac3b c46c 4abc 8ed4 f73d ee4f ffbb
00000070: 581d 0ebd 1287 683d 2154 8dbd 1dc9 cabc
00000080: 9740 8a3d 0bda c13d a3b8 ee3d 087f 31be
00000090: b837 efbd 31e0 213c 0145 a73d 989d 9abd
000000a0: 7d83 11be 30b3 c53d 7c43 54bc 6be8 0fbe
000000b0: a561 223d 067a 923c f9e5 ca3d 397c 46bb
000000c0: 2dba 02bd d672 09be 770e cabd 9ca3 eb3c
000000d0: 89c0 c3bd 1c0c 64bd 0a22 8a3d bbcc 983c
000000e0: bda1 60bd 1e71 8f3c 833b 55be 012d 1ebd
000000f0: 5a35 a73d 3922 edbb cd5d eb3d ebb0 e4bd
00000100: fd63 7c3c d4cd 303e 9d31 8cbe f627 98bc
00000110: 57d2 a93d 0664 383d ef1c 663d 1b03 debd
00000120: f7e4 463d c764 c1bd 3454 08bd 65a8 883d
00000130: b514 123d b2c6 cf3c 8c86 a4bd b64f 803d
00000140: cc80 0a3d 9bda ccbb 29bd 7a3c ca79 043d
00000150: 34d1 543e b385 fdbd fa76 4fbc 772d 003e
00000160: cf77 8bbd 3a0d 82bd f78e 823d 7717 553d
00000170: 3a85 bbbc 53ff 0c3e f277 26be 6e25 083e
00000180: a3e2 bab9 d33a b03d c5c7 c3bb 2d7a 0fbe
00000190: c506 d9bd b450 19bd d530 cc3d 41a5 193e
000001a0: 05b5 d8bc 0978 2cbe acf3 49bd 4b19 5e3c
000001b0: 481c e63d c4ef 87bc ce0d 5b3d 85a1 3dbd
000001c0: cb36 00bd 7cfd 21bf 4b9a 4a3e ad5d 92be
000001d0: d4cc 653c 76ca 40be 967d 723e 7400 873d
000001e0: 3c82 cfbd 9245 a83b 58d8 1ebe cbe7 35bd
000001f0: 46f9 74bd 7db2 80bd 772f ffbd 8c4d b3bc
00000200: 37ef 223c f345 3cbd 773b 8dbd d00a 90bd
00000210: 5c03 003e 9f6b e33c 6335 e9bd e766 cd3d
00000220: 89db 7abd 6af7 93bd a4bc eebd c724 2dba
00000230: 6d40 88bd 8720 6abd 3c7f d33c 9cdd 513d
00000240: 132c 0bbe 956b 6cbd 15c9 c73d c286 cfbd
00000250: d918 1ebd 661d 2c3e 189c 74bd 2993 21bd
00000260: 562a b3bd 184b 36bd b70f 663e 1a54 313e
00000270: 3110 1e3d eed6 c3bd 54e7 d9bd b5c9 29be
00000280: b379 813d 9270 7ebd e9cb 013d 21d5 a4bc
00000290: 9219 e23d 032d 74bd f259 c2bc 95be 483e
000002a0: c846 793e 1f93 6c3d d7cc 70bd 7717 923d
000002b0: 6ac3 7abd 8e6a 423d 9948 353e 2cdc 18bd
000002c0: ebbe f9bc 7b4c 25be e69f bebb 1dbb b43c
000002d0: b470 6e3d caec c33c 2e12 883e 2e49 d83d
000002e0: b62b 4b3c c273 913c c2d8 debb 94ca 83bd
000002f0: 8938 5bbd 5636 cfbb 65b6 2f3e b3fd a23b
00000300: 7a9e 733d 8d8f 1d3d 78cd eabd e314 0dbe
00000310: 1191 acbd 7415 993d 6092 34bc 24d0 bc3d
00000320: 453d 803d 34a1 1ebd f38e 1dbd 5197 b03c
00000330: a4a2 ab3d f12e ed3c 6af7 203e 13c6 e73c
00000340: c395 1b3e fcec 463d 7f0d 3abd 693a 2c3e
00000350: c3af bab9 c931 d0bc ce4c 5b3d 1af1 8f3b
00000360: a988 9dbd 42bf 1e3d 22fd aa3c 475c 19bc
00000370: fe39 543d b9f7 6fbd a64b adbd 2af2 1bbe
00000380: 9a56 2b3d 3dea f1ba 6e24 053f 82e2 983d
00000390: b9f3 91be f9e8 613e ee6d 363e ee88 db3d
000003a0: 48eb 963e 483b 97be 4536 dfbc 481c 88bd
000003b0: 348b 24bd d0a4 bdbc 45b1 59bd dcb2 033d
000003c0: 5a05 f73c e0f0 b63d 0ccb b93c 27fe a33c
000003d0: 1c4d 0f3b dd36 4d3d 9f00 743c c55d 31be
000003e0: 83bb ad3d 7714 143d 0659 5e3d 5f4f c2bb
000003f0: 1c36 cb3c 2b76 fabd bc76 c4bc 4827 133d

fc1.bias f4 [64]
0.0067408285 -0.014416826 -0.1396978 -0.08970873 -0.13200417 0.013853892 0.0039100116 0.03653957
-0.092107624 -0.046978768 0.022277817 -0.08940222 -0.04305544 0.03660879 0.0011890569 0.058376815
-0.05010774 -0.051088914 0.048573665 0.09001377 0.15028071 -0.016531823 -0.081933126 0.08053457
0.07968725 0.12397987 0.029846393 -0.04156257 -0.014304732 -0.018490726 -0.013465994 -0.06466532
-0.05719241 0.029042004 0.034487195 -0.010438992 0.0764406 0.007460813 -0.017843628 0.07940278
-0.019914305 0.067814045 0.002428118 -0.019399874 -0.029037703 0.13452384 -0.09751845 0.024694586
-0.016458644 0.10599295 -0.20414554 0.13365756 -0.1399964 0.015491187 0.018763501 0.12782659
0.0011827965 0.03291121 0.032899924 0.005089181 -0.033102416 0.019557253 0.04388731 -0.19988073
00000000: 2be2 dc3b 8d34 6cbc f10c 0fbe 36b9 b7bd
00000010: 1a2c 07be 6ffb 623c 8e1f 803b 84aa 153d
00000020: eca2 bcbd cf6c 40bd f87f b63c 8318 b7bd
00000030: e75a 30bd 19f3 153d 21da 9b3a 871c 6f3d
00000040: c63d 4dbd 9c42 51bd 2ef5 463d 2459 b83d
00000050: 30e3 193e bf6d 87bc 8ecc a7bd 4fef a43d
00000060: 1233 a33d 28e9 fd3d 6c80 f43c 833d 2abd
00000070: 655e 6abc dd79 97bc 79a0 5cbc 406f 84bd
00000080: 9742 6abd 7fe9 ed3c 7242 0d3d 4e08 2bbc
00000090: e48c 9c3d d679 f43b cd2c 92bc ed9d a23d
000000a0: 5323 a3bc 17e2 8a3d 0f21 1f3b 7cec 9ebc
000000b0: 7ae0 edbc 9ec0 093e c1b7 c7bd 4d4c ca3c
000000c0: 47d4 86bc d512 d93d 870b 51be 87dd 083e
000000d0: 375b 0fbe bfce 7d3c eab5 993c f9e4 023e
000000e0: 1108 9b3a e8cd 063d 12c2 063d 25c3 a63b
000000f0: 6696 07bd 8836 a03c 2ec3 333d 89ad 4cbe

fc2.weight f4 [64, 64]
0.086755425 -0.048278622 -0.14849633 -0.031733874 0.21613593 -0.036175735 0.24294353 -0.09429565
0.02109048 0.29424372 0.022640288 0.067086436 -0.14578494 -0.347626 0.025276706 -0.054282535
0.24777018 -0.034357272 0.111157544 -0.11989391 -0.030510645 -0.05054854 -0.20389076 0.06876132
0.05650946 0.22673854 -0.031015867 0.06975248 -0.1329143 -0.05844937 -0.0030794058 -0.18366481
0.030690845 0.12994576 0.02862976 -0.037367694 0.067806534 0.09501762 0.38092747 -0.07656088
0.21459979 0.052598335 -0.082943566 0.20182215 0.09733168 -0.0812463 0.20046483 -0.07273429
0.136121 -0.06328311 0.10708953 0.028803563 0.020638783 -0.23069157 -0.124189146 0.013178987
-0.034814317 -0.21261261 0.24210604 -0.14274989 -0.018479506 -0.24457411 -0.18192662 0.08759043
0.011619012 0.44472763 -0.24921386 0.17570403 -0.0064718924 -0.07691631 0.31197527 0.1715964
0.10816884 0.15471563 0.010972692 -0.095796295 -0.19177519 0.0043774713 0.115276605 0.08447746
-0.14052883 -0.15269057 0.039787468 -0.15469843 0.007994829 -0.13313188 0.027274413 0.029254558
-0.10211859 -0.1610678 0.027458029 -0.107601784 0.029821657 -0.052299574 0.11007978 0.09043493
-0.12173213 0.0022304514 -0.13147002 -0.047165133 0.15993914 0.13881497 0.060378294 -0.15675043
-0.04747856 0.0057680514 0.115389 -0.16435236 -0.036559075 0.027597735 -0.14692843 -0.11815386
0.012944366 -0.10589994 0.015711956 0.070289545 0.03317115 -0.08587335 -0.10717168 -0.05254413
0.30959678 0.13637447 -0.052653052 0.13130818 0.06884272 -0.05274019 -0.10889489 0.2242396
-0.22908159 -0.03572859 -0.11642779 -0.084411815 -0.00565493 0.09077189 -0.030856071 -0.118192695
-0.06521642 0.14945945 -0.12065667 -0.1443109 0.048906054 0.10509143 0.03703749 0.036841772
-0.2629964 -0.1348765 0.4772561 -0.0012790674 0.084069684 -0.206027 -0.070543155 -0.058906335
0.16475181 0.07992129 0.050586503 -0.1478119 0.00043401413 -0.020244569 0.08121577 0.039117616
0.062346525 0.13000894 0.08785508 -0.029475912 -0.16920546 -0.030545061 0.012869123 -0.23216778
5.784347e-05 0.27619332 -0.26794365 -0.08323004 0.18072973 -0.16976576 0.15710855 0.16684304
0.005796056 0.089256205 -0.112189114 -0.084215134 -0.05145381 0.041053373 0.0699833 -0.04293518
-0.21812014 0.030798964 0.057995822 0.08998242 0.12810807 0.179866 -0.1324646 -0.077256024
-0.014499375 0.03379729 0.003972105 -0.12790836 -0.31719127 0.06910204 -0.09463203 -0.04329486
0.122357614 0.2900854 -0.0429667 0.27732062 -0.19863467 0.07890132 0.2615639 -0.079541385
0.008443427 0.05098431 -0.02875546 -0.2839885 0.028276525 0.027381191 0.11897807 -0.14117222
-0.04214876 0.14286883 0.07534546 -0.3279748 -0.21374509 0.0871504 0.019281885 0.022563111
0.053372703 -0.12381873 -0.110126875 0.2350477 -0.077434614 0.06310254 -0.045493297 -0.13012466
-0.018903181 -0.014661505 -0.17969204 0.06339795 0.18775758 0.07673897 -0.1861612 -0.030776765
-0.27084455 0.017692495 0.11270711 0.0010419603 -0.03758382 -0.019003084 0.1598835 -0.025744742
-0.021816978 -0.06107046 0.36062863 -0.04717893 -0.2901197 -0.23187932 -0.029767424 -0.037170533
00000000: d4ac b13d cebf 45bd 6c0f 18be 61fb 01bd
00000010: bd52 5d3e 022d 14bd 30c6 783e 141e c1bd
00000020: f1c5 ac3c 1da7 963e 2078 b93c 9d64 893d
00000030: a648 15be 09fc b1be 1811 cf3c 5d57 5ebd
00000040: 77b7 7d3e 36ba 0cbd 91a6 e33d f08a f5bd
00000050: 76f1 f9bc fc0b 4fbd bdc8 50be bcd2 8c3d
00000060: 7776 673d 262e 683e fd14 febc 63da 8e3d
00000070: b01a 08be 9b68 6fbd dbcf 49bb a112 3cbe
00000080: 5e6b fb3c 8010 053e f588 ea3c de0e 19bd
00000090: 27de 8a3d 9998 c23d ed08 c33e f3cb 9cbd
000000a0: 0cc0 5b3e 5a71 573d 51de a9bd 77aa 4e3e
000000b0: d555 c73d 7664 a6bd a746 4d3e b7f5 94bd
000000c0: 4e63 0b3e 939a 81bd c151 db3d 73f5 eb3c
000000d0: aa12 a93c 693a 6cbe e156 febd aeec 573c
000000e0: 7599 0ebd 1fb7 59be a5ea 773e 072d 12be
000000f0: 5562 97bc a371 7abe f94a 3abe 9d62 b33d
00000100: ab5d 3e3c 57b3 e33e eb31 7fbe c2eb 333e
00000110: 2b12 d4bb 4c86 9dbd 39bb 9f3e f7b6 2f3e
00000120: a087 dd3d c66d 1e3e cec6 333c d930 c4bd
00000130: b760 44be e470 8f3b 2416 ec3d 8502 ad3d
00000140: cae6 0fbe eb5a 1cbe 2ff8 223d 4469 1ebe
00000150: befc 023c b953 08be 976e df3c 41a7 ef3c
00000160: 8d23 d1bd f5ee 24be a9ef e03c 535e dcbd
00000170: 8c4c f43c 1438 56bd 8271 e13d f335 b93d
00000180: b24e f9bd c42c 123b 14a0 06be 3a30 41bd
00000190: 16c7 233e 8325 0e3e 3b4f 773d 2f83 20be
000001a0: e178 42bd ec01 bd3b 1151 ec3d fc4b 28be
000001b0: f8be 15bd a514 e23c 6874 16be a7fa f1bd
000001c0: 9b14 543c 11e2 d8bd 5cb6 803c f7f3 8f3d
000001d0: 79de 073d 5ede afbd d37c dbbd 8338 57bd
000001e0: 7883 9e3e c0a5 0b3e baaa 57bd a775 063e
000001f0: 69fd 8c3d 1906 58bd 4904 dfbd 119f 653e
00000200: 5d94 6abe 2458 12bd b171 eebd 1ae0 acbd
00000210: fe4c b9bb 9de6 b93d dfc5 fcbc 030f f2bd
00000220: 3090 85bd e60b 193e d81a f7bd 3dc6 13be
00000230: b751 483d 2d3a d73d a0b4 173d 66e7 163d
00000240: 77a7 86be 111d 0abe e95a f43e 61a6 a7ba
00000250: ba2c ac3d bef8 52be ee78 90bd c547 71bd
00000260: b3b4 283e c6ad a33d cb33 4f3d 015c 17be
00000270: 648c e339 f0d7 a5bc 7454 a63d cb39 203d
00000280: 125f 7f3d 1021 053e 5ded b33d 7877 f1bc
00000290: 3244 2dbe a339 fabc 04d9 523c 64bd 6dbe
000002a0: f49c 7238 3669 8d3e e92f 89be 8374 aabd
000002b0: 3711 393e 13d7 2dbe 10e1 203e e7d8 2a3e
000002c0: d7ec bd3b f5cb b63d 68c3 e5bd fc78 acbd
000002d0: 3bc1 52bd 9527 283d 6853 8f3d cddc 2fbd
000002e0: e35a 5fbe 1c4e fc3c 078d 6d3d b448 b83d
000002f0: c32e 033e cb2e 383e cda4 07be 6838 9ebd
00000300: c98e 6dbc 076f 0a3d 6f28 823b 69fa 02be
00000310: e566 a2be 5f85 8d3d 70ce c1bd f355 31bd
00000320: a196 fa3d 1386 943e dafd 2fbd f8fc 8d3e
00000330: e366 4bbe 0497 a13d b4eb 853e 98e6 a2bd
00000340: 4d56 0a3c edd4 503d 9290 ebbc f166 91be
00000350: 2ca4 e73c 854e e03c c6aa f33d 738f 10be
00000360: 2ea4 2cbd 354c 123e b84e 9a3d 50ec a7be
00000370: fedf 5abe e97b b23d 0bf5 9d3c 46d6 b83c
00000380: 569d 5a3d ad94 fdbd 338a e1bd 58b0 703e
00000390: 0a96 9ebd e83b 813d 2e57 3abd 663f 05be
000003a0: d8da 9abc cf36 70bc 3101 38be c9d6 813d
000003b0: 8643 403e 5229 9d3d 0ba1 3ebe 8e1f fcbc
000003c0: 23ac 8abe daef 903c fcd2 e63d 6392 883a
000003d0: 7ef1 19bd 5bac 9bbc 80b8 233e a3e6 d2bc
000003e0: 85b9 b2bc 0525 7abd 51a4 b83e b23e 41bd
000003f0: 928a 94be c671 6dbe d0da f3bc 2140 18bd

fc2.bias f4 [64]
0.00032449965 -0.01762096 0.044667296 -0.10921198 -0.00900905 0.087584324 0.1405537 0.054420702
-0.032757945 0.04553753 -0.0060308897 -0.039744303 -0.021094719 0.041233335 0.077943064 0.13796039
0.06910107 0.11461634 -0.06000281 -0.053696502 -0.018199915 -0.0057122046 0.0052448963 0.02089059
-0.05849216 -0.023607511 -0.062364854 0.03672224 -0.018574785 0.0010656706 -0.005543158 0.0011259221
0.049234375 0.018318933 0.021657301 0.055802576 0.032153945 -0.016886147 0.09167749 -0.04480514
-0.07604246 0.0379845 0.06244068 0.16207422 -0.013212668 -0.075247996 -0.022840925 0.07004496
0.040436395 0.048982427 0.0053680832 0.0187786 0.01645673 -0.11060089 0.015055966 0.04048093
0.023464847 -0.13669582 0.046972267 0.11964388 0.0020053608 -0.04466552 0.14574365 0.045117177
00000000: 9b21 aa39 d559 90bc 0ef5 363d 88aa dfbd
00000010: b29a 13bc 695f b33d 4fed 0f3e 3ee8 5e3d
00000020: 322d 06bd 9085 3a3d c59e c5bb ecca 22bd
00000030: d5ce acbc 49e4 283d 9da0 9f3d 7d45 0d3e
00000040: dd84 8d3d f9bb ea3d 82c5 75bd ddf0 5bbd
00000050: fd17 95bc 722d bbbb 61dd ab3b be22 ab3c
00000060: 7a95 6fbd 8a64 c1bc 4a72 7fbd 0f6a 163d
00000070: 262a 98bc f9ad 8b3a 61a3 b5bb ad93 933a
00000080: fca9 493d 9611 963c a76a b13c 3e91 643d
00000090: dbb3 033d d154 8abc 68c1 bb3d 9885 37bd
000000a0: 26bc 9bbd a395 1b3d ccc1 7f3d c9f6 253e
000000b0: f279 58bc 9f1b 9abd e41c bbbc bb73 8f3d
000000c0: a2a0 253d cca1 483d bfe6 af3b 94d5 993c
000000d0: 44d0 863c b882 e2bd 4cad 763c 55cf 253d
000000e0: 5a39 c03c fdf9 0bbe fe65 403d da07 f53d
000000f0: 5f6c 033b 31f3 36bd d33d 153e cacc 383d

mu.weight f4 [8, 64]
0.035905786 0.06970342 -0.1575892 -0.025854403 -0.14487125 -0.04753215 0.18071821 0.11862416
0.05981166 -0.13827991 -0.08879253 -0.05375562 -0.006404094 0.18002842 -0.040025566 0.06979945
0.0023309921 -0.14512157 -0.27587897 -0.3138922 -0.08661315 -0.0969815 0.030756567 0.069550805
-0.23860066 0.084516175 -0.13746871 -0.12096269 0.1731791 0.03147502 -0.010863137 0.10049585
-0.21108578 -0.0627508 0.13560607 -0.07525532 0.24553573 -0.20866023 0.09955301 -0.03598081
-0.015428077 -0.26512125 -0.14311108 -0.15318431 -0.38829106 -0.13118954 0.11809286 -0.38327256
0.19466011 0.0757031 -0.15209165 0.09322962 0.33564407 0.030626629 0.17431031 0.2984733
0.107062906 0.0014645046 -0.22120966 0.015364673 -0.025107918 -0.15855476 -0.14875142 0.024152711
-0.013581718 0.03970773 0.30208024 -0.058042765 -0.10827666 -0.16722843 0.04990236 0.010965438
-0.08589242 0.18866752 0.16951962 0.0018657681 -0.16642763 0.082656436 0.07329099 0.09989773
0.08172101 -0.05350045 -0.31695744 0.0021273186 0.023266189 0.026804427 -0.2535166 -0.044221804
0.0122865485 0.11322577 0.11068419 0.12149504 -0.0105821965 0.056063198 0.06759966 -0.27809852
-0.045502026 -0.10278341 -0.045612738 0.14447196 -0.1154324 0.091119714 -0.07704727 0.16823722
0.03160483 0.0539831 -0.02494045 -0.28254429 0.13173114 0.08705801 -0.006899521 0.089454465
-0.11521392 0.014772692 -0.18652773 0.0033230819 -0.09548195 0.1385855 -0.0015862912 0.032307025
-0.13974395 0.096606664 -0.14993814 0.23202318 0.15707345 0.10851578 -0.15914431 0.1486681
0.14607115 0.2575654 -0.16141178 0.09530699 0.06305765 0.15655814 -0.47318155 -0.14087223
-0.101731695 0.110656716 0.21106343 0.058529686 -0.030019566 0.091581464 -0.024816403 0.11178971
-0.0861292 -0.096516155 0.018780634 0.011612725 0.10351222 -0.100408696 -0.044013485 0.071838506
-0.04424609 0.16534805 0.11228281 0.40557134 -0.12574773 -0.13467768 -0.19265196 0.00853595
-0.1893264 -0.23433267 -0.25133172 0.27746323 0.19459882 0.098626964 0.14869952 -0.15298712
0.029348494 -0.027073672 0.21942094 -0.30233377 0.10678094 0.017783182 0.18986857 -0.025210857
0.12674962 0.030287307 0.19460008 -0.15287091 -0.033550754 -0.010037848 -0.06395808 -0.20457087
0.038048383 0.08863085 0.20057683 -0.0060326695 -0.04399067 0.062667586 0.11712684 -0.024122408
-0.2135983 0.124223515 0.047244266 0.17758405 -0.13258739 0.045640733 0.098449185 0.1143097
-0.01725585 0.111382335 -0.11433375 0.12674618 -0.09113129 0.051117584 -0.047906317 -0.10793233
-0.16238812 0.10817741 -0.019063648 -0.16705556 0.12758629 -0.064541444 -0.17136867 -0.045752686
0.08052653 -0.02804666 -0.07709588 0.041456293 0.041518006 0.09084126 0.11007747 -0.04161467
-0.11632352 0.033670694 -0.13457294 -0.0005670132 0.05509018 -0.008289184 0.090642296 0.10864764
-0.07558387 0.0046767234 0.12348878 -0.07786698 -0.12573951 0.16360514 0.06888757 -0.027869066
0.02076252 -0.15721144 0.026932739 -0.053638317 -0.0356572 0.34013608 -0.011915928 0.0070160525
0.26728028 -0.008510652 -0.054452535 -0.3010979 -0.08921399 0.010006499 0.10144188 0.1528909
00000000: f211 133d abc0 8e3d 105f 21be 9dcc d3bc
00000010: 2159 14be 12b1 42bd 320e 393e 39f1 f23d
00000020: 12fd 743d 4099 0dbe dcd8 b5bd da2e 5cbd
00000030: 6fd9 d1bb 5f59 383e d9f1 23bd 04f3 8e3d
00000040: 8fc3 183b c09a 14be 0240 8dbe 7ab6 a0be
00000050: 3c62 b1bd 3d9e c6bd 32f5 fb3c a770 8e3d
00000060: bb53 74be d116 ad3d 99c4 0cbe 49bb f7bd
00000070: dd55 313e f3eb 003d 4dfb 31bc c5d0 cd3d
00000080: df26 58be 7e83 80bd 51dc 0a3e 761f 9abd
00000090: b86d 7b3e 07ab 55be 73e2 cb3d 9d60 13bd
000000a0: 0cc6 7cbc f9bd 87be b68b 12be 59dc 1cbe
000000b0: 16ce c6be 8d56 06be abda f13d 4d3c c4be
000000c0: fb54 473e 3a0a 9b3d eabd 1bbe 2cef be3d
000000d0: 8ad9 ab3e b2e4 fa3c 677e 323e 7ed1 983e
000000e0: cc43 db3d 9ff4 bf3a c984 62be 1cbc 7b3c
000000f0: 1faf cdbc 2e5c 22be 4b52 18be e8db c53c
00000100: db85 5ebc 93a4 223d 43aa 9a3e 40be 6dbd
00000110: 27c0 ddbd ee3d 2bbe 6b66 4c3d 61a8 333c
00000120: 5de8 afbd 0f32 413e 8d96 2d3e ca8c f43a
00000130: 016c 2abe c747 a93d 9619 963d 2e97 cc3d
00000140: 585d a73d 4a23 5bbd 3f48 a2be 7c6a 0b3b
00000150: bc98 be3c f594 db3c eecc 81be ec21 35bd
00000160: 854d 493c eae2 e73d 65ae e23d 64d2 f83d
00000170: f360 2dbc 86a2 653d b171 8a3d ee62 8ebe
00000180: 5560 3abd 1c80 d2bd 6cd4 3abd 75f0 133e
00000190: d267 ecbd f99c ba3d f6ca 9dbd 6146 2c3e
000001a0: 1174 013d 621d 5d3d ea4f ccbc a5a9 90be
000001b0: 87e4 063e 784b b23d 6115 e2bb e733 b73d
000001c0: 47f5 ebbd 2909 723c 2001 3fbe 10c8 593b
000001d0: 0a8c c3bd 5be9 0d3e 1aeb cfba 5f54 043d
000001e0: 0a19 0fbe b7d9 c53d 6289 19be 7c97 6d3e
000001f0: ddd7 203e 853d de3d baf6 22be 733c 183e
00000200: ad93 153e 9ddf 833e 2149 25be 5030 c33d
00000210: 5f24 813d c750 203e da44 f2be cf40 10be
00000220: b558 d0bd fd9f e23d 0321 583e d3bc 6f3d
00000230: 98eb f5bc 108f bb3d c54b cbbc 01f2 e43d
00000240: 8264 b0bd 43aa c5bd d8d9 993c 4d43 3e3c
00000250: 37fe d33d 13a3 cdbd 7c47 34bd 1120 933d
00000260: 633b 35bd 0051 293e 88f4 e53d 0ca7 cf3e
00000270: 03c4 00be f2e8 09be 8e46 45be 5fda 0b3c
00000280: c8de 41be e7f4 6fbe 8dae 80be a90f 8e3e
00000290: ea44 473e effc c93d b044 183e a8a8 1cbe
000002a0: 416c f03c 9bc9 ddbc e2af 603e 7ecb 9abe
000002b0: f7af da3d 09ae 913c e86c 423e 0087 cebc
000002c0: a7ca 013e 161d f83c 3e45 473e 318a 1cbe
000002d0: 846c 09bd c975 24bc 74fc 82bd 077b 51be
000002e0: 9fd8 1b3d 1784 b53d 0364 4d3e b3ad c5bb
000002f0: 902f 34bd dd57 803d 32e0 ef3d 5b9c c5bc
00000300: 83b9 5abe e668 fe3d 3483 413d 98d8 353e
00000310: fdc4 07be c7f1 3a3d ba9f c93d 341b ea3d
00000320: 245c 8dbc 6c1c e43d d027 eabd c0c9 013e
00000330: 0ba3 babd ac60 513d 6a39 44bd a00b ddbd
00000340: 1249 26be 1e8c dd3d 5e2b 9cbc 9d10 2bbe
00000350: fba5 023e 4e2e 84bd 457b 2fbe 2b67 3bbd
00000360: 18eb a43d 1cc2 e5bc 72e4 9dbd 13ce 293d
00000370: c90e 2a3d fc0a ba3d 4c70 e13d 2574 2abd
00000380: 073b eebd 48ea 093d 7dcd 09be 9da3 14ba
00000390: 3ea6 613d 5ccf 07bc aba2 b93d a782 de3d
000003a0: b7cb 9abd 333f 993b afe7 fc3d b978 9fbd
000003b0: dcc1 00be 1b88 273e ed14 8d3d ab4d e4bc
000003c0: 2916 aa3c 09fc 20be 0ca2 dc3c dab3 5bbd
000003d0: 490d 12bd 5126 ae3e 063b 43bc eae6 e53b
000003e0: f6d8 883e 4370 0bbc 9f09 5fbd 8129 9abe
000003f0: d3b5 b6bd 4cf2 233c c3c0 cf3d 6f8f 1c3e

mu.bias f4 [8]
-0.0020642325 -0.06317471 -0.011636095 -0.051336396 0.05324676 0.109740734 0.02394434 0.09102197
00000000: 1348 07bb be61 81bd 52a5 3ebc 1d46 52bd
00000010: 4619 5a3d c0bf e03d ec26 c43c ba69 ba3d

fc1.weight f4 [64, 111]
-0.4019916 0.5417615 0.3295184 -0.25379083 -0.13909894 0.10897216 0.095456816 0.061194584
-0.10602492 -0.08411078 -0.07828677 0.04699742 0.1475817 -0.16954444 -0.02875686 -0.16428071
-0.09812409 0.24334936 -0.15173082 -0.015610151 0.04421975 -0.03492147 0.005953126 -0.015325201
0.027758446 -0.08420409 0.03049788 -0.09260791 -0.2548348 -0.094616316 0.10403035 0.17003126
0.111237936 0.009152347 -0.06924365 0.143669 -0.06543426 0.02720823 0.037207387 -0.008139715
-0.080108985 0.07228882 -0.19378397 -0.026076166 -0.1908531 -0.03150196 -0.02597778 -0.16828398
-0.0769187 0.136502 -0.09873788 0.09099924 -0.31537917 0.04222698 0.08070609 0.03779465
-0.021850748 0.07114164 -0.11253393 -0.12944226 -0.044026107 0.072672315 -0.006011285 -0.056827664
0.07901701 0.06895521 -0.115088865 -0.017176464 0.09645059 0.13760844 0.08927997 0.022070935
-0.08209288 -0.07952599 -0.020331165 0.014410758 -0.11636966 0.027222363 0.0070014168 -0.022343235
-0.108932815 -0.09833611 0.030202545 0.059049636 -0.18090506 0.010370944 -0.095235094 -0.012577025
-0.057288386 0.21508592 -0.18246186 0.04264347 -0.06853957 0.025681706 0.11337763 -0.010718
-0.03595481 0.066128224 -0.060815807 -0.039386887 0.04749439 0.082404435 -0.027022986 -0.02101524
0.07895099 -0.044476237 -0.023931324 -0.09325069 -0.0048264056 0.106526546 -0.07012054 -0.42052704
0.8628555 0.02110196 -0.33406946 0.24235812 0.18275005 -0.042677477 0.017500034 0.11378911
0.2749582 -0.008313626 0.08431786 -0.053013217 0.044170458 0.009795747 -0.2644794 -0.030537877
-0.021712555 0.002297069 0.009635239 -0.018468974 0.017325908 -0.024020713 0.02709815 -0.0037091041
0.025675956 -0.0072302343 -0.049620442 0.04340815 0.08600403 0.06468629 0.0515948 -0.14669308
0.037296504 0.0392366 -0.050652392 -0.06695619 -0.013589469 0.05466936 -0.07338466 -0.05185457
0.061073523 0.11039621 -0.03717122 0.12286643 0.036799785 -0.035763912 0.12384902 -0.12031606
-0.00016192847 -0.18040402 -0.047782823 -0.11742945 -0.019674378 -0.07283765 0.19177464 -0.13280919
0.005210292 -0.009436201 0.16401789 -0.026984815 -0.02489064 0.08151191 0.104503654 -0.007773802
0.012953956 0.16435501 0.14480667 0.14901257 -0.013665249 -0.0879681 0.006427403 0.14469032
-0.051478513 0.0817524 0.080914386 0.103711374 -0.037065722 -0.027122729 0.16055235 -0.14894874
-0.055578507 0.1291963 -0.09050107 -0.0063200155 -0.19058874 0.097750016 -0.019170893 0.10174636
0.020144695 0.019828305 0.13219501 -0.051641893 0.027860826 0.013360975 0.00040966723 -0.077675655
-0.08640029 0.074465275 0.1013713 0.07334523 0.22196823 -0.043204498 0.18584217 0.25120878
-0.019927638 0.0045058136 -0.13461266 -0.094471134 -0.04872051 -0.03414586 0.41241905 -0.78482
0.12434829 -0.21205764 -0.73153305 0.15065256 0.14601338 -0.3087155 -0.06028859 -0.11664764
-0.16588897 0.17921558 0.41313007 0.080465354 0.16950405 0.14852546 -0.14012246 0.16633794
-0.14593638 -0.001028337 0.050989456 0.0076253074 0.003412928 -0.07576761 0.019981632 -0.11535071
-0.09409961 -0.11739668 0.0105723115 0.067922175 0.032214507 -0.05742399 -0.05430118 -0.10168673
00000000: d8d1 cdbe e2b0 0a3f a3b6 a83e dff0 81be
00000010: f46f 0ebe cc2c df3d dd7e c33d 2ca7 7a3d
00000020: 9823 d9bd 4642 acbd d054 a0bd 5e80 403d
00000030: a81f 173e 0f9d 2dbe 8293 ebbc 3439 28be
00000040: 48f5 c8bd 9330 793e 535f 1bbe b8c1 7fbc
00000050: c51f 353d d109 0fbd 7112 c33b 8d16 7bbc
00000060: ae65 e33c 3273 acbd b1d6 f93c 37a9 bdbd
00000070: b579 82be 33c6 c1bd dd0d d53d ad1c 2e3e
00000080: b7d0 e33d baf3 153c 9dcf 8dbd f71d 133e
00000090: 6602 86bd cbe3 de3c c666 183d 705c 05bc
000000a0: 2e10 a4bd 290c 943d 4e6f 46be af9d d5bc
000000b0: ff6e 43be 3308 01bd 5acf d4bc a352 2cbe
000000c0: 8d87 9dbd 2ec7 0b3e 1637 cabd cf5d ba3d
000000d0: 6179 a1be 33f6 2c3d 3c49 a53d 90ce 1a3d
000000e0: 5700 b3bc b5b2 913d 3078 e6bd 838c 04be
000000f0: b854 34bd 39d5 943d 50fa c4bb 20c4 68bd
00000100: acd3 a13d 6438 8d3d b6b3 ebbd a8b5 8cbc
00000110: e387 c53d 3ae9 0c3e 6bd8 b63d 1bce b43c
00000120: 5020 a8bd 86de a2bd 8b8d a6bc 1a1b 6c3c
00000130: 3753 eebd 6f01 df3c 246c e53b 2909 b7bc
00000140: 2b18 dfbd 7164 c9bd 546b f73c 08de 713d
00000150: 2d3f 39be e4ea 293c 9e0a c3bd de0f 4ebc
00000160: 3aa7 6abd 7c3f 5c3e 48d7 3abe ebaa 2e3d
00000170: 795e 8cbd 7162 d23c 8832 e83d 8d9a 2fbc
00000180: 5a45 13bd 3c6e 873d ff19 79bd 2554 21bd
00000190: 7a89 423d a8c3 a83d 4f5f ddbc 2728 acbc
000001a0: 0fb1 a13d b72c 36bd a00b c4bc 38fa bebd
000001b0: d326 9ebb 972a da3d 5c9b 8fbd 524f d7be
000001c0: 19e4 5c3f 05de ac3c 270b abbe ba2c 783e
000001d0: d422 3b3e 94ce 2ebd 3b5c 8f3c 440a e93d
000001e0: 52c7 8c3e e035 08bc d8ae ac3d 6324 59bd
000001f0: 15ec 343d 577e 203c d869 87be 922a fabc
00000200: 87de b1bc 6c8a 163b 1fdd 1d3c 3f4c 97bc
00000210: 10ef 8d3c 16c7 c4bc f1fc dd3c 7114 73bb
00000220: 6256 d23c 9aeb ecbb ce3e 4bbd bfcc 313d
00000230: e222 b03d 3f7a 843d 1255 533d b636 16be
00000240: 38c4 183d 8fb6 203d e278 4fbd 5420 89bd
00000250: 5da6 5ebc fbec 5f3d b24a 96bd 7565 54bd
00000260: 3b28 7a3d 6817 e23d d940 18bd 65a1 fb3d
00000270: 5fbb 163d 2e7d 12bd 8ea4 fd3d 4468 f6bd
00000280: 58cb 29b9 d5bb 38be ecb7 43bd da7e f0bd
00000290: 292c a1bc e82b 95bd 9260 443e 22ff 07be
000002a0: 19bb aa3b 4c9a 1abc 4ef4 273e 420f ddbc
000002b0: 75e7 cbbc b7ef a63d 0306 d63d 61bb febb
000002c0: d43c 543c ae4c 283e 3348 143e c096 183e
000002d0: 35e4 5fbc 9f28 b4bd f79c d23b b329 143e
000002e0: 22db 52bd cd6d a73d 71b6 a53d a166 d43d
000002f0: 3ad2 17bd 7c30 debc d667 243e 0586 18be
00000300: 4aa6 63bd 094c 043e a058 b9bd 2218 cfbb
00000310: b229 43be 2931 c83d 470c 9dbc 6560 d03d
00000320: 7d06 a53c f86e a23c 215e 073e 7386 53bd
00000330: 633c e43c fee7 5a3c 9bc8 d639 6a14 9fbd
00000340: a3f2 b0bd 4081 983d c29b cf3d 0636 963d
00000350: a44b 633e 33f7 30bd 694d 3e3e 709e 803e
00000360: 493f a3bc 81a5 933b e7d7 09be 157a c1bd
00000370: 288f 47bd 87dc 0bbd 9728 d33e f7e9 48bf
00000380: 51aa fe3d a325 59be c045 3bbf aa44 1a3e
00000390: 8884 153e f50f 9ebe 2bf1 76bd f5e4 eebd
000003a0: ccde 29be 4a84 373e c985 d33e 05cb a43d
000003b0: 7892 2d3e 0f17 183e 437c 0fbe 7e54 2a3e
000003c0: 5970 15be 44c9 86ba 52da 503d b7dd f93b
000003d0: 6eab 5f3b 0c2c 9bbd 85b0 a33c fe3c ecbd
000003e0: 4cb7 c0bd ac6d f0bd 7d37 2d3c c81a 8b3d
000003f0: 5cf3 033d 6b35 6bbd ea6a 5ebd 2241 d0bd

fc1.bias f4 [64]
0.47131702 -0.18176478 -0.0080547165 0.2838218 -0.24566175 -0.013996875 -0.56972647 0.68924356
0.21082748 0.75973064 0.300641 0.14220533 -0.19681412 0.53677136 -0.20241223 0.38082147
1.0267863 0.94383955 0.25752893 0.65341777 -0.023806114 -0.105711706 0.5726776 -0.33181715
-0.123345315 0.11860095 0.22095649 -0.29788175 0.28632298 0.48452735 0.15375406 -0.43274093
0.35300508 0.8728796 -0.043337647 0.2317668 -0.35753858 -0.33485165 -0.24213426 0.2555391
-0.14129531 -0.44397795 1.1178759 0.31086028 -0.1455365 -0.135519 -0.17488942 -0.26491067
-0.54897094 0.42823428 0.11905697 -0.34448162 0.008756221 -0.010993251 0.4637014 0.38801384
-0.26006225 -0.297628 -0.5235061 0.5112848 0.2915066 0.31609097 0.16376457 -0.22711807
00000000: 7750 f13e 8c20 3abe eef7 03bc 1751 913e
00000010: c18e 7bbe 2653 65bc 98d9 11bf 4472 303f
00000020: 29e3 573e b57d 423f 9eed 993e 469e 113e
00000030: a489 49be d969 093f 2745 4fbe 08fb c23e
00000040: bc6d 833f 789f 713f d5da 833e 6346 273f
00000050: 0a05 c3bc 617f d8bd 009b 123f f0e3 a9be
00000060: 789c fcbd 0ee5 f23d 6b42 623e f583 98be
00000070: ed98 923e f813 f83e b471 1d3e 3890 ddbe
00000080: 15bd b43e 0a75 5f3f d182 31bd 4754 6d3e
00000090: 4c0f b7be ad71 abbe 0bf2 77be 05d6 823e
000000a0: b8af 10be 1451 e3be 8f16 8f3f 1429 9f3e
000000b0: 8507 15be 7ec5 0abe 3616 33be 5fa2 87be
000000c0: 5c89 0cbf 8641 db3e 24d4 f33d e55f b0be
000000d0: 4176 0f3c 091d 34bc 456a ed3e c0a9 c63e
000000e0: e126 85be b262 98be 7f04 06bf 90e3 023f
000000f0: 5a40 953e add6 a13e e6b1 273e a491 68be

fc2.weight f4 [64, 64]
-0.011665784 0.8806262 -0.015988695 -0.21828544 -0.19429962 0.5008209 0.88566166 0.091014534
-0.014729646 0.0013367394 -0.40680143 -0.25398874 -0.5365373 0.12292682 0.35650873 -0.051515806
-0.3106874 -1.1990795 0.039771326 -0.70290554 0.61839366 -0.48413718 -0.625646 0.35541633
0.6633168 -0.7178751 -0.6054974 -0.18187276 0.059653107 -0.75637215 -0.4461495 0.62566745
-0.1956275 0.041698612 0.82635736 -1.0188539 0.9538644 -0.3659053 0.5067215 -1.0653661
0.3709953 -0.103339225 -0.78630483 0.3050154 0.25080565 0.49933678 -0.87587255 -0.82966405
0.55463034 -0.85056126 0.22277525 -0.49266028 0.56735164 0.057997733 -0.97291076 0.08820964
0.7459625 0.54582584 -0.8562087 0.38090125 0.037274115 -0.3453282 -0.5213056 0.06774267
0.34687033 0.23562865 -0.21540488 0.68550456 -0.008817786 0.39557832 0.46271208 -0.031839494
-0.056635633 0.237295 0.3812453 0.38535944 -0.45639536 0.0097990865 0.22824188 0.043679573
0.25746137 -0.31936142 -0.24968235 -0.15423024 -0.20989716 -0.011206099 0.40599194 0.3025853
0.089557685 -0.7305387 -0.099216245 0.08126651 0.16173576 0.08368382 -0.09101059 0.19007964
-0.121003054 -0.4641762 -0.3183487 0.34259704 -0.09669961 -0.04939166 -0.04957669 0.12724367
0.1825118 -0.21635345 -0.13293085 0.13193783 -0.1299635 0.064989 -0.28331852 -0.56656915
-0.007603721 0.0018545104 -0.3315337 0.046381734 -0.11594634 -0.08797565 0.34767523 -0.15036145
0.4528771 -0.04957529 0.034110166 -0.38240954 -0.08047516 0.72544974 0.027120816 -0.013437681
-1.1096103 -0.034472134 0.9720718 -0.1479888 -0.5034028 -0.040925615 1.4393224 -1.3337291
0.41945422 -0.31478548 -0.7196141 0.7504843 0.411271 -1.5608125 0.71824855 -0.5428227
-2.6505535 -3.5494435 0.17243032 -1.699653 0.024766903 0.32612908 -0.4249562 0.3829502
0.29727176 -0.13803412 -0.62164986 -0.03132667 -0.059168104 -0.53546196 -0.6552875 0.063521
-0.34888345 -1.876946 -0.6119765 -0.08718681 0.5987167 0.7473227 0.3128226 0.0075002504
0.34500736 0.09369338 -2.770049 -0.8172163 -0.33829182 0.30461207 -0.18432224 0.19705644
0.37224096 -0.1547901 -0.15196584 0.023949252 -0.39148417 0.21193695 -0.7644442 0.30206975
1.5771588 0.18596382 -0.23484056 -0.6783157 0.022649225 0.15439732 -0.54509205 -0.3103509
0.6031854 0.92890733 -0.8845201 0.5350268 1.0813562 0.28156367 -0.9137865 1.217668
-1.2122194 -0.25084186 0.80239856 -1.2773246 -1.1524246 1.0972095 -1.763374 -0.380473
1.4661833 0.9012876 -0.7907575 1.2948548 0.5419956 -1.1866214 1.0909492 0.5270989
0.8045762 -0.64315 -0.28572908 0.71594274 1.0499096 -0.6714929 0.65278935 0.7918662
-0.5553792 1.2686625 0.6160223 -0.73059726 0.39618754 -0.56307054 -0.5754566 -0.7116915
0.36632732 -0.72886384 1.2865868 1.0352993 1.3068496 -1.1143544 0.30443272 0.67589045
-0.9764794 -0.6870557 -0.5420004 0.647663 0.5000074 0.29419845 -0.2531754 -0.9373081
-0.61189073 0.7022038 1.1351457 0.46200132 0.11645408 0.8069596 -0.14260557 1.1307031
00000000: d821 3fbc b870 613f b9fa 82bc 3886 5fbe
00000010: 7bf6 46be cc35 003f b9ba 623f d465 ba3d
00000020: 9d54 71bc 8835 af3a 4748 d0be d00a 82be
00000030: 825a 09bf 0ec1 fb3d 5088 b63e 3d02 53bd
00000040: 6b12 9fbe 707b 99bf 42e7 223d 9ef1 33bf
00000050: 0c4f 1e3f d4e0 f7be 562a 20bf 21f9 b53e
00000060: 21cf 293f aac6 37bf e101 1bbf da3c 3abe
00000070: d156 743d 9ba1 41bf b56d e4be be2b 203f
00000080: 9352 48be 2acc 2a3d 288c 533f ce69 82bf
00000090: 7530 743f f157 bbbe 80b8 013f eb5d 88bf
000000a0: 19f3 bd3e 84a3 d3bd 464b 49bf fa2a 9c3e
000000b0: 9969 803e 12a9 ff3e 2f39 60bf dd64 54bf
000000c0: 41fc 0d3f 62be 59bf 321f 643e f83d fcbe
000000d0: f53d 113f 088f 6d3d ae10 79bf 41a7 b43d
000000e0: 66f7 3e3f 3ebb 0b3f 7e30 5bbf 7d05 c33e
000000f0: beac 183d dcce b0be 4974 05bf abbc 8a3d
00000100: fd98 b13e a348 713e 1993 5cbe 3a7d 2f3f
00000110: 7a78 10bc 3e89 ca3e 99e8 ec3e 216a 02bd
00000120: c4fa 67bd 76fd 723e 9532 c33e d54d c53e
00000130: a7ac e9be 598c 203c 3db8 693e 5ae9 323d
00000140: fad1 833e 5783 a3be bbac 7fbe 88ee 1dbe
00000150: 48ef 56be c999 37bc 2dde cf3e 76ec 9a3e
00000160: 056a b73d 9604 3bbf e331 cbbd 0e6f a63d
00000170: 0f9e 253e 6c62 ab3d c363 babd 3da4 423e
00000180: 73d0 f7bd 81a8 edbe 9afe a2be e168 af3e
00000190: 720a c6bd e94e 4abd ed10 4bbd 2a4c 023e
000001a0: 60e4 3a3e c28b 5dbe 061f 08be b61a 073e
000001b0: 2715 05be f418 853d 200f 91be ad0a 11bf
000001c0: a328 f9bb 0b13 f33a c9be a9be c6fa 3d3d
000001d0: 4675 edbd 942c b4bd 7d02 b23e 5af8 19be
000001e0: 82df e73e 760f 4bbd 1ab7 0b3d 2fcb c3be
000001f0: 29d0 a4bd 13b7 393f 792c de3c b829 5cbc
00000200: b607 8ebf a732 0dbd b3d9 783f 608a 17be
00000210: 02df 00bf 9ea1 27bd b73b b83f a3b7 aabf
00000220: b4c2 d63e 902b a1be a138 38bf bd1f 403f
00000230: 1d92 d23e b4c8 c7bf 23df 373f 6ef6 0abf
00000240: aba2 29c0 152a 63c0 9391 303e 3b8e d9bf
00000250: f6e3 ca3c 64fa a63e dc93 d9be 0c12 c43e
00000260: 0134 983e d158 0dbe 7224 1fbf 6550 00bd
00000270: 415a 72bd 0914 09bf ecc0 27bf 4c17 823d
00000280: daa0 b2be c43f f0bf 7eaa 1cbf 008f b2bd
00000290: 7f45 193f 8a50 3f3f 492a a03e a9c4 f53b
000002a0: cea4 b03e 51e2 bf3d 7c48 31c0 1635 51bf
000002b0: 9634 adbe 1df6 9b3e f8be 3cbe 2ac9 493e
000002c0: 5e96 be3e 4c81 1ebe ef9c 1bbe 3931 c43c
000002d0: 9d70 c8be 0006 593e 9db2 43bf e3a8 9a3e
000002e0: 57e0 c93f 4d6d 3e3e 0b7a 70be 19a6 2dbf
000002f0: de8a b93c 551a 1e3e 278b 0bbf 50e6 9ebe
00000300: 5c6a 1a3f dfcc 6d3f e96f 62bf 84f7 083f
00000310: e169 8a3f 1d29 903e e9ed 69bf 8cdc 9b3f
00000320: 012a 9bbf 586e 80be fe69 4d3f 5f7f a3bf
00000330: a682 93bf 5c71 8c3f 3db6 e1bf 5bcd c2be
00000340: e5ab bb3f c9ba 663f 156f 4abf cdbd a53f
00000350: 39c0 0a3f 36e3 97bf 39a4 8b3f f4ef 063f
00000360: b5f8 4d3f 7aa5 24bf 154b 92be 0648 373f
00000370: 7063 863f f5e6 2bbf 341d 273f beb7 4a3f
00000380: 552d 0ebf 8863 a23f a3b3 1d3f 6c08 3bbf
00000390: 18d9 ca3e 6425 10bf 2051 13bf 6a31 36bf
000003a0: 418f bb3e d296 3abf e0ae a43f b084 843f
000003b0: d946 a73f 2aa3 8ebf 9bde 9b3e 2807 2d3f
000003c0: 8efa 79bf e2e2 2fbf 8ac0 0abf 3ecd 253f
000003d0: 7c00 003f 2ea1 963e 35a0 81be 6cf3 6fbf
000003e0: dfa4 1cbf a1c3 333f 744c 913f 708b ec3e
000003f0: 7a7f ee3d e894 4e3f 3207 12be e1ba 903f

fc2.bias f4 [64]
-0.859922 0.14018874 -1.0542078 -0.16311613 -0.27365938 0.7775036 1.8814305 0.0796796
-0.3226522 -0.06719291 -2.10995 -2.0787623 -0.3251542 -0.27957258 1.8847247 -0.23761387
-0.27878097 1.8172314 0.41475764 1.537582 -0.51645446 -0.6246885 -1.134283 -0.6873734
0.7297302 -1.1057225 0.038848467 -0.7391257 0.21291667 -0.17813143 -0.8152051 -0.053874493
0.6087967 -0.26062298 0.33434346 -0.12600219 -0.008000255 0.116513915 -0.9468128 -0.07429912
-2.1174352 -0.0016307003 0.62231237 0.06783842 -0.1294091 -1.2900016 -0.5606173 0.07034254
1.0722919 0.4693791 0.8634554 0.7649609 1.1166885 -0.03585435 0.07038794 0.83882207
0.14339761 0.019175466 1.4618229 2.1272664 -0.27984664 -0.5190657 0.021880053 -1.6214454
00000000: d923 5cbf a38d 0f3e 48f0 86bf ea07 27be
00000010: 151d 8cbe 7a0a 473f b7d2 f03f 0f2f a33d
00000020: ab32 a5be 709c 89bd 6c09 07c0 710a 05c0
00000030: 9c7a a6be 2324 8fbe a93e f13f 0d51 73be
00000040: 61bc 8ebe 0a9b e83f 1d5b d43e 7dcf c43f
00000050: 5c36 04bf 96eb 1fbf 2f30 91bf b4f7 2fbf
00000060: 99cf 3a3f 5188 8dbf 921f 1f3d 5837 3dbf
00000070: d406 5a3e 1668 36be 48b1 50bf 80ab 5cbd
00000080: 1ada 1b3f 6070 85be 112f ab3e b806 01be
00000090: 8013 03bc d99e ee3d 5362 72bf 232a 98bd
000000a0: 0f84 07c0 39bd d5ba dd4f 1f3f dfee 8a3d
000000b0: d283 04be c61e a5bf 9e84 0fbf c00f 903d
000000c0: dc40 893f 7552 f03e 6a0b 5d3f 7ad4 433f
000000d0: a6ef 8e3f 03dc 12bd 8d27 903d 0bbd 563f
000000e0: d3d6 123e de15 9d3c 031d bb3f 2225 0840
000000f0: 0f48 8fbe 7de1 04bf cc3d b33c 868b cfbf

value.weight f4 [1, 64]
-7.545786 -7.6478186 -7.133431 7.2821255 7.3384943 -7.3243923 7.5445766 6.828096
-7.134028 -7.0401044 -7.6158457 -7.920512 7.3284707 7.4678125 7.0802307 7.478495
-7.038564 7.677378 -7.3267293 7.171266 7.32489 7.264521 -7.351596 7.2108126
-7.145868 -7.2460103 7.288969 -6.7795577 -7.4464374 -7.1956296 7.277794 7.3872385
-7.296774 6.9573936 7.368961 -7.430887 -7.7749543 7.048152 -7.866893 -7.5630803
-7.790988 -7.0037622 7.6722193 7.3784113 7.357073 -7.7734046 7.318023 7.2784057
6.932773 -7.3730283 7.6591988 6.788294 7.0298605 -7.138044 -7.3239317 7.1500063
7.381737 7.3444986 7.222652 7.856554 -7.129949 6.591522 -7.311493 -7.5585637
00000000: 1477 f1c0 eeba f4c0 1145 e4c0 2c07 e940
00000010: f2d4 ea40 6c61 eac0 2c6d f140 c37f da40
00000020: f549 e4c0 8948 e1c0 02b5 f3c0 d674 fdc0
00000030: d582 ea40 52f8 ee40 4091 e240 d54f ef40
00000040: eb3b e1c0 15ad f540 9174 eac0 037b e540
00000050: 8065 ea40 f576 e840 4640 ebc0 fabe e640
00000060: f3aa e4c0 51df e7c0 3c3f e940 23f2 d8c0
00000070: 3749 eec0 9942 e6c0 b0e3 e840 4264 ec40
00000080: 2c7f e9c0 f8a2 de40 87ce eb40 d4c9 edc0
00000090: 6dcc f8c0 768a e140 96bd fbc0 c104 f2c0
000000a0: c64f f9c0 d21e e0c0 d282 f540 f21b ec40
000000b0: 246d eb40 bbbf f8c0 3f2d ea40 b3e8 e840
000000c0: 47d9 dd40 d9ef ebc0 2818 f540 b439 d940
000000d0: 9ef4 e040 db6a e4c0 a65d eac0 dacc e440
000000e0: 3137 ec40 2206 eb40 f71f e740 e468 fb40
000000f0: 8b28 e4c0 c0ed d240 c0f7 e9c0 c1df f1c0

exp_avg f4 [1, 8]
-0.002211325 -0.0063075786 0.003602676 -0.0036271592 -0.006498652 0.0023092953 -0.0023996704 -0.0019945637
00000000: e1eb 10bb ceaf cebb e01a 6c3b a2b5 6dbb
00000010: a5f2 d4bb 8c57 173b ca43 1dbb 3ab7 02bb

exp_avg_sq f4 [1, 8]
0.00010889677 9.9216675e-05 0.00014377749 0.00012899448 8.164383e-05 0.00011431115 9.612526e-05 0.00010739673
00000000: 825f e438 8c12 d038 fac2 1639 b142 0739
00000010: 3338 ab38 55ba ef38 db96 c938 2e3a e138

exp_avg f4 [64, 111]
-1.1499636e-05 -0.0009762928 -0.0002837887 0.0002445312 0.0007186708 -0.0002272784 -0.00093469693 -0.00029091898
0.00061654387 -0.00017952229 0.000712755 -7.567438e-05 -0.0015334565 -0.0034632701 -0.0013901682 -0.0008331487
-1.6686246e-05 0.0008411749 0.002222862 0.0012987201 0.00042571613 -0.007324503 -0.0011808295 -0.002424675
-0.0031658327 0.0029540039 0.0011929871 0.0 0.0 0.0 0.0 0.0
0.0 0.0 0.0 0.0 0.0 0.0 0.0 0.0
0.0 0.0 0.0 0.0 0.0 0.0 0.0 0.0
0.0 0.0 0.0 0.0 0.0 0.0 0.0 0.0
0.0 0.0 0.0 0.0 0.0 0.0 0.0 0.0
0.0 0.0 0.0 0.0 0.0 0.0 0.0 0.0
0.0 0.0 0.0 0.0 0.0 0.0 0.0 0.0
0.0 0.0 0.0 0.0 0.0 0.0 0.0 0.0
0.0 0.0 0.0 0.0 0.0 0.0 0.0 0.0
0.0 0.0 0.0 0.0 0.0 0.0 0.0 0.0
0.0 0.0 0.0 0.0 0.0 0.0 0.0 0.0012110574
4.52811e-05 -0.00074274524 0.0007216816 -0.00029786828 -0.00049555843 -0.00013434046 -0.0003955461 -0.0001527541
-9.653046e-05 -0.00010829015 -2.6129086e-05 -0.0005854964 -0.0012112277 -0.0024559728 -0.0019302546 -0.0022206348
0.0035535095 0.0030955093 -6.881397e-05 0.002833114 -0.0021442932 0.00014618784 0.0009235915 0.0020054404
0.005001769 0.00035655286 0.0 0.0 0.0 0.0 0.0 0.0
0.0 0.0 0.0 0.0 0.0 0.0 0.0 0.0
0.0 0.0 0.0 0.0 0.0 0.0 0.0 0.0
0.0 0.0 0.0 0.0 0.0 0.0 0.0 0.0
0.0 0.0 0.0 0.0 0.0 0.0 0.0 0.0
0.0 0.0 0.0 0.0 0.0 0.0 0.0 0.0
0.0 0.0 0.0 0.0 0.0 0.0 0.0 0.0
0.0 0.0 0.0 0.0 0.0 0.0 0.0 0.0
0.0 0.0 0.0 0.0 0.0 0.0 0.0 0.0
0.0 0.0 0.0 0.0 0.0 0.0 0.0 0.0
0.0 0.0 0.0 0.0 0.0 0.0 -0.00071592804 -0.00089397473
0.00025792923 -0.0005873709 0.00015401366 0.00021191516 -9.176226e-05 0.0014209338 0.00039901305 0.00029434692
0.000344749 -0.0017617551 -0.00014717659 -0.004298712 0.0034936813 0.0046591815 0.005605943 -0.0078102686
-0.0075403857 0.0007268487 -0.00086335413 0.004314844 -0.0033935953 -0.0015776174 -0.0036061145 -0.00091176684
-4.1627132e-05 0.0 0.0 0.0 0.0 0.0 0.0 0.0
00000000: 8fee 40b7 e7ed 7fba 79c9 94b9 6c34 8039
00000010: 2e65 3c3a 9551 6eb9 7306 75ba 7c86 98b9
00000020: 8f9f 213a 263e 3cb9 2ed8 3a3a 60b3 9eb8
00000030: 43fe c8ba 08f8 62bb 4e36 b6ba aa67 5aba
00000040: 71f9 8bb7 4b82 5c3a 70ad 113b d139 aa3a
00000050: a732 df39 6202 f0bb 10c6 9aba 4ce7 1ebb
00000060: dc79 4fbb f697 413b 015e 9c3a 0000 0000
00000070: 0000 0000 0000 0000 0000 0000 0000 0000
00000080: 0000 0000 0000 0000 0000 0000 0000 0000
00000090: 0000 0000 0000 0000 0000 0000 0000 0000
000000a0: 0000 0000 0000 0000 0000 0000 0000 0000
000000b0: 0000 0000 0000 0000 0000 0000 0000 0000
000000c0: 0000 0000 0000 0000 0000 0000 0000 0000
000000d0: 0000 0000 0000 0000 0000 0000 0000 0000
000000e0: 0000 0000 0000 0000 0000 0000 0000 0000
000000f0: 0000 0000 0000 0000 0000 0000 0000 0000
00000100: 0000 0000 0000 0000 0000 0000 0000 0000
00000110: 0000 0000 0000 0000 0000 0000 0000 0000
00000120: 0000 0000 0000 0000 0000 0000 0000 0000
00000130: 0000 0000 0000 0000 0000 0000 0000 0000
00000140: 0000 0000 0000 0000 0000 0000 0000 0000
00000150: 0000 0000 0000 0000 0000 0000 0000 0000
00000160: 0000 0000 0000 0000 0000 0000 0000 0000
00000170: 0000 0000 0000 0000 0000 0000 0000 0000
00000180: 0000 0000 0000 0000 0000 0000 0000 0000
00000190: 0000 0000 0000 0000 0000 0000 0000 0000
000001a0: 0000 0000 0000 0000 0000 0000 0000 0000
000001b0: 0000 0000 0000 0000 0000 0000 58bc 9e3a
000001c0: 36ec 3d38 cab4 42ba 3b2f 3d3a 342b 9cb9
000001d0: 5de8 01ba bedd 0cb9 4d61 cfb9 9e2c 20b9
000001e0: 6570 cab8 d519 e3b8 c92f dbb7 007c 19ba
000001f0: 0fc2 9eba 63f4 20bb 9900 fdba 1288 11bb
00000200: ffe1 683b 07de 4a3b 3850 90b8 c4ab 393b
00000210: 4587 0cbb 004a 1939 2d1d 723a b56d 033b
00000220: e1e5 a33b b7ef ba39 0000 0000 0000 0000
00000230: 0000 0000 0000 0000 0000 0000 0000 0000
00000240: 0000 0000 0000 0000 0000 0000 0000 0000
00000250: 0000 0000 0000 0000 0000 0000 0000 0000
00000260: 0000 0000 0000 0000 0000 0000 0000 0000
00000270: 0000 0000 0000 0000 0000 0000 0000 0000
00000280: 0000 0000 0000 0000 0000 0000 0000 0000
00000290: 0000 0000 0000 0000 0000 0000 0000 0000
000002a0: 0000 0000 0000 0000 0000 0000 0000 0000
000002b0: 0000 0000 0000 0000 0000 0000 0000 0000
000002c0: 0000 0000 0000 0000 0000 0000 0000 0000
000002d0: 0000 0000 0000 0000 0000 0000 0000 0000
000002e0: 0000 0000 0000 0000 0000 0000 0000 0000
000002f0: 0000 0000 0000 0000 0000 0000 0000 0000
00000300: 0000 0000 0000 0000 0000 0000 0000 0000
00000310: 0000 0000 0000 0000 0000 0000 0000 0000
00000320: 0000 0000 0000 0000 0000 0000 0000 0000
00000330: 0000 0000 0000 0000 0000 0000 0000 0000
00000340: 0000 0000 0000 0000 0000 0000 0000 0000
00000350: 0000 0000 0000 0000 0000 0000 0000 0000
00000360: 0000 0000 0000 0000 0000 0000 0000 0000
00000370: 0000 0000 0000 0000 1ead 3bba a159 6aba
00000380: ad3a 8739 cbf9 19ba ba7e 2139 8b35 5e39
00000390: 7d70 c0b8 a03e ba3a a032 d139 9352 9a39
000003a0: 6dbf b439 b1ea e6ba 6a53 1ab9 36dc 8cbb
000003b0: 3ff6 643b 0cac 983b 0fb2 b73b 48ed ffbb
000003c0: 5715 f7bb fe89 3e3a b752 62ba 8963 8d3b
000003d0: 1567 5ebb 0ec8 ceba 9054 6cbb a303 6fba
000003e0: cb98 2eb8 0000 0000 0000 0000 0000 0000
000003f0: 0000 0000 0000 0000 0000 0000 0000 0000

exp_avg_sq f4 [64, 111]
1.6277763e-05 3.1231073e-05 1.2895533e-06 1.6078811e-06 8.568453e-06 1.9520792e-05 1.1222939e-05 2.286185e-05
8.908116e-06 1.4489862e-05 9.483087e-06 2.1722628e-05 1.7837681e-05 0.0003959549 4.656314e-05 6.813461e-05
9.239953e-05 9.0241505e-05 6.2092986e-05 0.00020184906 7.135401e-05 0.00035558536 2.9335371e-05 0.00011391386
3.8326252e-05 0.00039414637 0.00016217523 0.0 0.0 0.0 0.0 0.0
0.0 0.0 0.0 0.0 0.0 0.0 0.0 0.0
0.0 0.0 0.0 0.0 0.0 0.0 0.0 0.0
0.0 0.0 0.0 0.0 0.0 0.0 0.0 0.0
0.0 0.0 0.0 0.0 0.0 0.0 0.0 0.0
0.0 0.0 0.0 0.0 0.0 0.0 0.0 0.0
0.0 0.0 0.0 0.0 0.0 0.0 0.0 0.0
0.0 0.0 0.0 0.0 0.0 0.0 0.0 0.0
0.0 0.0 0.0 0.0 0.0 0.0 0.0 0.0
0.0 0.0 0.0 0.0 0.0 0.0 0.0 0.0
0.0 0.0 0.0 0.0 0.0 0.0 0.0 1.2025379e-05
2.2895887e-05 1.048774e-06 1.5934222e-06 7.518029e-06 1.3850093e-05 8.370391e-06 2.1816344e-05 7.2033486e-06
1.3281912e-05 6.9850107e-06 2.1896349e-05 1.3890075e-05 0.00030774405 3.5593384e-05 5.71146e-05 7.311408e-05
5.8745074e-05 4.8027163e-05 0.00013704464 6.6491404e-05 0.000175721 3.5404275e-05 9.022181e-05 3.6344118e-05
0.00021231495 0.0001694428 0.0 0.0 0.0 0.0 0.0 0.0
0.0 0.0 0.0 0.0 0.0 0.0 0.0 0.0
0.0 0.0 0.0 0.0 0.0 0.0 0.0 0.0
0.0 0.0 0.0 0.0 0.0 0.0 0.0 0.0
0.0 0.0 0.0 0.0 0.0 0.0 0.0 0.0
0.0 0.0 0.0 0.0 0.0 0.0 0.0 0.0
0.0 0.0 0.0 0.0 0.0 0.0 0.0 0.0
0.0 0.0 0.0 0.0 0.0 0.0 0.0 0.0
0.0 0.0 0.0 0.0 0.0 0.0 0.0 0.0
0.0 0.0 0.0 0.0 0.0 0.0 0.0 0.0
0.0 0.0 0.0 0.0 0.0 0.0 1.1100456e-05 4.6151345e-05
1.1406647e-06 1.5164138e-06 1.09911325e-05 2.8971894e-05 8.930637e-06 2.9221106e-05 1.1945396e-05 1.8433655e-05
1.1889473e-05 2.725501e-05 4.6775705e-05 0.0006407671 8.311402e-05 0.00011800155 0.00015576712 0.00019106857
0.00010314962 0.0003636553 5.9684517e-05 0.0007524709 3.2449156e-05 0.00018473822 3.658856e-05 0.000810194
0.00037007124 0.0 0.0 0.0 0.0 0.0 0.0 0.0
00000000: 3b8c 8837 1cfe 0238 b714 ad35 60ce d735
00000010: 3ac1 0f37 95c0 a337 284a 3c37 73c7 bf37
00000020: 1174 1537 7c19 7337 8c19 1f37 fd38 b637
00000030: 21a2 9537 2b98 cf39 ca4c 4338 7de3 8e38
00000040: 9fc6 c138 0a40 bd38 eb37 8238 72a7 5339
00000050: e4a3 9538 dc6d ba39 3b15 f637 0ae5 ee38
00000060: 80c0 2038 6ea5 ce39 950d 2a39 0000 0000
00000070: 0000 0000 0000 0000 0000 0000 0000 0000
00000080: 0000 0000 0000 0000 0000 0000 0000 0000
00000090: 0000 0000 0000 0000 0000 0000 0000 0000
000000a0: 0000 0000 0000 0000 0000 0000 0000 0000
000000b0: 0000 0000 0000 0000 0000 0000 0000 0000
000000c0: 0000 0000 0000 0000 0000 0000 0000 0000
000000d0: 0000 0000 0000 0000 0000 0000 0000 0000
000000e0: 0000 0000 0000 0000 0000 0000 0000 0000
000000f0: 0000 0000 0000 0000 0000 0000 0000 0000
00000100: 0000 0000 0000 0000 0000 0000 0000 0000
00000110: 0000 0000 0000 0000 0000 0000 0000 0000
00000120: 0000 0000 0000 0000 0000 0000 0000 0000
00000130: 0000 0000 0000 0000 0000 0000 0000 0000
00000140: 0000 0000 0000 0000 0000 0000 0000 0000
00000150: 0000 0000 0000 0000 0000 0000 0000 0000
00000160: 0000 0000 0000 0000 0000 0000 0000 0000
00000170: 0000 0000 0000 0000 0000 0000 0000 0000
00000180: 0000 0000 0000 0000 0000 0000 0000 0000
00000190: 0000 0000 0000 0000 0000 0000 0000 0000
000001a0: 0000 0000 0000 0000 0000 0000 0000 0000
000001b0: 0000 0000 0000 0000 0000 0000 9cc0 4937
000001c0: 8b10 c037 9ac3 8c35 92dd d535 6143 fc36
000001d0: b25d 6837 8e6e 0c37 3e02 b737 4bb4 f136
000001e0: 61d5 5e37 c960 ea36 0dae b737 6b09 6937
000001f0: b558 a139 1b4a 1538 568e 6f38 d354 9938
00000200: 0b65 7638 c670 4938 a4b3 0f39 4d71 8b38
00000210: bf41 3839 0d7f 1438 7735 bd38 3370 1838
00000220: dca0 5e39 75ac 3139 0000 0000 0000 0000
00000230: 0000 0000 0000 0000 0000 0000 0000 0000
00000240: 0000 0000 0000 0000 0000 0000 0000 0000
00000250: 0000 0000 0000 0000 0000 0000 0000 0000
00000260: 0000 0000 0000 0000 0000 0000 0000 0000
00000270: 0000 0000 0000 0000 0000 0000 0000 0000
00000280: 0000 0000 0000 0000 0000 0000 0000 0000
00000290: 0000 0000 0000 0000 0000 0000 0000 0000
000002a0: 0000 0000 0000 0000 0000 0000 0000 0000
000002b0: 0000 0000 0000 0000 0000 0000 0000 0000
000002c0: 0000 0000 0000 0000 0000 0000 0000 0000
000002d0: 0000 0000 0000 0000 0000 0000 0000 0000
000002e0: 0000 0000 0000 0000 0000 0000 0000 0000
000002f0: 0000 0000 0000 0000 0000 0000 0000 0000
00000300: 0000 0000 0000 0000 0000 0000 0000 0000
00000310: 0000 0000 0000 0000 0000 0000 0000 0000
00000320: 0000 0000 0000 0000 0000 0000 0000 0000
00000330: 0000 0000 0000 0000 0000 0000 0000 0000
00000340: 0000 0000 0000 0000 0000 0000 0000 0000
00000350: 0000 0000 0000 0000 0000 0000 0000 0000
00000360: 0000 0000 0000 0000 0000 0000 0000 0000
00000370: 0000 0000 0000 0000 183c 3a37 a192 4138
00000380: f118 9935 9587 cb35 8e66 3837 ab08 f337
00000390: cbd4 1537 d91f f537 1669 4837 f9a1 9a37
000003a0: e678 4737 b0a1 e437 0831 4438 27f9 273a
000003b0: 804d ae38 9a77 f738 6b55 2339 9459 4839
000003c0: 0852 d838 fda8 be39 c355 7a38 7841 453a
000003d0: 041a 0838 4ab6 4139 ab76 1938 3363 543a
000003e0: 1f06 c239 0000 0000 0000 0000 0000 0000
000003f0: 0000 0000 0000 0000 0000 0000 0000 0000
