drl/ran2/Ant5000_ran2_weights.pth (torch, 292976 bytes, 36 tensors)

log_std f4 [1, 8]
-1.4463443 -1.8257434 -1.3018273 -1.3232576 -1.4304413 -1.4804273 -1.327543 -1.4337082
00000000: cf21 b9bf f6b1 e9bf 47a2 a6bf 8160 a9bf
00000010: b318 b7bf a47e bdbf eeec a9bf c083 b7bf

fc1.weight f4 [64, 111]
-0.12239721 0.04858335 0.15282848 -0.020871064 0.18539502 -0.084569104 -0.03949608 0.017103
0.07270233 0.1098354 -0.17119454 -0.16373888 0.098841734 -0.096551575 -0.022249999 0.05704593
-0.0003639875 0.07437533 -0.12250563 -0.03930685 -0.21345058 0.03641758 -0.16963798 -0.021132799
0.036008894 -0.032763805 0.080939315 -0.007791511 -0.034695953 0.056769438 -0.06900812 -0.024754101
0.06750601 0.094654165 0.116563104 -0.17333615 -0.116805494 0.009880112 0.08167458 -0.0754959
-0.14210315 0.09653318 -0.012955543 -0.14053504 0.039643902 0.017880451 0.09907145 -0.0030286445
-0.031915832 -0.13422713 -0.0986604 0.028764538 -0.095582075 -0.05567561 0.06744774 0.01865231
-0.054841746 0.017509993 -0.20823483 -0.038617138 0.08164473 -0.0072367457 0.114925005 -0.11166557
0.015404698 0.17266017 -0.27381602 -0.018573742 0.08292072 0.045017265 0.056179937 -0.10840436
0.0485582 -0.0944305 -0.033283427 0.06672744 0.03566428 0.0253633 -0.08033475 0.06265204
0.033814237 -0.0062516457 0.015303888 0.03234271 0.2078293 -0.12379017 -0.012662644 0.12517343
-0.06809961 -0.06350179 0.06374925 0.05202433 -0.022890676 0.13769273 -0.16256693 0.13295528
-0.00035645542 0.0860497 -0.005974742 -0.1401145 -0.10596994 -0.03743048 0.099702515 0.15004446
-0.026453504 -0.16842665 -0.04930465 0.013555835 0.11235863 -0.016593821 0.053479962 0.16103081
0.04758559 -0.19983056 0.0434488 0.03583379 0.0068895635 -0.10740528 0.13984881 0.097162895
-0.093423836 -0.013130615 0.032260098 0.05118516 -0.058084574 -0.16310616 -0.0002752 0.04252723
-0.012073951 -0.04001793 -0.086565964 -0.10887831 0.14349507 0.0026633956 -0.082715936 0.18910085
-0.063290685 -0.055417538 -0.11657074 -0.00066049065 -0.06652913 -0.057159927 0.025817506 0.051236734
-0.13591032 -0.057719786 0.0975515 -0.10133125 -0.038597915 0.1680809 -0.059719175 -0.039446983
-0.08748309 -0.04450521 0.22466932 0.17317238 0.03858966 -0.09562479 -0.106398255 -0.16580851
0.063220404 -0.062119074 0.031688605 -0.020121159 0.110400334 -0.05961324 -0.02372453 0.19603951
0.24343407 0.057757493 -0.0587891 0.07133382 -0.061221518 0.0474649 0.17703475 -0.037319347
-0.030486545 -0.16142456 -0.005817401 0.022061879 0.05821295 0.02391662 0.2657637 0.10560833
0.012400558 0.017755393 -0.006800742 -0.06435123 -0.053520713 -0.006323616 0.17159422 0.004974091
0.059477307 0.03846698 -0.11464971 -0.13777499 -0.08426107 0.07474795 -0.011021227 0.09219387
0.06261686 -0.038727954 -0.038466405 0.021556528 0.083806306 0.028953047 0.15719381 0.028292691
0.15193848 0.04856585 -0.045423027 0.16819157 -0.00035607637 -0.025414364 0.053540044 0.004392755
-0.076920815 0.038756616 0.020872656 -0.00936038 0.05181312 -0.058585856 0.1723126 -0.13999954
-0.0537046 0.006869431 0.251537 0.056692865 -0.13090225 0.09616369 0.062994696 0.10940809
0.20468508 -0.1965393 -0.028147874 -0.094555564 0.0700006 0.009644877 -0.073059164 0.025063194
-0.013076004 0.0115318755 0.1090028 -0.03220222 -0.0066940533 0.06005053 0.13276123 -0.12820053
-0.0023620012 0.03615233 0.054284118 -0.005929872 0.024806075 -0.1222957 -0.023982398 0.035926133
00000000: 63ab fabd 56ff 463d 127f 1c3e cbf9 aabc
00000010: 31d8 3d3e 9132 adbd a4c6 21bd 971b 8c3c
00000020: f6e4 943d 62f1 e03d 9f4d 2fbe 2aab 27be
00000030: 896d ca3d d5bc c5bd a145 b6bc fea8 693d
00000040: 93d5 beb9 1852 983d 3be4 fabd 3800 21bd
00000050: ca92 5abe 9a2a 153d 94b5 2dbe b11e adbc
00000060: 107e 133d 5733 06bd 83c3 a53d ee4f ffbb
00000070: 581d 0ebd 1287 683d 2154 8dbd 1dc9 cabc
00000080: 9740 8a3d 0bda c13d a3b8 ee3d 087f 31be
00000090: b837 efbd 31e0 213c 0145 a73d 989d 9abd
000000a0: 7d83 11be 30b3 c53d 7c43 54bc 6be8 0fbe
000000b0: a561 223d 067a 923c f9e5 ca3d 397c 46bb
000000c0: 2dba 02bd d672 09be 770e cabd 9ca3 eb3c
000000d0: 89c0 c3bd 1c0c 64bd 0a22 8a3d bbcc 983c
000000e0: bda1 60bd 1e71 8f3c 833b 55be 012d 1ebd
000000f0: 5a35 a73d 3922 edbb cd5d eb3d ebb0 e4bd
00000100: fd63 7c3c d4cd 303e 9d31 8cbe f627 98bc
00000110: 57d2 a93d 0664 383d ef1c 663d 1b03 debd
00000120: f7e4 463d c764 c1bd 3454 08bd 65a8 883d
00000130: b514 123d b2c6 cf3c 8c86 a4bd b64f 803d
00000140: cc80 0a3d 9bda ccbb 29bd 7a3c ca79 043d
00000150: 34d1 543e b385 fdbd fa76 4fbc 772d 003e
00000160: cf77 8bbd 3a0d 82bd f78e 823d 7717 553d
00000170: 3a85 bbbc 53ff 0c3e f277 26be 6e25 083e
00000180: a3e2 bab9 d33a b03d c5c7 c3bb 2d7a 0fbe
00000190: c506 d9bd b450 19bd d530 cc3d 41a5 193e
000001a0: 05b5 d8bc 0978 2cbe acf3 49bd 4b19 5e3c
000001b0: 481c e63d c4ef 87bc ce0d 5b3d 43e5 243e
000001c0: 1ce9 423d 62a0 4cbe 5ef7 313d 74c6 123d
000001d0: d9c1 e13b 4df7 dbbd 8734 0f3e 57fd c63d
000001e0: ff54 bfbd cb21 57bc 2a23 043d 88a7 513d
000001f0: 17ea 6dbd 4d05 27be b848 90b9 0831 2e3d
00000200: d2d1 45bc d7e9 23bd 7f49 b1bd 97fb debd
00000210: 5ff0 123e 5d8c 2e3b f966 a9bd a7a3 413e
00000220: 8c9e 81bd 80fd 62bd a4bc eebd c724 2dba
00000230: 6d40 88bd 8720 6abd 3c7f d33c 9cdd 513d
00000240: 132c 0bbe 956b 6cbd 15c9 c73d c286 cfbd
00000250: d918 1ebd 661d 2c3e 189c 74bd 2993 21bd
00000260: 562a b3bd 184b 36bd b70f 663e 1a54 313e
00000270: 3110 1e3d eed6 c3bd 54e7 d9bd b5c9 29be
00000280: b379 813d 9270 7ebd e9cb 013d 21d5 a4bc
00000290: 9219 e23d 032d 74bd f259 c2bc 95be 483e
000002a0: c846 793e 1f93 6c3d d7cc 70bd 7717 923d
000002b0: 6ac3 7abd 8e6a 423d 9948 353e 2cdc 18bd
000002c0: ebbe f9bc 7b4c 25be e69f bebb 1dbb b43c
000002d0: b470 6e3d caec c33c 2e12 883e 2e49 d83d
000002e0: b62b 4b3c c273 913c c2d8 debb 94ca 83bd
000002f0: 8938 5bbd 5636 cfbb 65b6 2f3e b3fd a23b
00000300: 7a9e 733d 8d8f 1d3d 78cd eabd e314 0dbe
00000310: 1191 acbd 7415 993d 6092 34bc 24d0 bc3d
00000320: 453d 803d 34a1 1ebd f38e 1dbd 5197 b03c
00000330: a4a2 ab3d f12e ed3c 6af7 203e 13c6 e73c
00000340: c395 1b3e fcec 463d 7f0d 3abd 693a 2c3e
00000350: c3af bab9 c931 d0bc ce4c 5b3d 1af1 8f3b
00000360: a988 9dbd 42bf 1e3d 22fd aa3c 475c 19bc
00000370: fe39 543d b9f7 6fbd b772 303e 0a5c 0fbe
00000380: 5bf9 5bbd f718 e13b 75c9 803e c736 683d
00000390: 3d0b 06be 78f1 c43d 5d03 813d 5911 e03d
000003a0: f798 513e 9941 49be 5f96 e6bc 59a6 c1bd
000003b0: 795c 8f3d 8c05 1e3c 0ba0 95bd 5451 cd3c
000003c0: bc3c 56bc 31f0 3c3c dc3c df3d 7ae6 03bd
000003d0: ca59 dbbb 8bf7 753d 8ff2 073e 0047 03be
000003e0: cecb 1abb 7714 143d 0659 5e3d 5f4f c2bb
000003f0: 1c36 cb3c 2b76 fabd bc76 c4bc 4827 133d

fc1.bias f4 [64]
0.016335407 0.0028703208 -0.035639662 -0.01152254 -0.06923724 -0.0075665466 0.036404736 -0.0011650685
-0.026088554 -0.0019059698 0.017365146 -0.00039196975 -0.017175986 0.054814477 0.007294464 -0.008519555
0.020289624 0.00626073 0.082188964 0.016732907 0.078795485 -0.030579148 -0.07929395 0.013829187
0.014756211 0.05896243 0.018862616 -0.016571289 0.017936103 -0.011177387 -0.019301055 -0.018110715
-0.036025673 0.05048898 0.016174342 0.003700649 0.022901347 0.009933871 -0.01901842 0.028078895
-0.022723578 0.04811451 -0.004405641 -0.02546289 0.0167461 0.009886433 -0.062349096 0.020420372
0.009086566 0.11110484 -0.082544625 -0.0032031608 -0.033762097 -0.015023845 -0.020549336 0.021093355
0.008577793 -0.011793164 0.008405997 0.035240028 0.025958268 0.016742853 -0.03314705 -0.050168343
00000000: d5d1 853c fe1b 3c3b e5fa 11bd 09c9 3cbc
00000010: 41cc 8dbd cbf0 f7bb 221d 153d 36b5 98ba
00000020: aab7 d5bc bcd1 f9ba 5a41 8e3c 4a81 cdb9
00000030: a7b4 8cbc 2585 603d 6606 ef3b 9b95 0bbc
00000040: 6d36 a63c cf26 cd3b b052 a83d 7313 893c
00000050: 875f a13d 1f81 fabc de64 a2bd d093 623c
00000060: 09c4 713c 9782 713d c685 9a3c 83c0 87bc
00000070: bcee 923c 5c21 37bc 3f1d 9ebc ec5c 94bc
00000080: a88f 13bd 88cd 4e3d 0e80 843c 9686 723b
00000090: 9b9b bb3c adc1 223c 84cc 9bbc b605 e63c
000000a0: cc26 babc b813 453d 325d 90bb 8d97 d0bc
000000b0: 1e2f 893c b5fa 213c c461 7fbd a048 a73c
000000c0: d2df 143c ef8a e33d 280d a9bd 1fec 51bb
000000d0: 204a 0abd 9326 76bc 1557 a8bc f9cb ac3c
000000e0: df89 0c3c 1d38 41bc 4fb9 093c d957 103d
000000f0: 6fa6 d43c 4f28 893c 33c5 07bd 527d 4dbd

fc2.weight f4 [64, 64]
0.13850893 -0.08657139 -0.09564263 -0.051519997 0.2242917 -0.04167635 0.18403591 -0.0028655953
0.041820213 0.18759489 0.086778246 0.036955588 -0.1345833 -0.31164432 0.09958356 -0.051442355
0.19169332 -0.0407671 0.083589 -0.1059357 -0.05382962 -0.021892965 -0.1613227 0.017101187
0.06149139 0.20603386 0.048759434 0.087473765 -0.0790046 -0.07518087 -0.0002981279 -0.15537478
0.024320435 0.04092258 0.021995503 -0.05473241 0.058571674 0.15744853 0.3862564 -0.0049457955
0.13718909 0.13713168 -0.08323901 0.14292653 0.11675478 -0.14097555 0.12676397 -0.096487924
0.1864926 -0.06282993 0.08117026 -0.035970785 -0.05022578 -0.17692724 -0.041668035 0.092687964
-0.09544667 -0.20933148 0.21952382 -0.035090066 -0.0038515448 -0.22337846 -0.07976993 0.02074577
-0.01852966 0.38523272 -0.17407809 0.10545855 -0.03400721 -0.017866438 0.2748122 0.17342982
0.10356552 0.13330536 -0.028725186 -0.12884842 -0.19624513 0.0057308073 0.12855455 0.16017994
-0.173715 -0.18634027 -0.01685887 -0.111555934 0.03259445 -0.12073601 -0.07164394 0.051954772
-0.054519653 -0.14421913 0.0314192 -0.07309891 0.04274718 -0.078505844 0.059124727 0.06486293
-0.097420715 0.034654353 -0.25240937 -0.081060894 0.05908862 0.12932704 0.028968597 -0.24264787
-0.013307121 0.021168802 0.058517512 -0.07398227 -0.0303494 -0.0051280237 -0.13805473 -0.06568294
0.004759263 -0.10395846 0.004013094 0.057812493 0.015338937 -0.08627457 -0.117799066 -0.0026450697
0.2787839 0.1125786 -0.04462983 0.17533295 0.033104476 -0.06929547 -0.11459056 0.14261462
-0.23558506 -0.019735603 -0.14887989 -0.058395296 -0.012599685 0.00650311 -0.08718083 -0.11030105
-0.085908264 0.112836525 -0.10319535 -0.1792314 0.040161822 0.11691191 0.094377525 0.035518706
-0.2175131 -0.13298547 0.41738483 -0.014658127 0.11432956 -0.19217731 -0.01949036 -0.07335646
0.10617464 0.081793986 0.030659378 -0.13256985 -0.019480586 0.01863562 0.10201708 -0.052366827
0.027837243 0.12894075 0.070051655 0.0012894049 -0.19544645 -0.05257618 0.06698081 -0.19407181
-0.023901554 0.27525702 -0.20003584 -0.14922917 0.18045238 -0.14928423 0.09881046 0.087813236
-0.012271208 0.16133994 -0.09942088 -0.14163785 0.0072120726 -0.013125493 0.08415618 -0.08173143
-0.07469132 -0.01891933 0.061884195 0.036501717 0.105186045 0.18089953 -0.12419075 -0.024514468
0.00989757 0.02082005 -0.0010161306 -0.1224434 -0.2817374 0.016593717 -0.0772097 -0.047080863
0.059175022 0.28370053 -0.1151441 0.27175543 -0.094857104 0.062960945 0.17452224 -0.04302868
0.0350497 0.063183695 -0.042617463 -0.15616645 0.022986876 -0.10543754 0.109074 -0.039129
-0.041621327 0.088557996 0.041131545 -0.24492909 -0.175047 0.11906042 0.019369027 0.15286653
0.013271268 -0.17423375 -0.19025835 0.14802192 -0.1455729 0.004700743 -0.038555156 -0.07258828
0.029593943 0.021399543 -0.10763354 0.088810675 0.06668812 -0.018075252 -0.15176845 -0.07675438
-0.21150008 0.02639748 0.09431006 -0.07068999 -0.048466157 0.09058694 0.19229196 0.05107676
-0.04636145 0.004213914 0.25395373 0.047087267 -0.26934376 -0.16644756 -0.05691155 -0.054287948
00000000: 49d5 0d3e 574c b1bd 48e0 c3bd a206 53bd
00000010: b9ac 653e d2b4 2abd e973 3c3e b6cc 3bbb
00000020: ac4b 2b3d e018 403e cbb8 b13d be5e 173d
00000030: 34d0 09be d88f 9fbe 77f2 cb3d 38b5 52bd
00000040: 414b 443e 67fb 26bd b630 ab3d d1f4 d8bd
00000050: 737c 5cbd e058 b3bc c731 25be ca17 8c3c
00000060: 65de 7b3d 8afa 523e f9b7 473d 7225 b33d
00000070: 2acd a1bd 6ef8 99bd 0d4e 9cb9 911a 1fbe
00000080: a63b c73c 6f9e 273d ea2f b43c 172f 60bd
00000090: dae8 6f3d 303a 213e 66c3 c53e 5710 a2bb
000000a0: 4c7b 0c3e 3f6c 0c3e 3779 aabd 555b 123e
000000b0: 211d ef3d e55b 10be 6ace 013e 769b c5bd
000000c0: ebf7 3e3e faac 80bd 983c a63d 1a56 13bd
000000d0: 8cb9 4dbd 6a2c 35be 1aac 2abd 30d3 bd3d
000000e0: 8b79 c3bd fe5a 56be daca 603e 9aba 0fbd
000000f0: 336a 7cbb 53bd 64be 6b5e a3bd 08f3 a93c
00000100: 83cb 97bc 393d c53e 8741 32be a7fa d73d
00000110: 254b 0bbd a35c 92bc 2fb4 8c3e 9697 313e
00000120: 291a d43d 3381 083e 1551 ebbc d7f0 03be
00000130: 7cf4 48be 7fc9 bb3b cea3 033e 3606 243e
00000140: 58e2 31be fccf 3ebe 9d1b 8abc 7077 e4bd
00000150: c281 053d 7144 f7bd 0fba 92bd 87ce 543d
00000160: 0050 5fbd 2eae 13be 6bb1 003d e2b4 95bd
00000170: ab17 2f3d acc7 a0bd c52c 723d dbd6 843d
00000180: 8384 c7bd b9f1 0d3d cd3b 81be 4103 a6bd
00000190: e906 723d 4f6e 043e 8d4f ed3c af78 78be
000001a0: 1c06 5abc 326a ad3c 0fb0 6f3d 0484 97bd
000001b0: 4e9f f8bc fb08 a8bb 385e 0dbe c784 86bd
000001c0: 97f3 9b3b 2ce8 d4bd 4680 833b cbcc 6c3d
000001d0: 2a50 7b3c b9b0 b0bd a340 f1bd e858 2dbb
000001e0: c3bc 8e3e 9c8f e63d c5cd 36bd 7b8a 333e
000001f0: 8f98 073d c9ea 8dbd 75ae eabd 9109 123e
00000200: 363d 71be 8fac a1bc f873 18be e82f 6fbd
00000210: e96e 4ebc 0a18 d53b dd8b b2bd 84e5 e1bd
00000220: acf0 afbd d616 e73d 1558 d3bd 7088 37be
00000230: b980 243d 836f ef3d 0149 c13d 107c 113d
00000240: c1bb 5ebe 582d 08be 77b3 d53e a428 70bc
00000250: 9e25 ea3d 21ca 44be 3faa 9fbc e93b 96bd
00000260: 1772 d93d 9b83 a73d 6029 fb3c 64c0 07be
00000270: c095 9fbc baa9 983c 55ee d03d 997e 56bd
00000280: ee0a e43c 0b09 043e 3e77 8f3d 4001 a93a
00000290: 1d23 48be 1f5a 57bd 3c2d 893d c3ba 46be
000002a0: 31cd c3bc 7dee 8c3e 32d6 4cbe 88cf 18be
000002b0: 82c8 383e f7dd 18be 235d ca3d 6dd7 b33d
000002c0: 2d0d 49bc 4c36 253e 2d9d cbbd 8309 11be
000002d0: 4053 ec3b 4f0c 57bc 135a ac3d cf62 a7bd
000002e0: c3f7 98bd b6fc 9abc 487a 7d3d d382 153d
000002f0: c86b d73d ba3d 393e b857 febd 91d2 c8bc
00000300: 6b29 223c cf8e aa3c af2f 85ba 9bc3 fabd
00000310: e23f 90be 8cef 873c 1f20 9ebd ddd7 40bd
00000320: 8261 723d 3241 913e abd0 ebbd 8723 8b3e
00000330: 7144 c2bd abf1 803d f5b5 323e d73e 30bd
00000340: 4690 0f3d 7466 813d a68f 2ebd 19ea 1fbe
00000350: f94e bc3c a3ef d7bd 3062 df3d bb45 20bd
00000360: 207b 2abd e55d b53d 8d79 283d b1ce 7abe
00000370: 853f 33be f3d5 f33d cbab 9e3c 0b89 1c3e
00000380: bc6f 593c 556a 32be 16d3 42be 0f93 173e
00000390: 1011 15be b108 9a3b 03ec 1dbd 2aa9 94bd
000003a0: ff6e f23c 184e af3c f96e dcbd 5fe2 b53d
000003b0: c893 883d 8d12 94bc 3069 1bbe 6631 9dbd
000003c0: 7a93 58be 873f d83c a225 c13d eac5 90bd
000003d0: 7384 46bd a585 b93d 2fe8 443e dd35 513d
000003e0: 81e5 3dbd df14 8a3b 3906 823e 94de 403d
000003f0: 6de7 89be 3b71 2abe 161c 69bd 0a5d 5ebd

fc2.bias f4 [64]
0.0027224796 0.014735032 0.05339855 -0.02834241 0.019304618 0.012096999 0.054220606 0.0064988276
-0.02919959 0.04122249 -0.0067946548 -0.018846134 -0.030072618 -0.027056105 0.035723306 0.035849713
0.035058394 0.05755662 -0.0018899546 -0.007096812 0.013320945 0.039111983 0.0044396957 -0.0033337702
-0.012896023 -0.0038841916 -0.02222468 -0.0025563252 -0.028624656 0.010360089 0.067275405 -0.02839148
0.03455306 -0.011465988 0.006153693 0.017888624 -0.01002198 -0.0016849092 0.02874319 0.003735126
-0.03797894 0.008707263 0.023441793 0.07140391 0.009041873 -0.028944809 -0.024507524 0.044612247
-0.016929174 -0.0064352304 -0.015416119 0.021247715 0.016890863 -0.01685489 -0.015900873 0.03381394
-0.024568869 -0.059781156 -0.0038473534 0.05724145 0.019910842 -0.0047410363 0.035363235 0.035773393
00000000: a16b 323b 346b 713c 70b8 5a3d 582e e8bc
00000010: b824 9e3c 7e32 463c 6d16 5e3d 1ef4 d43b
00000020: fb33 efbc ead8 283d b2a5 debb 3563 9abc
00000030: da5a f6bc c4a4 ddbc 9a52 123d 26d7 123d
00000040: 6499 0f3d 7ec0 6b3d 5ab8 f7ba 608c e8bb
00000050: 1840 5a3c e333 203d de7a 913b 627b 5abb
00000060: d749 53bc ec8d 7ebb 8810 b6bc 0588 27bb
00000070: 417e eabc 5dbd 293c b0c7 893d 4095 e8bc
00000080: 8287 0d3d d7db 3bbc eba4 c93b 2a8b 923c
00000090: 3b33 24bc 2cd8 dcba d776 eb3c 04c9 743b
000000a0: ce8f 1bbd e8a8 0e3c 0109 c03c 373c 923d
000000b0: 5d24 143c aa1d edbc 01c4 c8bc 55bb 363d
000000c0: 0daf 8abc a0de d2bb e493 7cbc b00f ae3c
000000d0: b55e 8a3c 4413 8abc 8c42 82bc 7c80 0a3d
000000e0: a744 c9bc 16dd 74bd e123 7cbb 0376 6a3d
000000f0: 101c a33c b25a 9bbb 0ad9 103d 1f87 123d

mu.weight f4 [8, 64]
0.068560794 0.094705656 -0.10709327 -0.02946385 -0.1571163 -0.08798017 0.09631257 0.028054435
0.13554566 -0.19374985 -0.044389512 0.02938119 -0.082956456 0.07528989 -0.056380227 -0.007137782
0.028492693 -0.1109855 -0.14340863 -0.216636 -0.13417022 0.09166796 0.08334289 0.0057804417
-0.12011502 0.098009355 -0.13300681 -0.1997071 0.24178725 0.04915172 -0.0312592 0.15095007
-0.22047892 -0.04562092 0.10279181 -0.019718997 0.21318355 -0.2211123 -7.9498735e-05 0.00011237241
-0.017066827 -0.22825433 -0.120998055 -0.13042073 -0.20829813 -0.14073658 0.14420684 -0.3848224
0.15453771 0.11869775 -0.12668374 0.14874265 0.2199731 0.025398398 0.1374361 0.32961455
0.15045713 -0.0006400531 -0.22607385 0.028892383 0.04032142 -0.013960566 -0.1428542 -0.061527565
-0.019970939 0.011818339 0.30025265 -0.08072849 -0.12953919 -0.19678622 0.094649985 0.035761774
-0.14824358 0.20818129 0.15547663 -0.055955976 -0.20086445 0.07050078 0.08884763 0.09312348
0.10025829 0.008762478 -0.15269673 0.012318471 0.029510526 -0.020468924 -0.24720383 -0.02329354
0.029767063 0.10385102 0.0930962 0.15795597 -0.069577426 -0.00022052898 0.055959128 -0.28994182
-0.045115083 -0.15065858 -0.03985492 0.21166165 -0.14164639 0.11736476 -0.08759371 0.17912742
0.007659865 0.02800692 -0.038935497 -0.2633559 0.033161208 0.13263741 0.033975534 0.104132235
-0.102920786 -0.021527268 -0.19649167 0.05034791 -0.033242814 0.10939247 0.010628077 0.027869344
-0.176022 0.06655837 -0.16133554 0.17733847 0.12774491 0.07215609 -0.16049461 0.13651963
0.12663664 0.13826215 -0.11281865 0.032927066 0.049391028 0.19778618 -0.22496033 -0.057106297
-0.004413567 0.041084245 0.11291418 0.021467024 -0.039023433 0.08425208 -0.05017678 0.06858235
-0.06367759 -0.056241915 -0.099638455 0.022560107 0.06389459 -0.08500506 0.012353502 0.12032875
-0.03391572 0.13826068 0.16511121 0.19644047 -0.078170024 -0.13017443 -0.13406467 0.013351759
-0.19235763 -0.2500445 -0.13365704 0.203483 0.19988371 0.026519347 0.030928638 -0.14203148
-0.0051903385 -0.056952722 0.09884671 -0.18435472 0.08773791 0.030631067 0.25870907 -0.08382716
0.1258401 -0.0114573985 0.17241465 -0.18306255 0.00466078 0.030428182 -0.028259112 -0.063874006
0.03324017 0.05837842 0.14485298 0.0025598966 0.060993902 0.07180483 0.118679866 -0.026243081
-0.21202198 0.17841282 0.027474161 0.20354739 -0.15668985 0.019491814 0.059264783 0.16365069
-0.0113768615 0.087664604 -0.16275047 0.1770059 -0.1569699 -0.016268503 -0.017048934 -0.09375644
-0.14139226 0.06611254 -0.04908482 -0.15144615 0.14799437 -0.018079335 -0.11820995 -0.03427937
0.09363205 -0.0138448905 -0.17117041 0.037191402 0.06304664 0.17563948 0.13755585 -0.087461926
-0.10935099 0.026939781 -0.15880044 -0.011311063 0.0418013 -0.0797473 0.09612756 0.13899255
-0.035145804 -0.023881422 0.14725897 -0.07373733 -0.11336155 0.08757044 0.0012712876 -0.0805875
0.02269481 -0.07975681 0.031613003 -0.12877257 -0.009821719 0.3434284 -0.009954221 0.03894534
0.26130915 -0.04967354 0.009514205 -0.3009899 -0.08672365 0.04169411 0.10298763 0.12641846
00000000: 9a69 8c3d 0af5 c13d b753 dbbd 2c5e f1bc
00000010: 18e3 20be f32e b4bd 863f c53d 6ad2 e53c
00000020: 7bcc 0a3e 5c66 46be c7d1 35bd d2b0 f03c
00000030: 13e5 a9bd 9631 9a3d f4ee 66bd 0ee4 e9bb
00000040: 8269 e93c 5e4c e3bd b6d9 12be d4d5 5dbe
00000050: eb63 09be 69bc bb3d adaf aa3d dc69 bd3b
00000060: ddfe f5bd 21b9 c83d f032 08be 0580 4cbe
00000070: 1497 773e 5053 493d a609 00bd a892 1a3e
00000080: 3ac5 61be 00dd 3abd 8384 d23d bc89 a1bc
00000090: ca4c 5a3e 436b 62be 8fb8 a6b8 7aa9 eb38
000000a0: bbcf 8bbc 81bb 69be d4cd f7bd 038d 05be
000000b0: 1b4c 55be 401d 10be f5aa 133e 7107 c5be
000000c0: 223f 1e3e ce17 f33d 62b9 01be fe4f 183e
000000d0: a140 613e 4d10 d03c 0dbc 0c3e 3dc3 a83e
000000e0: 6f11 1a3e 3dc9 27ba e77f 67be b8af ec3c
000000f0: 1328 253d dcba 64bc 5f48 12be 5404 7cbd
00000100: 189a a3bc b5a1 413c b7ba 993e fb54 a5bd
00000110: eca5 04be 5482 49be dad7 c13d f07a 123d
00000120: 2acd 17be 7a2d 553e 4435 1f3e 1832 65bd
00000130: 69af 4dbe b762 903d bff5 b53d 86b7 be3d
00000140: 3854 cd3d 7f90 0f3c 885c 1cbe 6ad3 493c
00000150: 0fc0 f13c 72ae a7bc 0023 7dbe 18d2 bebc
00000160: 0eda f33c d8af d43d 38a9 be3d 36bf 213e
00000170: 9c7e 8ebd cc3d 67b9 6635 653d 4173 94be
00000180: 98ca 38bd 3e46 1abe ea3e 23bd d5bd 583e
00000190: c00b 11be ef5c f03d 5564 b3bd 2e6d 373e
000001a0: 9bff fa3b c56e e53c d47a 1fbd 96d6 86be
000001b0: 0cd4 073d 1ad2 073e ee29 0b3d 4843 d53d
000001c0: 22c8 d2bd f459 b0bc 1d35 49be 9c39 4e3d
000001d0: 9e29 08bd 2909 e03d 6321 2e3c 404e e43c
000001e0: 1c3f 34be c14f 883d 2535 25be 3798 353e
000001f0: 90cf 023e 92c6 933d b358 24be cdcb 0b3e
00000200: 09ad 013e 9894 0d3e 770d e7bd 88de 063d
00000210: 3f4e 4a3d 7688 4a3e 005c 66be 4be8 69bd
00000220: af9f 90bb f447 283d 8d3f e73d 9ddb af3c
00000230: 09d7 1fbd 5b8c ac3d 2b86 4dbd e774 8c3d
00000240: 6569 82bd ec5d 66bd 3f0f ccbd f9cf b83c
00000250: 2bdb 823d 2217 aebd 5866 4a3c eb6e f63d
00000260: 36eb 0abd 3594 0d3e ea12 293e b127 493e
00000270: 9b17 a0bd 724c 05be 4048 09be 56c1 5a3c
00000280: 66f9 44be d505 80be 64dd 08be d95d 503e
00000290: 51ae 4c3e 1a3f d93c 0e5e fd3c b370 11be
000002a0: b713 aabb 4247 69bd 2570 ca3d 7cc7 3cbe
000002b0: efaf b33d 01ee fa3c 8475 843e 93ad abbd
000002c0: 3adc 003e d0b7 3bbc 778d 303e c074 3bbe
000002d0: 75b9 983b 8644 f93c a77f e7bc 60d0 82bd
000002e0: d826 083d 361e 6f3d 5754 143e f0c3 273b
000002f0: bed4 793d 690e 933d 6e0e f33d bbfb d6bc
00000300: 4a1c 59be dab1 363e 7e11 e13c ba6e 503e
00000310: 4e73 20be 4cad 9f3c a1bf 723d 0c94 273e
00000320: 0466 3abc 8089 b33d 0fa8 26be 0941 353e
00000330: b8bc 20be 8645 85bc 35aa 8bbc 6003 c0bd
00000340: 22c9 10be 0366 873d 2a0d 49bd b314 1bbe
00000350: d68b 173e 1d1b 94bc 0f18 f2bd 8668 0cbd
00000360: 29c2 bf3d aed5 62bc 4c47 2fbe 0356 183d
00000370: 991e 813d d6da 333e 71db 0c3e 3d1f b3bd
00000380: 69f3 dfbd d1b0 dc3c 959c 22be 0952 39bc
00000390: d737 2b3d 8d52 a3bd 87de c43d 1054 0e3e
000003a0: 0cf5 0fbd f9a2 c3bc 0ecb 163e 9903 97bd
000003b0: 1a2a e8bd 2158 b33d 55a1 a63a 0f0b a5bd
000003c0: 77ea b93c 8a57 a3bd a37c 013d f5dc 03be
000003d0: 46eb 20bc d9d5 af3e 0717 23bc 2685 1f3d
000003e0: 50ca 853e 7b76 4bbd 78e1 1b3c 591b 9abe
000003f0: 2b9c b1bd 71c7 2a3d 2eeb d23d d773 013e

mu.bias f4 [8]
-0.02341134 -0.0011269747 -0.033653617 -0.011992473 0.034084324 0.034437317 0.040577132 0.045236237
00000000: 23c9 bfbc ffb6 93ba 60d8 09bd 147c 44bc
00000010: 019c 0b3d 250e 0d3d 3534 263d a249 393d

fc1.weight f4 [64, 111]
-0.15950327 0.43999577 0.036279295 0.081283696 -0.04537079 0.06650982 -0.08004854 0.039490167
-0.040723696 -0.065613896 -0.06956504 0.038980786 0.07228881 -0.038446534 -0.014220362 -0.090228766
-0.029735146 0.14619738 -0.0045223953 -0.003155497 0.03118731 0.018474046 0.020462424 -0.004890309
0.047551706 -0.017179081 0.029699253 -0.09260791 -0.2548348 -0.094616316 0.10403035 0.17003126
0.111237936 0.009152347 -0.06924365 0.143669 -0.06543426 0.02720823 0.037207387 -0.008139715
-0.080108985 0.07228882 -0.19378397 -0.026076166 -0.1908531 -0.03150196 -0.02597778 -0.16828398
-0.0769187 0.136502 -0.09873788 0.09099924 -0.31537917 0.04222698 0.08070609 0.03779465
-0.021850748 0.07114164 -0.11253393 -0.12944226 -0.044026107 0.072672315 -0.006011285 -0.056827664
0.07901701 0.06895521 -0.115088865 -0.017176464 0.09645059 0.13760844 0.08927997 0.022070935
-0.08209288 -0.07952599 -0.020331165 0.014410758 -0.11636966 0.027222363 0.0070014168 -0.022343235
-0.108932815 -0.09833611 0.030202545 0.059049636 -0.18090506 0.010370944 -0.095235094 -0.012577025
-0.057288386 0.21508592 -0.18246186 0.04264347 -0.06853957 0.025681706 0.11337763 -0.010718
-0.03595481 0.066128224 -0.060815807 -0.039386887 0.04749439 0.082404435 -0.027022986 -0.02101524
0.07895099 -0.044476237 -0.023931324 -0.09325069 -0.0048264056 0.106526546 -0.07012054 -0.36807913
0.6140187 0.09847443 -0.13218357 -0.027140087 0.11156342 0.05295063 0.074351266 0.10114116
0.10273458 -0.11680951 0.05787919 -0.0045323647 0.014937252 0.024843922 -0.13023396 -0.019015983
-0.026096031 0.036638264 -0.015151131 -0.020071339 0.009246051 -0.026523778 0.0050899284 -0.022887772
0.033788778 -0.0101656895 -0.049620442 0.04340815 0.08600403 0.06468629 0.0515948 -0.14669308
0.037296504 0.0392366 -0.050652392 -0.06695619 -0.013589469 0.05466936 -0.07338466 -0.05185457
0.061073523 0.11039621 -0.03717122 0.12286643 0.036799785 -0.035763912 0.12384902 -0.12031606
-0.00016192847 -0.18040402 -0.047782823 -0.11742945 -0.019674378 -0.07283765 0.19177464 -0.13280919
0.005210292 -0.009436201 0.16401789 -0.026984815 -0.02489064 0.08151191 0.104503654 -0.007773802
0.012953956 0.16435501 0.14480667 0.14901257 -0.013665249 -0.0879681 0.006427403 0.14469032
-0.051478513 0.0817524 0.080914386 0.103711374 -0.037065722 -0.027122729 0.16055235 -0.14894874
-0.055578507 0.1291963 -0.09050107 -0.0063200155 -0.19058874 0.097750016 -0.019170893 0.10174636
0.020144695 0.019828305 0.13219501 -0.051641893 0.027860826 0.013360975 0.00040966723 -0.077675655
-0.08640029 0.074465275 0.1013713 0.07334523 0.22196823 -0.043204498 0.18584217 0.25120878
-0.019927638 0.0045058136 -0.13461266 -0.094471134 -0.04872051 -0.03414586 0.17006345 -0.55226237
0.06118787 0.002993667 -0.40095416 0.010180244 0.067835525 -0.17594236 0.005691892 0.044179242
0.014338935 0.033925183 0.08387228 0.053105697 0.10730431 0.104123026 -0.16390988 0.096807644
-0.18598083 -0.039929006 0.038547777 -0.060017902 -0.008167317 -0.016533496 0.030816007 -0.048060883
-0.013965021 -0.11739668 0.0105723115 0.067922175 0.032214507 -0.05742399 -0.05430118 -0.10168673
00000000: d354 23be 2047 e13e 9999 143d 1178 a63d
00000010: b9d6 39bd 4d36 883d 7df0 a3bd 71c0 213d
00000020: e4cd 26bd 9460 86bd 1e78 8ebd 51aa 1f3d
00000030: 280c 943d 1d7a 1dbd 85fc 68bc dcc9 b8bd
00000040: 1f97 f3bc c4b4 153e 9a30 94bb 74cc 4ebb
00000050: 887c ff3c e256 973c d0a0 a73c e33e a0bb
00000060: 94c5 423d 25bb 8cbc d94b f33c 37a9 bdbd
00000070: b579 82be 33c6 c1bd dd0d d53d ad1c 2e3e
00000080: b7d0 e33d baf3 153c 9dcf 8dbd f71d 133e
00000090: 6602 86bd cbe3 de3c c666 183d 705c 05bc
000000a0: 2e10 a4bd 290c 943d 4e6f 46be af9d d5bc
000000b0: ff6e 43be 3308 01bd 5acf d4bc a352 2cbe
000000c0: 8d87 9dbd 2ec7 0b3e 1637 cabd cf5d ba3d
000000d0: 6179 a1be 33f6 2c3d 3c49 a53d 90ce 1a3d
000000e0: 5700 b3bc b5b2 913d 3078 e6bd 838c 04be
000000f0: b854 34bd 39d5 943d 50fa c4bb 20c4 68bd
00000100: acd3 a13d 6438 8d3d b6b3 ebbd a8b5 8cbc
00000110: e387 c53d 3ae9 0c3e 6bd8 b63d 1bce b43c
00000120: 5020 a8bd 86de a2bd 8b8d a6bc 1a1b 6c3c
00000130: 3753 eebd 6f01 df3c 246c e53b 2909 b7bc
00000140: 2b18 dfbd 7164 c9bd 546b f73c 08de 713d
00000150: 2d3f 39be e4ea 293c 9e0a c3bd de0f 4ebc
00000160: 3aa7 6abd 7c3f 5c3e 48d7 3abe ebaa 2e3d
00000170: 795e 8cbd 7162 d23c 8832 e83d 8d9a 2fbc
00000180: 5a45 13bd 3c6e 873d ff19 79bd 2554 21bd
00000190: 7a89 423d a8c3 a83d 4f5f ddbc 2728 acbc
000001a0: 0fb1 a13d b72c 36bd a00b c4bc 38fa bebd
000001b0: d326 9ebb 972a da3d 5c9b 8fbd de74 bcbe
000001c0: 5430 1d3f f6ac c93d 215b 07be e354 debc
000001d0: 5d7b e43d c3e2 583d 7a45 983d 1923 cf3d
000001e0: 8266 d23d d339 efbd bb12 6d3d 3b84 94bb
000001f0: 60bb 743c 7b85 cb3c 0d5c 05be 68c7 9bbc
00000200: 58c7 d5bc 0112 163d 733c 78bc a66c a4bc
00000210: c07c 173c 6548 d9bc 6ac9 a63b 237f bbbc
00000220: 1a66 0a3d fe8d 26bc ce3e 4bbd bfcc 313d
00000230: e222 b03d 3f7a 843d 1255 533d b636 16be
00000240: 38c4 183d 8fb6 203d e278 4fbd 5420 89bd
00000250: 5da6 5ebc fbec 5f3d b24a 96bd 7565 54bd
00000260: 3b28 7a3d 6817 e23d d940 18bd 65a1 fb3d
00000270: 5fbb 163d 2e7d 12bd 8ea4 fd3d 4468 f6bd
00000280: 58cb 29b9 d5bb 38be ecb7 43bd da7e f0bd
00000290: 292c a1bc e82b 95bd 9260 443e 22ff 07be
000002a0: 19bb aa3b 4c9a 1abc 4ef4 273e 420f ddbc
000002b0: 75e7 cbbc b7ef a63d 0306 d63d 61bb febb
000002c0: d43c 543c ae4c 283e 3348 143e c096 183e
000002d0: 35e4 5fbc 9f28 b4bd f79c d23b b329 143e
000002e0: 22db 52bd cd6d a73d 71b6 a53d a166 d43d
000002f0: 3ad2 17bd 7c30 debc d667 243e 0586 18be
00000300: 4aa6 63bd 094c 043e a058 b9bd 2218 cfbb
00000310: b229 43be 2931 c83d 470c 9dbc 6560 d03d
00000320: 7d06 a53c f86e a23c 215e 073e 7386 53bd
00000330: 633c e43c fee7 5a3c 9bc8 d639 6a14 9fbd
00000340: a3f2 b0bd 4081 983d c29b cf3d 0636 963d
00000350: a44b 633e 33f7 30bd 694d 3e3e 709e 803e
00000360: 493f a3bc 81a5 933b e7d7 09be 157a c1bd
00000370: 288f 47bd 87dc 0bbd 1d25 2e3e 1161 0dbf
00000380: 22a0 7a3d 6631 443b dd49 cdbe 0acb 263c
00000390: 5aed 8a3d 3c2a 34be 0d83 ba3b 4bf5 343d
000003a0: daed 6a3c 22f5 0a3d 3bc5 ab3d 5c85 593d
000003b0: 5dc2 db3d 743e d53d fed7 27be 1643 c63d
000003c0: c271 3ebe 998c 23bd 46e4 1d3d 55d5 75bd
000003d0: 36d0 05bc 4171 87bc da71 fc3c 7ddb 44bd
000003e0: 8bcd 64bc ac6d f0bd 7d37 2d3c c81a 8b3d
000003f0: 5cf3 033d 6b35 6bbd ea6a 5ebd 2241 d0bd

fc1.bias f4 [64]
0.046235304 -0.15755 -0.06276535 0.15638293 0.05150095 -0.2866882 -0.48021522 0.46088192
0.05782189 0.47587842 0.083568364 0.10458835 -0.19795197 0.2982601 -0.26372075 0.24549247
0.6351099 0.6051454 0.10265164 0.47270545 -0.13202216 0.027782226 0.33545607 -0.19143343
-0.17291069 0.03965334 0.14834425 -0.21320711 0.1080087 0.34619233 -0.070228964 -0.21563913
0.15276305 0.42630273 -0.098683044 0.20010099 -0.20125961 -0.0430792 -0.13003713 0.28968585
-0.26471168 -0.15005125 0.70800656 0.08237732 0.08385979 -0.1274417 0.09254543 -0.0800264
-0.38754058 0.21829914 0.02909043 -0.06631353 -0.14993066 -0.03612863 0.2631865 -0.04830977
-0.1119922 -0.16082618 -0.2489524 0.25420788 -0.07085151 0.19702409 0.0018954411 -0.11347544
00000000: 3b61 3d3d ca54 21be 1f8b 80bd d922 203e
00000010: a9f2 523d ccc8 92be c5de f5be b7f8 eb3e
00000020: a5d6 6c3d 56a6 f33e e425 ab3d 6b32 d63d
00000030: ecb3 4abe 8cb5 983e 6806 87be 6162 7b3e
00000040: 9096 223f cfea 1a3f 063b d23d 7306 f23e
00000050: d130 07be 8d97 e33c e6c0 ab3e 2007 44be
00000060: 800f 31be 8a6b 223d 8ee7 173e f752 5abe
00000070: aa33 dd3d 1f40 b13e 34d4 8fbd 81d0 5cbe
00000080: eb6d 1c3e 5a44 da3e 561a cabd 46e7 4c3e
00000090: 0017 4ebe d173 30bd 7428 05be b451 943e
000000a0: 4a88 87be 09a7 19be eb3f 353f 71b5 a83d
000000b0: aebe ab3d 1480 02be 7588 bd3d e2e4 a3bd
000000c0: b86b c6be cf89 5f3e 0e4f ee3c 63cf 87bd
000000d0: 6c87 19be 9dfb 13bd 62c0 863e 77e0 45bd
000000e0: 2b5c e5bd 9eaf 24be 61ed 7ebe 8927 823e
000000f0: 991a 91bd afc0 493e 7370 f83a d065 e8bd

fc2.weight f4 [64, 64]
-0.26886833 0.76261854 0.49501202 0.04832485 -0.25557956 0.97903514 1.0034939 -0.34587622
0.111967884 -0.62600267 -0.37377888 -0.30653268 0.09390242 -0.15952204 0.1851116 -0.6210225
-0.6875043 -1.4209386 -0.04279016 -0.96875954 0.53743386 -0.19311403 -0.4075881 0.4951384
0.50349367 -0.48230693 -0.48231277 0.258116 -0.11799321 -0.51028347 0.11387205 0.2530352
-0.5158395 -0.29036397 0.5481909 -0.71447504 0.7572463 0.04267394 0.5480571 -0.5172695
0.6326945 -0.088216886 -0.99165565 0.124617375 -0.37096193 0.16299745 -0.5507957 -0.33071637
0.8522009 -0.7754768 0.36281544 -0.39059973 0.55942273 -0.07358105 -0.52603066 0.27869767
0.23752847 0.37830994 -0.31640473 -0.29854783 -0.032736555 0.060076028 -0.20324352 0.26220408
0.35597298 0.1446178 -0.14221258 0.7937187 0.09937647 0.39214325 0.44701478 -0.21161938
0.1146531 0.23179042 0.48820078 0.44652525 -0.3552876 -0.04813103 0.18469663 0.27414912
0.123174824 -0.40587324 0.08734964 0.14126484 -0.35163984 0.107143134 0.119197726 -0.051513404
0.15127924 -0.91877365 0.29845804 -0.09811718 0.06033696 0.036095973 -0.8213033 0.07190468
0.20134662 -0.75314665 -0.37719405 0.28578883 -0.16544911 -0.31314734 0.089059755 0.094902985
-0.14913039 -0.13248298 -0.47586724 0.084241964 -0.27287975 0.011399223 -0.23082216 -0.5524665
-0.07614707 0.13724749 -0.0438021 -0.13940193 -0.40656418 -0.23276448 0.47954574 0.12912813
0.66300654 -0.15485452 -0.1015308 -0.40734026 0.10984287 0.4910053 -0.10225192 -0.021181164
0.2832355 -0.17634152 0.4382918 -0.16567571 -0.12196335 0.09613464 0.9305015 -0.5240562
0.15410541 -0.022127757 -0.18338093 0.21219437 -0.0082104895 -0.6200191 0.4783748 -0.30279016
-1.0165863 -0.84823924 0.18451089 -0.7498002 0.070178784 0.42063048 -0.43898144 0.26494992
0.23650712 -0.38938347 -0.36204526 -0.011455908 -0.110655345 -0.50706524 -0.30955964 0.20016302
-0.1223337 -0.9425044 -0.055261567 -0.233882 0.27194718 0.024627332 0.4289923 -0.16511081
-0.109434485 -0.17436351 -1.2731035 -0.36035913 -0.061961785 0.1888556 -0.2546911 0.048937548
0.10861693 0.02927766 0.045995437 0.18256518 -0.22978288 -0.16808036 -0.5268523 -0.008442285
0.8038843 0.054996673 0.13722236 -0.23313501 0.16990891 0.43831208 -0.18549256 -0.33407086
0.3456219 0.9480428 -0.4837847 0.25992644 0.61374676 0.19851974 -0.1860272 0.3980329
-0.99296516 0.001976035 0.6096586 -0.9943434 -0.5973469 0.5543164 -0.7997796 -0.28784212
0.36355212 0.30072284 -0.6895533 0.5025562 0.33851412 -1.0563095 0.33706126 0.26215065
0.6299158 -0.21023922 -0.30048326 0.5535163 0.60825914 -0.1856115 0.29784152 0.3561309
-0.614921 0.6529058 0.39348117 -0.6082243 0.4304289 -0.20470606 -0.45063242 -0.39051226
0.25607416 -0.28729573 0.47119972 0.51495636 0.6279564 -0.4201721 0.31051618 0.021446778
-0.5365508 -0.6004193 -0.43276918 0.26423404 0.40866986 0.33742028 0.15899661 -0.4371285
-0.17330906 0.547403 0.6641834 0.15368973 0.05890937 0.41206342 -0.05331142 0.7580224
00000000: 1ca9 89be f83a 433f 3772 fd3e 47f0 453d
00000010: 53db 82be 0ca2 7a3f 7d72 803f b016 b1be
00000020: 6b4f e53d b641 20bf f25f bfbe daf1 9cbe
00000030: e94f c03d bf59 23be e58d 3d3e 55fb 1ebf
00000040: 4800 30bf 51e1 b5bf bc44 2fbd a000 78bf
00000050: 4495 093f afbf 45be 63af d0be c882 fd3e
00000060: f6e4 003f eff0 f6be b3f1 f6be c827 843e
00000070: 6da6 f1bd f0a1 02bf c035 e93d d48d 813e
00000080: 0f0e 04bf 96aa 94be 3d56 0c3f d6e7 36bf
00000090: e5da 413f dfca 2e3d 784d 0c3f c66b 04bf
000000a0: 44f8 213f 0eab b4bd 25dd 7dbf 6537 ff3d
000000b0: b9ee bdbe cee8 263e f200 0dbf a853 a9be
000000c0: d729 5a3f a685 46bf f2c2 b93e b0fc c7be
000000d0: 5436 0f3f a9b1 96bd f2a9 06bf 76b1 8e3e
000000e0: aa3a 733e d7b1 c13e cdff a1be 43db 98be
000000f0: c416 06bd 4812 763d 121f 50be 9d3f 863e
00000100: 1742 b63e b016 143e 2da0 11be 2631 4b3f
00000110: e485 cb3d 00c7 c83e 1fdf e43e c0b2 58be
00000120: 3fcf ea3d 785a 6d3e 74f5 f93e f59e e43e
00000130: 42e8 b5be 0b25 45bd 1d21 3d3e 465d 8c3e
00000140: 1543 fc3d 9ece cfbe 5ee4 b23d bba7 103e
00000150: 230a b4be dc6d db3d f01d f43d b8ff 52bd
00000160: f2e8 1a3e c034 6bbf 7ecf 983e a9f1 c8bd
00000170: e323 773d 5fd9 133d ef40 52bf c342 933d
00000180: cf2d 4e3e 38ce 40bf 941f c1be ea52 923e
00000190: 7e6b 29be d954 a0be f664 b63d 7f5c c23d
000001a0: a3b5 18be 9ea9 07be dfa4 f3be 0d87 ac3d
000001b0: e5b6 8bbe cec3 3a3c a55c 6cbe 726e 0dbf
000001c0: fff2 9bbd 9b8a 0c3e d569 33bd 61bf 0ebe
000001d0: 2e29 d0be d059 6ebe 0587 f53e 2a3a 043e
000001e0: ccba 293f 2f92 1ebe 61ef cfbd e78e d0be
000001f0: 4cf5 e03d 0c65 fb3e 7469 d1bd 1f84 adbc
00000200: 3e04 913e df92 34be c867 e03e e5a6 29be
00000210: ecc7 f9bd 3de2 c43d 5935 6e3f 8c28 06bf
00000220: cfcd 1d3e 4545 b5bc 36c8 3bbe 7b49 593e
00000230: 4a85 06bc 92b9 1ebf 8bed f43e 5007 9bbe
00000240: 801f 82bf 3526 59bf 6cf0 3c3e e8f2 3fbf
00000250: e5b9 8f3d e15c d73e 2dc2 e0be 84a7 873e
00000260: ec2e 723e 455d c7be ff5d b9be 90b1 3bbc
00000270: 459f e2bd 07cf 01bf 9a7e 9ebe 89f7 4c3e
00000280: 178a fabd f847 71bf f459 62bd c37e 6fbe
00000290: a93c 8b3e 42bf c93c e1a4 db3e cf12 29be
000002a0: 301f e0bd 598c 32be 0ef5 a2bf fe80 b8be
000002b0: a4cb 7dbd 5d63 413e df66 82be bd72 483d
000002c0: 8e72 de3d b4d7 ef3c b665 3c3d 5ef2 3a3e
000002d0: 344c 6bbe 421d 2cbe cbdf 06bf 8251 0abc
000002e0: 5dcb 4d3f 3144 613d 0584 0c3e f2ba 6ebe
000002f0: 9afc 2d3e 716a e03e c3f1 3dbe 560b abbe
00000300: 5bf5 b03e efb2 723f a1b2 f7be 1415 853e
00000310: 821e 1d3f c248 4b3e ea7d 3ebe f8ca cb3e
00000320: f732 7ebf 5e80 013b 9612 1c3f 4a8d 7ebf
00000330: baeb 18bf aee7 0d3f 5bbe 4cbf 0b60 93be
00000340: 8123 ba3e 58f8 993e 9186 30bf 86a7 003f
00000350: b951 ad3e 2635 87bf 4b93 ac3e 9c38 863e
00000360: 2942 213f f348 57be f1d8 99be 3fb3 0d3f
00000370: dfb6 1b3f f110 3ebe af7e 983e ca56 b63e
00000380: 766b 1dbf d624 273f 5d76 c93e 96b4 1bbf
00000390: 2d61 dc3e 779e 51be 4bb9 e6be 39f1 c7be
000003a0: 271c 833e 6d18 93be 1741 f13e 2ed4 033f
000003b0: c0c1 203f cc20 d7be fafb 9e3e 27b1 af3c
000003c0: 655b 09bf 14b5 19bf ec93 ddbe af49 873e
000003d0: 2d3d d13e 5ac2 ac3e 02d0 223e 4fcf dfbe
000003e0: ee77 31be 9a22 0c3f ec07 2a3f d760 1d3e
000003f0: f44a 713d faf9 d23e 135d 5abd c20d 423f

fc2.bias f4 [64]
-0.87584364 0.11858952 -0.4209515 -0.17593671 -0.16101602 0.41823307 0.8067692 0.37731573
-0.26835483 0.08817466 -0.95581585 -1.0036309 -0.19896178 -0.19851188 0.8008453 -0.13938214
-0.4076028 1.0272359 0.22892581 0.72732913 -0.28527907 -0.24065126 -0.4122114 -0.39387017
0.339583 -0.33473793 -0.14110832 -0.6017587 0.13050202 0.03610586 -0.30083486 -0.10971086
0.27909958 -0.43235663 0.15287232 0.093701735 -0.21616288 0.19759963 -0.948185 -0.06964883
-0.9063159 -0.06767954 0.46281767 -0.10570948 -0.15457344 -0.86496216 -0.32638693 -0.08949366
0.2453404 0.18049516 0.8155213 0.5037353 0.31925222 -0.10164239 0.11805616 0.82548314
0.035795294 -0.076181054 0.7094486 1.0270053 0.07968033 -0.4803603 0.07268864 -0.81824684
00000000: 4a37 60bf 10df f23d f486 d7be c128 34be
00000010: 62e1 24be a522 d63e 6d88 4e3f 872f c13e
00000020: ce65 89be eb94 b43d 59b0 74bf fa76 80bf
00000030: a3bc 4bbe b346 4bbe 3304 4d3f 31ba 0ebe
00000040: 50b1 d0be 777c 833f 876b 6a3e 3e32 3a3f
00000050: 1910 92be 496d 76be 5f0d d3be 5aa9 c9be
00000060: d3dd ad3e c562 abbe b37e 10be dc0c 1abf
00000070: 52a2 053e bde3 133d 0707 9abe 16b0 e0bd
00000080: 24e6 8e3e d95d ddbe 908a 1c3e b2e6 bf3d
00000090: cd59 5dbe 8f57 4a3e 41bc 72bf 0ca4 8ebd
000000a0: 5204 68bf 929b 8abd 70f6 ec3e 367e d8bd
000000b0: 8048 1ebe 296e 5dbf 301c a7be 7448 b7bd
000000c0: 843a 7b3e b9d3 383e 01c6 503f ccf4 003f
000000d0: 0775 a33e e329 d0bd 6ec7 f13d dd52 533f
000000e0: 169e 123d d004 9cbd 6c9e 353f e974 833f
000000f0: 712f a33d c9f1 f5be c8dd 943d a078 51bf

value.weight f4 [1, 64]
-6.017056 -5.711452 -5.3653464 5.246358 5.3250694 -5.645527 6.029003 5.1654406
-5.2297225 -5.138629 -6.1001353 -6.404751 5.2869735 5.4209523 5.564891 5.417806
-5.1939297 6.1593366 -5.283839 5.638552 5.303362 5.2960157 -5.5341067 5.248304
-5.276229 -5.406137 5.238474 -5.250863 -5.4009686 -5.242707 5.3209596 5.33723
-5.416893 5.3370976 5.411545 -5.3555436 -5.9325657 5.0903406 -6.3275685 -5.324648
-6.2748775 -5.3000317 6.036505 5.3335924 5.271948 -6.1955695 5.2642016 5.252096
5.0670357 -5.4063916 6.0372477 5.2409697 5.2000766 -5.241309 -5.2497215 5.6218624
5.140909 5.292337 5.7081013 6.3411555 -5.2289505 5.2422857 -5.282597 -6.040666
00000000: b98b c0c0 37c4 b6c0 ebb0 abc0 2ae2 a740
00000010: f866 aa40 28a8 b4c0 98ed c040 4a4b a540
00000020: e359 a7c0 a66f a4c0 4f34 c3c0 b8f3 ccc0
00000030: e32e a940 7178 ad40 9613 b240 ab5e ad40
00000040: ac34 a6c0 4919 c540 3615 a9c0 056f b440
00000050: 24b5 a940 f678 a940 6717 b1c0 1bf2 a740
00000060: ded6 a8c0 13ff acc0 94a1 a740 1207 a8c0
00000070: bcd4 acc0 41c4 a7c0 4d45 aa40 97ca aa40
00000080: 3057 adc0 81c9 aa40 602b ad40 9d60 abc0
00000090: 94d7 bdc0 12e4 a240 717b cac0 8463 aac0
000000a0: cccb c8c0 dc99 a9c0 0d2b c140 caac aa40
000000b0: ccb3 a840 1b42 c6c0 5774 a840 2c11 a840
000000c0: 2825 a240 2901 adc0 2231 c140 06b6 a740
000000d0: 0767 a640 ceb8 a7c0 b8fd a7c0 4ce6 b340
000000e0: 5482 a440 d35a a940 c4a8 b640 bfea ca40
000000f0: 9053 a7c0 cec0 a740 090b a9c0 234d c1c0

exp_avg f4 [1, 8]
-0.0042393217 0.0067945695 -0.0024503411 -0.005105287 -0.0021728629 -0.0006213865 -0.0048111663 -0.0008756218
00000000: 02ea 8abb fba4 de3b e795 20bb 404a a7bb
00000010: 9766 0ebb 8be4 22ba fda6 9dbb fc89 65ba

exp_avg_sq f4 [1, 8]
9.842659e-05 0.00011446695 9.548381e-05 0.00010091162 9.630823e-05 0.00011203547 9.018167e-05 9.461922e-05
00000000: 606a ce38 fa0d f038 7b3e c838 83a0 d338
00000010: 16f9 c938 96f4 ea38 ea1f bd38 4f6e c638

exp_avg f4 [64, 111]
-0.0011214914 -0.0006775304 3.4318273e-05 0.00010352446 0.00023370281 8.645944e-05 -0.00025556932 0.001688353
0.00051735627 -0.0017857545 0.00056433346 -0.0028358118 8.198669e-05 -0.0039926833 0.0031684577 0.003575633
0.00093139114 -0.0065908437 -0.00089419563 3.4197743e-05 -0.0012908364 0.0005844343 0.0033587704 0.000104725994
-0.0015090179 0.0006098166 -0.0008159378 0.0 0.0 0.0 0.0 0.0
0.0 0.0 0.0 0.0 0.0 0.0 0.0 0.0
0.0 0.0 0.0 0.0 0.0 0.0 0.0 0.0
0.0 0.0 0.0 0.0 0.0 0.0 0.0 0.0
0.0 0.0 0.0 0.0 0.0 0.0 0.0 0.0
0.0 0.0 0.0 0.0 0.0 0.0 0.0 0.0
0.0 0.0 0.0 0.0 0.0 0.0 0.0 0.0
0.0 0.0 0.0 0.0 0.0 0.0 0.0 0.0
0.0 0.0 0.0 0.0 0.0 0.0 0.0 0.0
0.0 0.0 0.0 0.0 0.0 0.0 0.0 0.0
0.0 0.0 0.0 0.0 0.0 0.0 0.0 0.0010197187
0.0015614585 0.00010782577 -0.00043613865 -0.001044222 -0.0014701968 0.0009284605 8.443425e-05 -0.0006947741
0.0013723356 -0.00070583745 -0.00048191386 0.0011758107 0.006460864 -0.0022168935 0.0011139887 -0.0012667555
-0.0010308558 -0.0023587306 -0.00034659638 0.0012747236 0.003294528 0.00067471794 -0.0007093236 -0.0022924228
-0.0032899978 0.0013869288 0.0 0.0 0.0 0.0 0.0 0.0
0.0 0.0 0.0 0.0 0.0 0.0 0.0 0.0
0.0 0.0 0.0 0.0 0.0 0.0 0.0 0.0
0.0 0.0 0.0 0.0 0.0 0.0 0.0 0.0
0.0 0.0 0.0 0.0 0.0 0.0 0.0 0.0
0.0 0.0 0.0 0.0 0.0 0.0 0.0 0.0
0.0 0.0 0.0 0.0 0.0 0.0 0.0 0.0
0.0 0.0 0.0 0.0 0.0 0.0 0.0 0.0
0.0 0.0 0.0 0.0 0.0 0.0 0.0 0.0
0.0 0.0 0.0 0.0 0.0 0.0 0.0 0.0
0.0 0.0 0.0 0.0 0.0 0.0 0.002956729 0.0043489486
3.879094e-05 -0.00097159034 -0.0024084612 -0.0036189428 0.0012735144 0.00031018647 -0.001823086 0.0032108321
-0.0020405739 -7.7209304e-05 0.0028621848 0.014833457 -0.0057590487 0.0021688929 -0.0023608 -0.001050613
-0.0037964645 0.00034645596 0.006324939 0.0042781206 0.0012762017 -0.00036748845 -0.0011494386 -0.0040065497
0.005055014 0.0 0.0 0.0 0.0 0.0 0.0 0.0
00000000: 02ff 92ba 4c9c 31ba f7f0 0f38 451b d938
00000010: 1f0e 7539 8f51 b538 effd 85b9 ba4b dd3a
00000020: 319f 073a fa0f eaba c7ef 133a 07d9 39bb
00000030: 45f0 ab38 0ed5 82bb e6a5 4f3b 2b55 6a3b
00000040: 9a28 743a 01f8 d7bb 7468 6aba 8c6f 0f38
00000050: 4831 a9ba b934 193a d11e 5c3b 57a0 db38
00000060: 3dca c5ba 19dc 1f3a a9e4 55ba 0000 0000
00000070: 0000 0000 0000 0000 0000 0000 0000 0000
00000080: 0000 0000 0000 0000 0000 0000 0000 0000
00000090: 0000 0000 0000 0000 0000 0000 0000 0000
000000a0: 0000 0000 0000 0000 0000 0000 0000 0000
000000b0: 0000 0000 0000 0000 0000 0000 0000 0000
000000c0: 0000 0000 0000 0000 0000 0000 0000 0000
000000d0: 0000 0000 0000 0000 0000 0000 0000 0000
000000e0: 0000 0000 0000 0000 0000 0000 0000 0000
000000f0: 0000 0000 0000 0000 0000 0000 0000 0000
00000100: 0000 0000 0000 0000 0000 0000 0000 0000
00000110: 0000 0000 0000 0000 0000 0000 0000 0000
00000120: 0000 0000 0000 0000 0000 0000 0000 0000
00000130: 0000 0000 0000 0000 0000 0000 0000 0000
00000140: 0000 0000 0000 0000 0000 0000 0000 0000
00000150: 0000 0000 0000 0000 0000 0000 0000 0000
00000160: 0000 0000 0000 0000 0000 0000 0000 0000
00000170: 0000 0000 0000 0000 0000 0000 0000 0000
00000180: 0000 0000 0000 0000 0000 0000 0000 0000
00000190: 0000 0000 0000 0000 0000 0000 0000 0000
000001a0: 0000 0000 0000 0000 0000 0000 0000 0000
000001b0: 0000 0000 0000 0000 0000 0000 15a8 853a
000001c0: daa9 cc3a 8520 e238 8aa9 e4b9 47de 88ba
000001d0: 9eb3 c0ba ee63 733a 4b12 b138 8021 36ba
000001e0: f1df b33a f307 39ba 62a9 fcb9 a91d 9a3a
000001f0: a8b5 d33b 4d49 11bb 4203 923a 4309 a6ba
00000200: c81d 87ba ef94 1abb 61b7 b5b9 a014 a73a
00000210: 02e9 573b 8edf 303a e7f1 39ba 793c 16bb
00000220: 019d 57bb 9cc9 b53a 0000 0000 0000 0000
00000230: 0000 0000 0000 0000 0000 0000 0000 0000
00000240: 0000 0000 0000 0000 0000 0000 0000 0000
00000250: 0000 0000 0000 0000 0000 0000 0000 0000
00000260: 0000 0000 0000 0000 0000 0000 0000 0000
00000270: 0000 0000 0000 0000 0000 0000 0000 0000
00000280: 0000 0000 0000 0000 0000 0000 0000 0000
00000290: 0000 0000 0000 0000 0000 0000 0000 0000
000002a0: 0000 0000 0000 0000 0000 0000 0000 0000
000002b0: 0000 0000 0000 0000 0000 0000 0000 0000
000002c0: 0000 0000 0000 0000 0000 0000 0000 0000
000002d0: 0000 0000 0000 0000 0000 0000 0000 0000
000002e0: 0000 0000 0000 0000 0000 0000 0000 0000
000002f0: 0000 0000 0000 0000 0000 0000 0000 0000
00000300: 0000 0000 0000 0000 0000 0000 0000 0000
00000310: 0000 0000 0000 0000 0000 0000 0000 0000
00000320: 0000 0000 0000 0000 0000 0000 0000 0000
00000330: 0000 0000 0000 0000 0000 0000 0000 0000
00000340: 0000 0000 0000 0000 0000 0000 0000 0000
00000350: 0000 0000 0000 0000 0000 0000 0000 0000
00000360: 0000 0000 0000 0000 0000 0000 0000 0000
00000370: 0000 0000 0000 0000 aec5 413b a081 8e3b
00000380: 74b3 2238 53b2 7eba 46d7 1dbb c92b 6dbb
00000390: 0dec a63a 86a0 a239 9df4 eeba d36c 523b
000003a0: 26bb 05bb 6eeb a1b8 7e93 3b3b 0708 733c
000003b0: 67b6 bcbb fc23 0e3b a7b7 1abb b9b4 89ba
000003c0: 1bce 78bb 88a4 b539 6f41 cf3b 7a2f 8c3b
000003d0: 3946 a73a 77ab c0b9 c2a8 96ba 6049 83bb
000003e0: 88a4 a53b 0000 0000 0000 0000 0000 0000
000003f0: 0000 0000 0000 0000 0000 0000 0000 0000

exp_avg_sq f4 [64, 111]
2.9740788e-05 4.347649e-05 2.0404652e-06 2.8086529e-06 1.6636674e-05 2.7130365e-05 4.516302e-05 3.719875e-05
1.1321698e-05 2.4564764e-05 1.1643694e-05 3.4972767e-05 2.3125296e-05 0.00041658478 9.089766e-05 0.00011255997
9.900575e-05 0.00012965355 7.9101155e-05 0.000105655505 0.00024992815 0.0005890831 3.20141e-05 0.0001553504
3.3946282e-05 0.0005809444 0.0001503278 0.0 0.0 0.0 0.0 0.0
0.0 0.0 0.0 0.0 0.0 0.0 0.0 0.0
0.0 0.0 0.0 0.0 0.0 0.0 0.0 0.0
0.0 0.0 0.0 0.0 0.0 0.0 0.0 0.0
0.0 0.0 0.0 0.0 0.0 0.0 0.0 0.0
0.0 0.0 0.0 0.0 0.0 0.0 0.0 0.0
0.0 0.0 0.0 0.0 0.0 0.0 0.0 0.0
0.0 0.0 0.0 0.0 0.0 0.0 0.0 0.0
0.0 0.0 0.0 0.0 0.0 0.0 0.0 0.0
0.0 0.0 0.0 0.0 0.0 0.0 0.0 0.0
0.0 0.0 0.0 0.0 0.0 0.0 0.0 1.1606445e-05
1.6898433e-05 7.0236996e-07 1.1011365e-06 6.476623e-06 9.976605e-06 1.9093373e-05 1.7210074e-05 4.4868943e-06
8.8224915e-06 4.611888e-06 1.580924e-05 8.562083e-06 0.00016559473 3.4479588e-05 4.253639e-05 3.4126122e-05
3.8858805e-05 2.8611374e-05 4.9278537e-05 0.00014873232 0.00016404745 1.6279746e-05 5.8872345e-05 1.2438702e-05
0.00015380383 5.2158975e-05 0.0 0.0 0.0 0.0 0.0 0.0
0.0 0.0 0.0 0.0 0.0 0.0 0.0 0.0
0.0 0.0 0.0 0.0 0.0 0.0 0.0 0.0
0.0 0.0 0.0 0.0 0.0 0.0 0.0 0.0
0.0 0.0 0.0 0.0 0.0 0.0 0.0 0.0
0.0 0.0 0.0 0.0 0.0 0.0 0.0 0.0
0.0 0.0 0.0 0.0 0.0 0.0 0.0 0.0
0.0 0.0 0.0 0.0 0.0 0.0 0.0 0.0
0.0 0.0 0.0 0.0 0.0 0.0 0.0 0.0
0.0 0.0 0.0 0.0 0.0 0.0 0.0 0.0
0.0 0.0 0.0 0.0 0.0 0.0 2.6198271e-05 7.148865e-05
2.360135e-06 3.7579025e-06 2.2639642e-05 3.605944e-05 5.3693177e-05 6.102057e-05 1.7161898e-05 3.6792804e-05
1.7913555e-05 5.8327365e-05 5.602602e-05 0.00078934093 0.00011933892 0.0002302461 0.0001466224 0.00019486263
0.00013058216 0.00027763163 0.00055253087 0.0011239226 5.2677413e-05 0.0002104791 3.650916e-05 0.000931442
0.00023550114 0.0 0.0 0.0 0.0 0.0 0.0 0.0
00000000: db7b f937 875a 3638 edee 0836 4a7c 3c36
00000010: fc8e 8b37 0496 e337 6c6d 3d38 db05 1c38
00000020: 53f2 3d37 6e10 ce37 4959 4337 b9af 1238
00000030: 32fd c137 1069 da39 4fa0 be38 2c0e ec38
00000040: 4fa1 cf38 9cf3 0739 1ce3 a538 5e93 dd38
00000050: ca08 8339 b36c 1a3a e146 0638 8ee5 2239
00000060: 8b61 0e38 854a 183a 50a1 1d39 0000 0000
00000070: 0000 0000 0000 0000 0000 0000 0000 0000
00000080: 0000 0000 0000 0000 0000 0000 0000 0000
00000090: 0000 0000 0000 0000 0000 0000 0000 0000
000000a0: 0000 0000 0000 0000 0000 0000 0000 0000
000000b0: 0000 0000 0000 0000 0000 0000 0000 0000
000000c0: 0000 0000 0000 0000 0000 0000 0000 0000
000000d0: 0000 0000 0000 0000 0000 0000 0000 0000
000000e0: 0000 0000 0000 0000 0000 0000 0000 0000
000000f0: 0000 0000 0000 0000 0000 0000 0000 0000
00000100: 0000 0000 0000 0000 0000 0000 0000 0000
00000110: 0000 0000 0000 0000 0000 0000 0000 0000
00000120: 0000 0000 0000 0000 0000 0000 0000 0000
00000130: 0000 0000 0000 0000 0000 0000 0000 0000
00000140: 0000 0000 0000 0000 0000 0000 0000 0000
00000150: 0000 0000 0000 0000 0000 0000 0000 0000
00000160: 0000 0000 0000 0000 0000 0000 0000 0000
00000170: 0000 0000 0000 0000 0000 0000 0000 0000
00000180: 0000 0000 0000 0000 0000 0000 0000 0000
00000190: 0000 0000 0000 0000 0000 0000 0000 0000
000001a0: 0000 0000 0000 0000 0000 0000 0000 0000
000001b0: 0000 0000 0000 0000 0000 0000 4db9 4237
000001c0: 1cc1 8d37 7f8a 3c35 c3ca 9335 c551 d936
000001d0: 3161 2737 b52a a037 5a5e 9037 218e 9636
000001e0: 5004 1437 d1bf 9a36 169e 8437 dea5 0f37
000001f0: 7fa3 2d39 2d9e 1038 1a69 3238 a522 0f38
00000200: 53fc 2238 7502 f037 6db0 4e38 07f5 1b39
00000210: 2704 2c39 7d90 8837 b3ed 7638 d1af 5037
00000220: 6746 2139 46c5 5a38 0000 0000 0000 0000
00000230: 0000 0000 0000 0000 0000 0000 0000 0000
00000240: 0000 0000 0000 0000 0000 0000 0000 0000
00000250: 0000 0000 0000 0000 0000 0000 0000 0000
00000260: 0000 0000 0000 0000 0000 0000 0000 0000
00000270: 0000 0000 0000 0000 0000 0000 0000 0000
00000280: 0000 0000 0000 0000 0000 0000 0000 0000
00000290: 0000 0000 0000 0000 0000 0000 0000 0000
000002a0: 0000 0000 0000 0000 0000 0000 0000 0000
000002b0: 0000 0000 0000 0000 0000 0000 0000 0000
000002c0: 0000 0000 0000 0000 0000 0000 0000 0000
000002d0: 0000 0000 0000 0000 0000 0000 0000 0000
000002e0: 0000 0000 0000 0000 0000 0000 0000 0000
000002f0: 0000 0000 0000 0000 0000 0000 0000 0000
00000300: 0000 0000 0000 0000 0000 0000 0000 0000
00000310: 0000 0000 0000 0000 0000 0000 0000 0000
00000320: 0000 0000 0000 0000 0000 0000 0000 0000
00000330: 0000 0000 0000 0000 0000 0000 0000 0000
00000340: 0000 0000 0000 0000 0000 0000 0000 0000
00000350: 0000 0000 0000 0000 0000 0000 0000 0000
00000360: 0000 0000 0000 0000 0000 0000 0000 0000
00000370: 0000 0000 0000 0000 5cc4 db37 2dec 9538
00000380: d062 1e36 4630 7c36 43ea bd37 873e 1738
00000390: 9c34 6138 57f0 7f38 e5f6 8f37 f951 1a38
000003a0: 1145 9637 88a4 7438 7bfd 6a38 c6eb 4e3a
000003b0: 9845 fa38 386e 7139 a7be 1939 0a54 4c39
000003c0: e2ec 0839 168f 9139 b8d7 103a 9650 933a
000003d0: f1f1 5c38 0eb4 5c39 6921 1938 042c 743a
000003e0: dbf0 7639 0000 0000 0000 0000 0000 0000
000003f0: 0000 0000 0000 0000 0000 0000 0000 0000
