drl/ran2/Ant55000_ran2_weights.pth (torch, 292784 bytes, 36 tensors)

log_std f4 [1, 8]
0	0xbfae49e8	-1.3616304
1	0xbfedf839	-1.8591377
2	0xbf9458cc	-1.1589599
3	0xbfae6502	-1.3624575
4	0xbfab7cea	-1.3397496
5	0xbfbb54b7	-1.4635228
6	0xbf9fa49e	-1.2472112
7	0xbfc268b5	-1.5188204

fc1.weight f4 [64, 111]
0	0xbea944b9	-0.33060244
1	0xbd32f23e	-0.04368805
2	0x3e085192	0.13312367
3	0xbd598af3	-0.053111028
4	0x3ddecba8	0.10878688
5	0xbe1fa99b	-0.15592043
6	0xbb66e74a	-0.0035233074
7	0x3d8e99d6	0.069629356
8	0x3d8de5c0	0.06928587
9	0x3c927e72	0.01788256
10	0xbe81ad93	-0.2532774
11	0xbe67afdb	-0.22625677
12	0x3dbe3a9b	0.09288522
13	0xbddf20a3	-0.10894897
14	0xbc416a12	-0.011805074
15	0x3d049ec0	0.03237796
16	0x3d87e84d	0.06636105
17	0x3b8e491f	0.004342213
18	0xbdbeeb2f	-0.093222015
19	0xbd34a719	-0.04410467
20	0xbdc4dce8	-0.09612447
21	0xbbd39e78	-0.0064581
22	0xbe25d5b8	-0.16194808
23	0xbc7c4a87	-0.015398628
24	0xbc97a7a4	-0.018512554
25	0xbbe9302a	-0.0071163373
26	0x3e08ef37	0.13372503
27	0xbbff4fee	-0.007791511
28	0xbd0e1d58	-0.034695953
29	0x3d688712	0.056769438
30	0xbd8d5421	-0.06900812
31	0xbccac91d	-0.024754101
32	0x3d8a4097	0.06750601
33	0x3dc1da0b	0.094654165
34	0x3deeb8a3	0.116563104
35	0xbe317f08	-0.17333615
36	0xbdef37b8	-0.116805494
37	0x3c21e031	0.009880112
38	0x3da74501	0.08167458
39	0xbd9a9d98	-0.0754959
40	0xbe11837d	-0.14210315
41	0x3dc5b330	0.09653318
42	0xbc54437c	-0.012955543
43	0xbe0fe86b	-0.14053504
44	0x3d2261a5	0.039643902
45	0x3c927a06	0.017880451
46	0x3dcae5f9	0.09907145
47	0xbb467c39	-0.0030286445
48	0xbd02ba2d	-0.031915832
49	0xbe0972d6	-0.13422713
50	0xbdca0e77	-0.0986604
51	0x3ceba39c	0.028764538
52	0xbdc3c089	-0.095582075
53	0xbd640c1c	-0.05567561
54	0x3d8a220a	0.06744774
55	0x3c98ccbb	0.01865231
56	0xbd60a1bd	-0.054841746
57	0x3c8f711e	0.017509993
58	0xbe553b83	-0.20823483
59	0xbd1e2d01	-0.038617138
60	0x3da7355a	0.08164473
61	0xbbed2239	-0.0072367457
62	0x3deb5dcd	0.114925005
63	0xbde4b0eb	-0.11166557
64	0x3c7c63fd	0.015404698
65	0x3e30cdd4	0.17266017
66	0xbe8c319d	-0.27381602
67	0xbc9827f6	-0.018573742
68	0x3da9d257	0.08292072
69	0x3d386406	0.045017265
70	0x3d661cef	0.056179937
71	0xbdde031b	-0.10840436
72	0x3d46e4f7	0.0485582
73	0xbdc164c7	-0.0944305
74	0xbd085434	-0.033283427
75	0x3d88a865	0.06672744
76	0x3d1214b5	0.03566428
77	0x3ccfc6b2	0.0253633
78	0xbda4868c	-0.08033475
79	0x3d804fb6	0.06265204
80	0x3d0a80cc	0.033814237
81	0xbbccda9b	-0.0062516457
82	0x3c7abd29	0.015303888
83	0x3d0479ca	0.03234271
84	0x3e54d134	0.2078293
85	0xbdfd85b3	-0.12379017
86	0xbc4f76fa	-0.012662644
87	0x3e002d77	0.12517343
88	0xbd8b77cf	-0.06809961
89	0xbd820d3a	-0.06350179
90	0x3d828ef7	0.06374925
91	0x3d551777	0.05202433
92	0xbcbb853a	-0.022890676
93	0x3e0cff53	0.13769273
94	0xbe2677f2	-0.16256693
95	0x3e08256e	0.13295528
96	0xb9bae2a3	-0.00035645542
97	0x3db03ad3	0.0860497
98	0xbbc3c7c5	-0.005974742
99	0xbe0f7a2d	-0.1401145
100	0xbdd906c5	-0.10596994
101	0xbd1950b4	-0.03743048
102	0x3dcc30d5	0.099702515
103	0x3e19a541	0.15004446
104	0xbcd8b505	-0.026453504
105	0xbe2c7809	-0.16842665
106	0xbd49f3ac	-0.04930465
107	0x3c5e194b	0.013555835
108	0x3de61c48	0.11235863
109	0xbc87efc4	-0.016593821
110	0x3d5b0dce	0.053479962
111	0xbd6fff20	-0.058592916
112	0xbd236663	-0.039892565
113	0xbf2c6a9a	-0.6735016
114	0x3e224f10	0.15850472
115	0xbe8ed003	-0.27893075
116	0x3c7877af	0.015165254
117	0xbe41a134	-0.1890915
118	0x3e5a9434	0.21345598
119	0x3d969bdb	0.07353946
120	0xbdb51ee2	-0.08843781
121	0x3bbdb207	0.005789045
122	0xbe1c3997	-0.15256344
123	0xbd4167e3	-0.047218215
124	0xbd8afdda	-0.067866996
125	0xbd45b26f	-0.04826587
126	0xbe057fd5	-0.13037045
127	0xbc8f874e	-0.017520573
128	0x3ce11f4f	0.02748075
129	0xbbbcc9ce	-0.0057613617
130	0xbd8f0ccc	-0.06984863
131	0xbd94ab7d	-0.07259271
132	0x3de31628	0.1108821
133	0x3d1add54	0.03780873
134	0xbe0f3e42	-0.13988593
135	0x3d9a4a64	0.0753372
136	0xbd9d3823	-0.07676723
137	0xbd92e4e1	-0.071725614
138	0xbdeebca4	-0.11657074
139	0xba2d24c7	-0.00066049065
140	0xbd88406d	-0.06652913
141	0xbd6a2087	-0.057159927
142	0x3cd37f3c	0.025817506
143	0x3d51dd9c	0.051236734
144	0xbe0b2c13	-0.13591032
145	0xbd6c6b95	-0.057719786
146	0x3dc7c915	0.0975515
147	0xbdcf86c2	-0.10133125
148	0xbd1e18d9	-0.038597915
149	0x3e2c1d66	0.1680809
150	0xbd749c18	-0.059719175
151	0xbd219329	-0.039446983
152	0xbdb32a56	-0.08748309
153	0xbd364b18	-0.04450521
154	0x3e660fb7	0.22466932
155	0x3e31541a	0.17317238
156	0x3d1e1031	0.03858966
157	0xbdc3d6ee	-0.09562479
158	0xbdd9e754	-0.106398255
159	0xbe29c9b5	-0.16580851
160	0x3d8179b3	0.063220404
161	0xbd7e7092	-0.062119074
162	0x3d01cbe9	0.031688605
163	0xbca4d521	-0.020121159
164	0x3de21992	0.110400334
165	0xbd742d03	-0.05961324
166	0xbcc259f2	-0.02372453
167	0x3e48be95	0.19603951
168	0x3e7946c8	0.24343407
169	0x3d6c931f	0.057757493
170	0xbd70ccd7	-0.0587891
171	0x3d921777	0.07133382
172	0xbd7ac36a	-0.061221518
173	0x3d426a8e	0.0474649
174	0x3e354899	0.17703475
175	0xbd18dc2c	-0.037319347
176	0xbcf9beeb	-0.030486545
177	0xbe254c7b	-0.16142456
178	0xbbbe9fe6	-0.005817401
179	0x3cb4bb1d	0.022061879
180	0x3d6e70b4	0.05821295
181	0x3cc3ecca	0.02391662
182	0x3e88122e	0.2657637
183	0x3dd8492e	0.10560833
184	0x3c4b2bb6	0.012400558
185	0x3c9173c2	0.017755393
186	0xbbded8c2	-0.006800742
187	0xbd83ca94	-0.06435123
188	0xbd5b3889	-0.053520713
189	0xbbcf3656	-0.006323616
190	0x3e2fb665	0.17159422
191	0x3ba2fdb3	0.004974091
192	0x3d739e7a	0.059477307
193	0x3d1d8f8d	0.03846698
194	0xbdeacd78	-0.11464971
195	0xbe0d14e3	-0.13777499
196	0xbdac9111	-0.08426107
197	0x3d991574	0.07474795
198	0xbc349260	-0.011021227
199	0x3dbcd024	0.09219387
200	0x3d803d45	0.06261686
201	0xbd1ea134	-0.038727954
202	0xbd1d8ef3	-0.038466405
203	0x3cb09751	0.021556528
204	0x3daba2a4	0.083806306
205	0x3ced2ef1	0.028953047
206	0x3e20f76a	0.15719381
207	0x3ce7c613	0.028292691
208	0x3e1b95c3	0.15193848
209	0x3d46ecfc	0.04856585
210	0xbd3a0d7f	-0.045423027
211	0x3e2c3a69	0.16819157
212	0xb9baafc3	-0.00035607637
213	0xbcd031c9	-0.025414364
214	0x3d5b4cce	0.053540044
215	0x3b8ff11a	0.004392755
216	0xbd9d88a9	-0.076920815
217	0x3d1ebf42	0.038756616
218	0x3caafd22	0.020872656
219	0xbc195c47	-0.00936038
220	0x3d5439fe	0.05181312
221	0xbd6ff7b9	-0.058585856
222	0xbda625c5	-0.08112673
223	0xbe15572f	-0.14584039
224	0x3d9219e2	0.07133843
225	0xbc0a8a6f	-0.008455857
226	0x3f0bcf1c	0.546129
227	0x3dd0fb3b	0.102041684
228	0xbe8ea4d6	-0.27860135
229	0x3e7cb41c	0.24678081
230	0x3e29b951	0.16574599
231	0x3e0cee0b	0.13762681
232	0x3e97b9b9	0.29633883
233	0xbe9936b4	-0.29924548
234	0xbcc23b6e	-0.023709979
235	0xbd558f18	-0.052138418
236	0xbd4259ad	-0.047448803
237	0xbd5975e2	-0.053090937
238	0xbd2f0fab	-0.04273955
239	0x3d2c7fdc	0.042114124
240	0x3cd12742	0.025531415
241	0x3db043fc	0.08606717
242	0xbc94f208	-0.018181816
243	0x3c650a6a	0.013979534
244	0x3c81579d	0.015788848
245	0x3d554c5b	0.05207477
246	0xbb6e01af	-0.0036316921
247	0xbe3559a0	-0.1770997
248	0x3d8049eb	0.06264099
249	0x3d141477	0.03615233
250	0x3d5e5906	0.054284118
251	0xbbc24f5f	-0.005929872
252	0x3ccb361c	0.024806075
253	0xbdfa762b	-0.1222957
254	0xbcc476bc	-0.023982398
255	0x3d132748	0.035926133

fc1.bias f4 [64]
0	0xbc3e8fac	-0.011630934
1	0xbcd307b7	-0.025760515
2	0xbe10b8e5	-0.14133032
3	0xbdbeed69	-0.09322626
4	0xbe1b9495	-0.15193398
5	0xbc380c46	-0.011233395
6	0x3c4f5e1c	0.012656715
7	0x3d298982	0.041390903
8	0xbdc0d50a	-0.09415634
9	0xbd1f2b86	-0.038859867
10	0x3c6cbb86	0.014449006
11	0xbdbd9e27	-0.09258681
12	0xbd692154	-0.05691655
13	0x3c9a0c4e	0.018804695
14	0x3beb7b87	0.0071863565
15	0x3d68f6e0	0.056876063
16	0xbd6d75ba	-0.0579736
17	0xbd667421	-0.056263093
18	0x3d6d27e2	0.057899363
19	0x3dcb3005	0.099212684
20	0x3e2e8cb1	0.17045857
21	0xbcc59b56	-0.024121922
22	0xbdc09d90	-0.09405053
23	0x3d94278c	0.072341055
24	0x3daa0065	0.083008565
25	0x3e03903a	0.12847987
26	0x3d47f0ed	0.04881375
27	0xbd08aa83	-0.033365738
28	0xbcc32910	-0.023823291
29	0xbc1db765	-0.009626244
30	0xbca48a13	-0.02008537
31	0xbd871cd4	-0.065972954
32	0xbd2f75e1	-0.042837027
33	0x3ce1245e	0.027483162
34	0x3d3423d4	0.04397948
35	0xbbdc3309	-0.006719951
36	0x3db24e70	0.08706367
37	0x3b9692a8	0.0045951195
38	0x3c856480	0.016283274
39	0x3d95e87e	0.07319735
40	0xbcde4dbc	-0.027136676
41	0x3dac25dc	0.084056586
42	0x3b80232e	0.0039104437
43	0xbc1f1603	-0.009709838
44	0xbd1fe0f3	-0.039032888
45	0x3e1b1a4f	0.15146755
46	0xbdc58dde	-0.096462
47	0x3d215539	0.039387915
48	0xbcc55eed	-0.024093116
49	0x3dd13fe2	0.10217263
50	0xbe585f9f	-0.21130227
51	0x3e1e598d	0.15463848
52	0xbe126a2c	-0.14298314
53	0x3c762206	0.01502276
54	0x3cf1894d	0.029484415
55	0x3e2157ea	0.15756193
56	0xbc7ddb14	-0.015494127
57	0x3d29e016	0.04147347
58	0x3ce83738	0.028346643
59	0x3bd6b5b1	0.006552421
60	0xbcfa4058	-0.03054826
61	0x3cc110b7	0.02356754
62	0x3d3191ec	0.043352053
63	0xbe4cde8c	-0.2000677

fc2.weight f4 [64, 64]
0	0x3dacd11e	0.084383234
1	0xbd84beb3	-0.064816855
2	0xbe216739	-0.15762033
3	0xbcd336a8	-0.025782898
4	0x3e5c2ca8	0.2150141
5	0xbccc6165	-0.024948785
6	0x3e814ea1	0.25255302
7	0xbdb3e7d8	-0.08784455
8	0x3c9586ca	0.018252749
9	0x3e96bc06	0.29440325
10	0x3bd54ba5	0.0065092617
11	0x3d98b01d	0.07455466
12	0xbe0d80e0	-0.13818693
13	0xbeb7a4ae	-0.35867828
14	0x3c52621c	0.012840774
15	0xbd553890	-0.052055895
16	0x3e77425f	0.24146412
17	0xbd3064d8	-0.043064922
18	0x3de5516e	0.11197172
19	0xbdce6941	-0.10078669
20	0xbcb0d83e	-0.021587487
21	0xbd726b72	-0.0591845
22	0xbe480394	-0.19532615
23	0x3db96253	0.09051957
24	0x3d7f411c	0.062317953
25	0x3e775888	0.24154866
26	0xbd12064f	-0.035650548
27	0x3de39690	0.11112702
28	0xbe196373	-0.14979343
29	0xbd8b39a9	-0.06798107
30	0xbc4158d9	-0.011800968
31	0xbe519fb2	-0.20471075
32	0x3ca75a56	0.020428818
33	0x3dfc75f7	0.123271875
34	0x3ce66d3d	0.02812826
35	0xbd66dbb0	-0.056361854
36	0x3d9dfe24	0.07714489
37	0x3d99aa2c	0.07503161
38	0x3ebc7c93	0.36813793
39	0xbda91885	-0.0825663
40	0x3e628ebc	0.22124761
41	0x3d2bbbdb	0.0419272
42	0xbdb04f6b	-0.08608898
43	0x3e59c1c7	0.21265326
44	0x3dd2e3e2	0.102973714
45	0xbdbdb11d	-0.09262297
46	0x3e56bb51	0.20969893
47	0xbd9a4751	-0.07533134
48	0x3e1813aa	0.14851251
49	0xbd90ecb5	-0.07076398
50	0x3dc7bb13	0.097524785
51	0x3d759796	0.059959017
52	0x3cb50730	0.022098154
53	0xbe8200e7	-0.25391313
54	0xbdfba883	-0.122880004
55	0x3c2b10df	0.010441034
56	0xbd0c0167	-0.034181025
57	0xbe4da590	-0.20082688
58	0x3e72a1e6	0.23694572
59	0xbe27e103	-0.16394429
60	0xbd19f441	-0.037586454
61	0xbe763c87	-0.24046527
62	0xbe28c694	-0.16482002
63	0x3db43e8e	0.08800994
64	0x3bba4b64	0.005685257
65	0x3ee95701	0.4557419
66	0xbe7b431d	-0.2453732
67	0x3e3333b9	0.175002
68	0xbc1e08f0	-0.009645686
69	0xbd9e8e6b	-0.07742008
70	0x3e97abfe	0.29623407
71	0x3e2dd720	0.16976595
72	0x3de2b54e	0.110697374
73	0x3e080490	0.1328299
74	0x3c8cac11	0.017171891
75	0xbdb3c8d0	-0.08778536
76	0xbe33769e	-0.17525718
77	0x3c0ea9bf	0.008707463
78	0x3deb6f7c	0.11495873
79	0x3db0f1b7	0.086398534
80	0xbe09ced3	-0.13457803
81	0xbe05b112	-0.13055828
82	0x3cfbdf74	0.0307462
83	0xbe2f288f	-0.17105316
84	0x3bb4af7e	0.0055140844
85	0xbdecc3fe	-0.1156082
86	0x3cfe81b2	0.031067703
87	0x3cd7f1d1	0.026360424
88	0xbdd4faec	-0.10399422
89	0xbe2ce0cd	-0.1688263
90	0x3ca7ca2c	0.020482145
91	0xbdc60ee7	-0.09670811
92	0x3c714361	0.014725537
93	0xbd52e69a	-0.05148945
94	0x3df01937	0.11723559
95	0x3d9ff0ae	0.07809578
96	0xbdfca96a	-0.12337001
97	0x3af6b6a9	0.0018822748
98	0xbe00d4f0	-0.12581229
99	0xbd8b875f	-0.06812929
100	0x3e2a5831	0.16635205
101	0x3e12d2cb	0.14338224
102	0x3d870ad6	0.06593864
103	0xbe3a0e89	-0.18169607
104	0xbd43b0aa	-0.0477759
105	0xbc8f285b	-0.017475298
106	0x3ddc7232	0.107639685
107	0xbe154e94	-0.14580756
108	0xbcc244c5	-0.023714432
109	0xbb8a75ff	-0.004225492
110	0xbe0ffbdf	-0.14060925
111	0xbdce01f5	-0.10058967
112	0x3c22f088	0.009945042
113	0xbdcb9303	-0.0994015
114	0x3ceef67d	0.02917027
115	0x3d96f513	0.07370963
116	0x3d65353f	0.055958983
117	0xbdb9f39d	-0.09079669
118	0xbdf91d9b	-0.1216385
119	0xbd8c0216	-0.06836335
120	0x3ea161e0	0.31519985
121	0x3e09d7c2	0.13461211
122	0xbd870640	-0.06592989
123	0x3e10eb5a	0.1415228
124	0x3d6370d6	0.05552753
125	0xbd63b280	-0.055590153
126	0xbdd0bc44	-0.10192159
127	0x3e7ed06e	0.24884197
128	0xbe7ff8b7	-0.24997221
129	0xbd4c9e41	-0.04995561
130	0xbe057979	-0.1303462
131	0xbdc64cfb	-0.096826516
132	0xbc3736db	-0.011182512
133	0x3d9c951f	0.0764563
134	0xbceac1dd	-0.028656894
135	0xbdcdebd5	-0.10054747
136	0xbd82616a	-0.063662365
137	0x3e0fd5fd	0.14046474
138	0xbe042496	-0.12904581
139	0xbe12a851	-0.1432202
140	0x3d69590e	0.056969695
141	0x3dc7604f	0.09735166
142	0x3d01b7f1	0.03166956
143	0x3d77fef2	0.06054587
144	0xbe8ef1d4	-0.27918875
145	0xbe130757	-0.14358269
146	0x3ef7cea1	0.48399833
147	0x3cae7c89	0.021299617
148	0x3dd2763c	0.10276458
149	0xbe4974a4	-0.19673401
150	0xbd93760e	-0.072002515
151	0xbd7bd76f	-0.06148475
152	0x3e373668	0.17891848
153	0x3dc91cce	0.09819947
154	0x3d5d6db6	0.054059707
155	0xbe12dd73	-0.14342289
156	0xbbc4df7b	-0.0060080863
157	0xbccd33af	-0.025049059
158	0x3d89bc0a	0.06725319
159	0x3d033a17	0.03203782
160	0x3d931b2d	0.07182918
161	0x3e0e1d3e	0.13878343
162	0x3da759a8	0.081713974
163	0xbc163b24	-0.009169374
164	0xbe25d353	-0.16193895
165	0xbd16438e	-0.03668552
166	0x3cdb2c33	0.026754474
167	0xbe83824b	-0.25685343
168	0xbbf53592	-0.0074831927
169	0x3e8cfe43	0.27537736
170	0xbe8eacb5	-0.2786614
171	0xbd888db7	-0.06667655
172	0x3e4d428f	0.20044921
173	0xbe225831	-0.15853955
174	0x3e1fd0d0	0.15607
175	0x3e31c0b0	0.1735866
176	0x3c74eacf	0.014948561
177	0x3d951e47	0.072811656
178	0xbe01e54c	-0.12685126
179	0xbd89327b	-0.066990815
180	0xbda29082	-0.07937719
181	0x3d33c283	0.043886673
182	0x3d89d559	0.06730146
183	0xbcb39edf	-0.021926342
184	0xbe8094bf	-0.25113484
185	0x3d3ece8b	0.046583693
186	0x3d2cd4cf	0.042195138
187	0x3d965abe	0.073415264
188	0x3e005f7d	0.12536426
189	0x3e395052	0.18097046
190	0xbe0c96c7	-0.13729392
191	0xbdc66b0b	-0.096883856
192	0xbc39b4f7	-0.011334649
193	0x3d109643	0.03529955
194	0xbb4eb446	-0.0031540557
195	0xbe1cfba0	-0.15330362
196	0xbea07de3	-0.31346044
197	0x3d6a02fa	0.057131745
198	0xbdf7102a	-0.1206363
199	0xbd184120	-0.037171483
200	0x3e1986c7	0.1499282
201	0x3e9473ee	0.28994697
202	0xbd01c5b4	-0.031682685
203	0x3e8d37fc	0.27581775
204	0xbe41c95c	-0.18924469
205	0x3d8d5c26	0.069023415
206	0x3e8f9a31	0.28047326
207	0xbd982fe2	-0.07431008
208	0x3c631894	0.01386084
209	0x3d31dcbf	0.04342341
210	0xbd290796	-0.041267
211	0xbe961e35	-0.2931992
212	0x3d20bf61	0.039245013
213	0x3d4447d9	0.04792008
214	0x3dc1fec5	0.094724216
215	0xbe0d9d2b	-0.13829486
216	0xbcfb2e38	-0.030661687
217	0x3e2a29bf	0.16617487
218	0x3d17f8b4	0.037102416
219	0xbeac2544	-0.3362218
220	0xbe788856	-0.24270758
221	0x3d75683b	0.059913855
222	0xbb98cc70	-0.0046630427
223	0xbcd0a138	-0.0254675
224	0x3d96e816	0.07368486
225	0xbd9cb28d	-0.07651243
226	0xbde8d29d	-0.11368296
227	0x3e535e7c	0.20641512
228	0xbdb49ec6	-0.08819346
229	0x3daf0bad	0.08547149
230	0xbd3f79dc	-0.046747074
231	0xbe1275b3	-0.14302711
232	0xbc482ca0	-0.012217671
233	0xbd254022	-0.040344365
234	0xbe4ced44	-0.20012385
235	0x3db64cd3	0.08901372
236	0x3e565827	0.20932065
237	0x3da5dc72	0.08098687
238	0xbe2c260e	-0.16811392
239	0xbc19b403	-0.009381297
240	0xbe85d539	-0.26139238
241	0x3d6a46ee	0.05719655
242	0x3df4bf0a	0.119505
243	0x3c84804e	0.016174462
244	0xbc9421cb	-0.01808252
245	0xbd8931c9	-0.06698949
246	0x3e155c42	0.14585975
247	0xbd1953ea	-0.037433542
248	0xbc504af3	-0.012713182
249	0xbd971e7b	-0.073788606
250	0x3eb14b8a	0.34627944
251	0xbd1e58c7	-0.038658883
252	0xbe916b5f	-0.2840223
253	0xbe80bac2	-0.25142485
254	0xbd62e70b	-0.05539612
255	0xbd17e7f2	-0.037086435

fc2.bias f4 [64]
0	0x3caaecd4	0.020864882
1	0xbcd8fae4	-0.026486821
2	0x3d54aca2	0.051922448
3	0xbdddec72	-0.10836114
4	0xbcd0d33f	-0.025491355
5	0x3db86c13	0.090049885
6	0x3e14430d	0.14478703
7	0x3d5b2bf7	0.053508725
8	0xbca3b88d	-0.019985462
9	0x3cf3860e	0.029727008
10	0x3c00ca1b	0.007860686
11	0xbd3b0aba	-0.045664527
12	0xbc8a9c5e	-0.016920265
13	0x3d263e49	0.040586744
14	0x3d8a2c17	0.06746691
15	0x3e0c658e	0.13710615
16	0x3d9e279d	0.077223994
17	0x3dfd8b23	0.12380054
18	0xbd98d35c	-0.074621886
19	0xbd7125e3	-0.058874022
20	0xbc7e3c09	-0.015517243
21	0xbc339a31	-0.010962055
22	0x3a5a04d9	0.00083167624
23	0x3d0892c5	0.033343095
24	0xbd80940c	-0.06278238
25	0xbcdea830	-0.027179807
26	0xbd922c4d	-0.07137356
27	0x3cfb3752	0.030666027
28	0xbbeb35d6	-0.0071780486
29	0x3c46f1df	0.0121426275
30	0xbcd39d33	-0.025831794
31	0x3bcae20d	0.006191498
32	0x3d65d455	0.0561107
33	0x3c963077	0.018333657
34	0x3caf695b	0.021412542
35	0x3d5263b8	0.05136463
36	0x3d0c9191	0.03431851
37	0xbcd33b59	-0.025785135
38	0x3dcd3171	0.10019196
39	0xbd3adbac	-0.04561965
40	0xbd9adf35	-0.075621046
41	0x3d2ff411	0.04295737
42	0x3da3b6d0	0.07993853
43	0x3e337f7c	0.175291
44	0xbcb5d184	-0.022194631
45	0xbd926968	-0.07149011
46	0xbcef1776	-0.029185992
47	0x3d9781dc	0.073978156
48	0x3ce535c2	0.027979735
49	0x3d6b970c	0.057517096
50	0x3b1e4df3	0.0024155348
51	0x3c80b9b7	0.015713556
52	0x3d2837b8	0.041068763
53	0xbde8a397	-0.11359327
54	0x3caf9827	0.021434857
55	0x3cd8598a	0.026409883
56	0x3cfe5b7e	0.031049486
57	0xbe0c95e1	-0.1372905
58	0x3d3e87ce	0.046516232
59	0x3e04f95a	0.12985745
60	0x3b67ab66	0.0035349964
61	0xbd8806c6	-0.06641917
62	0x3e1688bd	0.14700599
63	0x3cee16a7	0.029063536

mu.weight f4 [8, 64]
0	0x3cd6df4c	0.026229523
1	0x3d95fbdc	0.07323429
2	0xbe2f4361	-0.17115547
3	0xbd2959a0	-0.04134524
4	0xbe1ce1d9	-0.15320529
5	0xbd3cfa26	-0.046136998
6	0x3e393a65	0.18088682
7	0x3e0d055a	0.13771573
8	0x3d924f24	0.07144001
9	0xbe0237bb	-0.12716572
10	0xbdcc0d78	-0.099635065
11	0xbd4f8b9b	-0.050670248
12	0xbc89f061	-0.016838254
13	0x3e3b75d2	0.18306664
14	0xbd0e24e1	-0.03470314
15	0x3d9b483c	0.07582137
16	0x3b1d8dca	0.0024040812
17	0xbe0d476d	-0.13796778
18	0xbe90e620	-0.2830057
19	0xbea17cce	-0.3154053
20	0xbd9bd543	-0.07609036
21	0xbdb09b47	-0.08623367
22	0x3cfa8bca	0.030584235
23	0x3d97da61	0.07414699
24	0xbe68c601	-0.22731782
25	0x3db96b6a	0.09053691
26	0xbe0570f4	-0.1303137
27	0xbdd832e7	-0.10556584
28	0x3e2db89d	0.16964956
29	0x3cb9bd20	0.02267319
30	0xbc39c915	-0.011339446
31	0x3dda3f4a	0.10656603
32	0xbe54bdcc	-0.20775527
33	0xbd95c7c3	-0.07313492
34	0x3e03c990	0.12869859
35	0xbd989a04	-0.07451251
36	0x3e7ac5ec	0.24489564
37	0xbe489acc	-0.195903
38	0x3dd33620	0.10313058
39	0xbd1eaf6d	-0.038741518
40	0xbc911884	-0.017711885
41	0xbe8af38f	-0.27138945
42	0xbe20a2d4	-0.15687114
43	0xbe281e25	-0.16417749
44	0xbec6e43f	-0.38846013
45	0xbde9cca2	-0.11415984
46	0x3dd2fb76	0.103018686
47	0xbed179ef	-0.4091334
48	0x3e402fe8	0.18768275
49	0x3d9bdf5e	0.07610963
50	0xbe0b130e	-0.13581488
51	0x3da5eb17	0.081014805
52	0x3ea955ff	0.33073422
53	0x3d2f8ea9	0.04286066
54	0x3e2e21e2	0.17005113
55	0x3e9e29ea	0.30891353
56	0x3de71626	0.11283521
57	0x3b14a585	0.0022681665
58	0xbe557d8a	-0.2084867
59	0x3b8e7650	0.0043476
60	0xbcc79472	-0.024362776
61	0xbe210ae8	-0.15726817
62	0xbe1a07ee	-0.15042087
63	0x3ceb06fc	0.028689854
64	0xbcaf6848	-0.02141203
65	0x3d0b1c5c	0.033962592
66	0x3e976fd6	0.29577512
67	0xbd0b32df	-0.03398406
68	0xbdcf3ee6	-0.10119419
69	0xbe27bb9d	-0.16380163
70	0x3d3cc5f5	0.046087224
71	0x3c371f5b	0.011176909
72	0xbdb1a4f1	-0.08674038
73	0x3e4e0ead	0.20122786
74	0x3e2d4ac5	0.16923054
75	0xbc0fddaf	-0.008780881
76	0xbe0e06f0	-0.13869834
77	0x3dbcdf19	0.0922224
78	0x3d996734	0.074903876
79	0x3de34926	0.11097936
80	0x3dadb558	0.08481854
81	0xbd406f54	-0.04698117
82	0xbea0ad0e	-0.3138203
83	0xbc3cad7c	-0.011515971
84	0x3ca20ad1	0.019780548
85	0x3cc03e91	0.023467334
86	0xbe84cc87	-0.25937292
87	0xbd37198b	-0.044702094
88	0x3c77f326	0.015133655
89	0x3ddb3295	0.10703007
90	0x3de8c965	0.11366538
91	0x3ddef63d	0.1088681
92	0xbc5d41a0	-0.013504416
93	0x3ce52d1a	0.027975608
94	0x3d8d2d71	0.06893433
95	0xbe8e543f	-0.2779865
96	0xbd2f13e6	-0.042743586
97	0xbdbd064c	-0.09229717
98	0xbd2bdf8c	-0.041961238
99	0x3e117c2a	0.14207521
100	0xbde791b2	-0.11307086
101	0x3dd7cec8	0.10537487
102	0xbdbd087e	-0.092301354
103	0x3e280233	0.16407089
104	0x3ca5ec00	0.020254135
105	0x3d628488	0.055302173
106	0xbcdf3274	-0.027245738
107	0xbe8dfb0c	-0.27730596
108	0x3e0a2dee	0.13494083
109	0x3dd85267	0.10562592
110	0xbc7278bc	-0.014799293
111	0x3dcd33b1	0.10019625
112	0xbdfc6ad3	-0.123250626
113	0x3c4ec766	0.0126207825
114	0xbe42f56a	-0.1903893
115	0x3c01f6e2	0.007932397
116	0xbdc149c1	-0.094378956
117	0x3e17fcfb	0.14842598
118	0xbc0ff195	-0.008785625
119	0x3d0546ba	0.032538153
120	0xbdf60a3e	-0.12013672
121	0x3dc7f108	0.0976277
122	0xbe08f100	-0.13373184
123	0x3e743566	0.23848495
124	0x3e23fa5f	0.16013478
125	0x3dfb1813	0.12260451
126	0xbe277392	-0.1635268
127	0x3e1cd734	0.15316468
128	0x3e1d3353	0.1535161
129	0x3e82c387	0.255398
130	0xbe37b311	-0.17939402
131	0x3db98c7c	0.090599984
132	0x3d8d9574	0.069132715
133	0x3e297a68	0.165506
134	0xbefaffc4	-0.4902326
135	0xbe1bb60b	-0.15206163
136	0xbdd6abd0	-0.104819894
137	0x3de09c25	0.10967282
138	0x3e634fdf	0.22198437
139	0x3d725b40	0.059169054
140	0xbca39d71	-0.019972535
141	0x3dd03a3f	0.101673596
142	0xbc401d68	-0.011725761
143	0x3de8e819	0.11372394
144	0xbd8df920	-0.069322824
145	0xbdaa8b17	-0.083273105
146	0x3d3ab6f3	0.04558463
147	0x3c0c8b5c	0.008578148
148	0x3dc14cf1	0.094385035
149	0xbdb01d05	-0.08599285
150	0xbd19073e	-0.037360422
151	0x3dbaea54	0.09126726
152	0xbca7cb57	-0.020482702
153	0x3e2d4c5e	0.16923663
154	0x3df377cb	0.11888083
155	0x3ecd2fa3	0.40075406
156	0xbde8cfe4	-0.11367777
157	0xbe15d5f2	-0.14632395
158	0xbe470303	-0.19434743
159	0x3c8df996	0.017330926
160	0xbe3664f3	-0.17811947
161	0xbe5f449e	-0.21803519
162	0xbe85de47	-0.26146147
163	0x3e9181ac	0.28419244
164	0x3e486911	0.1957133
165	0x3dde38cb	0.10850676
166	0x3e07dbe1	0.13267471
167	0xbe23a0af	-0.15979265
168	0x3c8b3dda	0.016997267
169	0xbcdac3e5	-0.026704738
170	0x3e6b51fd	0.22980495
171	0xbea6699a	-0.32502443
172	0x3dd42344	0.10358289
173	0x3cd86a03	0.026417738
174	0x3e4c5419	0.19953956
175	0xbc9f7cc8	-0.01946868
176	0x3e0ce43a	0.13758937
177	0x3d15fbb7	0.036617007
178	0x3e613cee	0.21995899
179	0xbe213ac5	-0.15745075
180	0xbcfa3bc9	-0.030546086
181	0xbc488f76	-0.012241235
182	0xbd96010d	-0.07324419
183	0xbe503024	-0.20330864
184	0x3d3aae88	0.045576602
185	0x3da0c179	0.07849402
186	0x3e5f4b9d	0.21806188
187	0x3bc4df44	0.0060080606
188	0xbd4480e4	-0.047974482
189	0x3dae0b7e	0.08498286
190	0x3e0580a6	0.13037357
191	0xbd134482	-0.035954006
192	0xbe5dd5cf	-0.21663593
193	0x3def5519	0.11686153
194	0x3d97a3e8	0.074043095
195	0x3e312fe2	0.17303422
196	0xbe0786f6	-0.13235077
197	0x3d581cb8	0.052761763
198	0x3de27445	0.11057333
199	0x3ded0211	0.1157266
200	0xbc5fd0d5	-0.013660629
201	0x3dcbd69b	0.09953042
202	0xbde66dc8	-0.11251408
203	0x3df6650a	0.120309904
204	0xbd9275c9	-0.07151372
205	0x3d80ed03	0.062952064
206	0xbd4169c4	-0.047220007
207	0xbe010e32	-0.12603071
208	0xbe1bf00e	-0.15228292
209	0x3de82a14	0.11336151
210	0xbcf8c3a0	-0.030366719
211	0xbe3030e0	-0.17206144
212	0x3de68a09	0.11256797
213	0xbd98e8a9	-0.074662514
214	0xbe1ed22d	-0.15509863
215	0xbd1fa4ea	-0.038975634
216	0x3d7470df	0.059677955
217	0xbcc02b86	-0.023458254
218	0xbd5e5417	-0.054279413
219	0x3d03e023	0.032196175
220	0x3d451005	0.04811098
221	0x3daedb60	0.08537936
222	0x3df6962a	0.1204036
223	0xbce6773a	-0.028133024
224	0xbdd687c0	-0.10475111
225	0x3b8d94e9	0.00432073
226	0xbdeb80dc	-0.11499187
227	0x3b33a588	0.0027411897
228	0x3d323039	0.04350302
229	0xbc090f72	-0.008365499
230	0x3dbd1729	0.09232933
231	0x3db3bfb0	0.08776796
232	0xbd8c3af0	-0.06847179
233	0x3a97cef0	0.0011582058
234	0x3de8a189	0.113589354
235	0xbd8f45e1	-0.0699575
236	0xbdf9e378	-0.12201589
237	0x3e18ebea	0.14933744
238	0x3d7554bb	0.05989526
239	0x38005a09	3.060143e-05
240	0x3c96824d	0.01837268
241	0xbe286745	-0.16445644
242	0x3cc5b6d1	0.024135025
243	0xbd39564e	-0.045248322
244	0xbd643449	-0.055713926
245	0x3eb25cd3	0.34836444
246	0x3c1d43e5	0.009598707
247	0x3b0d623e	0.002157345
248	0x3e919cbc	0.2843989
249	0xbca84722	-0.020541731
250	0xbd447f4d	-0.047972966
251	0xbe9660f8	-0.29370856
252	0xbd9abb21	-0.07555223
253	0xbc47f657	-0.012204728
254	0x3dd176a2	0.102277055
255	0x3e142460	0.14467001

mu.bias f4 [8]
0	0x3a0a61df	0.0005278866
1	0xbd9ccdac	-0.07656416
2	0xbc0f32a9	-0.008740106
3	0xbd5a7982	-0.053338535
4	0x3d48c23e	0.04901337
5	0x3de274bf	0.11057424
6	0x3ceeaff0	0.029136628
7	0x3db136b6	0.086530134

fc1.weight f4 [64, 111]
0	0xbee3f9d7	-0.4452655
1	0x3f074a86	0.5284809
2	0x3ee7fb60	0.4530897
3	0xbe9162e6	-0.28395766
4	0xbdb6885a	-0.08912726
5	0x3e04e2bd	0.12977119
6	0x3dd8a40f	0.10578167
7	0x3d543a59	0.051813457
8	0xbdf07c3a	-0.11742444
9	0xbdd75cd0	-0.105157495
10	0xbd9c79a0	-0.07640386
11	0x3d547d15	0.0518771
12	0x3e285e1d	0.16442151
13	0xbe41f8d1	-0.18942572
14	0xbd6ca0e7	-0.057770636
15	0xbe2c221a	-0.16809884
16	0xbda98d9e	-0.082789645
17	0x3e633968	0.22189867
18	0xbe1bac0e	-0.15202352
19	0xbd1ecfb3	-0.038772296
20	0x3d36742c	0.044544384
21	0xbd356db8	-0.04429409
22	0x3bb2ad10	0.0054527596
23	0xbc933eab	-0.017974218
24	0x3c8745c6	0.016512763
25	0xbdcd3093	-0.100190304
26	0x3cdd1c97	0.026991172
27	0xbdbda937	-0.09260791
28	0xbe8279b5	-0.2548348
29	0xbdc1c633	-0.094616316
30	0x3dd50ddd	0.10403035
31	0x3e2e1cad	0.17003126
32	0x3de3d0b7	0.111237936
33	0x3c15f3ba	0.009152347
34	0xbd8dcf9d	-0.06924365
35	0x3e131df7	0.143669
36	0xbd860266	-0.06543426
37	0x3cdee3cb	0.02720823
38	0x3d1866c6	0.037207387
39	0xbc055c70	-0.008139715
40	0xbda4102e	-0.080108985
41	0x3d940c29	0.07228882
42	0xbe466f4e	-0.19378397
43	0xbcd59daf	-0.026076166
44	0xbe436eff	-0.1908531
45	0xbd010833	-0.03150196
46	0xbcd4cf5a	-0.02597778
47	0xbe2c52a3	-0.16828398
48	0xbd9d878d	-0.0769187
49	0x3e0bc72e	0.136502
50	0xbdca3716	-0.09873788
51	0x3dba5dcf	0.09099924
52	0xbea17961	-0.31537917
53	0x3d2cf633	0.04222698
54	0x3da5493c	0.08070609
55	0x3d1ace90	0.03779465
56	0xbcb30057	-0.021850748
57	0x3d91b2b5	0.07114164
58	0xbde67830	-0.11253393
59	0xbe048c83	-0.12944226
60	0xbd3454b8	-0.044026107
61	0x3d94d539	0.072672315
62	0xbbc4fa50	-0.006011285
63	0xbd68c420	-0.056827664
64	0x3da1d3ac	0.07901701
65	0x3d8d3864	0.06895521
66	0xbdebb3b6	-0.115088865
67	0xbc8cb5a8	-0.017176464
68	0x3dc587e3	0.09645059
69	0x3e0ce93a	0.13760844
70	0x3db6d86b	0.08927997
71	0x3cb4ce1b	0.022070935
72	0xbda82050	-0.08209288
73	0xbda2de86	-0.07952599
74	0xbca68d8b	-0.020331165
75	0x3c6c1b1a	0.014410758
76	0xbdee5337	-0.11636966
77	0x3cdf016f	0.027222363
78	0x3be56c24	0.0070014168
79	0xbcb70929	-0.022343235
80	0xbddf182b	-0.108932815
81	0xbdc96471	-0.09833611
82	0x3cf76b54	0.030202545
83	0x3d71de08	0.059049636
84	0xbe393f2d	-0.18090506
85	0x3c29eae4	0.010370944
86	0xbdc30a9e	-0.095235094
87	0xbc4e0fde	-0.012577025
88	0xbd6aa73a	-0.057288386
89	0x3e5c3f7c	0.21508592
90	0xbe3ad748	-0.18246186
91	0x3d2eaaeb	0.04264347
92	0xbd8c5e79	-0.06853957
93	0x3cd26271	0.025681706
94	0x3de83288	0.11337763
95	0xbc2f9a8d	-0.010718
96	0xbd13455a	-0.03595481
97	0x3d876e3c	0.066128224
98	0xbd7919ff	-0.060815807
99	0xbd215425	-0.039386887
100	0x3d42897a	0.04749439
101	0x3da8c3a8	0.082404435
102	0xbcdd5f4f	-0.027022986
103	0xbcac2827	-0.02101524
104	0x3da1b10f	0.07895099
105	0xbd362cb7	-0.044476237
106	0xbcc40ba0	-0.023931324
107	0xbdbefa38	-0.09325069
108	0xbb9e26d3	-0.0048264056
109	0x3dda2a97	0.106526546
110	0xbd8f9b5c	-0.07012054
111	0xbed00d0c	-0.40634954
112	0x3f664bf0	0.8995962
113	0xbcdd05c9	-0.026980298
114	0xbe9f03d0	-0.31057596
115	0x3e82e7dc	0.2556752
116	0x3e4b413e	0.19849107
117	0xbcda3222	-0.026635233
118	0x3b4e2e36	0.003146065
119	0x3ddd43ee	0.10803972
120	0x3e8ec7af	0.27886721
121	0xbce98579	-0.028506028
122	0x3dafdfb4	0.0858759
123	0xbd814b2d	-0.06313167
124	0x3d59b926	0.053155087
125	0x3c805675	0.015666226
126	0xbe8a5e1c	-0.27024925
127	0xbd2e4984	-0.04255058
128	0xbc687854	-0.014188845
129	0x3c50186e	0.012701137
130	0x3b601421	0.0034191685
131	0xbc522d8d	-0.012828243
132	0xbc397ce3	-0.011321279
133	0xbd272f67	-0.04081669
134	0x3c16ba25	0.009199654
135	0xbc883803	-0.016628271
136	0x3ccab7ec	0.024745904
137	0xbc8c6cfd	-0.017141813
138	0xbd4b3ece	-0.049620442
139	0x3d31ccbf	0.04340815
140	0x3db022e2	0.08600403
141	0x3d847a3f	0.06468629
142	0x3d535512	0.0515948
143	0xbe1636b6	-0.14669308
144	0x3d18c438	0.037296504
145	0x3d20b68f	0.0392366
146	0xbd4f78e2	-0.050652392
147	0xbd892054	-0.06695619
148	0xbc5ea65d	-0.013589469
149	0x3d5fecfb	0.05466936
150	0xbd964ab2	-0.07338466
151	0xbd546575	-0.05185457
152	0x3d7a283b	0.061073523
153	0x3de21768	0.11039621
154	0xbd1840d9	-0.03717122
155	0x3dfba165	0.12286643
156	0x3d16bb5f	0.036799785
157	0xbd127d2e	-0.035763912
158	0x3dfda48e	0.12384902
159	0xbdf66844	-0.12031606
160	0xb929cb58	-0.00016192847
161	0xbe38bbd5	-0.18040402
162	0xbd43b7ec	-0.047782823
163	0xbdf07eda	-0.11742945
164	0xbca12c29	-0.019674378
165	0xbd952be8	-0.07283765
166	0x3e446092	0.19177464
167	0xbe07ff22	-0.13280919
168	0x3baabb19	0.005210292
169	0xbc1a9a4c	-0.009436201
170	0x3e27f44e	0.16401789
171	0xbcdd0f42	-0.026984815
172	0xbccbe775	-0.02489064
173	0x3da6efb7	0.08151191
174	0x3dd60603	0.104503654
175	0xbbfebb61	-0.007773802
176	0x3c543cd4	0.012953956
177	0x3e284cae	0.16435501
178	0x3e144833	0.14480667
179	0x3e1896c0	0.14901257
180	0xbc5fe435	-0.013665249
181	0xbdb4289f	-0.0879681
182	0x3bd29cf7	0.006427403
183	0x3e1429b3	0.14469032
184	0xbd52db22	-0.051478513
185	0x3da76dcd	0.0817524
186	0x3da5b671	0.080914386
187	0x3dd466a1	0.103711374
188	0xbd17d23a	-0.037065722
189	0xbcde307c	-0.027122729
190	0x3e2467d6	0.16055235
191	0xbe188605	-0.14894874
192	0xbd63a64a	-0.055578507
193	0x3e044c09	0.1291963
194	0xbdb958a0	-0.09050107
195	0xbbcf1822	-0.0063200155
196	0xbe4329b2	-0.19058874
197	0x3dc83129	0.097750016
198	0xbc9d0c47	-0.019170893
199	0x3dd06065	0.10174636
200	0x3ca5067d	0.020144695
201	0x3ca26ef8	0.019828305
202	0x3e075e21	0.13219501
203	0xbd538673	-0.051641893
204	0x3ce43c63	0.027860826
205	0x3c5ae7fe	0.013360975
206	0x39d6c89b	0.00040966723
207	0xbd9f146a	-0.077675655
208	0xbdb0f2a3	-0.08640029
209	0x3d988140	0.074465275
210	0x3dcf9bc2	0.1013713
211	0x3d963606	0.07334523
212	0x3e634ba4	0.22196823
213	0xbd30f733	-0.043204498
214	0x3e3e4d69	0.18584217
215	0x3e809e70	0.25120878
216	0xbca33f49	-0.019927638
217	0x3b93a581	0.0045058136
218	0xbe09d7e7	-0.13461266
219	0xbdc17a15	-0.094471134
220	0xbd478f28	-0.04872051
221	0xbd0bdc87	-0.03414586
222	0x3ed0630c	0.40700567
223	0xbf51f660	-0.82016563
224	0x3e18d446	0.14924726
225	0xbe3f1aee	-0.18662617
226	0xbf3c41eb	-0.7353808
227	0x3e493d90	0.1965239
228	0x3e42593c	0.18979353
229	0xbea06683	-0.3132821
230	0xbdb7077b	-0.08936974
231	0xbe423521	-0.1896558
232	0xbe2ba645	-0.16762646
233	0x3e598953	0.21243791
234	0x3eff9104	0.49915326
235	0x3d89aa54	0.06721941
236	0x3e1e0566	0.15431747
237	0x3e104bec	0.14091462
238	0xbdca76c1	-0.09885932
239	0x3e44d2e8	0.1922108
240	0xbdcfd451	-0.10147918
241	0x3c6b03cd	0.014344168
242	0x3d57585f	0.05257451
243	0x3ca7c9c1	0.020481946
244	0x3cad02d0	0.021119505
245	0xbdca9874	-0.098923594
246	0x3d14044a	0.036136903
247	0xbdd2ce0f	-0.10293209
248	0xbde64740	-0.112440586
249	0xbdf06dac	-0.11739668
250	0x3c2d377d	0.0105723115
251	0x3d8b1ac8	0.067922175
252	0x3d03f35c	0.032214507
253	0xbd6b356b	-0.05742399
254	0xbd5e6aea	-0.05430118
255	0xbdd04122	-0.10168673

fc1.bias f4 [64]
0	0x3f04a4b0	0.51813793
1	0xbe48b677	-0.19600855
2	0x3c21ae9d	0.009868291
3	0x3e9bf2bd	0.30458632
4	0xbe876f22	-0.26451975
5	0x3c263075	0.010143389
6	0xbf19625a	-0.599157
7	0x3f340366	0.70317686
8	0x3e83ce25	0.25743213
9	0x3f4aa0d7	0.7915167
10	0x3ea80e61	0.3282347
11	0x3e185057	0.14874397
12	0xbe3f5888	-0.18686116
13	0x3f14ac47	0.58075374
14	0xbe223249	-0.15839495
15	0x3ed7d4b5	0.4215447
16	0x3f8c0890	1.0940113
17	0x3f7f6790	0.997674
18	0x3e90c547	0.2827551
19	0x3f30e960	0.691061
20	0xbaee1491	-0.0018164088
21	0xbdc3f30c	-0.09567842
22	0x3f0db513	0.5535442
23	0xbeafd7c7	-0.34344313
24	0xbde1497d	-0.11000345
25	0x3dff9a3b	0.12480589
26	0x3e74263f	0.23842715
27	0xbea1fa64	-0.31636345
28	0x3e9cd677	0.30632374
29	0x3ef82d2f	0.48471972
30	0x3e5dc763	0.21658091
31	0xbef62688	-0.48076272
32	0x3ed9d48a	0.42544967
33	0x3f6fd17e	0.93679035
34	0xbd4a6b33	-0.04941864
35	0x3e80561e	0.25065702
36	0xbedda71b	-0.43291554
37	0xbeaec037	-0.34131023
38	0xbe860481	-0.2617531
39	0x3e81f080	0.253788
40	0xbdbee3e1	-0.09320808
41	0xbef19d86	-0.47190493
42	0x3f969b23	1.1766094
43	0x3ea1722a	0.31532413
44	0xbe32bf6b	-0.17455833
45	0xbd8ca96e	-0.06868254
46	0xbe539cd3	-0.20665292
47	0xbe83c833	-0.25738677
48	0xbee84c31	-0.4537063
49	0x3f07afdc	0.53002715
50	0x3e01d5e0	0.12679243
51	0xbed6b21c	-0.41932762
52	0xba0ffd09	-0.0005492722
53	0xbc9da53c	-0.019243829
54	0x3ef695ad	0.4816107
55	0x3efd2dec	0.49449098
56	0xbe90be45	-0.28270164
57	0xbec3600c	-0.38159215
58	0xbf0b3e46	-0.54391897
59	0x3f0bbb88	0.54583025
60	0x3eb8b49b	0.3607529
61	0x3eb24ecb	0.3482574
62	0x3e269aae	0.16269943
63	0xbe821809	-0.25408962

fc2.weight f4 [64, 64]
0	0x3d1dd506	0.038533233
1	0x3f5b9c51	0.85785395
2	0xbbbe4b8c	-0.0058073457
3	0xbe8d8162	-0.27637774
4	0xbe531ea1	-0.20617153
5	0x3e9057d1	0.28192
6	0x3f5a28f5	0.85218745
7	0x3e06b65b	0.131555
8	0xbdcf2e6c	-0.10116276
9	0x3d4d5532	0.050130077
10	0xbee5fdc9	-0.44920185
11	0xbe882e6c	-0.26597917
12	0xbf229807	-0.63513225
13	0x3e0e9c57	0.13926826
14	0x3ec5e576	0.38651627
15	0x3dcb1359	0.099158
16	0xbe89ecdc	-0.26938522
17	0xbf9438e1	-1.1579858
18	0x3ddf6a1b	0.1090891
19	0xbf2d1059	-0.6760307
20	0x3f13baab	0.5770671
21	0xbedf2c79	-0.43588617
22	0xbf403d13	-0.7509319
23	0x3e9b9cd1	0.3039308
24	0x3f2d851d	0.6778124
25	0xbf28e21b	-0.6597001
26	0xbf253f5e	-0.64549816
27	0xbe86cb21	-0.2632685
28	0x3dcc1816	0.099655315
29	0xbf5184c3	-0.81843203
30	0xbefbe56d	-0.49198475
31	0x3f2b54e3	0.669264
32	0xbe1cf9c3	-0.15329652
33	0x3d830aba	0.0639853
34	0x3f497ef7	0.7870936
35	0xbf8238cb	-1.0173582
36	0x3f7f7ab2	0.99796593
37	0xbed2a4c7	-0.4114134
38	0x3f054812	0.52063096
39	0xbf8aac23	-1.0833782
40	0x3ec9a202	0.39381415
41	0xbbc7a14e	-0.006092227
42	0xbf43b2d5	-0.7644475
43	0x3ea4f173	0.3221546
44	0x3e44ff6b	0.19238059
45	0x3f1e49c3	0.618313
46	0xbf60c647	-0.8780255
47	0xbf4fb083	-0.8112871
48	0x3f037fc0	0.51366806
49	0xbf583d8e	-0.84468925
50	0x3e5c81f8	0.21533954
51	0xbef8a937	-0.485666
52	0x3f205d53	0.626424
53	0x3d2e1b9b	0.042506795
54	0xbf822d52	-1.0170081
55	0x3e002d2d	0.12517233
56	0x3f380517	0.71882766
57	0x3f11a3cf	0.5689058
58	0xbf639d41	-0.88911825
59	0x3ed515f3	0.41618308
60	0x3d4af995	0.049554426
61	0xbeed532a	-0.46352512
62	0xbf1b25a1	-0.6060429
63	0x3cf74de4	0.030188508
64	0x3e995cb9	0.29953554
65	0x3e7cce31	0.24688031
66	0xbe294153	-0.16528825
67	0x3f28acd8	0.6588874
68	0x3beea24e	0.007282532
69	0x3ec9b508	0.39395928
70	0x3eed48b2	0.46344525
71	0xbbe758b3	-0.0070601343
72	0xbde615bb	-0.112346135
73	0x3e43263c	0.19057554
74	0x3ed835b5	0.42228475
75	0x3ed01ce9	0.40647057
76	0xbef0a68c	-0.47002065
77	0x3bfc31ab	0.0076963506
78	0x3e578982	0.21048549
79	0x3d13c5bd	0.03607725
80	0x3e984f46	0.2974798
81	0xbea7f32a	-0.32802707
82	0xbe9a6eee	-0.30162758
83	0xbe4e864a	-0.20168415
84	0xbe3fb1b8	-0.18720138
85	0x3ad9667a	0.0016586327
86	0x3ed8bc26	0.42331046
87	0x3eac1e91	0.3361707
88	0x3dd3a5ae	0.10334335
89	0xbf28d1b8	-0.65945005
90	0xbd983912	-0.0743276
91	0x3d2accc0	0.04169917
92	0x3e4139e8	0.18869746
93	0x3df65268	0.120274365
94	0xbcc72d70	-0.024313658
95	0x3dfa4536	0.12220232
96	0xbdd141bd	-0.10217617
97	0xbeda60aa	-0.42651874
98	0xbea78da7	-0.3272526
99	0x3ea5b1f8	0.32362342
100	0xbdb8c766	-0.09022407
101	0xbd7cf432	-0.06175632
102	0xbd5106f6	-0.05103203
103	0x3e36c3f6	0.1784819
104	0x3e37530a	0.1790277
105	0xbe67b8f9	-0.22629155
106	0xbde28f69	-0.110625096
107	0x3e15635c	0.14588684
108	0xbdddaca6	-0.10823946
109	0x3da46d63	0.08028676
110	0xbe957edf	-0.29198357
111	0xbf16481f	-0.587038
112	0xbc8360b0	-0.016037315
113	0xbd32f670	-0.043692052
114	0xbeaaa2be	-0.33327287
115	0x3da205de	0.07911275
116	0xbd905436	-0.07047312
117	0xbd43de4e	-0.04781943
118	0x3ea18879	0.31549433
119	0xbe03e12b	-0.12878864
120	0x3eec9ba0	0.46212482
121	0xbde03e55	-0.10949389
122	0x3c8b5984	0.017010458
123	0xbeceaf23	-0.40367994
124	0xbdb0ac5a	-0.086266235
125	0x3f3c60a3	0.73584956
126	0xbd18f5b7	-0.037343707
127	0x3d8641f3	0.065555476
128	0xbfa34428	-1.2755175
129	0xbc31936e	-0.010838373
130	0x3f819b35	1.012549
131	0xbe8262e8	-0.25466084
132	0xbf23e1ea	-0.6401659
133	0xbd663bdd	-0.056209434
134	0x3fc518a2	1.5398142
135	0xbfb5e280	-1.4209747
136	0x3eeefbef	0.46676585
137	0xbeb6fcb8	-0.35739684
138	0xbf3c53c8	-0.7356534
139	0x3f5da08c	0.865731
140	0x3ef5fa80	0.4804268
141	0xbfdcd5d5	-1.7252756
142	0x3f207848	0.62683535
143	0xbf066ffb	-0.5251462
144	0xc02f0bf7	-2.7351053
145	0xc0720ca7	-3.7820222
146	0x3e4d84f4	0.20070249
147	0xbfd3738d	-1.6519638
148	0x3c977dcb	0.0184926
149	0x3e964cb0	0.29355383
150	0xbec23d97	-0.37937614
151	0x3eb39bd2	0.3507982
152	0x3ec8daff	0.3922958
153	0xbe204f74	-0.15655309
154	0xbf426a6f	-0.75943655
155	0xbc0035e4	-0.0078253485
156	0xbd9d4ba3	-0.07680442
157	0xbf24a099	-0.6430755
158	0xbf3896f4	-0.72105336
159	0x3cd4d16c	0.025978766
160	0xbeb095f0	-0.34489393
161	0xbff7b1c7	-1.9351128
162	0xbf306264	-0.6890013
163	0xbd41e5e1	-0.04733837
164	0x3f2780c9	0.65430886
165	0x3f5aea6c	0.8551395
166	0x3e86efcf	0.26354834
167	0xbc74fcc4	-0.014952842
168	0x3ef0da4a	0.4704154
169	0x3e5b3920	0.2140851
170	0xc03abf2e	-2.9179187
171	0xbf530dba	-0.8244282
172	0xbeb154b2	-0.3463493
173	0x3e88c7c5	0.26714912
174	0xbe5c5c07	-0.2151948
175	0x3e4baff4	0.1989134
176	0x3ec1edf3	0.37876853
177	0xbe3e1e6b	-0.18566291
178	0xbe28719f	-0.16449593
179	0x3cd47c5b	0.025938204
180	0xbedcddeb	-0.4313806
181	0x3e9fbc81	0.31198505
182	0xbf44f2d9	-0.76933056
183	0x3eb48c6b	0.3526338
184	0x3fe278c9	1.7693111
185	0x3e4244f9	0.18971623
186	0xbec4f9a4	-0.3847171
187	0xbf3ca62f	-0.73691076
188	0x3ca1356b	0.019678792
189	0x3e102456	0.14076361
190	0xbf0742bc	-0.52836204
191	0xbea54884	-0.32281888
192	0x3f220352	0.63286316
193	0x3f7283b0	0.9473219
194	0xbf643e9d	-0.8915804
195	0x3eff423a	0.49855214
196	0x3f91ab4c	1.1380401
197	0x3e6d8ddf	0.23198651
198	0xbf82de05	-1.0224005
199	0x3fa87d8a	1.3163311
200	0xbf981c7a	-1.188369
201	0xbe88516a	-0.26624614
202	0x3f474623	0.77841395
203	0xbfa1ae57	-1.2631329
204	0xbf9228c5	-1.1418692
205	0x3f91a97d	1.1379849
206	0xbff2ce7f	-1.8969268
207	0xbecbfb4b	-0.3984016
208	0x3fcf23de	1.6182821
209	0x3f7dfccc	0.9921386
210	0xbf52d0f0	-0.82350063
211	0x3fb3e31a	1.4053681
212	0x3f0ace30	0.5422087
213	0xbf9cc563	-1.2247738
214	0x3f946e40	1.1596146
215	0x3efc7eb2	0.4931541
216	0x3f5cfd49	0.8632398
217	0xbf2e2d6b	-0.6803805
218	0xbe37438a	-0.17896858
219	0x3f34988d	0.70545274
220	0x3f9067b0	1.1281643
221	0xbf2e85d8	-0.6817298
222	0x3f26f94b	0.6522414
223	0x3f576c3c	0.8414953
224	0xbf0b74e0	-0.5447521
225	0x3fae1e6a	1.3603032
226	0x3f3477cb	0.7049529
227	0xbf36acbc	-0.7135732
228	0x3edcc72e	0.43120712
229	0xbf25028e	-0.64457023
230	0xbf0b64e8	-0.54450846
231	0xbf400f08	-0.75022936
232	0x3ebda1cf	0.37037513
233	0xbf506b3c	-0.81413627
234	0x3fba7d70	1.456953
235	0x3f8ec2f1	1.1153241
236	0x3fb6ca50	1.4280491
237	0xbf9263ce	-1.1436708
238	0x3e9b3716	0.30315465
239	0x3f32333b	0.6960942
240	0xbf825e2e	-1.0184991
241	0xbf2fff39	-0.68748814
242	0xbefb8f31	-0.49132684
243	0x3f2d8976	0.67787874
244	0x3f0ef40f	0.55841154
245	0x3ea88d1c	0.32920158
246	0xbea100ef	-0.31446025
247	0xbf846399	-1.0342895
248	0xbf43239b	-0.76226205
249	0x3f44fa83	0.7694475
250	0x3f9250d2	1.1430914
251	0x3f00654e	0.5015458
252	0x3e0e7b1b	0.13914149
253	0x3f5baa1a	0.8580643
254	0xbdef2f71	-0.116789706
255	0x3f8f8982	1.1213839

fc2.bias f4 [64]
0	0xbf5a34a0	-0.8523655
1	0x3e15984d	0.1460888
2	0xbf8f6194	-1.1201653
3	0xbe3e32df	-0.18574093
4	0xbea72412	-0.32644707
5	0x3f52374c	0.82115626
6	0x3ffa7252	1.9566138
7	0xbb7c5586	-0.0038503124
8	0xbeb3a8a7	-0.3508961
9	0xbd847a80	-0.064686775
10	0xc00aa88f	-2.166538
11	0xc008872a	-2.1332498
12	0xbec8e13f	-0.3923435
13	0xbea77225	-0.32704273
14	0x3ff8fc4b	1.9451994
15	0xbe9cc34b	-0.30617747
16	0xbe7e0706	-0.24807367
17	0x3fcffed4	1.6249642
18	0x3ef0ce81	0.4703255
19	0x3fd1e62b	1.6398367
20	0xbf14e53e	-0.58162296
21	0xbf378e00	-0.7170105
22	0xbf97388d	-1.1814133
23	0xbf40395e	-0.75087535
24	0x3f4c1fa9	0.7973581
25	0xbf935add	-1.1512104
26	0x3d0776f2	0.03307242
27	0xbf3bb5a7	-0.73324054
28	0x3e8b34c6	0.271887
29	0xbe359f2b	-0.17736499
30	0xbf6b5827	-0.91931385
31	0xbdce618b	-0.100771986
32	0x3f343686	0.70395696
33	0xbe66fbcf	-0.22556995
34	0x3ea2743a	0.317293
35	0xbdefeaa8	-0.11714679
36	0x3d015f12	0.031584807
37	0x3dc95746	0.09831099
38	0xbf7accc5	-0.97968704
39	0xbd8c9b03	-0.06865504
40	0xc00b6479	-2.1780074
41	0x3c1c79bc	0.009550508
42	0x3f11d1ff	0.56961054
43	0x3d5c707c	0.05381821
44	0xbe26a022	-0.16272023
45	0xbfb367a2	-1.4016001
46	0xbf2202fa	-0.6328579
47	0x3d8dbe49	0.0692106
48	0x3f8e512d	1.1118523
49	0x3f10ef81	0.56615454
50	0x3f463063	0.7741758
51	0x3f3f06b9	0.7461963
52	0x3f948651	1.160349
53	0xbd117981	-0.035516266
54	0x3d9aeb93	0.075644635
55	0x3f5077f9	0.81433064
56	0x3e06ab62	0.13151315
57	0xbb1ed40c	-0.0024235277
58	0x3fc1458c	1.5099349
59	0x400bb105	2.1826794
60	0xbea5333c	-0.3226565
61	0xbf004808	-0.5010991
62	0x3d099a16	0.033594213
63	0xbfcff0c4	-1.6245351

value.weight f4 [1, 64]
0	0xc0f7d422	-7.744645
1	0xc0fbcf40	-7.869049
2	0xc0ec22e7	-7.3792605
3	0x40f028a7	7.5049624
4	0x40f20855	7.563517
5	0xc0ee5a92	-7.448556
6	0x40f77233	7.7326903
7	0x40e2c4f0	7.08654
8	0xc0eceb9c	-7.403761
9	0xc0ea929c	-7.3303967
10	0xc0f9ba09	-7.8039594
11	0xc101bce5	-8.108617
12	0x40f1ba4c	7.5539913
13	0x40f65150	7.697426
14	0x40e89645	7.2683434
15	0x40f69f41	7.70694
16	0xc0e95f1b	-7.2928596
17	0x40fc303e	7.880889
18	0xc0f1e31a	-7.5589724
19	0x40eb82cd	7.359717
20	0x40f1e340	7.5589905
21	0x40f03a2c	7.507101
22	0xc0f399ad	-7.6125093
23	0x40eea28c	7.457342
24	0xc0ed25d2	-7.4108667
25	0xc0f0874b	-7.5165153
26	0x40f04356	7.5082197
27	0xc0df0886	-6.9697905
28	0xc0f5736c	-7.6703396
29	0xc0ed0473	-7.406793
30	0x40f11c63	7.534715
31	0x40f36f56	7.607341
32	0xc0f10ce5	-7.532824
33	0x40e63d84	7.195009
34	0x40f42803	7.6298842
35	0xc0f4e496	-7.6529036
36	0xc0ffe584	-7.996767
37	0x40e8ca86	7.274722
38	0xc100e289	-8.055306
39	0xc0fbf520	-7.8736725
40	0xc0ff54cd	-7.9791017
41	0xc0e6efb7	-7.216762
42	0x40fc759f	7.889358
43	0x40f3144c	7.5962276
44	0x40f29762	7.5809793
45	0xc0fed4e0	-7.9634857
46	0x40f1c3fa	7.555173
47	0x40efc21f	7.4924464
48	0x40e6d698	7.2136955
49	0xc0f35b44	-7.604891
50	0x40fc417c	7.8829937
51	0x40dfadf8	6.9899864
52	0x40e9f110	7.3106766
53	0xc0ec7674	-7.3894596
54	0xc0f196fa	-7.5496798
55	0x40eaa0d4	7.3321323
56	0x40f012d9	7.5023007
57	0x40f1fc10	7.5620193
58	0x40ed10ff	7.4083247
59	0x4100b687	8.044562
60	0xc0ebfed1	-7.3748555
61	0x40dab381	6.834412
62	0xc0f10812	-7.532235
63	0xc0f80a5e	-7.7512655

exp_avg f4 [1, 8]
0	0xbb70db71	-0.003675189
1	0x38c3bd97	9.3336384e-05
2	0x3a0e9f27	0.00054405857
3	0xbb897b1c	-0.004195584
4	0x3b05a450	0.0020392127
5	0x3b756588	0.003744455
6	0x3b22a96e	0.0024820226
7	0x3b727273	0.0036994487

exp_avg_sq f4 [1, 8]
0	0x38e76e93	0.000110355344
1	0x38de1c28	0.000105910294
2	0x3904c879	0.00012663183
3	0x39013f13	0.00012325896
4	0x38be6e65	9.0804686e-05
5	0x38e7ea7f	0.00011058617
6	0x38bbd272	8.956053e-05
7	0x391b0152	0.00014782444

exp_avg f4 [64, 111]
0	0xba935dfc	-0.001124322
1	0xbb010b9d	-0.001969076
2	0xb8a0ba9b	-7.6641525e-05
3	0xb98c4b3a	-0.0002675893
4	0xb977e210	-0.0002363997
5	0xba35a8be	-0.00069297466
6	0xba08b69e	-0.00052152004
7	0xba46dff6	-0.00075864734
8	0x3a6e1f04	0.0009083601
9	0xbab59a1a	-0.001385513
10	0x3a92ae4d	0.0011190862
11	0x3a318b09	0.0006772732
12	0xbadd3478	-0.0016876599
13	0xbb86649e	-0.00410135
14	0x3b2bead1	0.002623249
15	0xbaac6b4c	-0.0013154536
16	0xba29cf29	-0.00064777076
17	0x3a626d5e	0.0008637513
18	0xba0a440b	-0.00052744214
19	0x3b3353be	0.0027363147
20	0x397b9b4a	0.00023995075
21	0x3a1a8039	0.00058937405
22	0x3a78254e	0.0009466008
23	0x3bada883	0.005299629
24	0xbb34c2f0	-0.0027582012
25	0x3baeed8e	0.0053383773
26	0x3b5c0e88	0.0033577997
27	0x00000000	0.0
28	0x00000000	0.0
29	0x00000000	0.0
30	0x00000000	0.0
31	0x00000000	0.0
32	0x00000000	0.0
33	0x00000000	0.0
34	0x00000000	0.0
35	0x00000000	0.0
36	0x00000000	0.0
37	0x00000000	0.0
38	0x00000000	0.0
39	0x00000000	0.0
40	0x00000000	0.0
41	0x00000000	0.0
42	0x00000000	0.0
43	0x00000000	0.0
44	0x00000000	0.0
45	0x00000000	0.0
46	0x00000000	0.0
47	0x00000000	0.0
48	0x00000000	0.0
49	0x00000000	0.0
50	0x00000000	0.0
51	0x00000000	0.0
52	0x00000000	0.0
53	0x00000000	0.0
54	0x00000000	0.0
55	0x00000000	0.0
56	0x00000000	0.0
57	0x00000000	0.0
58	0x00000000	0.0
59	0x00000000	0.0
60	0x00000000	0.0
61	0x00000000	0.0
62	0x00000000	0.0
63	0x00000000	0.0
64	0x00000000	0.0
65	0x00000000	0.0
66	0x00000000	0.0
67	0x00000000	0.0
68	0x00000000	0.0
69	0x00000000	0.0
70	0x00000000	0.0
71	0x00000000	0.0
72	0x00000000	0.0
73	0x00000000	0.0
74	0x00000000	0.0
75	0x00000000	0.0
76	0x00000000	0.0
77	0x00000000	0.0
78	0x00000000	0.0
79	0x00000000	0.0
80	0x00000000	0.0
81	0x00000000	0.0
82	0x00000000	0.0
83	0x00000000	0.0
84	0x00000000	0.0
85	0x00000000	0.0
86	0x00000000	0.0
87	0x00000000	0.0
88	0x00000000	0.0
89	0x00000000	0.0
90	0x00000000	0.0
91	0x00000000	0.0
92	0x00000000	0.0
93	0x00000000	0.0
94	0x00000000	0.0
95	0x00000000	0.0
96	0x00000000	0.0
97	0x00000000	0.0
98	0x00000000	0.0
99	0x00000000	0.0
100	0x00000000	0.0
101	0x00000000	0.0
102	0x00000000	0.0
103	0x00000000	0.0
104	0x00000000	0.0
105	0x00000000	0.0
106	0x00000000	0.0
107	0x00000000	0.0
108	0x00000000	0.0
109	0x00000000	0.0
110	0x00000000	0.0
111	0x39c4d937	0.0003754587
112	0xbac5d9cf	-0.0015094819
113	0xb9e82c53	-0.00044283512
114	0x389b402c	7.402929e-05
115	0xba562ba5	-0.00081699557
116	0x3acb3ea8	0.0015506344
117	0xba07c893	-0.0005179729
118	0x3925e73e	0.0001582177
119	0x3a049625	0.00050577737
120	0xbac72108	-0.0015192339
121	0x3a0cdcf5	0.00053735013
122	0x3a056062	0.00050879095
123	0x39bbea4f	0.00035841993
124	0xbae223db	-0.0017253117
125	0xba0c6214	-0.0005355191
126	0x38de1f6b	0.00010591637
127	0xba9a9cbe	-0.001179598
128	0xbbc4d5cf	-0.0060069333
129	0x3a805cdd	0.00097933
130	0xbba9e696	-0.0051849587
131	0x3a1a0580	0.00058754534
132	0x3a33ffdb	0.00068664335
133	0x3a85fbcf	0.001022214
134	0xbba4cd31	-0.0050293435
135	0x3a7c1513	0.00096161774
136	0xba95e9f9	-0.0011437527
137	0x3ac4ea15	0.0015023375
138	0x00000000	0.0
139	0x00000000	0.0
140	0x00000000	0.0
141	0x00000000	0.0
142	0x00000000	0.0
143	0x00000000	0.0
144	0x00000000	0.0
145	0x00000000	0.0
146	0x00000000	0.0
147	0x00000000	0.0
148	0x00000000	0.0
149	0x00000000	0.0
150	0x00000000	0.0
151	0x00000000	0.0
152	0x00000000	0.0
153	0x00000000	0.0
154	0x00000000	0.0
155	0x00000000	0.0
156	0x00000000	0.0
157	0x00000000	0.0
158	0x00000000	0.0
159	0x00000000	0.0
160	0x00000000	0.0
161	0x00000000	0.0
162	0x00000000	0.0
163	0x00000000	0.0
164	0x00000000	0.0
165	0x00000000	0.0
166	0x00000000	0.0
167	0x00000000	0.0
168	0x00000000	0.0
169	0x00000000	0.0
170	0x00000000	0.0
171	0x00000000	0.0
172	0x00000000	0.0
173	0x00000000	0.0
174	0x00000000	0.0
175	0x00000000	0.0
176	0x00000000	0.0
177	0x00000000	0.0
178	0x00000000	0.0
179	0x00000000	0.0
180	0x00000000	0.0
181	0x00000000	0.0
182	0x00000000	0.0
183	0x00000000	0.0
184	0x00000000	0.0
185	0x00000000	0.0
186	0x00000000	0.0
187	0x00000000	0.0
188	0x00000000	0.0
189	0x00000000	0.0
190	0x00000000	0.0
191	0x00000000	0.0
192	0x00000000	0.0
193	0x00000000	0.0
194	0x00000000	0.0
195	0x00000000	0.0
196	0x00000000	0.0
197	0x00000000	0.0
198	0x00000000	0.0
199	0x00000000	0.0
200	0x00000000	0.0
201	0x00000000	0.0
202	0x00000000	0.0
203	0x00000000	0.0
204	0x00000000	0.0
205	0x00000000	0.0
206	0x00000000	0.0
207	0x00000000	0.0
208	0x00000000	0.0
209	0x00000000	0.0
210	0x00000000	0.0
211	0x00000000	0.0
212	0x00000000	0.0
213	0x00000000	0.0
214	0x00000000	0.0
215	0x00000000	0.0
216	0x00000000	0.0
217	0x00000000	0.0
218	0x00000000	0.0
219	0x00000000	0.0
220	0x00000000	0.0
221	0x00000000	0.0
222	0xbac2d453	-0.0014864303
223	0x3b1db2fe	0.0024062986
224	0x3a803d0c	0.0009783818
225	0xb8b35fd1	-8.553232e-05
226	0x3ab182ea	0.0013543044
227	0xb9884030	-0.00025987765
228	0x3ae5a1a6	0.0017519488
229	0xbaa26018	-0.0012388257
230	0xba8ba336	-0.0010653499
231	0x3ac7ada9	0.001523425
232	0xba21e0cf	-0.00061751617
233	0xb9cfd6fe	-0.00039642298
234	0xbac3ca78	-0.001493766
235	0x3b84db32	0.0040544504
236	0x3af248b4	0.0018484802
237	0xbae01437	-0.0017095868
238	0xbb1732d7	-0.0023071074
239	0x3bb92071	0.0056496193
240	0xbb0c8983	-0.0021444268
241	0x3c34d964	0.011038158
242	0xb9c7cd4f	-0.00038109205
243	0x3aed31a1	0.0018096456
244	0xbafbee83	-0.0019220862
245	0x3b2ad9c4	0.002606974
246	0xbabc9ed7	-0.00143906
247	0x3b825c7b	0.0039783097
248	0xbaa7bc8b	-0.0012797279
249	0x00000000	0.0
250	0x00000000	0.0
251	0x00000000	0.0
252	0x00000000	0.0
253	0x00000000	0.0
254	0x00000000	0.0
255	0x00000000	0.0
