drl/ran2/Ant50000_ran2_weights.pth (torch, 292720 bytes, 36 tensors)

log_std f4 [1, 8]
00000000: a90f adbf 0649 edbf b583 93bf 17be a9bf
00000010: 1291 acbf 3627 bcbf 9685 a3bf 15cc bcbf
-1.3520404 -1.853791 -1.1524569 -1.3261136 -1.3481772 -1.4699466 -1.2775142 -1.4749781

fc1.weight f4 [64, 111]
00000000: 0101 a2be 0607 e5bc 06b2 f53d 5a5d 72bd
00000010: e913 e23d edd4 2cbe 5d9c 5bbc bd0c a73d
00000020: 1483 833d eb3d 523d 2e00 85be 61ad 69be
00000030: b636 bd3d 93ea cfbd df32 18bb a479 333d
00000040: 7e15 843d aeb1 273a f559 cfbd 42fd 36bd
00000050: 3d4c b1bd 4dee ddbb dc6d 3abe 2bac 0bbd
00000060: 9441 eabb b7c4 99ba 343c 033e ee4f ffbb
00000070: 581d 0ebd 1287 683d 2154 8dbd 1dc9 cabc
00000080: 9740 8a3d 0bda c13d a3b8 ee3d 087f 31be
00000090: b837 efbd 31e0 213c 0145 a73d 989d 9abd
000000a0: 7d83 11be 30b3 c53d 7c43 54bc 6be8 0fbe
000000b0: a561 223d 067a 923c f9e5 ca3d 397c 46bb
000000c0: 2dba 02bd d672 09be 770e cabd 9ca3 eb3c
000000d0: 89c0 c3bd 1c0c 64bd 0a22 8a3d bbcc 983c
000000e0: bda1 60bd 1e71 8f3c 833b 55be 012d 1ebd
000000f0: 5a35 a73d 3922 edbb cd5d eb3d ebb0 e4bd
00000100: fd63 7c3c d4cd 303e 9d31 8cbe f627 98bc
00000110: 57d2 a93d 0664 383d ef1c 663d 1b03 debd
00000120: f7e4 463d c764 c1bd 3454 08bd 65a8 883d
00000130: b514 123d b2c6 cf3c 8c86 a4bd b64f 803d
00000140: cc80 0a3d 9bda ccbb 29bd 7a3c ca79 043d
00000150: 34d1 543e b385 fdbd fa76 4fbc 772d 003e
00000160: cf77 8bbd 3a0d 82bd f78e 823d 7717 553d
00000170: 3a85 bbbc 53ff 0c3e f277 26be 6e25 083e
00000180: a3e2 bab9 d33a b03d c5c7 c3bb 2d7a 0fbe
00000190: c506 d9bd b450 19bd d530 cc3d 41a5 193e
000001a0: 05b5 d8bc 0978 2cbe acf3 49bd 4b19 5e3c
000001b0: 481c e63d c4ef 87bc ce0d 5b3d 9b3c 60bd
000001c0: c302 29bd 64f5 1bbf 028a 343e 0d37 8cbe
000001d0: a593 2cbc 8daa 3dbe a492 633e 1cf8 9e3d
000001e0: 99d2 97bd 014b ac3b 32e0 15be 1e0d 72bd
000001f0: 3c25 8fbd 7b80 54bd 7ffe 04be 2e51 06bb
00000200: 5571 173c 3ec2 80bc c64e 92bd 9961 95bd
00000210: 7bac cb3d 536f 033d 5c8b 06be 1b31 cb3d
00000220: f038 6cbd 0a6a 9dbd a4bc eebd c724 2dba
00000230: 6d40 88bd 8720 6abd 3c7f d33c 9cdd 513d
00000240: 132c 0bbe 956b 6cbd 15c9 c73d c286 cfbd
00000250: d918 1ebd 661d 2c3e 189c 74bd 2993 21bd
00000260: 562a b3bd 184b 36bd b70f 663e 1a54 313e
00000270: 3110 1e3d eed6 c3bd 54e7 d9bd b5c9 29be
00000280: b379 813d 9270 7ebd e9cb 013d 21d5 a4bc
00000290: 9219 e23d 032d 74bd f259 c2bc 95be 483e
000002a0: c846 793e 1f93 6c3d d7cc 70bd 7717 923d
000002b0: 6ac3 7abd 8e6a 423d 9948 353e 2cdc 18bd
000002c0: ebbe f9bc 7b4c 25be e69f bebb 1dbb b43c
000002d0: b470 6e3d caec c33c 2e12 883e 2e49 d83d
000002e0: b62b 4b3c c273 913c c2d8 debb 94ca 83bd
000002f0: 8938 5bbd 5636 cfbb 65b6 2f3e b3fd a23b
00000300: 7a9e 733d 8d8f 1d3d 78cd eabd e314 0dbe
00000310: 1191 acbd 7415 993d 6092 34bc 24d0 bc3d
00000320: 453d 803d 34a1 1ebd f38e 1dbd 5197 b03c
00000330: a4a2 ab3d f12e ed3c 6af7 203e 13c6 e73c
00000340: c395 1b3e fcec 463d 7f0d 3abd 693a 2c3e
00000350: c3af bab9 c931 d0bc ce4c 5b3d 1af1 8f3b
00000360: a988 9dbd 42bf 1e3d 22fd aa3c 475c 19bc
00000370: fe39 543d b9f7 6fbd b950 a4bd 94da 13be
00000380: e8f2 f73c 056d 85bb 326b 0a3f 99ec af3d
00000390: 0ac6 91be f2d0 6f3e 8c49 2d3e 67f4 f83d
000003a0: 1ef1 953e 2fa7 9abe ca6d c0bc ae4f 6ebd
000003b0: be5c 33bd 79e5 19bd daed a2bc a898 333d
000003c0: 28a6 f83c 9a31 a13d a1df 4cbc 7836 933c
000003d0: 2264 4a3c 7d22 3a3d f6be 293b 0242 34be
000003e0: ec1f 853d 7714 143d 0659 5e3d 5f4f c2bb
000003f0: 1c36 cb3c 2b76 fabd bc76 c4bc 4827 133d
-0.3164139 -0.02795745 0.11996846 -0.05917106 0.11038954 -0.168781 -0.013403979 0.081567265
0.064214855 0.05132858 -0.259767 -0.22820045 0.09238951 -0.10152163 -0.002322368 0.043817177
0.06449412 0.0006397021 -0.1012458 -0.04467512 -0.086571194 -0.0067727924 -0.1820597 -0.03409974
-0.007148931 -0.0011731599 0.12815934 -0.007791511 -0.034695953 0.056769438 -0.06900812 -0.024754101
0.06750601 0.094654165 0.116563104 -0.17333615 -0.116805494 0.009880112 0.08167458 -0.0754959
-0.14210315 0.09653318 -0.012955543 -0.14053504 0.039643902 0.017880451 0.09907145 -0.0030286445
-0.031915832 -0.13422713 -0.0986604 0.028764538 -0.095582075 -0.05567561 0.06744774 0.01865231
-0.054841746 0.017509993 -0.20823483 -0.038617138 0.08164473 -0.0072367457 0.114925005 -0.11166557
0.015404698 0.17266017 -0.27381602 -0.018573742 0.08292072 0.045017265 0.056179937 -0.10840436
0.0485582 -0.0944305 -0.033283427 0.06672744 0.03566428 0.0253633 -0.08033475 0.06265204
0.033814237 -0.0062516457 0.015303888 0.03234271 0.2078293 -0.12379017 -0.012662644 0.12517343
-0.06809961 -0.06350179 0.06374925 0.05202433 -0.022890676 0.13769273 -0.16256693 0.13295528
-0.00035645542 0.0860497 -0.005974742 -0.1401145 -0.10596994 -0.03743048 0.099702515 0.15004446
-0.026453504 -0.16842665 -0.04930465 0.013555835 0.11235863 -0.016593821 0.053479962 -0.054745298
-0.0412624 -0.6092131 0.17630771 -0.2738575 -0.010533248 -0.18522091 0.22223908 0.07762167
-0.07413215 0.0052579646 -0.14636305 -0.05909454 -0.06989524 -0.05188034 -0.12987708 -0.0020495164
0.009243329 -0.015717622 -0.07143931 -0.07294006 0.099450074 0.03208859 -0.13139099 0.099214755
-0.057671487 -0.07686241 -0.11657074 -0.00066049065 -0.06652913 -0.057159927 0.025817506 0.051236734
-0.13591032 -0.057719786 0.0975515 -0.10133125 -0.038597915 0.1680809 -0.059719175 -0.039446983
-0.08748309 -0.04450521 0.22466932 0.17317238 0.03858966 -0.09562479 -0.106398255 -0.16580851
0.063220404 -0.062119074 0.031688605 -0.020121159 0.110400334 -0.05961324 -0.02372453 0.19603951
0.24343407 0.057757493 -0.0587891 0.07133382 -0.061221518 0.0474649 0.17703475 -0.037319347
-0.030486545 -0.16142456 -0.005817401 0.022061879 0.05821295 0.02391662 0.2657637 0.10560833
0.012400558 0.017755393 -0.006800742 -0.06435123 -0.053520713 -0.006323616 0.17159422 0.004974091
0.059477307 0.03846698 -0.11464971 -0.13777499 -0.08426107 0.07474795 -0.011021227 0.09219387
0.06261686 -0.038727954 -0.038466405 0.021556528 0.083806306 0.028953047 0.15719381 0.028292691
0.15193848 0.04856585 -0.045423027 0.16819157 -0.00035607637 -0.025414364 0.053540044 0.004392755
-0.076920815 0.038756616 0.020872656 -0.00936038 0.05181312 -0.058585856 -0.08023209 -0.1443885
0.030267194 -0.004071834 0.5406982 0.08590049 -0.28471404 0.2341955 0.16922587 0.12155991
0.2928552 -0.30205676 -0.023489852 -0.058181457 -0.043789618 -0.037572358 -0.019888807 0.043846756
0.030352667 0.07870789 -0.012504489 0.017970309 0.012352975 0.045443047 0.0025901175 -0.17603305
0.06500229 0.03615233 0.054284118 -0.005929872 0.024806075 -0.1222957 -0.023982398 0.035926133

fc1.bias f4 [64]
00000000: 4129 a13b 880b d6bc 775a 0cbe 2f5d c0bd
00000010: c07e 13be 4566 133a 6391 cc3b 5846 0e3d
00000020: 3dfc c2bd b1de 21bd 381c 563c 3cea babd
00000030: d90a 45bd bb2c ba3c a061 043c cf22 733d
00000040: 45cb 3dbd 1eaa 7bbd bcc7 583d 066e c63d
00000050: b429 233e 5a00 3ebc d98e bcbd 1969 8c3d
00000060: 90e0 993d 9d1e fe3d 9269 3b3d f9d7 f1bc
00000070: b71f b8bc a26b c2bb 2d61 76bc 7141 85bd
00000080: 4efe 4bbd be95 e53c 52c4 383d 3218 cebb
00000090: a20c ac3d a011 aeb7 3c53 0b3c 07d6 963d
000000a0: fd2f dfbc a3da 9b3d dc15 7e3b 2a49 2abc
000000b0: ae1b 23bd f647 193e 8c76 e0bd 071b 033d
000000c0: ba5c dbbc 5e1d d63d 5a8d 52be 7b4d 113e
000000d0: ef43 0cbe 6f38 8c3c e940 e93c 5534 163e
000000e0: 1654 0abc a394 223d 74ae e73c 93bb 98bb
000000f0: e11b 8bbc 6236 a63c 9282 533d 35c3 43be
0.004918248 -0.026128545 -0.13706385 -0.09392773 -0.1440382 0.00056228443 0.0062429174 0.034735054
-0.09520767 -0.039519016 0.013068251 -0.09126708 -0.04810605 0.022726407 0.008079916 0.059359368
-0.04633643 -0.061441533 0.052924857 0.09688954 0.15933877 -0.0115967635 -0.092069335 0.06855983
0.07513535 0.12408183 0.045754977 -0.02952193 -0.02247606 -0.005933241 -0.015037817 -0.065066226
-0.04980307 0.028025504 0.0451091 -0.0062895054 0.08400847 -2.0750624e-05 0.008503731 0.07365041
-0.027244562 0.07610061 0.0038770353 -0.01039342 -0.03982132 0.14968857 -0.10960111 0.032008197
-0.026777614 0.1045482 -0.20561734 0.14189713 -0.1369779 0.017116753 0.028473334 0.146684
-0.008442899 0.039692532 0.028281428 -0.0046610325 -0.016981067 0.020289604 0.051638193 -0.19117434

fc2.weight f4 [64, 64]
00000000: 8478 b13d c98e 7fbd 071c 26be f11b 0dbd
00000010: 254b 4e3e bad2 09bd 2cc2 763e 740e bdbd
00000020: bd22 9c3c 9849 993e 1b33 f63c de39 853d
00000030: 5342 0dbe aace b6be 36cd 2e3c 63dd 61bd
00000040: c21b 7a3e 99c6 35bd 9dd5 dc3d 425e e7bd
00000050: c82c 48bc 590a 6dbd aad5 55be 9d96 963d
00000060: b3cc 683d 6aaa 743e 4215 2fbd f442 823d
00000070: 6496 11be 0d54 9cbd 0197 4abc a06d 47be
00000080: 59c5 c23c 6919 063e e100 2e3d f3ea 1dbd
00000090: 6377 9a3d 7ea9 c03d 4dce be3e 93cd 9bbd
000000a0: 6fd1 553e 49b9 793d f381 afbd f84a 523e
000000b0: 1033 ec3d bd25 8bbd 2650 4c3e 322b 88bd
000000c0: ce7d 0e3e 1bfc 44bd c280 c13d 21d5 513d
000000d0: 9141 3b3c b066 84be 90cc 07be c6ff 023c
000000e0: ae77 23bd 74b6 42be 4b23 783e f8b0 2dbe
000000f0: 80c9 00bd d331 73be bb34 32be d24f 943d
00000100: 36c1 1d3c c3f3 df3e f9ba 80be f08c 293e
00000110: 29e4 40bc 2c6f b2bd 7407 983e 979e 2e3e
00000120: 5790 dd3d 053f 213e 331a 593b 2e05 c6bd
00000130: 4102 41be 081d 10bc 8f1f f03d 8306 9b3d
00000140: ab9c 07be 9357 19be 2abe 003d b690 27be
00000150: 4b70 073b 2ae6 e9bd d19a bf3c ff1d d43c
00000160: daa3 d2bd a05f 23be 6ae3 a33c 2191 d2bd
00000170: d59d d13c 72ba 7ebd 3986 d03d 63ae b53d
00000180: ec5f f9bd 272d c73b 95a6 f5bd eb44 76bd
00000190: 9321 273e a66e 163e 2603 873d bd60 2dbe
000001a0: f436 66bd 9d41 84ba d795 d23d 16e5 23be
000001b0: 519d 04bd 603e b03c 1a23 0dbe 5bf0 d8bd
000001c0: 9503 82bb 82ad cabd e5f6 be3c 80ed 923d
000001d0: 4494 113d 54db c7bd 45b9 ebbd 2011 78bd
000001e0: 1c2b a23e 684f 0a3e 3a6b 68bd 3969 163e
000001f0: 5abd 5e3d 3365 83bd 7266 dcbd 49b0 723e
00000200: 859c 78be f0a2 43bd 76ab f3bd 16e3 b9bd
00000210: 9d4e b0bb 06ad bd3d 8c19 f3bc 1c5c efbd
00000220: 6fb8 91bd 8a31 123e 1c52 07be 0e41 17be
00000230: 7b66 693d 9741 d73d ae85 093d 8624 6e3d
00000240: beff 8fbe 2609 08be 372b f93e 591e 6f3c
00000250: 1fcf b83d c909 53be 012d 85bd f678 66bd
00000260: f072 323e 7b0e b53d e815 963d 3caa 07be
00000270: b87c f63b a60e 8ebc 3131 a53d cf3e 013d
00000280: 9151 893d 753a 033e e99a 933d 6b41 b4bc
00000290: c68f 29be 8df6 17bd d533 d73c 19be 82be
000002a0: d6b7 d7bb a042 8a3e de86 94be f5ff 8abd
000002b0: c6fc 403e cc9f 2ebe 9acd 1e3e bbd3 2a3e
000002c0: 2091 493c e38e 8f3d 5cf0 e8bd 7bf5 9bbd
000002d0: e658 83bd f581 303d 17d1 8d3d 5f88 f4bc
000002e0: 496c 79be 7bbd 0a3d 5f70 423d 2021 a43d
000002f0: 7086 f73d 15fa 373e a6fc 06be 2086 a2bd
00000300: 62c0 1dbc 1936 b83c e92c 01bb 0d36 1cbe
00000310: fbed 9dbe d890 923d 7f4c dfbd c792 64bd
00000320: 1edd 003e 7cb1 9c3e 3292 44bd 4154 893e
00000330: ea03 47be 7a64 853d 6b5a 863e f3ed 96bd
00000340: 60ef 2a3c cb33 2b3d 35bb 0cbd 905c 91be
00000350: c17e 283d 114e 3b3d 5126 bb3d 6007 05be
00000360: 5e61 e7bc 5a12 233e 95ff 413d ee90 aabe
00000370: 183b 71be 492a 753d cf27 9c3a e822 efba
00000380: c3e9 893d 15fa babd b8f8 d7bd 4657 4a3e
00000390: f81e aebd 146a 9a3d d2f6 4cbd 553a ffbd
000003a0: 2b52 5fbc 07c3 05bd cbab 5dbe a42a b53d
000003b0: f5d7 473e ccd7 b33d f504 26be 9369 62bc
000003c0: c6f9 89be da5e 4d3d e893 e03d 97f2 a53c
000003d0: ca13 b9bc 5f47 44bd c5c9 123e b19b ccbc
000003e0: 31ec 67bc 6757 a4bd a646 b93e cd12 cdbc
000003f0: de4c 90be 1cd2 75be 2a79 3dbd e422 3abd
0.08665565 -0.06239203 -0.16221629 -0.034450475 0.20145853 -0.03364823 0.24097508 -0.09231272
0.019059533 0.2993896 0.030053666 0.06505178 -0.13794832 -0.35704547 0.010669043 -0.05514277
0.24424651 -0.04437885 0.10782931 -0.11297275 -0.012217708 -0.057871196 -0.20882288 0.07352946
0.05683584 0.23893133 -0.042744882 0.063604265 -0.14217526 -0.07633219 -0.012365104 -0.19475412
0.023775743 0.1309563 0.042481307 -0.038554143 0.075423025 0.09407328 0.3726677 -0.076075695
0.20880674 0.060967717 -0.08569708 0.20536411 0.11533177 -0.067943074 0.19952449 -0.06648864
0.13915178 -0.04809199 0.09448387 0.051228646 0.0114292065 -0.25859594 -0.13261628 0.007995551
-0.039909057 -0.19014913 0.24232213 -0.1696204 -0.031442165 -0.23749475 -0.17402928 0.07241787
0.009628585 0.43740663 -0.2514265 0.1655767 -0.011773148 -0.087126106 0.29693186 0.17052685
0.10818546 0.15746696 0.0033127188 -0.09668957 -0.18848516 -0.008795984 0.11724769 0.075696014
-0.13243358 -0.14974813 0.031431355 -0.16363797 0.0020666297 -0.114208534 0.023389252 0.02589321
-0.102851585 -0.15954447 0.0200059 -0.102815874 0.025587955 -0.062189527 0.10181851 0.08871152
-0.12176499 0.0060783806 -0.119946636 -0.06012432 0.16321401 0.14690647 0.065923974 -0.16931434
-0.05620475 -0.0010090355 0.10282486 -0.16005358 -0.03237659 0.021514118 -0.13782921 -0.10592719
-0.003967712 -0.09896375 0.023311088 0.07174206 0.035541788 -0.097586304 -0.11509947 -0.060563207
0.31673515 0.13506854 -0.056742884 0.14688577 0.0543798 -0.064157866 -0.107617274 0.2370006
-0.24278457 -0.04776281 -0.11897938 -0.09076516 -0.005380465 0.09261517 -0.029675268 -0.1168749
-0.07115256 0.1427671 -0.13214916 -0.1477091 0.0569825 0.10510557 0.033574753 0.0581403
-0.28124803 -0.1328474 0.48665783 0.014594638 0.0902388 -0.20609201 -0.065027244 -0.0562677
0.17426658 0.088406526 0.07328397 -0.13248533 0.007522192 -0.01734097 0.08066023 0.03155404
0.06705011 0.12815268 0.07207281 -0.02200385 -0.16558751 -0.037100364 0.026269833 -0.25535658
-0.0065831942 0.27003956 -0.29009145 -0.06787101 0.18846425 -0.17053145 0.15508118 0.16682331
0.012302667 0.07009675 -0.1137397 -0.07615181 -0.064134404 0.043092687 0.06924646 -0.029850183
-0.24357714 0.03387211 0.047470447 0.080141306 0.12086189 0.17966492 -0.13182315 -0.079357386
-0.009628387 0.022486733 -0.0019710606 -0.15254994 -0.30845627 0.07156533 -0.10903262 -0.05580404
0.1258435 0.3060416 -0.047990985 0.26822093 -0.19435087 0.06513305 0.26240858 -0.07369604
0.010433048 0.04179744 -0.034358222 -0.28390932 0.041136507 0.045728747 0.09138168 -0.12991095
-0.02824467 0.1592497 0.047362883 -0.33313698 -0.23557699 0.05985478 0.0011913719 -0.0018244656
0.0673404 -0.091297306 -0.10545486 0.19759855 -0.085020006 0.07539764 -0.050040074 -0.12462298
-0.01363043 -0.032656696 -0.21647565 0.08846024 0.19515975 0.08781394 -0.16212828 -0.013819116
-0.26948375 0.050139286 0.10965711 0.020257277 -0.022592444 -0.047919627 0.14334781 -0.024976583
-0.0141554335 -0.08024483 0.36186713 -0.025033379 -0.28183645 -0.24005932 -0.04625813 -0.04544343

fc2.bias f4 [64]
00000000: e029 ad3c 51be e0bc 8b1d 3a3d 3ce2 d6bd
00000010: 3967 a9bc c9c1 b63d 87d8 0f3e 8fb7 733d
00000020: 350f a9bc 769a db3c be37 b8bb adc8 11bd
00000030: 4d48 8dbc 08cd fc3c 7015 8b3d 0de2 073e
00000040: 3b4c 9b3d b397 f33d b508 98bd 335e 43bd
00000050: 6562 89bc f2de 5abc 6360 913b 58a4 d93c
00000060: c992 81bd 7b21 c0bc 192b 86bd e807 c33c
00000070: b5ba b1bb 9d8a 423b d7b3 b8bc a9f2 3f3c
00000080: 63e6 343d 17eb 783c c21c d03c da70 3f3d
00000090: 9c37 0b3d e11a 89bc 9c83 c03d aaa0 32bd
000000a0: f70e 92bd 7aea 343d 636f 8b3d ebe3 313e
000000b0: cd63 a8bc 8cfa 9abd ff5d 99bc 9279 8b3d
000000c0: 4d56 da3c 0940 813d 2227 153b 779a 913c
000000d0: 96f8 3b3d d58e f5bd f2be f33c 4339 e13c
000000e0: 3fb6 ce3c b27c 0cbe b606 573d b9db fe3d
000000f0: 768f 5c3a c02a 82bd 2db3 123e 12ed 323d
0.021138132 -0.0274345 0.04543833 -0.104923695 -0.020679103 0.0892368 0.14047442 0.059501227
-0.020637134 0.026807051 -0.0056218794 -0.03559177 -0.01724639 0.030859485 0.06791198 0.13269825
0.07582899 0.11894169 -0.07423536 -0.047697257 -0.016770551 -0.013358818 0.004436539 0.026567623
-0.06326825 -0.023453465 -0.06551189 0.02380748 -0.0054238685 0.002968467 -0.022546692 0.0117155695
0.044165026 0.015192769 0.025404338 0.046738483 0.03398858 -0.01673645 0.094001025 -0.043610252
-0.071317606 0.044168927 0.06808355 0.173721 -0.020555401 -0.07567319 -0.018721579 0.06810297
0.02665248 0.06311042 0.002275892 0.01777385 0.045891367 -0.11990134 0.029754136 0.027493125
0.025233386 -0.13719442 0.052496634 0.124442525 0.00084137113 -0.0635581 0.14326163 0.04368312

mu.weight f4 [8, 64]
00000000: d4a5 d23c 5c5b 9e3d 4285 24be 8c3f 24bd
00000010: 2136 24be 2a21 35bd 4bd1 3e3e 37fc 0d3e
00000020: 0525 8b3d 8962 06be 02d4 b9bd a0ee 51bd
00000030: d3e6 85bc 2e36 383e 1060 f4bc 985c 9e3d
00000040: 1dfa 363c fb64 13be e84d 90be 0f4c 9fbe
00000050: 024a a4bd 410f b2bd 21e9 a53c 1d5a 8e3d
00000060: f09d 78be a559 b43d 1243 0dbe 9221 eebd
00000070: 54c0 2f3e d8e3 013d 9337 8fbc 8e0e e53d
00000080: 55ea 56be 2154 99bd 8451 043e 6d07 83bd
00000090: 3771 7c3e 61f7 4dbe 666a cb3d 47fe 0dbd
000000a0: d241 adbc c529 88be 13cd 17be e7ea 22be
000000b0: 3ecc c1be aa71 e5bd 4930 e43d fcc2 c8be
000000c0: a88f 403e eda6 b13d 6131 17be a77d 9f3d
000000d0: dcd4 a73e 73e9 143d a46f 283e 6403 9d3e
000000e0: c033 e63d 8638 7b3b 0587 5dbe 828a 6d3c
000000f0: 89bc c2bc b5e7 1abe 0dfe 1bbe 223e f93c
00000100: d9bb 9ebc c301 023d 017b 9b3e 711f 3ebd
00000110: dbda e4bd a962 2dbe 4dcf 4b3d 9035 8e3c
00000120: a793 b0bd f926 4b3e 13a8 253e 8453 863b
00000130: 2693 18be 1222 a93d 98f1 9a3d 73a4 cd3d
00000140: 1ca0 aa3d 1bcb 3ebd 11cc 9ebe 6b25 ee3a
00000150: 765b a03c 0010 ec3c ad01 84be 628c 35bd
00000160: 8921 4b3c 6906 e43d fd69 e03d f75e d93d
00000170: d948 8fbc 83bd 203d 7ca7 873d be56 8dbe
00000180: 1031 3bbd d34a b6bd 0ba5 05bd d21c 143e
00000190: df14 d6bd c3e2 d33d 8725 bfbd 0d1d 263e
000001a0: fdc7 d93c 6b0c 5f3d eb45 e5bc e651 8fbe
000001b0: dc8d 0f3e 9bc6 d93d 26c9 83bc 19e4 ad3d
000001c0: 3a2e f4bd 38d3 a13c 428a 47be e230 72b9
000001d0: abd9 c9bd 7204 123e 9638 adbb b74b 013d
000001e0: 934f f7bd cd9b c43d 5626 04be 3a7e 743e
000001f0: 6c9f 233e bb81 f03d 9cb2 2bbe 46f0 133e
00000200: 4ff4 1c3e 7508 823e ae66 30be ec5d a93d
00000210: ce71 6f3d bfa7 143e 8dcd fbbe 316e 11be
00000220: d026 d4bd 2c64 df3d 6a47 683e ebe4 793d
00000230: 6e7c fcbc f824 c83d ccd8 79bc c4e2 f63d
00000240: f5e4 92bd 89db acbd 62fe 233d c82d 293c
00000250: 43af c53d db10 bfbd 40b2 48bd ccbf ae3d
00000260: 9c15 f5bc 138f 323e 5818 d83d 7ae1 c93e
00000270: dcf7 e7bd 2249 07be 8c7b 4fbe 499f bc3c
00000280: ae1d 3ebe 8a4d 5fbe 066c 84be 92d1 913e
00000290: e6ee 4f3e 6c74 d03d 35e2 073e cf54 13be
000002a0: bde2 733c 6844 eabc 565a 6d3e 398f a4be
000002b0: 2f04 db3d 6963 c03c e38d 4e3e efc7 fabc
000002c0: 4c15 0b3e f88f 3e3d a6ad 553e a0d1 2bbe
000002d0: 077b dcbc 8f36 8ebc 04ea 8cbd 1538 4cbe
000002e0: 2bea 313d e348 ac3d 7140 5d3e 9bd0 0e3c
000002f0: e3ae 2abd 64a2 983d 3ec8 053e 1882 cabc
00000300: 29eb 58be 2ad3 e63d 4c73 733d f2a5 2e3e
00000310: 2bb4 03be 8586 263d 05d1 cc3d fade ea3d
00000320: d601 3fbc 1621 c73d d886 eabd 8cb5 023e
00000330: 133c 80bd 8d07 643d 5539 3dbd 98a6 fcbd
00000340: 2ea2 1cbe 6a67 db3d 3791 ffbc 5766 25be
00000350: 4f82 f43d b57e 93bd ce3c 29be e337 27bd
00000360: 8bb9 873d 8df5 debc 33b5 7bbd 07b5 123d
00000370: 70f5 2f3d 1dc9 c93d f95f ee3d cb0e 07bd
00000380: 3201 e3bd 31b3 f53b e273 e7bd c590 18bc
00000390: b2b7 633d 6d51 87bc aa32 ae3d 2746 cd3d
000003a0: 8450 81bd a25b 0c3b 9dbc e83d ee0a a3bd
000003b0: f49f e0bd 882a 183e 445c 9d3d d364 4fbc
000003c0: bdcd 9c3c 9cfb 1ebe b8ee d23c 15cf 40bd
000003d0: 5718 82bd 21c3 ae3e a0c5 7d3a 0de5 513c
000003e0: 6dbc 8e3e d2e7 e4bc 03b8 2bbd 7d6b 96be
000003f0: 2a75 a6bd 048e 2abc 6ce8 ca3d 648e 173e
0.025713839 0.07732269 -0.16066459 -0.040099666 -0.16036274 -0.04422108 0.18634526 0.13865744
0.0679417 -0.13123526 -0.090736404 -0.05125296 -0.016345417 0.17989418 -0.029830962 0.077325046
0.01116803 -0.1439399 -0.28184438 -0.31112716 -0.08021928 -0.08694316 0.020252766 0.069507815
-0.24278998 0.08806161 -0.13795117 -0.11627497 0.17163211 0.03171143 -0.017482555 0.11184417
-0.20987828 -0.074867494 0.1292172 -0.06397901 0.24652563 -0.20113899 0.09932403 -0.034666326
-0.02114955 -0.26594368 -0.14824323 -0.1590992 -0.37851137 -0.1120332 0.11142022 -0.3921126
0.188048 0.08674417 -0.1476493 0.07787638 0.32779586 0.036355447 0.16448838 0.3066665
0.11240339 0.003833325 -0.21633537 0.014498355 -0.023771541 -0.15127452 -0.15233631 0.030425135
-0.019376682 0.03173996 0.30367282 -0.046416704 -0.11174556 -0.16932167 0.049758244 0.017359525
-0.086219124 0.19839086 0.16177396 0.0040993113 -0.14899883 0.082584515 0.075656116 0.10041132
0.0833132 -0.046580415 -0.31015065 0.001816911 0.019574862 0.028816223 -0.2578253 -0.044323333
0.012398132 0.11134035 0.10957716 0.10613816 -0.017490791 0.039243232 0.06623742 -0.27605242
-0.045701087 -0.0890099 -0.0326281 0.14464119 -0.104531996 0.10345986 -0.0933333 0.1622202
0.02658462 0.054455202 -0.027987441 -0.2799217 0.14018959 0.10633584 -0.016087126 0.08490772
-0.119228795 0.019754037 -0.19486335 -0.00023097129 -0.0985597 0.14259508 -0.0052862866 0.031566348
-0.120757245 0.09600029 -0.12905249 0.23876277 0.15978783 0.11743494 -0.16767353 0.14447126
0.15327571 0.25397077 -0.17226669 0.08269867 0.058458142 0.14517115 -0.4918026 -0.14202191
-0.103589654 0.10907778 0.22683492 0.06100933 -0.030821051 0.09772676 -0.015249442 0.12054971
-0.07172576 -0.084403105 0.04003752 0.0103258565 0.09652569 -0.09329387 -0.048998117 0.08532676
-0.02991753 0.17437391 0.10551518 0.39429837 -0.11326572 -0.13211492 -0.20261973 0.023025172
-0.1856601 -0.21806923 -0.25863665 0.28480202 0.20305976 0.10178456 0.13269885 -0.1438782
0.014885602 -0.028597072 0.23178992 -0.3214052 0.10694157 0.023484902 0.20171313 -0.030612914
0.13582343 0.046524018 0.20867023 -0.16779184 -0.026914133 -0.01736 -0.068805724 -0.19943269
0.04343621 0.084123395 0.21606614 0.008716728 -0.04167069 0.074528486 0.13064668 -0.024720237
-0.21183456 0.11270745 0.059436128 0.1705549 -0.12861697 0.04065563 0.10000805 0.11468311
-0.011658153 0.097231075 -0.11451501 0.12764567 -0.06261458 0.055671263 -0.046197254 -0.12336463
-0.15296242 0.10713084 -0.031197174 -0.16152321 0.11938917 -0.07201902 -0.16527101 -0.040824782
0.066271864 -0.027216697 -0.061452102 0.035817172 0.042958677 0.098528124 0.11639399 -0.032973092
-0.11084212 0.007498168 -0.113014 -0.0093118595 0.055595107 -0.016518319 0.08505757 0.10023146
-0.06314185 0.0021416922 0.113641 -0.07961069 -0.10968009 0.14859974 0.07683614 -0.012658316
0.019141072 -0.15525669 0.025748596 -0.04707249 -0.06352299 0.34133247 0.00096806325 0.012810958
0.27878132 -0.027942572 -0.041923534 -0.29378882 -0.08127816 -0.010409836 0.09907612 0.14800411

mu.bias f4 [8]
00000000: a527 e93a 12d7 93bd c1a1 36bc 772f 70bd
00000010: 070a 523d ad1d d73d 304e dd3c 52e2 b83d
0.0017788304 -0.07218756 -0.011146964 -0.058639016 0.051279094 0.10503707 0.027014822 0.09027542

fc1.weight f4 [64, 111]
00000000: 7d7e dabe 5e4a 0b3f 7fa0 cc3e 5181 87be
00000010: 2966 0abe 3327 d43d 6c35 cc3d 4a3f 603d
00000020: 79b9 c3bd 4fca a6bd 161e 95bd d665 303d
00000030: 8449 213e 2912 37be 6ab2 47bd 2bda 31be
00000040: 04ce d0bd 379e 743e e0af 1cbe 133d efbc
00000050: 7513 4d3d fb5d 3ebd 72d5 483c 93ec 8ebc
00000060: a785 bc3c cc2b c6bd cdeb ce3c 37a9 bdbd
00000070: b579 82be 33c6 c1bd dd0d d53d ad1c 2e3e
00000080: b7d0 e33d baf3 153c 9dcf 8dbd f71d 133e
00000090: 6602 86bd cbe3 de3c c666 183d 705c 05bc
000000a0: 2e10 a4bd 290c 943d 4e6f 46be af9d d5bc
000000b0: ff6e 43be 3308 01bd 5acf d4bc a352 2cbe
000000c0: 8d87 9dbd 2ec7 0b3e 1637 cabd cf5d ba3d
000000d0: 6179 a1be 33f6 2c3d 3c49 a53d 90ce 1a3d
000000e0: 5700 b3bc b5b2 913d 3078 e6bd 838c 04be
000000f0: b854 34bd 39d5 943d 50fa c4bb 20c4 68bd
00000100: acd3 a13d 6438 8d3d b6b3 ebbd a8b5 8cbc
00000110: e387 c53d 3ae9 0c3e 6bd8 b63d 1bce b43c
00000120: 5020 a8bd 86de a2bd 8b8d a6bc 1a1b 6c3c
00000130: 3753 eebd 6f01 df3c 246c e53b 2909 b7bc
00000140: 2b18 dfbd 7164 c9bd 546b f73c 08de 713d
00000150: 2d3f 39be e4ea 293c 9e0a c3bd de0f 4ebc
00000160: 3aa7 6abd 7c3f 5c3e 48d7 3abe ebaa 2e3d
00000170: 795e 8cbd 7162 d23c 8832 e83d 8d9a 2fbc
00000180: 5a45 13bd 3c6e 873d ff19 79bd 2554 21bd
00000190: 7a89 423d a8c3 a83d 4f5f ddbc 2728 acbc
000001a0: 0fb1 a13d b72c 36bd a00b c4bc 38fa bebd
000001b0: d326 9ebb 972a da3d 5c9b 8fbd c2be d0be
000001c0: 87c8 613f e253 593c 9c70 99be e40a 723e
000001d0: b0a2 503e 23e0 cabc 5783 26bc ecd9 e73d
000001e0: 8c8c 813e e056 b5bc 703a b53d 593d 52bd
000001f0: 30c3 213d 8d63 443c 8f03 8cbe afe3 44bd
00000200: 95f0 83bc 5d5f 083d c3db 883b 654a d5bc
00000210: 13c4 9f39 08fb 0abd 35f7 a23c 0422 b9bb
00000220: 50bb bf3c 5c27 78bc ce3e 4bbd bfcc 313d
00000230: e222 b03d 3f7a 843d 1255 533d b636 16be
00000240: 38c4 183d 8fb6 203d e278 4fbd 5420 89bd
00000250: 5da6 5ebc fbec 5f3d b24a 96bd 7565 54bd
00000260: 3b28 7a3d 6817 e23d d940 18bd 65a1 fb3d
00000270: 5fbb 163d 2e7d 12bd 8ea4 fd3d 4468 f6bd
00000280: 58cb 29b9 d5bb 38be ecb7 43bd da7e f0bd
00000290: 292c a1bc e82b 95bd 9260 443e 22ff 07be
000002a0: 19bb aa3b 4c9a 1abc 4ef4 273e 420f ddbc
000002b0: 75e7 cbbc b7ef a63d 0306 d63d 61bb febb
000002c0: d43c 543c ae4c 283e 3348 143e c096 183e
000002d0: 35e4 5fbc 9f28 b4bd f79c d23b b329 143e
000002e0: 22db 52bd cd6d a73d 71b6 a53d a166 d43d
000002f0: 3ad2 17bd 7c30 debc d667 243e 0586 18be
00000300: 4aa6 63bd 094c 043e a058 b9bd 2218 cfbb
00000310: b229 43be 2931 c83d 470c 9dbc 6560 d03d
00000320: 7d06 a53c f86e a23c 215e 073e 7386 53bd
00000330: 633c e43c fee7 5a3c 9bc8 d639 6a14 9fbd
00000340: a3f2 b0bd 4081 983d c29b cf3d 0636 963d
00000350: a44b 633e 33f7 30bd 694d 3e3e 709e 803e
00000360: 493f a3bc 81a5 933b e7d7 09be 157a c1bd
00000370: 288f 47bd 87dc 0bbd 3a3b d13e 5e1d 4fbf
00000380: 131f cc3d f9fc 69be 765c 3bbf 4b0c 273e
00000390: cc8e 303e 2f4c 99be 2b04 96bd 6d10 06be
000003a0: 4929 23be b80c 433e bd03 eb3e 8bc8 9a3d
000003b0: b220 373e 8021 153e a593 0bbe 6e2f 3c3e
000003c0: 3a2b 0abe 5dad 13bc c815 8f3d 174b 8d3c
000003d0: 5d52 583c a326 8cbd 28d2 cf3c 9966 debd
000003e0: 649e d8bd ac6d f0bd 7d37 2d3c c81a 8b3d
000003f0: 5cf3 033d 6b35 6bbd ea6a 5ebd 2241 d0bd
-0.42674628 0.5441035 0.399662 -0.26465848 -0.13515534 0.10359039 0.09971127 0.054747857
-0.095568605 -0.08144056 -0.07281129 0.04306587 0.157507 -0.17878021 -0.048754133 -0.1736838
-0.10195544 0.23888479 -0.15301466 -0.029203927 0.050067384 -0.046476346 0.012257921 -0.017446792
0.02301295 -0.09676322 0.025258923 -0.09260791 -0.2548348 -0.094616316 0.10403035 0.17003126
0.111237936 0.009152347 -0.06924365 0.143669 -0.06543426 0.02720823 0.037207387 -0.008139715
-0.080108985 0.07228882 -0.19378397 -0.026076166 -0.1908531 -0.03150196 -0.02597778 -0.16828398
-0.0769187 0.136502 -0.09873788 0.09099924 -0.31537917 0.04222698 0.08070609 0.03779465
-0.021850748 0.07114164 -0.11253393 -0.12944226 -0.044026107 0.072672315 -0.006011285 -0.056827664
0.07901701 0.06895521 -0.115088865 -0.017176464 0.09645059 0.13760844 0.08927997 0.022070935
-0.08209288 -0.07952599 -0.020331165 0.014410758 -0.11636966 0.027222363 0.0070014168 -0.022343235
-0.108932815 -0.09833611 0.030202545 0.059049636 -0.18090506 0.010370944 -0.095235094 -0.012577025
-0.057288386 0.21508592 -0.18246186 0.04264347 -0.06853957 0.025681706 0.11337763 -0.010718
-0.03595481 0.066128224 -0.060815807 -0.039386887 0.04749439 0.082404435 -0.027022986 -0.02101524
0.07895099 -0.044476237 -0.023931324 -0.09325069 -0.0048264056 0.106526546 -0.07012054 -0.40770537
0.88196605 0.013264628 -0.29968727 0.23636967 0.2037456 -0.02476508 -0.01016315 0.11320862
0.2530254 -0.022136152 0.08849037 -0.051328037 0.039492786 0.011986625 -0.27346465 -0.0480687
-0.01610593 0.03329407 0.0041765883 -0.02603645 0.0003047293 -0.03393081 0.019893268 -0.005649807
0.023404747 -0.015146103 -0.049620442 0.04340815 0.08600403 0.06468629 0.0515948 -0.14669308
0.037296504 0.0392366 -0.050652392 -0.06695619 -0.013589469 0.05466936 -0.07338466 -0.05185457
0.061073523 0.11039621 -0.03717122 0.12286643 0.036799785 -0.035763912 0.12384902 -0.12031606
-0.00016192847 -0.18040402 -0.047782823 -0.11742945 -0.019674378 -0.07283765 0.19177464 -0.13280919
0.005210292 -0.009436201 0.16401789 -0.026984815 -0.02489064 0.08151191 0.104503654 -0.007773802
0.012953956 0.16435501 0.14480667 0.14901257 -0.013665249 -0.0879681 0.006427403 0.14469032
-0.051478513 0.0817524 0.080914386 0.103711374 -0.037065722 -0.027122729 0.16055235 -0.14894874
-0.055578507 0.1291963 -0.09050107 -0.0063200155 -0.19058874 0.097750016 -0.019170893 0.10174636
0.020144695 0.019828305 0.13219501 -0.051641893 0.027860826 0.013360975 0.00040966723 -0.077675655
-0.08640029 0.074465275 0.1013713 0.07334523 0.22196823 -0.043204498 0.18584217 0.25120878
-0.019927638 0.0045058136 -0.13461266 -0.094471134 -0.04872051 -0.03414586 0.408655 -0.80904186
0.099668644 -0.22850408 -0.7318796 0.16313283 0.17241973 -0.29940936 -0.07325014 -0.13092203
-0.15933718 0.1904782 0.4590129 0.07557782 0.17883566 0.1456356 -0.1363054 0.18377468
-0.13493052 -0.009013501 0.06986576 0.01724772 0.013203231 -0.06843307 0.025368765 -0.10859413
-0.105770856 -0.11739668 0.0105723115 0.067922175 0.032214507 -0.05742399 -0.05430118 -0.10168673

fc1.bias f4 [64]
00000000: 1191 fd3e 7672 3abe ebfd 02bc 8713 993e
00000010: 0948 84be 0d2b 1b39 2dbe 14bf 8f91 313f
00000020: 3732 623e c9e2 453f cc34 a33e 7ab7 143e
00000030: e882 3cbe b61b 0e3f 4284 3dbe 2be2 d03e
00000040: e8b9 873f 6194 773f baf6 863e 3e8e 2b3f
00000050: 5d12 d6bb 946b d9bd 4d6a 0f3f 8cd1 b1be
00000060: a856 d8bd f712 da3d 67d7 683e 9850 9bbe
00000070: 04c6 933e 2dc1 f13e 22de 333e f5fc e8be
00000080: d3ba c63e b46f 663f 3cd8 44bd 04aa 733e
00000090: 6ce5 c4be 3035 a7be e7ae 7ebe 7d63 7f3e
000000a0: b8a4 01be e64d e2be cd32 933f d366 a13e
000000b0: 58ab 2ebe 6390 eabd 0ab6 36be 8efb 80be
000000c0: 5fa2 05bf d28a eb3e 7f5b e33d dcd2 bebe
000000d0: 5300 99bc 4f0e 75bc 0873 ec3e 5b3e e73e
000000e0: 7daa 8cbe f58a a9be b5c8 0abf a3fd 003f
000000f0: 2c32 ac3e 3d9f a83e 7ca7 2e3e 8d6e 6ebe
0.4952474 -0.18207726 -0.007995109 0.2989771 -0.25836208 0.0001479799 -0.58102685 0.6936273
0.22089468 0.7729917 0.31876218 0.14523116 -0.18409312 0.55511034 -0.18507484 0.40797552
1.0603609 0.96710783 0.26360112 0.6701392 -0.006532951 -0.10616222 0.5602158 -0.34730184
-0.10563403 0.106481485 0.2273842 -0.30334926 0.2886201 0.47217694 0.17565206 -0.4550549
0.3881441 0.90014195 -0.04805778 0.23795325 -0.38456285 -0.32657766 -0.24871407 0.24940296
-0.12660491 -0.44200057 1.1499878 0.3152376 -0.1705755 -0.11453321 -0.1784288 -0.2519192
-0.52200884 0.4600435 0.11101436 -0.37270248 -0.018676912 -0.014957025 0.46181512 0.4516476
-0.27473822 -0.33113828 -0.54212505 0.5038702 0.33632028 0.3293399 0.17056078 -0.2328436

fc2.weight f4 [64, 64]
00000000: 15b6 853c 77a0 5b3f dab9 28bc ce2f 74be
00000010: ad30 46be 08f2 c53e 322b 5f3f d1ac cd3d
00000020: 41ff 68bd 4e16 3bbb 73f6 e3be db15 85be
00000030: 88f4 15bf 8452 043e 056e c13e ca2a 043c
00000040: 335f 97be 2d43 97bf 6a7e a03d 0393 31bf
00000050: 12c2 1c3f efcb edbe ec0b 2fbf 18b4 ab3e
00000060: ee74 2a3f 1ef3 32bf e361 29bf 5336 64be
00000070: c28c b83d 8a72 45bf 22c8 f1be 6842 2f3f
00000080: 581a 3ebe f3e7 6f3d 604c 4d3f 0ed0 79bf
00000090: 3b78 773f e167 c7be c0ab 003f b41f 87bf
000000a0: 4126 ce3e f478 0fbd 120a 48bf 0bec 9e3e
000000b0: d185 393e 9d04 113f 4617 60bf 94ac 55bf
000000c0: 1b5a 0b3f cbba 55bf 6fba 523e 1ab0 edbe
000000d0: 5e06 1b3f 61f4 fb3c 92ab 7fbf 0509 f23d
000000e0: 0dba 3f3f 79c4 0f3f c247 5ebf fe9b cc3e
000000f0: 06e3 4a3d 8d9d e1be 0cc6 0abf 8553 163d
00000100: 0437 a33e 6297 893e 6e49 5dbe de74 1d3f
00000110: 08f5 183c 979a e53e b7a2 f73e 1431 8cbc
00000120: 3257 8fbd 6b4a 5a3e 3316 db3e 20c5 ba3e
00000130: d145 edbe 5f15 003c b494 603e 9bdf ea3c
00000140: 3c34 973e 6777 a7be 5f73 a1be e118 3bbe
00000150: a8de 4bbe 510c 57bb ea18 e33e 4bfb 913e
00000160: 9fc5 d83d 2c1a 2fbf 5180 aabd cdc9 b83d
00000170: fba9 243e a512 903d 67ea debc b882 1d3e
00000180: 97c7 b1bd f450 e0be ff7e a3be 5d20 aa3e
00000190: 296c 89bd 862e 3ebd 4648 fabc 3b1e 263e
000001a0: afbc 5a3e cde7 7dbe 65fc d5bd 67e9 153e
000001b0: 48ce 9dbd e0af 723d 3ff9 86be 6032 11bf
000001c0: e992 0ebd fea0 77bc 80a4 9ebe 1d85 af3d
000001d0: fd3c e0bd 80f1 12bd 9f48 a03e f457 38be
000001e0: 5cca e03e 6da0 cebd ab5b 8a3c e588 c1be
000001f0: afc3 90bd 4b9c 3c3f e1eb d6bb e4f9 9a3c
00000200: 62f9 98bf 900a 0ebd b341 823f 7c17 51be
00000210: 64da 13bf ed54 0cbd 2e8e c43f 751d b1bf
00000220: 39b4 eb3e c8b5 a6be 1802 35bf 45a1 553f
00000230: 15f9 e93e 274f cfbf 3a7b 273f 9e5d 06bf
00000240: 34dd 2bc0 68e6 6bc0 d5b2 3c3e 5a8b dcbf
00000250: 0996 f73b 9897 9e3e b3da c6be 1b4d b23e
00000260: 0187 a93e 9664 04be ac06 2cbf 81a4 25bd
00000270: 589e 7fbd c7fc 11bf f90c 30bf 0ae4 043d
00000280: e934 abbe 4e12 efbf b4fc 26bf 4337 85bd
00000290: 17b4 1b3f 567a 523f 0cf7 9c3e 463a fd3c
000002a0: 1774 df3e 7bb6 233e c6f6 35c0 d188 5bbf
000002b0: c388 aebe edfa 903e 1cb3 5abe d8d0 2d3e
000002c0: f157 c93e 9437 27be a9bc 13be 285c 843c
000002d0: 8ec6 c2be c0e8 8c3e 61ae 40bf 4686 ac3e
000002e0: cc39 d53f d7a2 323e 6024 a0be 218e 3bbf
000002f0: ee88 0d3c 16e9 133e 893b 09bf 9a42 acbe
00000300: a8ca 223f 203c 6c3f 3d46 5dbf 8c00 003f
00000310: 08bc 8f3f fed6 663e b53b 7abf 9207 a23f
00000320: 9033 9bbf 330b 84be 70a1 463f 7b9e a0bf
00000330: a711 95bf d5dd 903f 0e81 eabf ae12 c5be
00000340: 1157 c53f 2607 7c3f 1451 4bbf 4257 b03f
00000350: eff2 0d3f abdc 99bf 9522 8e3f 2a4c 043f
00000360: 3bb1 593f a561 24bf c980 67be d179 343f
00000370: 31a7 8c3f 0ea6 2ebf 96aa 263f d0e5 4e3f
00000380: c7a1 0bbf 7cd9 a63f 3f4c 293f abba 35bf
00000390: 0d60 cf3e 7a49 18bf e7de 13bf 201c 3bbf
000003a0: e8c6 be3e 3966 45bf 06af b03f 9c1f 8c3f
000003b0: be5f b03f 03f6 8fbf cba5 9d3e f666 333f
000003c0: cbe2 7dbf 4374 32bf e5d4 04bf 9467 283f
000003d0: b264 073f e1bf 9f3e 1695 93be 92f8 7cbf
000003e0: ad86 2abf acb7 3a3f 018e 923f 3b7e f03e
000003f0: 718a 023e 48e9 523f f319 11be 9e4a 933f
0.016322175 0.85791725 -0.010298217 -0.23846361 -0.19354506 0.38661218 0.87175286 0.10042728
-0.056884054 -0.002854723 -0.44523963 -0.25993237 -0.5857625 0.12922102 0.3777925 0.008066842
-0.2956482 -1.1817375 0.078366116 -0.6936495 0.6123363 -0.4644465 -0.68377566 0.33535838
0.6658467 -0.6990222 -0.6616499 -0.22286348 0.090112224 -0.771279 -0.47223002 0.684607
-0.18564737 0.058570813 0.80194664 -0.9758309 0.9666783 -0.3894644 0.5026207 -1.055655
0.4026356 -0.03502746 -0.78140366 0.31039461 0.18117453 0.56647664 -0.8753551 -0.8346646
0.54434365 -0.8348815 0.20578931 -0.46423417 0.6055659 0.030756177 -0.9987117 0.118181266
0.74893266 0.5615917 -0.86828244 0.39962763 0.049532913 -0.44065514 -0.54208446 0.036700744
0.3187791 0.26873308 -0.21610042 0.6150645 0.009335764 0.44844505 0.4836633 -0.017113246
-0.06999053 0.2131745 0.42790374 0.3647852 -0.46342328 0.007817595 0.21931726 0.028671077
0.2953204 -0.32708284 -0.31533334 -0.1827121 -0.19909155 -0.0032813738 0.44354945 0.28512034
0.10584568 -0.6839931 -0.08325256 0.090228654 0.16080467 0.07034806 -0.027211381 0.15381896
-0.08680647 -0.43811762 -0.31932828 0.33227816 -0.06710083 -0.046431087 -0.03055204 0.1622247
0.2136104 -0.24795456 -0.10448531 0.14639817 -0.07705361 0.05924976 -0.26362035 -0.5671749
-0.034808073 -0.015114067 -0.3098488 0.08570311 -0.109491326 -0.035874844 0.31305405 -0.18002301
0.43904388 -0.100891925 0.016889414 -0.37799755 -0.07068574 0.73675984 -0.0065588807 0.018917985
-1.1951106 -0.034678042 1.01763 -0.20419115 -0.5775511 -0.03426068 1.535589 -1.3837115
0.46035936 -0.32560563 -0.7070632 0.834492 0.45697847 -1.619603 0.65422404 -0.524866
-2.6853762 -3.685938 0.18427594 -1.7230027 0.0075557274 0.30975032 -0.3883873 0.34824452
0.33110812 -0.12928995 -0.6719768 -0.040440086 -0.062406868 -0.5702633 -0.68769795 0.032444037
-0.33438805 -1.8677461 -0.65229344 -0.06504681 0.6082167 0.8221792 0.30657232 0.030911576
0.43643257 0.1598758 -2.8431869 -0.8575564 -0.34088716 0.2831644 -0.21357387 0.16974199
0.39324906 -0.16329795 -0.14427437 0.016157225 -0.3804211 0.27521324 -0.7526608 0.33696193
1.6658263 0.17444931 -0.31277752 -0.73263747 0.008638604 0.14444384 -0.5360647 -0.33644563
0.6359048 0.92279243 -0.864353 0.50000834 1.1229258 0.2254295 -0.97747356 1.265856
-1.2125111 -0.25789794 0.77590084 -1.2548364 -1.1646012 1.1317698 -1.8320634 -0.38490814
1.5417196 0.9844841 -0.7942059 1.3776629 0.5544881 -1.2020468 1.1104304 0.5167872
0.8503606 -0.64211494 -0.22607721 0.7049838 1.0988523 -0.6822213 0.65104043 0.80819416
-0.5454373 1.3035121 0.6613197 -0.7098796 0.40502968 -0.59487116 -0.57761997 -0.7308979
0.37261128 -0.77109104 1.3803413 1.0947146 1.3779218 -1.1246952 0.30790552 0.7007898
-0.99174184 -0.6970865 -0.5188735 0.6578305 0.52888024 0.3120108 -0.2882468 -0.9881679
-0.6661175 0.7293651 1.1449586 0.46971306 0.12748124 0.8238721 -0.14170055 1.1507146

fc2.bias f4 [64]
00000000: d67d 5cbf e33e 213e 9551 89bf b44b 2fbe
00000010: 7301 98be f37e 4e3f 44f8 f63f 8932 043d
00000020: 89e6 bdbe 6cb7 aabd 6415 0ac0 14c8 07c0
00000030: eed2 b5be 14e4 99be 5706 f53f 86d3 87be
00000040: 3e90 85be 0cae df3f c6ff df3e 1993 cc3f
00000050: 984d 0bbf 4284 2bbf 7694 93bf 0853 36bf
00000060: a405 473f 15e6 8fbf 24e9 0e3d f5c6 38bf
00000070: 3964 713e 007d 3abe c4c1 5fbf 2e6c 88bd
00000080: 94a8 283f 47b0 8abe a93a ad3e 58a5 03be
00000090: 5b06 c53a c193 d93d f3f5 7cbf 0646 90bd
000000a0: 1b8e 0ac0 2ef6 5fbb 5576 143f 0387 843d
000000b0: a29a 0fbe e235 afbf bd2e 17bf 722d 923d
000000c0: e378 8e3f f416 043f 6f78 4c3f 9f78 453f
000000d0: f5bf 913f c486 5cbd 7b0d 993d 2bf3 543f
000000e0: 53da 063e 8266 803c 093b c03f e566 0a40
000000f0: d501 9ebe ec13 02bf 99cf b63c c5d5 c9bf
-0.8612951 0.15746646 -1.0728022 -0.17118722 -0.29688606 0.8066246 1.9294515 0.032274757
-0.37089947 -0.08335766 -2.1575556 -2.1215868 -0.3551249 -0.30056822 1.914256 -0.26528567
-0.2608661 1.747499 0.43749827 1.5982391 -0.54415274 -0.66998684 -1.1529682 -0.71220446
0.7774298 -1.124209 0.03489031 -0.72178584 0.23573388 -0.18211746 -0.8740504 -0.06661259
0.6588223 -0.27087614 0.33833817 -0.12856042 0.0015031801 0.10623885 -0.9881279 -0.07044606
-2.1649234 -0.0034173834 0.5799306 0.06471064 -0.14023831 -1.3688319 -0.5905569 0.07137574
1.1130642 0.51597524 0.7987127 0.7713718 1.1386706 -0.05383946 0.07473274 0.83183545
0.13169222 0.01567388 1.5018016 2.1625302 -0.30860773 -0.5081165 0.022315787 -1.5768362

value.weight f4 [1, 64]
00000000: e71c f6c0 9ca0 f8c0 c9e0 e9c0 9d3f ed40
00000010: c20f ef40 9da2 ecc0 baed f540 c1fc df40
00000020: 7cf0 e9c0 a593 e7c0 9035 f8c0 13fb 00c1
00000030: 3cb8 ee40 4047 f340 cd11 e740 f89b f340
00000040: fa23 e7c0 802d fa40 ccd4 eec0 aafc e940
00000050: 4fb5 ee40 7cdf ec40 711d f1c0 be23 eb40
00000060: af34 e9c0 36e7 edc0 9660 ed40 b381 ddc0
00000070: cb79 f2c0 1c3f eac0 e484 ed40 6e88 f040
00000080: ffba edc0 49c0 e240 d07e f140 56f6 f1c0
00000090: df33 fec0 2183 e640 bf1e 00c1 78a9 f8c0
000000a0: 54d0 fdc0 85e7 e4c0 9028 fa40 ba3b f040
000000b0: b5a0 ef40 9847 fdc0 e78c ee40 4ef3 ec40
000000c0: 8d0e e440 e322 f0c0 7d33 fa40 dae9 dd40
000000d0: f629 e740 d508 eac0 299b eec0 1260 e940
000000e0: 1cfe ef40 0f21 ef40 b196 eb40 32e9 ff40
000000f0: 7486 e8c0 06a9 d640 8423 eec0 3c64 f6c0
-7.691028 -7.7696056 -7.3086896 7.4140153 7.4706736 -7.3948503 7.6852694 6.9996037
-7.310606 -7.236773 -7.7565384 -8.061297 7.4599895 7.6024475 7.220923 7.612789
-7.2231417 7.818054 -7.463476 7.312093 7.4596324 7.402281 -7.534844 7.348113
-7.287681 -7.434474 7.4180403 -6.9220824 -7.5773673 -7.320204 7.422472 7.516654
-7.4290767 7.0859723 7.54673 -7.5613203 -7.943832 7.203507 -8.007506 -7.770687
-7.9316807 -7.1532617 7.8174515 7.507291 7.4883676 -7.9149895 7.4547 7.4047003
7.126776 -7.5042586 7.818785 6.9347963 7.223872 -7.313578 -7.4564404 7.2929773
7.499769 7.4727855 7.362145 7.997216 -7.2664127 6.7081327 -7.4418354 -7.6997356

exp_avg f4 [1, 8]
00000000: 5d14 0e3b 74b8 49ba e1db 08bb b87e 8dba
00000010: 0530 9abb 1e0c 27ba ffab 483c 4105 623b
0.0021679618 -0.0007695027 -0.0020883011 -0.0010795211 -0.0047054314 -0.000637235 0.012248038 0.0034487995

exp_avg_sq f4 [1, 8]
00000000: 9967 fc38 8e8a da38 acd8 d938 c078 0539
00000010: b573 c238 930e e838 b1b7 3039 c613 db38
0.00012035593 0.00010420858 0.000103877246 0.00012728851 9.272193e-05 0.00011065337 0.00016853098 0.00010446417

exp_avg f4 [64, 111]
00000000: a68b 8eb9 da07 6eba e94b 6139 19eb 8fb9
00000010: aecf bc3a c361 243b 4386 74ba b91a f739
00000020: 5b1c 033a bb41 33b6 f211 433a f148 4fba
00000030: 9eb3 5eba f746 0bbb 9249 dbb9 1126 1b3a
00000040: f03b 18bb 5beb 553b b681 55ba f553 2c3a
00000050: c824 7fba 6826 8cba 337a eaba a579 f63a
00000060: 44b7 89ba 8923 d439 9ffe b3b9 0000 0000
00000070: 0000 0000 0000 0000 0000 0000 0000 0000
00000080: 0000 0000 0000 0000 0000 0000 0000 0000
00000090: 0000 0000 0000 0000 0000 0000 0000 0000
000000a0: 0000 0000 0000 0000 0000 0000 0000 0000
000000b0: 0000 0000 0000 0000 0000 0000 0000 0000
000000c0: 0000 0000 0000 0000 0000 0000 0000 0000
000000d0: 0000 0000 0000 0000 0000 0000 0000 0000
000000e0: 0000 0000 0000 0000 0000 0000 0000 0000
000000f0: 0000 0000 0000 0000 0000 0000 0000 0000
00000100: 0000 0000 0000 0000 0000 0000 0000 0000
00000110: 0000 0000 0000 0000 0000 0000 0000 0000
00000120: 0000 0000 0000 0000 0000 0000 0000 0000
00000130: 0000 0000 0000 0000 0000 0000 0000 0000
00000140: 0000 0000 0000 0000 0000 0000 0000 0000
00000150: 0000 0000 0000 0000 0000 0000 0000 0000
00000160: 0000 0000 0000 0000 0000 0000 0000 0000
00000170: 0000 0000 0000 0000 0000 0000 0000 0000
00000180: 0000 0000 0000 0000 0000 0000 0000 0000
00000190: 0000 0000 0000 0000 0000 0000 0000 0000
000001a0: 0000 0000 0000 0000 0000 0000 0000 0000
000001b0: 0000 0000 0000 0000 0000 0000 878b a7b8
000001c0: 5100 8b3a a261 66b9 5429 623a bf74 0dba
000001d0: a8cd 46b9 9255 813a 589a 483b 0afe bbba
000001e0: 1e3a 4b38 a5b8 eab9 dfe9 37bb eebf cd3a
000001f0: 64c3 103b 9214 0a3b c13f 00bb 042a 6bbb
00000200: 7c34 b03b e8db 12bb b067 47bb 02b8 ab3b
00000210: 585e 48bb 23e2 5ebb 939f f63a f150 5639
00000220: 771a 93ba 2907 52bb 0000 0000 0000 0000
00000230: 0000 0000 0000 0000 0000 0000 0000 0000
00000240: 0000 0000 0000 0000 0000 0000 0000 0000
00000250: 0000 0000 0000 0000 0000 0000 0000 0000
00000260: 0000 0000 0000 0000 0000 0000 0000 0000
00000270: 0000 0000 0000 0000 0000 0000 0000 0000
00000280: 0000 0000 0000 0000 0000 0000 0000 0000
00000290: 0000 0000 0000 0000 0000 0000 0000 0000
000002a0: 0000 0000 0000 0000 0000 0000 0000 0000
000002b0: 0000 0000 0000 0000 0000 0000 0000 0000
000002c0: 0000 0000 0000 0000 0000 0000 0000 0000
000002d0: 0000 0000 0000 0000 0000 0000 0000 0000
000002e0: 0000 0000 0000 0000 0000 0000 0000 0000
000002f0: 0000 0000 0000 0000 0000 0000 0000 0000
00000300: 0000 0000 0000 0000 0000 0000 0000 0000
00000310: 0000 0000 0000 0000 0000 0000 0000 0000
00000320: 0000 0000 0000 0000 0000 0000 0000 0000
00000330: 0000 0000 0000 0000 0000 0000 0000 0000
00000340: 0000 0000 0000 0000 0000 0000 0000 0000
00000350: 0000 0000 0000 0000 0000 0000 0000 0000
00000360: 0000 0000 0000 0000 0000 0000 0000 0000
00000370: 0000 0000 0000 0000 1c39 933a 81a9 c739
00000380: 496f ab39 5186 12ba 206e 87b9 4228 ad3a
00000390: 92c8 ff38 d20a 0eb9 97e8 27b7 149f 8239
000003a0: 565b 62b9 8925 a1b8 7feb 53ba 0040 6ebb
000003b0: 1717 4bba 0c3b d83a 0f42 cbbb cf5a d03a
000003c0: 5562 853a 8228 3a3b 1740 7dbb 6a1d 15bc
000003d0: c3b6 89ba bee3 0bbb 4fb4 35bb 8b58 533c
000003e0: 99a6 64ba 0000 0000 0000 0000 0000 0000
000003f0: 0000 0000 0000 0000 0000 0000 0000 0000
-0.00027188397 -0.00090801495 0.00021485951 -0.00027450247 0.0014405155 0.0025082685 -0.0009327868 0.0004713142
0.0005001479 -2.6711339e-06 0.0007441334 -0.00079072925 -0.0008495393 -0.0021252015 -0.0004182575 0.0005918453
-0.0023229085 0.0032641503 -0.00081446336 0.000657379 -0.0009732959 -0.0010692598 -0.0017889201 0.0018804563
-0.0010506888 0.00040462267 -0.00034331248 0.0 0.0 0.0 0.0 0.0
0.0 0.0 0.0 0.0 0.0 0.0 0.0 0.0
0.0 0.0 0.0 0.0 0.0 0.0 0.0 0.0
0.0 0.0 0.0 0.0 0.0 0.0 0.0 0.0
0.0 0.0 0.0 0.0 0.0 0.0 0.0 0.0
0.0 0.0 0.0 0.0 0.0 0.0 0.0 0.0
0.0 0.0 0.0 0.0 0.0 0.0 0.0 0.0
0.0 0.0 0.0 0.0 0.0 0.0 0.0 0.0
0.0 0.0 0.0 0.0 0.0 0.0 0.0 0.0
0.0 0.0 0.0 0.0 0.0 0.0 0.0 0.0
0.0 0.0 0.0 0.0 0.0 0.0 0.0 -7.9891695e-05
0.0010604953 -0.0002197088 0.0008627374 -0.00053961197 -0.00018959364 0.0009867421 0.0030609574 -0.0014342677
4.8453097e-05 -0.0004476953 -0.0028062982 0.0015697458 0.0022089118 0.002106939 -0.001956925 -0.0035883198
0.0053773504 -0.0022408906 -0.0030426793 0.0052404413 -0.0030573811 -0.00340093 0.0018815867 0.00020438783
-0.0011223097 -0.0032047725 0.0 0.0 0.0 0.0 0.0 0.0
0.0 0.0 0.0 0.0 0.0 0.0 0.0 0.0
0.0 0.0 0.0 0.0 0.0 0.0 0.0 0.0
0.0 0.0 0.0 0.0 0.0 0.0 0.0 0.0
0.0 0.0 0.0 0.0 0.0 0.0 0.0 0.0
0.0 0.0 0.0 0.0 0.0 0.0 0.0 0.0
0.0 0.0 0.0 0.0 0.0 0.0 0.0 0.0
0.0 0.0 0.0 0.0 0.0 0.0 0.0 0.0
0.0 0.0 0.0 0.0 0.0 0.0 0.0 0.0
0.0 0.0 0.0 0.0 0.0 0.0 0.0 0.0
0.0 0.0 0.0 0.0 0.0 0.0 0.001123223 0.00038082528
0.00032698576 -0.0005589473 -0.00025831256 0.001321085 0.00012196707 -0.00013546206 -1.000813e-05 0.00024914055
-0.00021587065 -7.68407e-05 -0.0008084103 -0.0036354065 -0.0007747276 0.001649709 -0.006202943 0.0015896204
0.00101764 0.0028405492 -0.0038642937 -0.009101251 -0.0010506738 -0.0021345462 -0.002772588 0.012899528
-0.0008722335 0.0 0.0 0.0 0.0 0.0 0.0 0.0

exp_avg_sq f4 [64, 111]
00000000: bccd 9137 eed2 0638 fd98 b235 8fe0 f435
00000010: 0c7b 9e37 ef0a cb37 bc75 8d37 54d6 dc37
00000020: dd82 2b37 ae70 8b37 17b3 3437 3c0a d637
00000030: a255 9937 155e f739 c361 9438 b0be 9838
00000040: 0ab3 bc38 d95c ca38 485f aa38 9b20 5039
00000050: b699 d938 142f fd39 13ab e037 1586 b838
00000060: 32da 3238 63e5 083a 1a36 2a39 0000 0000
00000070: 0000 0000 0000 0000 0000 0000 0000 0000
00000080: 0000 0000 0000 0000 0000 0000 0000 0000
00000090: 0000 0000 0000 0000 0000 0000 0000 0000
000000a0: 0000 0000 0000 0000 0000 0000 0000 0000
000000b0: 0000 0000 0000 0000 0000 0000 0000 0000
000000c0: 0000 0000 0000 0000 0000 0000 0000 0000
000000d0: 0000 0000 0000 0000 0000 0000 0000 0000
000000e0: 0000 0000 0000 0000 0000 0000 0000 0000
000000f0: 0000 0000 0000 0000 0000 0000 0000 0000
00000100: 0000 0000 0000 0000 0000 0000 0000 0000
00000110: 0000 0000 0000 0000 0000 0000 0000 0000
00000120: 0000 0000 0000 0000 0000 0000 0000 0000
00000130: 0000 0000 0000 0000 0000 0000 0000 0000
00000140: 0000 0000 0000 0000 0000 0000 0000 0000
00000150: 0000 0000 0000 0000 0000 0000 0000 0000
00000160: 0000 0000 0000 0000 0000 0000 0000 0000
00000170: 0000 0000 0000 0000 0000 0000 0000 0000
00000180: 0000 0000 0000 0000 0000 0000 0000 0000
00000190: 0000 0000 0000 0000 0000 0000 0000 0000
000001a0: 0000 0000 0000 0000 0000 0000 0000 0000
000001b0: 0000 0000 0000 0000 0000 0000 0325 4537
000001c0: dde1 ab37 8b95 4235 9351 9335 46b3 4837
000001d0: 3822 8837 3a3f df36 2f42 ac37 6bf9 eb36
000001e0: 2d8f 3637 8102 ec36 3d7d a937 2060 4437
000001f0: cd2d a439 d56b 4c38 a5fe 4c38 9bfc 5238
00000200: 4540 7038 2f99 4538 011d 0d39 d997 6f38
00000210: 2b69 5339 efd4 f637 a97d 8038 dc01 e837
00000220: e001 6739 7245 0439 0000 0000 0000 0000
00000230: 0000 0000 0000 0000 0000 0000 0000 0000
00000240: 0000 0000 0000 0000 0000 0000 0000 0000
00000250: 0000 0000 0000 0000 0000 0000 0000 0000
00000260: 0000 0000 0000 0000 0000 0000 0000 0000
00000270: 0000 0000 0000 0000 0000 0000 0000 0000
00000280: 0000 0000 0000 0000 0000 0000 0000 0000
00000290: 0000 0000 0000 0000 0000 0000 0000 0000
000002a0: 0000 0000 0000 0000 0000 0000 0000 0000
000002b0: 0000 0000 0000 0000 0000 0000 0000 0000
000002c0: 0000 0000 0000 0000 0000 0000 0000 0000
000002d0: 0000 0000 0000 0000 0000 0000 0000 0000
000002e0: 0000 0000 0000 0000 0000 0000 0000 0000
000002f0: 0000 0000 0000 0000 0000 0000 0000 0000
00000300: 0000 0000 0000 0000 0000 0000 0000 0000
00000310: 0000 0000 0000 0000 0000 0000 0000 0000
00000320: 0000 0000 0000 0000 0000 0000 0000 0000
00000330: 0000 0000 0000 0000 0000 0000 0000 0000
00000340: 0000 0000 0000 0000 0000 0000 0000 0000
00000350: 0000 0000 0000 0000 0000 0000 0000 0000
00000360: 0000 0000 0000 0000 0000 0000 0000 0000
00000370: 0000 0000 0000 0000 ec86 2c37 f2f6 5438
00000380: 95ce ad35 84ce e235 afff a337 3276 1b38
00000390: 35ad 1a37 57c0 0738 e014 8837 09f4 d937
000003a0: da3e 8137 d47c 0438 6fab 4138 b3d8 5b3a
000003b0: aeea ef38 5cb9 1039 a0e7 1f39 00c5 4939
000003c0: 68c0 ad38 5d3e ac39 178f 8438 4861 793a
000003d0: f452 6e38 7ae5 0a39 0e56 9938 1181 753a
000003e0: d409 c439 0000 0000 0000 0000 0000 0000
000003f0: 0000 0000 0000 0000 0000 0000 0000 0000
1.738115e-05 3.2144533e-05 1.3306559e-06 1.8244772e-06 1.8892366e-05 2.4204577e-05 1.6863334e-05 2.6325848e-05
1.0222863e-05 1.6622562e-05 1.0770534e-05 2.5515554e-05 1.8278897e-05 0.00047181608 7.0753995e-05 7.283443e-05
8.997887e-05 9.649405e-05 8.123979e-05 0.00019848572 0.00010375997 0.00048290996 2.6782544e-05 8.7987784e-05
4.2641717e-05 0.00052221696 0.00016232618 0.0 0.0 0.0 0.0 0.0
0.0 0.0 0.0 0.0 0.0 0.0 0.0 0.0
0.0 0.0 0.0 0.0 0.0 0.0 0.0 0.0
0.0 0.0 0.0 0.0 0.0 0.0 0.0 0.0
0.0 0.0 0.0 0.0 0.0 0.0 0.0 0.0
0.0 0.0 0.0 0.0 0.0 0.0 0.0 0.0
0.0 0.0 0.0 0.0 0.0 0.0 0.0 0.0
0.0 0.0 0.0 0.0 0.0 0.0 0.0 0.0
0.0 0.0 0.0 0.0 0.0 0.0 0.0 0.0
0.0 0.0 0.0 0.0 0.0 0.0 0.0 0.0
0.0 0.0 0.0 0.0 0.0 0.0 0.0 1.17507325e-05
2.0489964e-05 7.2488245e-07 1.0976095e-06 1.1962669e-05 1.6228398e-05 6.6532784e-06 2.0534817e-05 7.032582e-06
1.0881381e-05 7.0336396e-06 2.0204689e-05 1.1704891e-05 0.00031314642 4.8737817e-05 4.8874546e-05 5.030316e-05
5.7280315e-05 4.7111123e-05 0.00013457613 5.712346e-05 0.00020161706 2.942464e-05 6.126922e-05 2.7657421e-05
0.00022030575 0.00012614371 0.0 0.0 0.0 0.0 0.0 0.0
0.0 0.0 0.0 0.0 0.0 0.0 0.0 0.0
0.0 0.0 0.0 0.0 0.0 0.0 0.0 0.0
0.0 0.0 0.0 0.0 0.0 0.0 0.0 0.0
0.0 0.0 0.0 0.0 0.0 0.0 0.0 0.0
0.0 0.0 0.0 0.0 0.0 0.0 0.0 0.0
0.0 0.0 0.0 0.0 0.0 0.0 0.0 0.0
0.0 0.0 0.0 0.0 0.0 0.0 0.0 0.0
0.0 0.0 0.0 0.0 0.0 0.0 0.0 0.0
0.0 0.0 0.0 0.0 0.0 0.0 0.0 0.0
0.0 0.0 0.0 0.0 0.0 0.0 1.0283413e-05 5.0774725e-05
1.2949628e-06 1.6898416e-06 1.9550176e-05 3.7064958e-05 9.219443e-06 3.236564e-05 1.6222184e-05 2.5982054e-05
1.5407266e-05 3.1587508e-05 4.6174446e-05 0.0008386478 0.000114401206 0.00013801962 0.00015249709 0.00019242242
8.285121e-05 0.0003285286 6.320903e-05 0.0009513092 5.6820878e-05 0.00013246192 7.3116375e-05 0.00093652407
0.00037391356 0.0 0.0 0.0 0.0 0.0 0.0 0.0
