drl/ran2/Ant60000_ran2_weights.pth (torch, 292784 bytes, 36 tensors)

log_std f4 [1, 8]
00000000: ae43 b1bf 2ea5 f0bf a3a9 94bf cb5e b0bf
00000010: c621 b1bf 7ff2 bfbf 7e1a a3bf 2ad1 c3bf
-1.3848779 -1.8800409 -1.1614269 -1.3778929 -1.3838432 -1.4995879 -1.274246 -1.5298207

fc1.weight f4 [64, 111]
00000000: 7d09 b1be e1f0 3abd a0e1 e03d 8905 a8bc
00000010: 8964 ea3d 5f71 22be 810e f3bb 77a0 4a3d
00000020: b32c 863d 39e5 ff3c f5c1 7fbe a6ae 5dbe
00000030: 8c72 9c3d 2e4e dfbd ec14 19bb 3c08 923c
00000040: 524e 5f3d a284 183c aa44 b5bd 6c9e 23bd
00000050: 95d5 ccbd 8e55 31bc 2e93 15be 673f 9ebc
00000060: a30a 8ebc 9d59 ddbb 9567 0b3e ee4f ffbb
00000070: 581d 0ebd 1287 683d 2154 8dbd 1dc9 cabc
00000080: 9740 8a3d 0bda c13d a3b8 ee3d 087f 31be
00000090: b837 efbd 31e0 213c 0145 a73d 989d 9abd
000000a0: 7d83 11be 30b3 c53d 7c43 54bc 6be8 0fbe
000000b0: a561 223d 067a 923c f9e5 ca3d 397c 46bb
000000c0: 2dba 02bd d672 09be 770e cabd 9ca3 eb3c
000000d0: 89c0 c3bd 1c0c 64bd 0a22 8a3d bbcc 983c
000000e0: bda1 60bd 1e71 8f3c 833b 55be 012d 1ebd
000000f0: 5a35 a73d 3922 edbb cd5d eb3d ebb0 e4bd
00000100: fd63 7c3c d4cd 303e 9d31 8cbe f627 98bc
00000110: 57d2 a93d 0664 383d ef1c 663d 1b03 debd
00000120: f7e4 463d c764 c1bd 3454 08bd 65a8 883d
00000130: b514 123d b2c6 cf3c 8c86 a4bd b64f 803d
00000140: cc80 0a3d 9bda ccbb 29bd 7a3c ca79 043d
00000150: 34d1 543e b385 fdbd fa76 4fbc 772d 003e
00000160: cf77 8bbd 3a0d 82bd f78e 823d 7717 553d
00000170: 3a85 bbbc 53ff 0c3e f277 26be 6e25 083e
00000180: a3e2 bab9 d33a b03d c5c7 c3bb 2d7a 0fbe
00000190: c506 d9bd b450 19bd d530 cc3d 41a5 193e
000001a0: 05b5 d8bc 0978 2cbe acf3 49bd 4b19 5e3c
000001b0: 481c e63d c4ef 87bc ce0d 5b3d 7046 7cbd
000001c0: 7895 53bd d671 30bf f68c 2c3e 21f4 88be
000001d0: f12e d63c e2bc 34be 6ded 503e 977b a53d
000001e0: 18f7 9abd 58b7 f63b 2319 18be b581 9ebd
000001f0: 596b 83bd f4e2 eebc 565d 0dbe 0652 cbbc
00000200: a98a 3c3d bd10 963b 25c7 93bd a532 9ebd
00000210: 2a62 c33d 7e12 f53c 09ea 12be 512f b83d
00000220: 7944 61bd 163b 93bd a4bc eebd c724 2dba
00000230: 6d40 88bd 8720 6abd 3c7f d33c 9cdd 513d
00000240: 132c 0bbe 956b 6cbd 15c9 c73d c286 cfbd
00000250: d918 1ebd 661d 2c3e 189c 74bd 2993 21bd
00000260: 562a b3bd 184b 36bd b70f 663e 1a54 313e
00000270: 3110 1e3d eed6 c3bd 54e7 d9bd b5c9 29be
00000280: b379 813d 9270 7ebd e9cb 013d 21d5 a4bc
00000290: 9219 e23d 032d 74bd f259 c2bc 95be 483e
000002a0: c846 793e 1f93 6c3d d7cc 70bd 7717 923d
000002b0: 6ac3 7abd 8e6a 423d 9948 353e 2cdc 18bd
000002c0: ebbe f9bc 7b4c 25be e69f bebb 1dbb b43c
000002d0: b470 6e3d caec c33c 2e12 883e 2e49 d83d
000002e0: b62b 4b3c c273 913c c2d8 debb 94ca 83bd
000002f0: 8938 5bbd 5636 cfbb 65b6 2f3e b3fd a23b
00000300: 7a9e 733d 8d8f 1d3d 78cd eabd e314 0dbe
00000310: 1191 acbd 7415 993d 6092 34bc 24d0 bc3d
00000320: 453d 803d 34a1 1ebd f38e 1dbd 5197 b03c
00000330: a4a2 ab3d f12e ed3c 6af7 203e 13c6 e73c
00000340: c395 1b3e fcec 463d 7f0d 3abd 693a 2c3e
00000350: c3af bab9 c931 d0bc ce4c 5b3d 1af1 8f3b
00000360: a988 9dbd 42bf 1e3d 22fd aa3c 475c 19bc
00000370: fe39 543d b9f7 6fbd 0911 93bd a4bc 09be
00000380: 5ea9 d13d b802 58bc f451 0f3f 0495 bf3d
00000390: 0598 88be c284 7e3e b20a 273e 3cfa 0e3e
000003a0: 6617 963e 9251 96be cf01 debc a743 45bd
000003b0: f518 28bd 6393 57bd 4a49 2dbd 296f 163d
000003c0: c171 b43c 070f 9e3d 46fb a1bc 0d70 bc3c
000003d0: 9896 d03c 1b70 143d cee0 9cbc 648e 3abe
000003e0: 4aa5 923d 7714 143d 0659 5e3d 5f4f c2bb
000003f0: 1c36 cb3c 2b76 fabd bc76 c4bc 4827 133d
-0.3457755 -0.045639876 0.109805346 -0.020510452 0.11444957 -0.1586356 -0.0074175005 0.049469437
0.065514944 0.031237232 -0.24976332 -0.21648654 0.076390356 -0.109035835 -0.0023358418 0.017826192
0.05451805 0.009308966 -0.08850987 -0.039946005 -0.10001675 -0.0108236205 -0.14606926 -0.019317342
-0.017339056 -0.0067550675 0.13613732 -0.007791511 -0.034695953 0.056769438 -0.06900812 -0.024754101
0.06750601 0.094654165 0.116563104 -0.17333615 -0.116805494 0.009880112 0.08167458 -0.0754959
-0.14210315 0.09653318 -0.012955543 -0.14053504 0.039643902 0.017880451 0.09907145 -0.0030286445
-0.031915832 -0.13422713 -0.0986604 0.028764538 -0.095582075 -0.05567561 0.06744774 0.01865231
-0.054841746 0.017509993 -0.20823483 -0.038617138 0.08164473 -0.0072367457 0.114925005 -0.11166557
0.015404698 0.17266017 -0.27381602 -0.018573742 0.08292072 0.045017265 0.056179937 -0.10840436
0.0485582 -0.0944305 -0.033283427 0.06672744 0.03566428 0.0253633 -0.08033475 0.06265204
0.033814237 -0.0062516457 0.015303888 0.03234271 0.2078293 -0.12379017 -0.012662644 0.12517343
-0.06809961 -0.06350179 0.06374925 0.05202433 -0.022890676 0.13769273 -0.16256693 0.13295528
-0.00035645542 0.0860497 -0.005974742 -0.1401145 -0.10596994 -0.03743048 0.099702515 0.15004446
-0.026453504 -0.16842665 -0.04930465 0.013555835 0.11235863 -0.016593821 0.053479962 -0.061590612
-0.051656216 -0.689237 0.16850647 -0.26748756 0.02614543 -0.17650178 0.20403071 0.080802135
-0.07566661 0.0075291805 -0.14853339 -0.077395834 -0.06416959 -0.029160954 -0.13805136 -0.024819385
0.046030674 0.004579632 -0.07215718 -0.077245034 0.09540208 0.029916044 -0.1434709 0.089934
-0.05499694 -0.07189004 -0.11657074 -0.00066049065 -0.06652913 -0.057159927 0.025817506 0.051236734
-0.13591032 -0.057719786 0.0975515 -0.10133125 -0.038597915 0.1680809 -0.059719175 -0.039446983
-0.08748309 -0.04450521 0.22466932 0.17317238 0.03858966 -0.09562479 -0.106398255 -0.16580851
0.063220404 -0.062119074 0.031688605 -0.020121159 0.110400334 -0.05961324 -0.02372453 0.19603951
0.24343407 0.057757493 -0.0587891 0.07133382 -0.061221518 0.0474649 0.17703475 -0.037319347
-0.030486545 -0.16142456 -0.005817401 0.022061879 0.05821295 0.02391662 0.2657637 0.10560833
0.012400558 0.017755393 -0.006800742 -0.06435123 -0.053520713 -0.006323616 0.17159422 0.004974091
0.059477307 0.03846698 -0.11464971 -0.13777499 -0.08426107 0.07474795 -0.011021227 0.09219387
0.06261686 -0.038727954 -0.038466405 0.021556528 0.083806306 0.028953047 0.15719381 0.028292691
0.15193848 0.04856585 -0.045423027 0.16819157 -0.00035607637 -0.025414364 0.053540044 0.004392755
-0.076920815 0.038756616 0.020872656 -0.00936038 0.05181312 -0.058585856 -0.071809836 -0.13450867
0.10237382 -0.013184242 0.55984426 0.09354594 -0.26678482 0.2485533 0.16312674 0.13962644
0.29314727 -0.29359108 -0.027100472 -0.04816022 -0.041039426 -0.052630793 -0.042306222 0.036727104
0.022026898 0.0771771 -0.019773137 0.023002649 0.025462434 0.036239725 -0.019150164 -0.1821838
0.07160433 0.03615233 0.054284118 -0.005929872 0.024806075 -0.1222957 -0.023982398 0.035926133

fc1.bias f4 [64]
00000000: d216 38bc 7ae8 17bd cf95 0bbe f844 dcbd
00000010: ce03 1cbe 4bc5 32bc c89a 0d3c 02eb 473d
00000020: 6d6a ccbd 7abc 3ebd 0423 693c 242c a3bd
00000030: c3a7 68bd a143 013c 18ed 123c 4dc2 973d
00000040: 0e4f 67bd e7a9 5abd fa08 803d b755 c73d
00000050: 5513 2d3e 105a eabc 9ca1 cdbd 0e69 a63d
00000060: 1aa8 bd3d 2fc9 083e 117f 103d 35ae 1abd
00000070: fcf3 d7bc 9526 d8ba 558a 68bc f846 83bd
00000080: 9cee 41bd 6dab af3c 814c 183d f876 6a3a
00000090: 3180 943d 07e2 9e3a a990 893c 9d09 a93d
000000a0: 6878 b4bc debf b33d fb81 873b 5220 27bc
000000b0: bae3 06bd 7547 1f3e 4333 c5bd 4ee3 2a3d
000000c0: af7e e3bc bec3 c63d 383b 5bbe 0e57 143e
000000d0: 0647 13be 976d 903c 8aa0 9e3c 9744 243e
000000e0: e4a8 6cbb 9293 3b3d 6658 ef3c 581a 813b
000000f0: e820 27bd 16e6 0a3d c662 2a3d afac 5cbe
-0.01123591 -0.03708694 -0.13631366 -0.10755342 -0.15235826 -0.010911296 0.00864286 0.048808105
-0.099812366 -0.046566464 0.01422954 -0.079674035 -0.056800615 0.007889659 0.00896766 0.07410107
-0.056471877 -0.053384688 0.06251712 0.09733146 0.16901906 -0.028607398 -0.1004059 0.08125506
0.092605785 0.13357995 0.03527743 -0.037763793 -0.026361458 -0.001649099 -0.014193137 -0.064100206
-0.047346696 0.021444047 0.037182335 0.00089441193 0.07251013 0.0012121805 0.016792612 0.08253787
-0.02203007 0.0877683 0.004135368 -0.010200577 -0.03293202 0.15554602 -0.09628918 0.04172068
-0.027770368 0.097053036 -0.21409309 0.14486334 -0.14382562 0.017630382 0.01936366 0.1604179
-0.003611141 0.04579503 0.029216956 0.003939908 -0.040802866 0.033910833 0.041598104 -0.21550249

fc2.weight f4 [64, 64]
00000000: 87af b23d 46c4 61bd 7914 21be 498f 12bd
00000010: 3a6a 5a3e 6c15 da3a b2fc 893e 2981 a4bd
00000020: 9bbc 223d ae78 983e 41a6 44ba cdb5 913d
00000030: 14d6 07be 43d1 b7be ad57 a13c 8785 4fbd
00000040: 6290 6d3e d6bf 65bd fc75 e03d 7f04 e2bd
00000050: 6c35 3bbc 43fc a7bd ade6 43be 8a3b ae3d
00000060: c30c 9a3d a079 783e 8b55 06bd f174 b83d
00000070: 1c4c 14be 7b1c 91bd 42f4 afbc 6f28 59be
00000080: 7696 193d ddfa 033e f372 2a3a eb86 6fbd
00000090: c761 bb3d d562 ad3d fc32 bb3e 8e62 d3bd
000000a0: 2efb 6e3e 81b8 323d b48e e8bd 5504 6f3e
000000b0: 4026 003e fcec acbd 50d3 4c3e 4b9d b2bd
000000c0: 702d 013e 7408 8bbd c5a4 c73d 313f 983d
000000d0: 49bf f43c deb8 84be 5d16 06be b2f5 ad39
000000e0: a98a 53bd 6bba 40be 1fad 773e f585 2bbe
000000f0: 6eba fbbc e9f4 68be dd76 27be e96e ad3d
00000100: 0dfd 4f3c 41c7 e63e 3f7e 7ebe 1aa7 373e
00000110: d890 58bb 5de5 6ebd ba57 993e e6a3 293e
00000120: 4d07 e33d 85de 143e ee70 253c 805e bbbd
00000130: 8028 3bbe 7aed ba3b 3de1 e23d aec9 a53d
00000140: 390d 12be 862f 14be ba20 073d 4234 37be
00000150: 6cc8 a53b 4dea 04be ed28 e73c f8cc 173d
00000160: 8358 d8bd a8ab 22be 777c c93c 586f d7bd
00000170: 2017 783a e575 80bd a5b1 e33d 3ed5 9d3d
00000180: 55a2 eabd 8e11 303c 65f9 11be 92f3 74bd
00000190: 701d 253e 55b2 0e3e 5ccf 823d 6e33 3cbe
000001a0: 6667 16bd 0c6c beba b44e cf3d 28c6 18be
000001b0: e744 91bc b81c 7aba eeb5 19be 7e27 c5bd
000001c0: 6d9c 85bb e4fc d5bd dbac e83c 6368 953d
000001d0: 4ddf 9a3d 34ea d9bd 786e d9bd d259 95bd
000001e0: 1266 9e3e 0b91 0e3e 4c56 69bd 3e4f 123e
000001f0: 6bbf 633d 07c1 68bd 1681 dfbd 703d 813e
00000200: 55d1 82be 8b23 55bd fc7c 00be 8812 afbd
00000210: 50b9 acb9 739f 723d 8b73 98bc b5e0 ddbd
00000220: f639 a6bd 1f84 1d3e af5f f8bd 6dcf 0cbe
00000230: 274c 463d 84b5 c23d e6a4 d13c f4d6 853d
00000240: 7c2c 8bbe 455a 18be 03d5 fd3e e32b 8f3c
00000250: 491d e63d f4f7 3cbe 9573 a0bd 891c 4bbd
00000260: 5dd0 3e3e aa42 cd3d 67dd 4d3d 0e46 11be
00000270: ac01 32bc 146d 35bd 0d33 6e3d ee24 223d
00000280: bea8 8c3d 2732 113e 6bf5 a63d 6a30 b4bc
00000290: ff80 34be cce4 3cbd 95b3 5b3c f155 88be
000002a0: f2e3 cb3b 3e08 813e bb8f 92be 5cf3 8bbd
000002b0: cee6 593e b451 20be 0e4e 3a3e 1dcb 463e
000002c0: cac3 533c c6ca 823d 6dcd 00be 1f02 87bd
000002d0: d2ee b1bd 9f34 433d 32a4 643d 5970 5dbc
000002e0: 5c47 7ebe d385 d93c 363d 513d bc37 923d
000002f0: fe42 073e 8926 3d3e c0fa 0fbe 6394 d1bd
00000300: fc9a bdbc 1199 143d 26f8 00bc 7f3c 1bbe
00000310: 7bfc 9bbe 27f2 953d 909b d6bd 1699 16bd
00000320: 78b2 263e 779c 923e b82d b7bc 166b 903e
00000330: bb39 42be 5457 8e3d bb13 9d3e 5422 80bd
00000340: 25f9 0d3b f860 3c3d 9823 01bd bc3c 96be
00000350: 8de0 2c3d e813 f43c 0ac6 d23d 9ec8 0abe
00000360: bd4b 88bc f333 2a3e 84ae 553d 764e a4be
00000370: adc5 77be 0dba 6e3d bc2d 593b 5c90 87bc
00000380: 6401 933d 68f8 9fbd c5eb f6bd 1c46 473e
00000390: ecad b5bd 2561 c13d 7f23 46bd cea0 14be
000003a0: e6b2 e7bb 5625 07bd 3d9b 56be b014 a43d
000003b0: 3557 4f3e 087a 9b3d f338 39be cc5a 223c
000003c0: 537f 80be 7332 3a3d ae20 ee3d 39f9 e03c
000003d0: d658 123b a808 b4bd 569a 1f3e 09b3 12bd
000003e0: 3476 16bd aefb 89bd 9074 b13e b560 6cbd
000003f0: 4f7e 93be f515 85be ac17 82bd 76c5 0cbd
0.087248854 -0.05511882 -0.15730466 -0.03578118 0.21329585 0.0016638464 0.26950604 -0.08032448
0.03973065 0.2977957 -0.00075015804 0.07114754 -0.13265258 -0.35901842 0.019695127 -0.05066445
0.23199609 -0.056091152 0.10960004 -0.11036014 -0.011426311 -0.08202412 -0.19130965 0.0850745
0.07521965 0.24265146 -0.032796424 0.0900668 -0.14482158 -0.0708551 -0.021478776 -0.2120683
0.037497006 0.12888665 0.0006502114 -0.058478277 0.09149509 0.08466116 0.36562335 -0.10321532
0.23338005 0.043632988 -0.113553435 0.23341496 0.12514591 -0.08443639 0.20002484 -0.087214075
0.1261499 -0.06788722 0.09748224 0.07433928 0.029876368 -0.25922292 -0.13094468 0.0003318019
-0.05164591 -0.18821113 0.24187134 -0.1675032 -0.030728545 -0.22749676 -0.16353936 0.0846842
0.012694609 0.45073894 -0.24852847 0.17934838 -0.0033045318 -0.058324207 0.29949743 0.16566429
0.11085377 0.1453801 0.010097725 -0.09148884 -0.18277168 0.005704579 0.11078117 0.08095108
-0.14262857 -0.14471254 0.032990195 -0.17891029 0.0050592925 -0.12980004 0.028217757 0.037060708
-0.10563757 -0.15885794 0.024595482 -0.10519284 0.0009463895 -0.062724866 0.111178674 0.07706688
-0.11456744 0.010746373 -0.14255293 -0.0598026 0.16124511 0.13935216 0.06387207 -0.18378994
-0.036719702 -0.001452805 0.10122433 -0.1491934 -0.01773305 -0.00095410226 -0.15010807 -0.09626673
-0.0040774853 -0.10448626 0.028402736 0.07295301 0.075621225 -0.10640374 -0.10616773 -0.072925225
0.30937248 0.13922517 -0.056967065 0.14288041 0.055602472 -0.05682471 -0.10913293 0.25242186
-0.25550333 -0.05203585 -0.12547678 -0.085484564 -0.00032944465 0.059234094 -0.018609783 -0.10833875
-0.08116524 0.15382431 -0.12127625 -0.13751002 0.04841247 0.095072776 0.025591325 0.0653514
-0.27182376 -0.14878185 0.49576578 0.017476982 0.112360545 -0.18453962 -0.078345455 -0.04958776
0.18634172 0.10022481 0.050259974 -0.1418688 -0.010864656 -0.044293478 0.058154155 0.039586
0.068681225 0.14179288 0.081522785 -0.021995742 -0.17627333 -0.046116635 0.013409515 -0.26628068
0.0062222416 0.252016 -0.28625283 -0.068335265 0.21279451 -0.15656167 0.18193838 0.19413419
0.012925098 0.06386332 -0.12578364 -0.065922014 -0.086881295 0.047657605 0.05582065 -0.013515555
-0.24831909 0.02655307 0.051083766 0.07139537 0.13209149 0.18471731 -0.14060497 -0.10233381
-0.023145191 0.036278788 -0.007871663 -0.15159796 -0.30466065 0.073215775 -0.1047889 -0.036767088
0.16279018 0.28634998 -0.022360668 0.282067 -0.18967335 0.0695025 0.30679116 -0.062565476
0.0021663394 0.045990914 -0.031528085 -0.29343212 0.042206336 0.029794648 0.10291679 -0.13553092
-0.016637677 0.1662138 0.052168384 -0.3209111 -0.24196501 0.0582829 0.0033138832 -0.016548328
0.071779996 -0.078110516 -0.12056688 0.19460338 -0.088710636 0.09442357 -0.048373695 -0.14514467
-0.007070887 -0.03299459 -0.20957656 0.08011758 0.2024811 0.07591635 -0.1808813 0.009909343
-0.2509714 0.04545827 0.11627327 0.027462589 0.0022330782 -0.087907135 0.15586218 -0.035815272
-0.03673382 -0.06737457 0.34659243 -0.057709415 -0.28807303 -0.25993314 -0.06352171 -0.034368

fc2.bias f4 [64]
00000000: 572a a13c f528 03bd 92cf 433d c99b d9bd
00000010: 1b62 81bc 28d1 b73d d193 1f3e a048 8b3d
00000020: dc64 c2bc 42da c53c 949c a0bb e352 44bd
00000030: 4f8a 77bc 8567 203d 03dc 8d3d 541d 0e3e
00000040: 24d7 9c3d 7c53 043e eafe 86bd f6df 99bd
00000050: 7a6e dfbc b20a 54bc 2190 153b 400d ef3c
00000060: aa10 80bd a330 cfbc 47b8 92bd 681f f13c
00000070: 5d77 89bb edaa 363c 670c ecbc 695f 123c
00000080: 6518 5f3d 1d29 cf3c a993 e73c 8d46 513d
00000090: ea88 f33c 05bb 09bd 6548 c33d 235a 39bd
000000a0: a1f2 9fbd 33cb 313d fc21 8f3d 959b 383e
000000b0: 603e dbbc 2e60 99bd 7ce8 ffbc 35c2 8a3d
000000c0: 93d3 013d 0298 883d 90ea 4abb 4f5b ab3c
000000d0: f717 1e3d ef7b e5bd 272e 243d 16f4 f23c
000000e0: 5bf5 043d 8877 0abe 01c8 623d 4fbd 023e
000000f0: 22c4 05bc ebd9 92bd fcd4 1a3e eb9c 043d
0.01967351 -0.03202148 0.047805376 -0.10625417 -0.01579385 0.0897544 0.15583731 0.068009615
-0.023729734 0.024151925 -0.004901478 -0.04793061 -0.015108659 0.039161224 0.069267295 0.13878375
0.07658222 0.12922472 -0.0659159 -0.0751342 -0.027274359 -0.012942003 0.0022821503 0.029181123
-0.062531784 -0.025291746 -0.07164054 0.029433921 -0.0041951374 0.01114915 -0.028814508 0.00893388
0.054466624 0.025288159 0.028268652 0.051092673 0.029728372 -0.03362562 0.095352925 -0.045251977
-0.0780995 0.043406677 0.06988904 0.180281 -0.026763141 -0.07489048 -0.031238787 0.06775323
0.031695914 0.06669618 -0.0030962564 0.020917563 0.038597073 -0.11205279 0.040083077 0.029657405
0.03246055 -0.1352216 0.05536652 0.12767528 -0.0081644375 -0.07170471 0.1512031 0.03237621

mu.weight f4 [8, 64]
00000000: f817 f73c 5a40 993d 40c4 2dbe f70c 02bd
00000010: fd1a 19be 550e 5dbd fa19 3c3e 34fc 1c3e
00000020: 10a2 8c3d 7c84 f8bd 084f cabd 278f 5fbd
00000030: 31ca f5bc 8efb 483e 834e fbbc 94e8 ad3d
00000040: 2882 633b 65c4 0fbe 66eb 8abe 8c5f a4be
00000050: 0c75 acbd 71e5 b1bd fdba 003d 91ab 9c3d
00000060: 93b6 64be d875 b43d 4d11 14be e6a9 cdbd
00000070: 1038 373e a6e0 993c 9264 83bc 30e1 eb3d
00000080: b762 58be 3b93 3dbd 4ad8 ff3d 6c1c aebd
00000090: fac2 813e 4c8d 50be 9ad4 ca3d 07a4 50bd
000000a0: 4837 babc 08cb 8ebe 7cc8 22be 8a4f 27be
000000b0: c365 cebe d863 e7bd e070 f83d a38a cfbe
000000c0: f1bb 4a3e 142e 993d c25a fdbd e588 a53d
000000d0: 63dc ae3e 4b48 283d 9d59 2f3e 0842 a23e
000000e0: e5b1 e33d 9d34 f4ba 92db 5bbe 041e c83b
000000f0: 8ca5 edbc 31d3 28be 1d90 18be 579f c63c
00000100: 46f8 97bc b760 1d3d 9585 973e 5126 d4bc
00000110: 0824 c1bd 1e70 2bbe 4d28 2b3d ba5a 2c3c
00000120: 6faa b2bd fb00 523e 084a 2f3e dfeb ccbb
00000130: 9649 0ebe b96d cf3d 7842 9a3d ef66 ea3d
00000140: 861a ac3d 82ff 4ebd 826e a3be 992b c2bc
00000150: 0ebd 3c3c 70d6 b33c 2b60 84be 4615 43bd
00000160: 268d 653c e9ac d33d 15bd d63d c0f8 e53d
00000170: 828b 6cbc d05c a13c 27ae 853d c83b 93be
00000180: 093f 32bd d899 9bbd 73f4 48bd f1f9 103e
00000190: 2736 e1bd 7cf7 d03d 3f93 bfbd aac8 1e3e
000001a0: 515c 0c3d bc6a 643d f65e cfbc 4079 8dbe
000001b0: 4885 0c3e 8916 d13d c7c6 9d3a 8bac c73d
000001c0: b78d f3bd e53f 613c 0b38 33be 4ad9 94ba
000001d0: 3367 bdbd 1f76 173e 18dd e4bb c2e0 ff3c
000001e0: ddb8 edbd d5a5 c33d f34c 05be 5b4d 703e
000001f0: 0a19 1c3e 0c97 f73d e288 23be 98f3 253e
00000200: 1184 1b3e 3c39 893e c41b 3bbe 6788 d23d
00000210: c914 8e3d 9544 2b3e 3fc5 02bf f737 1bbe
00000220: 811b d5bd 5855 ea3d b261 6b3e e77c 873d
00000230: cb11 6abc 60a6 b73d 6b77 90bc 2e66 d73d
00000240: 986c 8bbd d598 96bd aca9 553d 0bff 743c
00000250: 8895 b83d 79d2 98bd d03a 15bd d998 b73d
00000260: 68db 52bc 21ab 2f3e d454 ea3d c05c d23e
00000270: 6ebc d3bd 72df 19be c381 51be 86e3 fe3c
00000280: 382d 37be b1a4 59be 46b9 88be b488 913e
00000290: 7327 4d3e ad0f db3d 541a 093e 4ca3 29be
000002a0: 4d12 a13c f1a2 ddbc 4884 703e c2ce a8be
000002b0: 09db d73d fd48 ef3c b992 593e a1e4 a6bc
000002c0: 706b 153e f01f 013d b396 733e 70ee 24be
000002d0: 8f4f 01bd 9cf9 59bc 8052 9cbd 91d9 5ebe
000002e0: fe35 383d d302 9a3d e122 663e 608f 013c
000002f0: 060d 40bd 6a58 ad3d ab7a 013e a020 23bd
00000300: 7f98 65be 2d65 e53d 867f 913d efa0 233e
00000310: f9bd 05be 9d70 7b3d 0af8 cf3d ab59 023e
00000320: 4847 18bc 1af8 bf3d f75a ecbd 4986 063e
00000330: df27 aebd ad13 5a3d 2bd4 80bd 04bc 04be
00000340: 90d6 21be 1fe4 ca3d 288f 28bd 7552 28be
00000350: 4ec4 013e 152d 95bd e630 24be 66a9 1dbd
00000360: 7248 813d 20e8 c0bc c99b 37bd 675c ab3c
00000370: 7930 003d bc15 c83d 079b f13d 2463 efbc
00000380: f23e dcbd 1dc7 0e3b 2a49 dbbd c349 1dbb
00000390: 6a43 423d 832b cbb9 ad31 c23d 22e7 ba3d
000003a0: 69f5 84bd ae4c af3a a850 da3d 485c 98bd
000003b0: 2de8 dcbd c62c 203e 9d1d 6e3d b5e5 263a
000003c0: e014 c33b 2a9a 28be f2cc 053c 1ed5 34bd
000003d0: 22d7 88bd c02f b43e 7149 023c 2abd 213c
000003e0: a934 8d3e 3fd3 35bc eb8f 40bd 8405 96be
000003f0: 9712 9fbd 71f1 7cbc 4b1f ce3d a061 153e
0.030162796 0.07482977 -0.16969395 -0.031750645 -0.14951701 -0.053968746 0.18369284 0.15330583
0.068668485 -0.121346444 -0.09878355 -0.05457988 -0.030003639 0.1962721 -0.030677086 0.084916264
0.003471503 -0.14039762 -0.2713272 -0.32104146 -0.084207624 -0.086863406 0.031428326 0.07649911
-0.22335272 0.088115394 -0.14459725 -0.10042171 0.1789248 0.018783879 -0.016039167 0.115175605
-0.21131407 -0.046282988 0.12492426 -0.08501515 0.25344068 -0.203664 0.09903832 -0.05093768
-0.022731438 -0.27889276 -0.15896791 -0.16338935 -0.40312013 -0.112983406 0.12130904 -0.4053546
0.19798256 0.07479492 -0.12370826 0.08082751 0.34152517 0.04108457 0.17124029 0.31691003
0.11117915 -0.0018631403 -0.21470478 0.0061070938 -0.029009603 -0.16486813 -0.14898725 0.024245901
-0.018551003 0.038422313 0.29594103 -0.025897177 -0.094307005 -0.16741988 0.04178648 0.010519678
-0.08723914 0.20508187 0.17118084 -0.006253704 -0.13895258 0.1012835 0.07532209 0.11445414
0.084034964 -0.05053664 -0.31920248 -0.02370243 0.0115196835 0.021952838 -0.2585462 -0.04762771
0.014010703 0.10335714 0.10485283 0.11229086 -0.014437558 0.019697577 0.065273575 -0.28756547
-0.043517146 -0.07597703 -0.04906125 0.14157845 -0.10996657 0.10203454 -0.09354257 0.15506235
0.034267727 0.055765852 -0.025313836 -0.2763157 0.13722718 0.10209376 0.001203739 0.09749707
-0.11892264 0.013748144 -0.17501847 -0.0011356261 -0.09248199 0.14791153 -0.0069843642 0.031235103
-0.116075255 0.09553114 -0.13017635 0.23467009 0.15243927 0.12089357 -0.15970185 0.16206205
0.15187098 0.2680148 -0.1827231 0.10279923 0.06937558 0.1672538 -0.51082224 -0.15158068
-0.104056366 0.11442059 0.22986487 0.0661562 -0.014286469 0.089672804 -0.017635068 0.10517536
-0.06807822 -0.07353369 0.052163765 0.014953385 0.09012896 -0.074620195 -0.03643304 0.089647
-0.012869693 0.17155124 0.11441961 0.41086388 -0.103386745 -0.15026644 -0.20459656 0.031114351
-0.17888343 -0.21254231 -0.26703852 0.2842461 0.2003458 0.10696349 0.1338895 -0.16566199
0.019662047 -0.027055236 0.23487961 -0.32970244 0.105398245 0.029209608 0.21247377 -0.02037269
0.14591765 0.0315246 0.23787956 -0.16106582 -0.031570014 -0.01330414 -0.07632923 -0.21762682
0.044973366 0.0752007 0.22474243 0.007907718 -0.04688742 0.08464129 0.1264445 -0.039826035
-0.22421454 0.112009384 0.07104401 0.1597936 -0.1306075 0.061386693 0.101547316 0.12729518
-0.0092943385 0.093734935 -0.11540788 0.13137163 -0.085036986 0.05324142 -0.06290468 -0.12962347
-0.15804505 0.09906792 -0.04115215 -0.16437705 0.1267254 -0.07283989 -0.16034278 -0.03849163
0.06312646 -0.023548186 -0.044826303 0.020918084 0.031296227 0.097697705 0.11797147 -0.029222079
-0.10754193 0.0021786161 -0.10707314 -0.0024000264 0.047427572 -0.00038751596 0.09482131 0.09126116
-0.06492121 0.0013374293 0.10659915 -0.07439476 -0.107864715 0.1564208 0.05813371 0.00063666265
0.005953416 -0.16465059 0.008166539 -0.044148557 -0.06681658 0.3519268 0.00795208 0.00987176
0.2757924 -0.011097728 -0.04701225 -0.29301083 -0.077672176 -0.0154384235 0.100645624 0.14588022

mu.bias f4 [8]
00000000: 6040 a83b 08a7 a1bd cf0f 5cbc 19ae 66bd
00000010: 7ae2 413d 5f99 e73d 05b9 a93c 4b7b ac3d
0.005134627 -0.07893187 -0.013431503 -0.056318376 0.047335126 0.1130855 0.020718107 0.08421954

fc1.weight f4 [64, 111]
00000000: 43d6 dcbe 368e 063f 8620 053f 8e76 8dbe
00000010: f52e 7dbd f8e9 ec3d 50b0 cf3d f066 033d
00000020: afbb efbd 43c8 19be f6d3 86bd 45d1 163d
00000030: ee91 1b3e 7cc9 4bbe 1c9f 89bd c329 37be
00000040: 5aca 82bd c742 6e3e c9b0 19be 331e ddbc
00000050: 041f 123d fe95 26bd 430e 9f3a 2feb dbbc
00000060: fb36 583b 5e1c e5bd 0597 d53c 37a9 bdbd
00000070: b579 82be 33c6 c1bd dd0d d53d ad1c 2e3e
00000080: b7d0 e33d baf3 153c 9dcf 8dbd f71d 133e
00000090: 6602 86bd cbe3 de3c c666 183d 705c 05bc
000000a0: 2e10 a4bd 290c 943d 4e6f 46be af9d d5bc
000000b0: ff6e 43be 3308 01bd 5acf d4bc a352 2cbe
000000c0: 8d87 9dbd 2ec7 0b3e 1637 cabd cf5d ba3d
000000d0: 6179 a1be 33f6 2c3d 3c49 a53d 90ce 1a3d
000000e0: 5700 b3bc b5b2 913d 3078 e6bd 838c 04be
000000f0: b854 34bd 39d5 943d 50fa c4bb 20c4 68bd
00000100: acd3 a13d 6438 8d3d b6b3 ebbd a8b5 8cbc
00000110: e387 c53d 3ae9 0c3e 6bd8 b63d 1bce b43c
00000120: 5020 a8bd 86de a2bd 8b8d a6bc 1a1b 6c3c
00000130: 3753 eebd 6f01 df3c 246c e53b 2909 b7bc
00000140: 2b18 dfbd 7164 c9bd 546b f73c 08de 713d
00000150: 2d3f 39be e4ea 293c 9e0a c3bd de0f 4ebc
00000160: 3aa7 6abd 7c3f 5c3e 48d7 3abe ebaa 2e3d
00000170: 795e 8cbd 7162 d23c 8832 e83d 8d9a 2fbc
00000180: 5a45 13bd 3c6e 873d ff19 79bd 2554 21bd
00000190: 7a89 423d a8c3 a83d 4f5f ddbc 2728 acbc
000001a0: 0fb1 a13d b72c 36bd a00b c4bc 38fa bebd
000001b0: d326 9ebb 972a da3d 5c9b 8fbd ed25 d2be
000001c0: a0f7 643f 0ec1 06bd 5ad0 9fbe c400 933e
000001d0: a6b1 463e 7388 79bd 863a b23c c736 0e3e
000001e0: aa13 983e 96bf 4d3b 74c2 993d e0e8 a1bd
000001f0: da74 173d 5923 f43b 6bdb 8abe bc14 15bd
00000200: 53e2 e6bb bb77 cd3c e375 25bc 834b f0bc
00000210: 5e5a de3b c948 13bd 9191 493c 06d5 38bc
00000220: 797a 653c 5de6 a9bc ce3e 4bbd bfcc 313d
00000230: e222 b03d 3f7a 843d 1255 533d b636 16be
00000240: 38c4 183d 8fb6 203d e278 4fbd 5420 89bd
00000250: 5da6 5ebc fbec 5f3d b24a 96bd 7565 54bd
00000260: 3b28 7a3d 6817 e23d d940 18bd 65a1 fb3d
00000270: 5fbb 163d 2e7d 12bd 8ea4 fd3d 4468 f6bd
00000280: 58cb 29b9 d5bb 38be ecb7 43bd da7e f0bd
00000290: 292c a1bc e82b 95bd 9260 443e 22ff 07be
000002a0: 19bb aa3b 4c9a 1abc 4ef4 273e 420f ddbc
000002b0: 75e7 cbbc b7ef a63d 0306 d63d 61bb febb
000002c0: d43c 543c ae4c 283e 3348 143e c096 183e
000002d0: 35e4 5fbc 9f28 b4bd f79c d23b b329 143e
000002e0: 22db 52bd cd6d a73d 71b6 a53d a166 d43d
000002f0: 3ad2 17bd 7c30 debc d667 243e 0586 18be
00000300: 4aa6 63bd 094c 043e a058 b9bd 2218 cfbb
00000310: b229 43be 2931 c83d 470c 9dbc 6560 d03d
00000320: 7d06 a53c f86e a23c 215e 073e 7386 53bd
00000330: 633c e43c fee7 5a3c 9bc8 d639 6a14 9fbd
00000340: a3f2 b0bd 4081 983d c29b cf3d 0636 963d
00000350: a44b 633e 33f7 30bd 694d 3e3e 709e 803e
00000360: 493f a3bc 81a5 933b e7d7 09be 157a c1bd
00000370: 288f 47bd 87dc 0bbd 2d30 d53e 5b88 52bf
00000380: 796f 503e 6271 49be 6964 3ebf 80a0 483e
00000390: a399 583e 4a8d a1be 905d f0bd c33c 45be
000003a0: 9a9c 54be 3f8e 5c3e 55fb 033f 1307 8e3d
000003b0: d544 1f3e 720e 123e a2a4 86bd e277 433e
000003c0: f92a c7bd d816 153d 22e8 893d 053a 0c3d
000003d0: 726c e73a fa38 c3bd 5f10 093d 5dbc 0abe
000003e0: bd94 d5bd ac6d f0bd 7d37 2d3c c81a 8b3d
000003f0: 5cf3 033d 6b35 6bbd ea6a 5ebd 2241 d0bd
-0.4313222 0.52560747 0.5200275 -0.27629513 -0.06181236 0.115680635 0.10141051 0.03208059
-0.1170572 -0.150178 -0.06583397 0.03682067 0.15192387 -0.19901079 -0.06719801 -0.17887025
-0.06386252 0.23267661 -0.15008844 -0.02699194 0.03567411 -0.040670387 0.0012134988 -0.026845543
0.0032991755 -0.11187051 0.026072988 -0.09260791 -0.2548348 -0.094616316 0.10403035 0.17003126
0.111237936 0.009152347 -0.06924365 0.143669 -0.06543426 0.02720823 0.037207387 -0.008139715
-0.080108985 0.07228882 -0.19378397 -0.026076166 -0.1908531 -0.03150196 -0.02597778 -0.16828398
-0.0769187 0.136502 -0.09873788 0.09099924 -0.31537917 0.04222698 0.08070609 0.03779465
-0.021850748 0.07114164 -0.11253393 -0.12944226 -0.044026107 0.072672315 -0.006011285 -0.056827664
0.07901701 0.06895521 -0.115088865 -0.017176464 0.09645059 0.13760844 0.08927997 0.022070935
-0.08209288 -0.07952599 -0.020331165 0.014410758 -0.11636966 0.027222363 0.0070014168 -0.022343235
-0.108932815 -0.09833611 0.030202545 0.059049636 -0.18090506 0.010370944 -0.095235094 -0.012577025
-0.057288386 0.21508592 -0.18246186 0.04264347 -0.06853957 0.025681706 0.11337763 -0.010718
-0.03595481 0.066128224 -0.060815807 -0.039386887 0.04749439 0.082404435 -0.027022986 -0.02101524
0.07895099 -0.044476237 -0.023931324 -0.09325069 -0.0048264056 0.106526546 -0.07012054 -0.4104456
0.89440346 -0.032898955 -0.31213647 0.28711522 0.19403705 -0.060921144 0.021756422 0.13888083
0.29702502 0.0031394712 0.07507792 -0.079057455 0.036976673 0.007450503 -0.27120528 -0.036396727
-0.007046023 0.025081506 -0.010098907 -0.029332882 0.006785675 -0.035958085 0.012302772 -0.0112812575
0.014006251 -0.020739729 -0.049620442 0.04340815 0.08600403 0.06468629 0.0515948 -0.14669308
0.037296504 0.0392366 -0.050652392 -0.06695619 -0.013589469 0.05466936 -0.07338466 -0.05185457
0.061073523 0.11039621 -0.03717122 0.12286643 0.036799785 -0.035763912 0.12384902 -0.12031606
-0.00016192847 -0.18040402 -0.047782823 -0.11742945 -0.019674378 -0.07283765 0.19177464 -0.13280919
0.005210292 -0.009436201 0.16401789 -0.026984815 -0.02489064 0.08151191 0.104503654 -0.007773802
0.012953956 0.16435501 0.14480667 0.14901257 -0.013665249 -0.0879681 0.006427403 0.14469032
-0.051478513 0.0817524 0.080914386 0.103711374 -0.037065722 -0.027122729 0.16055235 -0.14894874
-0.055578507 0.1291963 -0.09050107 -0.0063200155 -0.19058874 0.097750016 -0.019170893 0.10174636
0.020144695 0.019828305 0.13219501 -0.051641893 0.027860826 0.013360975 0.00040966723 -0.077675655
-0.08640029 0.074465275 0.1013713 0.07334523 0.22196823 -0.043204498 0.18584217 0.25120878
-0.019927638 0.0045058136 -0.13461266 -0.094471134 -0.04872051 -0.03414586 0.41638318 -0.8223931
0.20355023 -0.19672158 -0.74371964 0.19592476 0.21152358 -0.31553108 -0.11736596 -0.1926146
-0.20762864 0.21538638 0.5155538 0.06934943 0.15553601 0.14263323 -0.0657437 0.190887
-0.09724993 0.03639874 0.06733729 0.03423502 0.0017656221 -0.09532352 0.03346288 -0.13548417
-0.1042876 -0.11739668 0.0105723115 0.067922175 0.032214507 -0.05742399 -0.05430118 -0.10168673

fc1.bias f4 [64]
00000000: 956c 0b3f 8f4c 6ebe 3a85 153d 0e6f a83e
00000010: 2ab8 93be eaa3 d83c c462 1cbf 7637 373f
00000020: 42ce 933e 2c9b 553f 7a3e af3e 6a0a 3b3e
00000030: 5b2f 2ebe 4552 163f af1e 30be 8cb3 e23e
00000040: 154b 8e3f 7d29 803f 7187 a03e a8e9 313f
00000050: aaca 1cbb 756a d9bd c24c 103f 4573 b3be
00000060: 8066 0cbe 861d 0e3e 1150 723e f02b afbe
00000070: 15ce 9d3e 0967 003f d9b9 6e3e d909 01bf
00000080: e395 e63e 3dc4 763f f9dd 76bd 48bc 943e
00000090: 48e3 e6be 233a c1be 95ab 84be dbce 863e
000000a0: edf5 adbd 7000 00bf 1675 993f 678a aa3e
000000b0: 3fe4 42be d8ad 2fbd e3f7 64be 7ae5 87be
000000c0: 9dc0 cabe 76e6 103f b873 003e bf76 dcbe
000000d0: 8345 3e3d 2d83 c2bc 548d ff3e a376 0c3f
000000e0: e200 94be f703 d9be c211 0fbf 16b0 113f
000000f0: 6357 c63e 369a b53e c1d6 3c3e 6224 8abe
0.5446256 -0.23271392 0.036504008 0.32897228 -0.28851444 0.026445348 -0.61088204 0.71569
0.288683 0.834399 0.34227353 0.18265691 -0.17010252 0.58719283 -0.17199205 0.44277608
1.1116663 1.0012661 0.31353334 0.69497156 -0.0023924508 -0.10616008 0.56367123 -0.3504888
-0.13710976 0.1387845 0.23663355 -0.3421321 0.3082129 0.5015722 0.23313083 -0.5040565
0.4503623 0.96393186 -0.060270283 0.29049897 -0.45095277 -0.37739667 -0.25912157 0.26329693
-0.08494172 -0.5000067 1.1988857 0.33308718 -0.19032381 -0.0428904 -0.22360186 -0.26542264
-0.39600077 0.56601655 0.12544143 -0.43059346 0.04645301 -0.02374419 0.49912512 0.54868525
-0.28906924 -0.42385837 -0.5588647 0.5690931 0.38738546 0.35469216 0.18441297 -0.26980883

fc2.weight f4 [64, 64]
00000000: 5dcd 9e3d 1d8e 543f c3b1 2e3c 82d2 98be
00000010: c6dc 57be bfb8 3e3e 6eda 593f 07ac 1f3e
00000020: f9cd 21be db3f 2c3d e86f ddbe 6e23 85be
00000030: 55d1 2ebf 21b8 0f3e 1819 c03e da4b 1e3e
00000040: 36fc 83be 7ab1 90bf fc14 403e 5695 26bf
00000050: aa81 143f de59 f4be 2770 43bf 8ba0 943e
00000060: 549b 323f 5366 28bf c151 2abf 9a41 9abe
00000070: ee70 713d 3dd7 52bf 7225 03bf f2ee 233f
00000080: beb8 11be f9ea ff3d cae1 423f fe99 88bf
00000090: f89e 773f f4ca d3be 4757 ff3e ab4d 8cbf
000000a0: e597 bd3e 22cc fe3c 64be 3dbf 161a b03e
000000b0: 3a4a 2e3e d0ee 253f 365d 62bf d891 65bf
000000c0: d03b 003f 7614 59bf cc4f 473e a2de dcbe
000000d0: 8ff9 2b3f 262d b53c b042 81bf 565a 243e
000000e0: 56e4 353f 5d08 113f 20e2 69bf 3941 de3e
000000f0: aa48 ae3d 6c19 03bf d2a0 29bf 21f4 223d
00000100: f247 963e 23a7 843e a07e 0ebe 3a02 2f3f
00000110: 6087 cf3b 75b7 db3e 7ca1 f73e 329f 45bd
00000120: d301 0dbe 1cb6 243e abd3 e53e cb3d cf3e
00000130: 7465 e4be cb56 203c b886 3c3e ba13 6c3c
00000140: f2ec ad3e 1cb0 acbe 78c6 9cbe 35d2 75be
00000150: fb94 56be 275a 12bd 5b48 e23e 7c4d ab3e
00000160: f6c0 d63d 3a1c 26bf 1069 f1bd 8e30 643d
00000170: 5656 533e 39dc 193e 92f5 8fbc 6613 db3d
00000180: 7baa dbbd 9f95 b3be be83 b4be 1aa1 b63e
00000190: 44c5 9ebd a216 39bd 58d2 8ebd 0710 4b3e
000001a0: 3c49 293e 7601 6abe f317 c2bd 5305 073e
000001b0: a597 acbd 9eb9 973d a94a 94be 4957 1abf
000001c0: fbc7 85bc af31 16bd 3527 9ebe 0421 d53d
000001d0: 34bd 80bd 892d 67bc dd73 a83e 546c 01be
000001e0: 98a8 eb3e 324d 05be 20cf a53c 97ea d1be
000001f0: 1203 0fbd 6028 393f f7b2 9cbb 2d41 ce3d
00000200: b4d4 b2bf ac8c cb3c 2d08 823f 6c29 8abe
00000210: 8256 2dbf f827 95bd ae08 d03f 9a8e c6bf
00000220: 2e90 fe3e d03f bfbe 11b7 4abf 1d11 7d3f
00000230: 9ff9 ec3e f168 e0bf 59e9 193f 9d53 04bf
00000240: 4dea 2ec0 4e6f 75c0 55d0 583e 2557 cebf
00000250: 1d50 16bd 576e 953e 8594 b5be 3d36 bf3e
00000260: 4c98 f93e f4df 36be bdac 3ebf 9988 b53a
00000270: 8670 c3bc bbfb 28bf 5434 4abf a873 48bb
00000280: 70b1 b2be a3ca 01c0 1952 34bf 4fc1 95bd
00000290: 4a93 2d3f 7052 653f 3f5f 9b3e 8a67 93bd
000002a0: d3b8 f63e 8353 743e 041e 3bc0 45ad 45bf
000002b0: 5fa6 b1be 97ea 7f3e 0797 50be 1b1a 4a3e
000002c0: 7959 bf3e b495 5abe 24c0 46be b585 2c3d
000002d0: f55f ecbe b64e ae3e 3cf5 46bf e72e b43e
000002e0: 9192 f53f 8ecd 4b3e 269c e2be 4c0f 3ebf
000002f0: f93f 4c3b 5f80 203e 29f2 04bf f00e aebe
00000300: 9fa7 203f 834e 6f3f 11bd 69bf f950 e83e
00000310: dc64 943f b5e3 5c3e 32cf 86bf be92 b03f
00000320: dccb 9cbf 4a5a 8bbe f325 423f 55b3 a0bf
00000330: 49b4 99bf 19a5 943f e975 f5bf 21d0 d2be
00000340: 9c29 de3f 8f11 843f 1a15 55bf 5137 bb3f
00000350: 7a28 173f 7776 99bf c80e 973f 26b7 013f
00000360: e331 5e3f b53e 35bf 5b4d 00be 4c89 333f
00000370: be1c 903f c95e 29bf 1fd8 293f 9547 5e3f
00000380: 8905 0cbf 3d26 b23f ab80 3a3f a6f8 35bf
00000390: 17d9 d93e 8be6 30bf 7be2 18bf 1a0a 47bf
000003a0: 18b2 b83e 9797 53bf 691b c13f f656 953f
000003b0: 2b9d b93f afe5 91bf bc61 a63e 0cdc 2e3f
000003c0: 1c8b 88bf d330 38bf 6a97 fabe b373 2e3f
000003d0: 0caa 0b3f 82dd 9c3e aa04 aebe 9e76 8abf
000003e0: 28eb 49bf e7d6 4a3f f5dd 943f 4b4d 0a3f
000003f0: 65af f83d 3265 663f 1d33 10be 80e3 933f
0.07754014 0.8302935 0.010662499 -0.29848105 -0.21080312 0.18625163 0.8509892 0.15592967
-0.15801229 0.042053085 -0.4324944 -0.26003593 -0.68288165 0.14035083 0.37519145 0.15458623
-0.2577836 -1.1304162 0.18758005 -0.6507162 0.5801035 -0.47724813 -0.76343006 0.29028735
0.6976826 -0.65781134 -0.66530997 -0.30128175 0.05894559 -0.8235968 -0.5122901 0.64036477
-0.1423063 0.12495989 0.76125777 -1.0671995 0.9672694 -0.41365778 0.49871275 -1.0961202
0.3702995 0.031103197 -0.7411864 0.34394902 0.17020503 0.64817524 -0.8842348 -0.89675665
0.50091267 -0.84796846 0.19464034 -0.43138605 0.6717767 0.022116255 -1.0098476 0.16050085
0.7105154 0.56653386 -0.91360664 0.43409136 0.08509953 -0.51210666 -0.6626102 0.0397836
0.29351765 0.25908765 -0.13915491 0.6836277 0.0063332766 0.42913404 0.4836539 -0.048247524
-0.13770227 0.16085094 0.44888052 0.40476832 -0.44608653 0.009786318 0.18410766 0.014409
0.33969837 -0.3372811 -0.3062017 -0.24005969 -0.20955269 -0.035730507 0.44195828 0.33457553
0.10486023 -0.6488682 -0.11787617 0.055710368 0.20638403 0.15025415 -0.017573152 0.10697059
-0.10725876 -0.3507509 -0.3525676 0.35669786 -0.07752469 -0.0451876 -0.06973714 0.19830333
0.16531843 -0.2285212 -0.09477224 0.13185625 -0.084273614 0.074084505 -0.2896321 -0.60289437
-0.01633071 -0.036668476 -0.30889288 0.10406688 -0.06286088 -0.0141099775 0.32900897 -0.1263898
0.46027064 -0.13017729 0.020240366 -0.4099929 -0.034915037 0.7232723 -0.0047820765 0.10071025
-1.3971162 0.024847351 1.0158745 -0.26984727 -0.67710125 -0.07283014 1.6252649 -1.5512269
0.49719375 -0.37353373 -0.7918559 0.9885424 0.46284196 -1.7532026 0.60121685 -0.51690084
-2.7330506 -3.8349185 0.21173222 -1.6120344 -0.036697496 0.29185745 -0.35464874 0.37346068
0.48749006 -0.17858869 -0.7448233 0.0013849913 -0.023857366 -0.6600911 -0.78986096 -0.0030586515
-0.34901 -2.027993 -0.7043777 -0.07312261 0.6780287 0.89578915 0.30346105 -0.07197483
0.48187885 0.23859982 -2.923707 -0.77217513 -0.34697244 0.24991833 -0.20370112 0.19736521
0.3737295 -0.2134617 -0.19409233 0.0421197 -0.4616696 0.34044427 -0.7771795 0.35192034
1.9185354 0.19902632 -0.44259757 -0.7424209 0.003116606 0.1567397 -0.5193201 -0.3399577
0.6275577 0.93479174 -0.9130412 0.45374277 1.159328 0.21571238 -1.0531981 1.3794782
-1.2249713 -0.27217323 0.75839156 -1.2554728 -1.2008144 1.1612884 -1.9176608 -0.41174415
1.7356448 1.0317858 -0.83235323 1.4626256 0.5904614 -1.1989278 1.1801386 0.5067009
0.8679487 -0.7079881 -0.12529509 0.70131373 1.1258771 -0.66160256 0.663454 0.86827976
-0.54695946 1.3917919 0.7285258 -0.7108253 0.4254844 -0.6910178 -0.5972058 -0.7774979
0.36073375 -0.8265318 1.508649 1.1667163 1.4501089 -1.1398219 0.3249644 0.68304515
-1.0667453 -0.719495 -0.48943645 0.68145293 0.54556346 0.30637747 -0.33987933 -1.0817449
-0.78874445 0.79234165 1.1630236 0.5402419 0.12142829 0.8999816 -0.14081998 1.1553802

fc2.bias f4 [64]
00000000: b211 56bf 1f13 183e 309c 93bf 17bd 4dbe
00000010: 3e17 b8be 8f92 543f 65ec fc3f c87a 69bd
00000020: eb64 9ebe 00cd 8dbd 01a7 0bc0 abe2 09c0
00000030: a99a ddbe a55e b6be 4b10 fa3f f59d b3be
00000040: 6aa4 61be 1b22 ca3f 4b9c 033f cb6d d03f
00000050: c93d 20bf 3092 4abf 1afa 9abf 6c6b 46bf
00000060: 2997 613f 4b3e 97bf 83a6 e23c e81e 33bf
00000070: 9400 9c3e 4f3f 29be f50f 7bbf 68e6 00be
00000080: d0ea 403f fd4f 90be 25fe a43e 6ca4 cebd
00000090: 2dc3 073d 6099 c63d 7980 76bf 4aa5 88bd
000000a0: f559 0cc0 4da1 d63c 7f62 103f 87ec 213d
000000b0: 1872 44be d259 afbf c714 2fbf cb3e 6c3d
000000c0: c291 913f cf45 1d3f 57d4 3c3f 0d29 423f
000000d0: 9a1d 983f 00ab 24bd 80dc 9c3d 9bc8 4e3f
000000e0: ff56 1e3e ae1d c9bc 14f3 bc3f 84ad 0c40
000000f0: 9cbd adbe 7595 01bf ed11 553d eda5 cbbf
-0.8362075 0.14851044 -1.153204 -0.20091663 -0.35955232 0.8303613 1.9759642 -0.05700186
-0.3093637 -0.06923866 -2.182068 -2.1544597 -0.4328206 -0.35619083 1.9536222 -0.3508145
-0.22035375 1.5791658 0.5141036 1.6283506 -0.62594277 -0.79129314 -1.2107575 -0.7750766
0.8812128 -1.1815885 0.02766729 -0.69969034 0.3046919 -0.16528057 -0.98071223 -0.12587893
0.75358295 -0.28186026 0.32225147 -0.10089955 0.03314512 0.09697223 -0.96289784 -0.066721514
-2.1929905 0.026199961 0.56400293 0.03953221 -0.19184148 -1.3699286 -0.6839108 0.05767707
1.1372607 0.61434644 0.73761505 0.7584389 1.1884034 -0.04020214 0.076592445 0.8077485
0.15462874 -0.024550285 1.4761682 2.1980906 -0.33933723 -0.5061868 0.05201905 -1.5910012

value.weight f4 [1, 64]
00000000: a8a8 fac0 bdfc ffc0 f585 efc0 8a42 f440
00000010: a403 f640 9dec f0c0 7416 fa40 d437 e640
00000020: d52c f0c0 71fa edc0 3a5e fcc0 900e 03c1
00000030: a3da f540 1f5d fa40 773a eb40 ced4 fa40
00000040: a063 edc0 6763 ff40 8317 f6c0 f72c ee40
00000050: 6704 f640 d0d4 f440 9656 f7c0 8685 f340
00000060: 2c88 f1c0 2a7a f4c0 9b32 f440 77c9 e1c0
00000070: f389 f9c0 77d2 f0c0 13d5 f540 296d f740
00000080: 2519 f5c0 f3f0 e940 08cc f740 70d8 f8c0
00000090: 8664 01c1 31ec eb40 fe3c 02c1 0ded fec0
000000a0: c2fc 00c1 8e6e e9c0 3cd6 ff40 2dfc f640
000000b0: 2897 f640 15bf 00c1 ef2e f640 8f98 f340
000000c0: 51f3 ea40 437c f7c0 4a42 ff40 3ebc e240
000000d0: 62f8 ed40 8f8e efc0 25b6 f5c0 a55e ed40
000000e0: 9f2f f140 a3e7 f540 4fb4 ef40 3708 0241
000000f0: 166a f0c0 e36c de40 b208 f5c0 acdd fac0
-7.833088 -7.999602 -7.485102 7.6331224 7.6879444 -7.5288835 7.815241 7.194315
-7.5054727 -7.4368215 -7.8865023 -8.191055 7.682939 7.8238673 7.350887 7.838477
-7.4184113 7.980884 -7.69037 7.442989 7.6880374 7.650978 -7.7293196 7.6100492
-7.5478725 -7.6399126 7.6311774 -7.055843 -7.7980895 -7.5256915 7.68226 7.732075
-7.6593194 7.3106627 7.743656 -7.7764206 -8.087042 7.372582 -8.139891 -7.966437
-8.061708 -7.2947454 7.9949017 7.718283 7.7059517 -8.046651 7.693229 7.612373
7.3422017 -7.7339187 7.976842 7.085479 7.43657 -7.486152 -7.6784844 7.4178033
7.537063 7.684526 7.4907603 8.127006 -7.51295 6.950792 -7.6573114 -7.8395596

exp_avg f4 [1, 8]
00000000: 7f03 bcba 3986 17bb e940 78bb b0d9 ab3b
00000010: 6be6 0f3b 8f8f fdba f031 41bb 1dc4 a03a
-0.0014344304 -0.0023120774 -0.0037880486 0.005244456 0.0021957408 -0.0019345152 -0.0029479228 0.0012265478

exp_avg_sq f4 [1, 8]
00000000: d068 dc38 d13f b438 dd0a ed38 be2c 0039
00000010: ac1c e038 32a5 0739 51de f038 8bf0 0039
0.0001050994 8.5949556e-05 0.00011303064 0.00012223699 0.00010686493 0.00012936143 0.000114855015 0.0001229664

exp_avg f4 [64, 111]
00000000: 63e3 033a 0740 e4b9 bf07 d2b8 629c cf39
00000010: d1c7 aeba 4975 f0ba 5c0d aa38 770d 04bb
00000020: 5e68 55b9 5643 2539 42e0 2aba 184e 263b
00000030: 4d7e d1b8 bb01 7c3b 991d 38ba 5bee 5abb
00000040: c607 b2ba dd30 2dbb 214d 913b 3552 9bbb
00000050: 390c 6639 8318 bbba 80cd 6a39 4245 d9b9
00000060: 3720 8a3a d8f9 a03a dfc3 253b 0000 0000
00000070: 0000 0000 0000 0000 0000 0000 0000 0000
00000080: 0000 0000 0000 0000 0000 0000 0000 0000
00000090: 0000 0000 0000 0000 0000 0000 0000 0000
000000a0: 0000 0000 0000 0000 0000 0000 0000 0000
000000b0: 0000 0000 0000 0000 0000 0000 0000 0000
000000c0: 0000 0000 0000 0000 0000 0000 0000 0000
000000d0: 0000 0000 0000 0000 0000 0000 0000 0000
000000e0: 0000 0000 0000 0000 0000 0000 0000 0000
000000f0: 0000 0000 0000 0000 0000 0000 0000 0000
00000100: 0000 0000 0000 0000 0000 0000 0000 0000
00000110: 0000 0000 0000 0000 0000 0000 0000 0000
00000120: 0000 0000 0000 0000 0000 0000 0000 0000
00000130: 0000 0000 0000 0000 0000 0000 0000 0000
00000140: 0000 0000 0000 0000 0000 0000 0000 0000
00000150: 0000 0000 0000 0000 0000 0000 0000 0000
00000160: 0000 0000 0000 0000 0000 0000 0000 0000
00000170: 0000 0000 0000 0000 0000 0000 0000 0000
00000180: 0000 0000 0000 0000 0000 0000 0000 0000
00000190: 0000 0000 0000 0000 0000 0000 0000 0000
000001a0: 0000 0000 0000 0000 0000 0000 0000 0000
000001b0: 0000 0000 0000 0000 0000 0000 5f30 0ab9
000001c0: 37fc 4db9 d8df 9db9 68c4 95b8 71e4 a13a
000001d0: 9fc5 6d3b c0bb 11ba bdbd b23a d04f 7d39
000001e0: e307 8239 3f22 2039 d5c3 11bb f20f fc39
000001f0: d67c 83ba 7e4a 463b 36b9 0a3b a2cb fdb9
00000200: c832 40ba 2c49 d93a b742 86bb c935 cfb8
00000210: 683f 0dbb a1d9 3739 a134 073c fbd2 e73a
00000220: fcc1 2bbb b290 043b 0000 0000 0000 0000
00000230: 0000 0000 0000 0000 0000 0000 0000 0000
00000240: 0000 0000 0000 0000 0000 0000 0000 0000
00000250: 0000 0000 0000 0000 0000 0000 0000 0000
00000260: 0000 0000 0000 0000 0000 0000 0000 0000
00000270: 0000 0000 0000 0000 0000 0000 0000 0000
00000280: 0000 0000 0000 0000 0000 0000 0000 0000
00000290: 0000 0000 0000 0000 0000 0000 0000 0000
000002a0: 0000 0000 0000 0000 0000 0000 0000 0000
000002b0: 0000 0000 0000 0000 0000 0000 0000 0000
000002c0: 0000 0000 0000 0000 0000 0000 0000 0000
000002d0: 0000 0000 0000 0000 0000 0000 0000 0000
000002e0: 0000 0000 0000 0000 0000 0000 0000 0000
000002f0: 0000 0000 0000 0000 0000 0000 0000 0000
00000300: 0000 0000 0000 0000 0000 0000 0000 0000
00000310: 0000 0000 0000 0000 0000 0000 0000 0000
00000320: 0000 0000 0000 0000 0000 0000 0000 0000
00000330: 0000 0000 0000 0000 0000 0000 0000 0000
00000340: 0000 0000 0000 0000 0000 0000 0000 0000
00000350: 0000 0000 0000 0000 0000 0000 0000 0000
00000360: 0000 0000 0000 0000 0000 0000 0000 0000
00000370: 0000 0000 0000 0000 b33b 4539 616d bfb8
00000380: 66b1 f038 eb9a b439 6faa a3ba b2f7 4abb
00000390: 580c da37 0c62 89ba e4d5 66b9 925e ee38
000003a0: 31fc 08ba 0aa0 c83a 1142 c1ba 8f51 e13a
000003b0: 1832 afbb 241d b2bb 12e7 94ba ac11 5838
000003c0: f433 063b 0504 de39 ef02 93b9 2657 18b9
000003d0: dc36 7bb9 33e5 81bb 6a83 84b8 00d6 813b
000003e0: 4e98 0e3b 0000 0000 0000 0000 0000 0000
000003f0: 0000 0000 0000 0000 0000 0000 0000 0000
0.00050311367 -0.00043535253 -0.00010015023 0.0003959863 -0.0013334696 -0.00183455 8.10872e-05 -0.0020149627
-0.00020352143 0.00015760711 -0.00065184024 0.0025376137 -9.989422e-05 0.003845318 -0.00070234534 -0.003340623
-0.0013582639 -0.002642683 0.0044342433 -0.0047400245 0.00021939063 -0.0014274273 0.00022392534 -0.00041441066
0.0010538165 0.001228149 0.002529375 0.0 0.0 0.0 0.0 0.0
0.0 0.0 0.0 0.0 0.0 0.0 0.0 0.0
0.0 0.0 0.0 0.0 0.0 0.0 0.0 0.0
0.0 0.0 0.0 0.0 0.0 0.0 0.0 0.0
0.0 0.0 0.0 0.0 0.0 0.0 0.0 0.0
0.0 0.0 0.0 0.0 0.0 0.0 0.0 0.0
0.0 0.0 0.0 0.0 0.0 0.0 0.0 0.0
0.0 0.0 0.0 0.0 0.0 0.0 0.0 0.0
0.0 0.0 0.0 0.0 0.0 0.0 0.0 0.0
0.0 0.0 0.0 0.0 0.0 0.0 0.0 0.0
0.0 0.0 0.0 0.0 0.0 0.0 0.0 -0.00013178725
-0.00019644281 -0.0003011215 -7.141457e-05 0.0012351406 0.0036281121 -0.0005559288 0.0013636869 0.00024157693
0.00024801408 0.00015271547 -0.002224197 0.00048077066 -0.0010031711 0.0030256803 0.0021167523 -0.0004840764
-0.0007331786 0.0016577593 -0.0040973085 -9.8805474e-05 -0.0021552686 0.00017533313 0.008252294 0.0017686778
-0.0026208153 0.0020227847 0.0 0.0 0.0 0.0 0.0 0.0
0.0 0.0 0.0 0.0 0.0 0.0 0.0 0.0
0.0 0.0 0.0 0.0 0.0 0.0 0.0 0.0
0.0 0.0 0.0 0.0 0.0 0.0 0.0 0.0
0.0 0.0 0.0 0.0 0.0 0.0 0.0 0.0
0.0 0.0 0.0 0.0 0.0 0.0 0.0 0.0
0.0 0.0 0.0 0.0 0.0 0.0 0.0 0.0
0.0 0.0 0.0 0.0 0.0 0.0 0.0 0.0
0.0 0.0 0.0 0.0 0.0 0.0 0.0 0.0
0.0 0.0 0.0 0.0 0.0 0.0 0.0 0.0
0.0 0.0 0.0 0.0 0.0 0.0 0.00018809624 -9.127963e-05
0.00011477135 0.00034447698 -0.0012486706 -0.0030970392 2.5993373e-05 -0.0010481491 -0.0002201419 0.000113663395
-0.0005225568 0.0015306484 -0.0014744421 0.0017190444 -0.005346548 -0.0054356027 -0.0011360368 5.151487e-05
0.0020477744 0.00042346134 -0.0002804021 -0.00014528315 -0.00023957662 -0.0039640903 -6.318728e-05 0.0039622784
0.002175826 0.0 0.0 0.0 0.0 0.0 0.0 0.0

exp_avg_sq f4 [64, 111]
00000000: a3b5 3b37 b633 f837 5b3c ac35 d565 db35
00000010: d052 0937 a404 af37 ed29 da36 1655 8a37
00000020: d631 0837 762f 6d37 0bf7 1037 38d2 9537
00000030: ea84 b837 8fbc c639 3400 3138 4079 7e38
00000040: 71b5 a238 186a a538 05db 5b38 a4f5 3339
00000050: 6da2 0438 5930 ee39 d25a 2d37 a349 d138
00000060: a090 0738 3e03 053a b0ad 2439 0000 0000
00000070: 0000 0000 0000 0000 0000 0000 0000 0000
00000080: 0000 0000 0000 0000 0000 0000 0000 0000
00000090: 0000 0000 0000 0000 0000 0000 0000 0000
000000a0: 0000 0000 0000 0000 0000 0000 0000 0000
000000b0: 0000 0000 0000 0000 0000 0000 0000 0000
000000c0: 0000 0000 0000 0000 0000 0000 0000 0000
000000d0: 0000 0000 0000 0000 0000 0000 0000 0000
000000e0: 0000 0000 0000 0000 0000 0000 0000 0000
000000f0: 0000 0000 0000 0000 0000 0000 0000 0000
00000100: 0000 0000 0000 0000 0000 0000 0000 0000
00000110: 0000 0000 0000 0000 0000 0000 0000 0000
00000120: 0000 0000 0000 0000 0000 0000 0000 0000
00000130: 0000 0000 0000 0000 0000 0000 0000 0000
00000140: 0000 0000 0000 0000 0000 0000 0000 0000
00000150: 0000 0000 0000 0000 0000 0000 0000 0000
00000160: 0000 0000 0000 0000 0000 0000 0000 0000
00000170: 0000 0000 0000 0000 0000 0000 0000 0000
00000180: 0000 0000 0000 0000 0000 0000 0000 0000
00000190: 0000 0000 0000 0000 0000 0000 0000 0000
000001a0: 0000 0000 0000 0000 0000 0000 0000 0000
000001b0: 0000 0000 0000 0000 0000 0000 eef2 7137
000001c0: b62e ea37 d7b2 9235 580d e935 cf3c 1637
000001d0: 2693 af37 5a0e c536 b867 d437 2ee6 0637
000001e0: 1959 6a37 3adb 1337 5403 d837 a912 a837
000001f0: e2af d539 208d 4438 1839 a038 52ce 8038
00000200: 2a4f a638 a834 6038 4226 3739 8aba e737
00000210: 030c a439 95c3 a337 1236 dd38 e228 0138
00000220: 67ca a339 87f8 3439 0000 0000 0000 0000
00000230: 0000 0000 0000 0000 0000 0000 0000 0000
00000240: 0000 0000 0000 0000 0000 0000 0000 0000
00000250: 0000 0000 0000 0000 0000 0000 0000 0000
00000260: 0000 0000 0000 0000 0000 0000 0000 0000
00000270: 0000 0000 0000 0000 0000 0000 0000 0000
00000280: 0000 0000 0000 0000 0000 0000 0000 0000
00000290: 0000 0000 0000 0000 0000 0000 0000 0000
000002a0: 0000 0000 0000 0000 0000 0000 0000 0000
000002b0: 0000 0000 0000 0000 0000 0000 0000 0000
000002c0: 0000 0000 0000 0000 0000 0000 0000 0000
000002d0: 0000 0000 0000 0000 0000 0000 0000 0000
000002e0: 0000 0000 0000 0000 0000 0000 0000 0000
000002f0: 0000 0000 0000 0000 0000 0000 0000 0000
00000300: 0000 0000 0000 0000 0000 0000 0000 0000
00000310: 0000 0000 0000 0000 0000 0000 0000 0000
00000320: 0000 0000 0000 0000 0000 0000 0000 0000
00000330: 0000 0000 0000 0000 0000 0000 0000 0000
00000340: 0000 0000 0000 0000 0000 0000 0000 0000
00000350: 0000 0000 0000 0000 0000 0000 0000 0000
00000360: 0000 0000 0000 0000 0000 0000 0000 0000
00000370: 0000 0000 0000 0000 863d 8137 59bd 8238
00000380: 7b25 1f36 1c74 5b36 b610 3a37 b3f3 1938
00000390: 9f67 2e37 3e76 2938 c868 8a37 3fe2 cf37
000003a0: af4c 8c37 d05e 2c38 47b3 6038 c55b 5b3a
000003b0: 8d78 d838 f1ab 1639 43a9 2239 9f79 5939
000003c0: bc97 db38 1550 c439 224c 2438 2547 573a
000003d0: b931 0c38 b065 4839 a9e6 5e38 6552 423a
000003e0: d45c c239 0000 0000 0000 0000 0000 0000
000003f0: 0000 0000 0000 0000 0000 0000 0000 0000
1.1188359e-05 2.9587984e-05 1.2832564e-06 1.6346409e-06 8.185118e-06 2.0863787e-05 6.501787e-06 1.6490503e-05
8.117835e-06 1.4137351e-05 8.640588e-06 1.7860075e-05 2.1996402e-05 0.0003790599 4.2200278e-05 6.0671242e-05
7.758558e-05 7.8875746e-05 5.2417647e-05 0.00017162279 3.1622523e-05 0.0004543092 1.0332749e-05 9.9796125e-05
3.23212e-05 0.00050740305 0.00015704962 0.0 0.0 0.0 0.0 0.0
0.0 0.0 0.0 0.0 0.0 0.0 0.0 0.0
0.0 0.0 0.0 0.0 0.0 0.0 0.0 0.0
0.0 0.0 0.0 0.0 0.0 0.0 0.0 0.0
0.0 0.0 0.0 0.0 0.0 0.0 0.0 0.0
0.0 0.0 0.0 0.0 0.0 0.0 0.0 0.0
0.0 0.0 0.0 0.0 0.0 0.0 0.0 0.0
0.0 0.0 0.0 0.0 0.0 0.0 0.0 0.0
0.0 0.0 0.0 0.0 0.0 0.0 0.0 0.0
0.0 0.0 0.0 0.0 0.0 0.0 0.0 0.0
0.0 0.0 0.0 0.0 0.0 0.0 0.0 1.4421281e-05
2.7916725e-05 1.0929897e-06 1.7363736e-06 8.954855e-06 2.0930147e-05 5.8727283e-06 2.5320667e-05 8.040615e-06
1.39682315e-05 8.812925e-06 2.5750756e-05 2.003585e-05 0.0004075757 4.6861474e-05 7.640029e-05 6.141946e-05
7.930242e-05 5.34548e-05 0.00017466492 2.762421e-05 0.00031289467 1.952219e-05 0.000105481726 3.079407e-05
0.00031240584 0.00017258721 0.0 0.0 0.0 0.0 0.0 0.0
0.0 0.0 0.0 0.0 0.0 0.0 0.0 0.0
0.0 0.0 0.0 0.0 0.0 0.0 0.0 0.0
0.0 0.0 0.0 0.0 0.0 0.0 0.0 0.0
0.0 0.0 0.0 0.0 0.0 0.0 0.0 0.0
0.0 0.0 0.0 0.0 0.0 0.0 0.0 0.0
0.0 0.0 0.0 0.0 0.0 0.0 0.0 0.0
0.0 0.0 0.0 0.0 0.0 0.0 0.0 0.0
0.0 0.0 0.0 0.0 0.0 0.0 0.0 0.0
0.0 0.0 0.0 0.0 0.0 0.0 0.0 0.0
0.0 0.0 0.0 0.0 0.0 0.0 1.5406647e-05 6.234152e-05
2.3714663e-06 3.2701128e-06 1.1090355e-05 3.6705005e-05 1.0395334e-05 4.040286e-05 1.6499675e-05 2.4781677e-05
1.672501e-05 4.1096297e-05 5.3572727e-05 0.0008367862 0.00010322137 0.00014369168 0.00015512579 0.0002074004
0.000104709965 0.000374437 3.917155e-05 0.00082122005 3.342491e-05 0.00019111368 5.3143744e-05 0.00074127904
0.00037071726 0.0 0.0 0.0 0.0 0.0 0.0 0.0
