drl/ran2/Ant65000_ran2_weights.pth (torch, 292848 bytes, 36 tensors)

log_std f4 [1, 8]
0	0xbfb61447	-1.4224938
1	0xbff048f8	-1.8772268
2	0xbf942980	-1.1575165
3	0xbfb3ee37	-1.4057072
4	0xbfb38afc	-1.402679
5	0xbfc7734a	-1.5582058
6	0xbfa89b2b	-1.3172354
7	0xbfc6fe2a	-1.5546315

fc1.weight f4 [64, 111]
0	0xbeb5e984	-0.3552972
1	0xbd0833e8	-0.033252627
2	0x3de88ec4	0.113553554
3	0xbcc38b24	-0.023870058
4	0x3de8d702	0.113691345
5	0xbe27f556	-0.16402182
6	0x3be8f241	0.007108957
7	0x3d679648	0.056539804
8	0x3d528297	0.05139407
9	0x3cd438c4	0.025905974
10	0xbe885bee	-0.26632637
11	0xbe6b81b3	-0.22998695
12	0x3da2763a	0.07932706
13	0xbdcf37fc	-0.101181
14	0x3b089f93	0.0020847067
15	0x3cf08766	0.029361438
16	0x3d3de267	0.046358492
17	0x3b783ea7	0.003787914
18	0xbdb20dd6	-0.08694045
19	0xbd1eda6a	-0.038782515
20	0xbdaa62df	-0.083196394
21	0xbc81b0d7	-0.015831394
22	0xbe244edd	-0.16045709
23	0xbca2dda5	-0.019881079
24	0xbcc94db4	-0.024573185
25	0x3bada551	0.0052992483
26	0x3e056a9d	0.13028951
27	0xbbff4fee	-0.007791511
28	0xbd0e1d58	-0.034695953
29	0x3d688712	0.056769438
30	0xbd8d5421	-0.06900812
31	0xbccac91d	-0.024754101
32	0x3d8a4097	0.06750601
33	0x3dc1da0b	0.094654165
34	0x3deeb8a3	0.116563104
35	0xbe317f08	-0.17333615
36	0xbdef37b8	-0.116805494
37	0x3c21e031	0.009880112
38	0x3da74501	0.08167458
39	0xbd9a9d98	-0.0754959
40	0xbe11837d	-0.14210315
41	0x3dc5b330	0.09653318
42	0xbc54437c	-0.012955543
43	0xbe0fe86b	-0.14053504
44	0x3d2261a5	0.039643902
45	0x3c927a06	0.017880451
46	0x3dcae5f9	0.09907145
47	0xbb467c39	-0.0030286445
48	0xbd02ba2d	-0.031915832
49	0xbe0972d6	-0.13422713
50	0xbdca0e77	-0.0986604
51	0x3ceba39c	0.028764538
52	0xbdc3c089	-0.095582075
53	0xbd640c1c	-0.05567561
54	0x3d8a220a	0.06744774
55	0x3c98ccbb	0.01865231
56	0xbd60a1bd	-0.054841746
57	0x3c8f711e	0.017509993
58	0xbe553b83	-0.20823483
59	0xbd1e2d01	-0.038617138
60	0x3da7355a	0.08164473
61	0xbbed2239	-0.0072367457
62	0x3deb5dcd	0.114925005
63	0xbde4b0eb	-0.11166557
64	0x3c7c63fd	0.015404698
65	0x3e30cdd4	0.17266017
66	0xbe8c319d	-0.27381602
67	0xbc9827f6	-0.018573742
68	0x3da9d257	0.08292072
69	0x3d386406	0.045017265
70	0x3d661cef	0.056179937
71	0xbdde031b	-0.10840436
72	0x3d46e4f7	0.0485582
73	0xbdc164c7	-0.0944305
74	0xbd085434	-0.033283427
75	0x3d88a865	0.06672744
76	0x3d1214b5	0.03566428
77	0x3ccfc6b2	0.0253633
78	0xbda4868c	-0.08033475
79	0x3d804fb6	0.06265204
80	0x3d0a80cc	0.033814237
81	0xbbccda9b	-0.0062516457
82	0x3c7abd29	0.015303888
83	0x3d0479ca	0.03234271
84	0x3e54d134	0.2078293
85	0xbdfd85b3	-0.12379017
86	0xbc4f76fa	-0.012662644
87	0x3e002d77	0.12517343
88	0xbd8b77cf	-0.06809961
89	0xbd820d3a	-0.06350179
90	0x3d828ef7	0.06374925
91	0x3d551777	0.05202433
92	0xbcbb853a	-0.022890676
93	0x3e0cff53	0.13769273
94	0xbe2677f2	-0.16256693
95	0x3e08256e	0.13295528
96	0xb9bae2a3	-0.00035645542
97	0x3db03ad3	0.0860497
98	0xbbc3c7c5	-0.005974742
99	0xbe0f7a2d	-0.1401145
100	0xbdd906c5	-0.10596994
101	0xbd1950b4	-0.03743048
102	0x3dcc30d5	0.099702515
103	0x3e19a541	0.15004446
104	0xbcd8b505	-0.026453504
105	0xbe2c7809	-0.16842665
106	0xbd49f3ac	-0.04930465
107	0x3c5e194b	0.013555835
108	0x3de61c48	0.11235863
109	0xbc87efc4	-0.016593821
110	0x3d5b0dce	0.053479962
111	0xbd8cb11c	-0.068697184
112	0xbd4c82d8	-0.04992947
113	0xbf2b00a1	-0.66797835
114	0x3e00d447	0.12580977
115	0xbe8cb7aa	-0.27483875
116	0x3c6a7e57	0.014312348
117	0xbe27982a	-0.1636664
118	0x3e4f17f0	0.20223975
119	0x3d9709e6	0.07374935
120	0xbd976139	-0.073915906
121	0x3b888cba	0.0041671665
122	0xbe1d664f	-0.15371059
123	0xbd9a1d35	-0.07525102
124	0xbd6a807f	-0.05725145
125	0xbc9f5451	-0.019449385
126	0xbe1413e1	-0.14460708
127	0xbc43acf1	-0.011943088
128	0x3d2f7821	0.042839173
129	0xbb333066	-0.002734208
130	0xbdb423e0	-0.08795905
131	0xbd824ebb	-0.06362673
132	0x3dc51828	0.09623748
133	0x3cf75128	0.030190066
134	0xbe219af1	-0.15781762
135	0x3d7efde9	0.062253866
136	0xbd582505	-0.05276968
137	0xbd9fbd02	-0.07799722
138	0xbdeebca4	-0.11657074
139	0xba2d24c7	-0.00066049065
140	0xbd88406d	-0.06652913
141	0xbd6a2087	-0.057159927
142	0x3cd37f3c	0.025817506
143	0x3d51dd9c	0.051236734
144	0xbe0b2c13	-0.13591032
145	0xbd6c6b95	-0.057719786
146	0x3dc7c915	0.0975515
147	0xbdcf86c2	-0.10133125
148	0xbd1e18d9	-0.038597915
149	0x3e2c1d66	0.1680809
150	0xbd749c18	-0.059719175
151	0xbd219329	-0.039446983
152	0xbdb32a56	-0.08748309
153	0xbd364b18	-0.04450521
154	0x3e660fb7	0.22466932
155	0x3e31541a	0.17317238
156	0x3d1e1031	0.03858966
157	0xbdc3d6ee	-0.09562479
158	0xbdd9e754	-0.106398255
159	0xbe29c9b5	-0.16580851
160	0x3d8179b3	0.063220404
161	0xbd7e7092	-0.062119074
162	0x3d01cbe9	0.031688605
163	0xbca4d521	-0.020121159
164	0x3de21992	0.110400334
165	0xbd742d03	-0.05961324
166	0xbcc259f2	-0.02372453
167	0x3e48be95	0.19603951
168	0x3e7946c8	0.24343407
169	0x3d6c931f	0.057757493
170	0xbd70ccd7	-0.0587891
171	0x3d921777	0.07133382
172	0xbd7ac36a	-0.061221518
173	0x3d426a8e	0.0474649
174	0x3e354899	0.17703475
175	0xbd18dc2c	-0.037319347
176	0xbcf9beeb	-0.030486545
177	0xbe254c7b	-0.16142456
178	0xbbbe9fe6	-0.005817401
179	0x3cb4bb1d	0.022061879
180	0x3d6e70b4	0.05821295
181	0x3cc3ecca	0.02391662
182	0x3e88122e	0.2657637
183	0x3dd8492e	0.10560833
184	0x3c4b2bb6	0.012400558
185	0x3c9173c2	0.017755393
186	0xbbded8c2	-0.006800742
187	0xbd83ca94	-0.06435123
188	0xbd5b3889	-0.053520713
189	0xbbcf3656	-0.006323616
190	0x3e2fb665	0.17159422
191	0x3ba2fdb3	0.004974091
192	0x3d739e7a	0.059477307
193	0x3d1d8f8d	0.03846698
194	0xbdeacd78	-0.11464971
195	0xbe0d14e3	-0.13777499
196	0xbdac9111	-0.08426107
197	0x3d991574	0.07474795
198	0xbc349260	-0.011021227
199	0x3dbcd024	0.09219387
200	0x3d803d45	0.06261686
201	0xbd1ea134	-0.038727954
202	0xbd1d8ef3	-0.038466405
203	0x3cb09751	0.021556528
204	0x3daba2a4	0.083806306
205	0x3ced2ef1	0.028953047
206	0x3e20f76a	0.15719381
207	0x3ce7c613	0.028292691
208	0x3e1b95c3	0.15193848
209	0x3d46ecfc	0.04856585
210	0xbd3a0d7f	-0.045423027
211	0x3e2c3a69	0.16819157
212	0xb9baafc3	-0.00035607637
213	0xbcd031c9	-0.025414364
214	0x3d5b4cce	0.053540044
215	0x3b8ff11a	0.004392755
216	0xbd9d88a9	-0.076920815
217	0x3d1ebf42	0.038756616
218	0x3caafd22	0.020872656
219	0xbc195c47	-0.00936038
220	0x3d5439fe	0.05181312
221	0xbd6ff7b9	-0.058585856
222	0xbdb24fc2	-0.08706619
223	0xbe0b1ce2	-0.13585237
224	0x3db4797b	0.08812233
225	0x3c992d9d	0.018698508
226	0x3f117bcf	0.5682954
227	0x3da585c2	0.08082153
228	0xbe8a28e8	-0.26984334
229	0x3e8266d9	0.25469092
230	0x3e2d3fff	0.16918944
231	0x3e0515de	0.12996623
232	0x3e97fabd	0.29683486
233	0xbe949ecf	-0.2902741
234	0xbd091299	-0.033465
235	0xbd4e11ed	-0.050310064
236	0xbd1eb944	-0.0387509
237	0xbd4858a8	-0.048912674
238	0xbd4d78bc	-0.05016397
239	0x3d194cd7	0.037426796
240	0x3c87cdad	0.016577566
241	0x3d81479e	0.06312488
242	0xbd305fb4	-0.04306002
243	0x3cc466a4	0.023974724
244	0x3ab77dfc	0.0013999338
245	0x3d0b4e14	0.034010008
246	0xbce03f68	-0.027373984
247	0xbe37fc8e	-0.17967436
248	0x3d929b92	0.07158579
249	0x3d141477	0.03615233
250	0x3d5e5906	0.054284118
251	0xbbc24f5f	-0.005929872
252	0x3ccb361c	0.024806075
253	0xbdfa762b	-0.1222957
254	0xbcc476bc	-0.023982398
255	0x3d132748	0.035926133

fc1.bias f4 [64]
0	0x39fbcec2	0.00048028497
1	0xbd066c01	-0.032817844
2	0xbe0ff0b4	-0.14056665
3	0xbdd7be27	-0.105343156
4	0xbe1dd2cc	-0.15412444
5	0xba3f43fa	-0.0007296201
6	0x3c2db5ca	0.010602424
7	0x3d661361	0.056170825
8	0xbdcdf1a1	-0.10055853
9	0xbd3c48e3	-0.045967948
10	0x3c76b1a2	0.015056999
11	0xbdaef25b	-0.085423194
12	0xbd5cbeab	-0.053892773
13	0x3c0ab043	0.008464876
14	0x39ab5301	0.00032677504
15	0x3dabc1a0	0.083865404
16	0xbd8fe973	-0.07026949
17	0xbd5b609f	-0.053558942
18	0x3d938e36	0.07204859
19	0x3dc47683	0.09592917
20	0x3e27aac5	0.16373737
21	0xbcbcf079	-0.023063885
22	0xbdb7529a	-0.08951302
23	0x3dba1c5a	0.09087439
24	0x3dcb3903	0.099229835
25	0x3e093a3c	0.13401121
26	0x3d36985d	0.0445789
27	0xbd238de0	-0.039930224
28	0xbcf1b2b2	-0.029504154
29	0x3c100593	0.0087903915
30	0xbb669fc7	-0.003519045
31	0xbd8aea03	-0.067829154
32	0xbd4c9c76	-0.0499539
33	0x3c3e22c5	0.011604969
34	0x3d0d90e8	0.03456202
35	0xbbc9fc01	-0.0061640744
36	0x3dacfa9e	0.08446239
37	0x3b8643a1	0.0040974175
38	0x3ccc6716	0.024951499
39	0x3daf01de	0.08545278
40	0xbc8526b0	-0.0162538
41	0x3d9ecddf	0.077541105
42	0x3c5427db	0.012948955
43	0xbc8796a2	-0.01655132
44	0xbd29c4dc	-0.041447505
45	0x3e29b4dc	0.16572899
46	0xbdc0efdb	-0.09420749
47	0x3d315df1	0.04330248
48	0xbcf05ab8	-0.029340133
49	0x3dc45693	0.09586825
50	0xbe5f94ea	-0.2183415
51	0x3e11279d	0.14175268
52	0xbe11fd47	-0.14256774
53	0x3cc5effe	0.024162289
54	0x3c0d621c	0.008629348
55	0x3e2bc515	0.167744
56	0x3ae00532	0.0017091392
57	0x3d38026c	0.044924185
58	0x3cbae883	0.022815948
59	0xbb86485c	-0.0040979814
60	0xbd237a4c	-0.039911553
61	0x3d2fe694	0.042944506
62	0x3d18c6a8	0.03729883
63	0xbe57d0bf	-0.21075724

fc2.weight f4 [64, 64]
0	0x3d959434	0.07303658
1	0xbd6639a9	-0.056207333
2	0xbe24ed60	-0.16106176
3	0xbd220c66	-0.039562605
4	0x3e5b9f1a	0.21447411
5	0xbb9db45f	-0.0048127617
6	0x3e8b9aea	0.27266628
7	0xbd99766e	-0.07493292
8	0x3d098114	0.033570364
9	0x3e9a3486	0.30118197
10	0xbc143d03	-0.009047749
11	0x3d9c5d03	0.07634928
12	0xbe050866	-0.12991485
13	0xbeb6dca0	-0.357152
14	0x3caa3d63	0.020781225
15	0xbcfc504e	-0.030800011
16	0x3e797f44	0.24364954
17	0xbd6cba1d	-0.05779468
18	0x3dd681f2	0.10474004
19	0xbdddcb33	-0.10829773
20	0xbb845306	-0.0040382175
21	0xbd875e62	-0.06609799
22	0xbe493638	-0.19649589
23	0x3db3ba0c	0.0877572
24	0x3d973306	0.07382779
25	0x3e775fb3	0.241576
26	0xbd296f1f	-0.04136574
27	0x3dcfb7c3	0.10142472
28	0xbe16bede	-0.14721248
29	0xbd99ce0a	-0.07510002
30	0xbca836a1	-0.020533862
31	0xbe5e7ba8	-0.21726859
32	0x3d3559ca	0.044275083
33	0x3e0691a9	0.13141502
34	0x3bfd01d0	0.0077211633
35	0xbd6be8eb	-0.057595175
36	0x3db27b04	0.087148696
37	0x3d9bf234	0.07614556
38	0x3ebb4369	0.36574867
39	0xbddb021c	-0.10693762
40	0x3e767b51	0.24070479
41	0x3d11c4b6	0.03558799
42	0xbdabe65c	-0.08393547
43	0x3e72d09a	0.23712388
44	0x3e041c8e	0.12901518
45	0xbdb2fb3e	-0.08739327
46	0x3e62ac80	0.22136116
47	0xbda11a16	-0.078663036
48	0x3dface63	0.122463964
49	0xbd8f341f	-0.06992363
50	0x3dbbbea8	0.09167224
51	0x3da238f3	0.079210185
52	0x3d2b5c3d	0.041836012
53	0xbe834080	-0.25635147
54	0xbe0560d4	-0.13025218
55	0x3b5f6d9f	0.003409244
56	0xbd55b696	-0.05217608
57	0xbe402551	-0.18764235
58	0x3e82d7d3	0.25555286
59	0xbe381a38	-0.17978752
60	0xbcf44db1	-0.029822202
61	0xbe65041f	-0.22364853
62	0xbe23d36b	-0.15998618
63	0x3d9e2d87	0.077235274
64	0x3c40cf0f	0.011768117
65	0x3ee84603	0.45365915
66	0xbe84970f	-0.258965
67	0x3e342478	0.17592037
68	0x3b7c452b	0.0038493376
69	0xbd85be50	-0.0653044
70	0x3e9c1cdf	0.30490777
71	0x3e30da13	0.17270689
72	0x3de5e892	0.11226
73	0x3e11199a	0.14169922
74	0x3c1811f8	0.009281628
75	0xbda96293	-0.08270755
76	0xbe38fc33	-0.18064956
77	0x3ac37555	0.0014912287
78	0x3dd8872f	0.10572659
79	0x3db10ea5	0.08645371
80	0xbe143ce0	-0.14476347
81	0xbe0d18c5	-0.1377898
82	0x3d360eca	0.044447698
83	0xbe3bcc5b	-0.18339674
84	0x3c85d64a	0.016337533
85	0xbe049592	-0.12947682
86	0x3cfaa958	0.030598328
87	0x3d307acc	0.04308586
88	0xbddb03f3	-0.10694113
89	0xbe22bb06	-0.15891656
90	0x3bd326a2	0.0064438144
91	0xbde0896e	-0.10963713
92	0xbbe24594	-0.006905267
93	0xbd7fb859	-0.062431667
94	0x3de31bdb	0.110892974
95	0x3d9d7830	0.076889396
96	0xbe0218ec	-0.1270482
97	0x3c1fd7b2	0.009756016
98	0xbdf95520	-0.121744394
99	0xbd91afd0	-0.07113612
100	0x3e245471	0.16047837
101	0x3e0a1932	0.13486174
102	0x3d7e8613	0.062139582
103	0xbe3b2fbe	-0.18279931
104	0xbcb1567c	-0.021647684
105	0xbc4f430d	-0.0126502635
106	0x3dd67530	0.104715705
107	0xbe1aaaa3	-0.15104155
108	0xbc80079b	-0.015628627
109	0xbb88997e	-0.0041686883
110	0xbe1377c2	-0.14401153
111	0xbde835fa	-0.1133842
112	0x3c6768de	0.014124123
113	0xbddb50ee	-0.107087955
114	0x3c9d1a9d	0.01917773
115	0x3d9b4175	0.07580844
116	0x3d599091	0.053116385
117	0xbdd1c578	-0.10242742
118	0xbdddae2f	-0.108242385
119	0xbd6c0ff7	-0.057632413
120	0x3ea16e47	0.31529447
121	0x3e1b6655	0.15175755
122	0xbd41e922	-0.047341473
123	0x3e02ba18	0.12766302
124	0x3d85fcb1	0.06542338
125	0xbd51e6f7	-0.051245656
126	0xbdf0ce9b	-0.11758157
127	0x3e812929	0.25226715
128	0xbe7bea61	-0.24601127
129	0xbd26928a	-0.040667094
130	0xbdef0cc6	-0.11672358
131	0xbda225a4	-0.07917336
132	0x3b2b3448	0.0026123691
133	0x3d8cc8b3	0.06874218
134	0xbbc02231	-0.005863451
135	0xbdb3a82c	-0.087723106
136	0xbdbbccd7	-0.091699295
137	0x3e16b5d1	0.14717795
138	0xbdf58820	-0.119888544
139	0xbe078027	-0.1323248
140	0x3d436786	0.04770615
141	0x3dd01dc9	0.10161931
142	0x3cd2583e	0.025676843
143	0x3d8a1b9a	0.06743546
144	0xbe8d3ebe	-0.2758693
145	0xbe0e3f06	-0.13891229
146	0x3f02e15d	0.5112513
147	0x3c172feb	0.009227733
148	0x3dddf8f6	0.10838501
149	0xbe40f273	-0.18842487
150	0xbda0d57a	-0.078532174
151	0xbd734118	-0.05938825
152	0x3e4ea1e0	0.20178938
153	0x3db574e1	0.088601835
154	0x3d45ef34	0.048323825
155	0xbe057355	-0.13032277
156	0xbb680b18	-0.0035407003
157	0xbd63c2c7	-0.055605676
158	0x3d84c25a	0.06482382
159	0x3d233587	0.03984597
160	0x3da4995d	0.08037064
161	0x3e0ee3a4	0.13954026
162	0x3d9fb064	0.07797316
163	0xbcbbba5a	-0.022916008
164	0xbe301312	-0.17194775
165	0xbd26a3af	-0.040683445
166	0x3b897e27	0.0041959467
167	0xbe96c2bc	-0.29445446
168	0x3c92b22b	0.017907223
169	0x3e741ee4	0.23839909
170	0xbe93dcfc	-0.28879535
171	0xbd796668	-0.060888678
172	0x3e65ad4d	0.2242939
173	0xbe2005ad	-0.15627165
174	0x3e3a74d3	0.18208627
175	0x3e582468	0.21107638
176	0x3af0dfba	0.0018377223
177	0x3d5b4dde	0.053541057
178	0xbde5d8e3	-0.112230085
179	0xbd87ad02	-0.066247955
180	0xbdc318f9	-0.095262475
181	0x3d76c54e	0.06024676
182	0x3d288ce1	0.041149978
183	0xbb86efc4	-0.0041179378
184	0xbe831e05	-0.2560884
185	0x3d296ab3	0.041361522
186	0x3d5e19e8	0.054223925
187	0x3d9ba5d9	0.07599992
188	0x3e097066	0.13421783
189	0x3e4450b7	0.19171415
190	0xbe0df99c	-0.1386475
191	0xbdbd2885	-0.09236244
192	0xbc2a3458	-0.010388456
193	0x3d094587	0.033513572
194	0xbc6c8fc7	-0.014438576
195	0xbe2a91d8	-0.16657197
196	0xbe97b9a5	-0.29633823
197	0x3d81389c	0.063096255
198	0xbdd264e6	-0.10273151
199	0xbca801fe	-0.020508762
200	0x3e31c611	0.17360713
201	0x3e978114	0.29590666
202	0xbcc70a92	-0.024297033
203	0x3e8e713e	0.27820772
204	0xbe52d5f3	-0.20589428
205	0x3d8b0eae	0.06789909
206	0x3e99dacb	0.30049738
207	0xbd60bd49	-0.054868016
208	0x3b785fc7	0.0037898885
209	0x3d5a8b26	0.05335536
210	0xbcfcf67b	-0.03087925
211	0xbe9bf38a	-0.30459243
212	0x3d2b7a1e	0.041864507
213	0x3ccba31d	0.024858052
214	0x3db8a44f	0.090157144
215	0xbe09a209	-0.13440718
216	0xbcb85f90	-0.022506505
217	0x3e33e774	0.17568761
218	0x3cda0dd0	0.026617914
219	0xbeb2de15	-0.3493506
220	0xbe7ffdc7	-0.24999152
221	0x3d4d14ed	0.050068785
222	0xbcb15147	-0.021645201
223	0xbcc578d0	-0.02410546
224	0x3d88c397	0.06677931
225	0xbd6fe289	-0.05856565
226	0xbdc10bd9	-0.09426088
227	0x3e55d30c	0.20881289
228	0xbdb8913c	-0.09012076
229	0x3dd06d09	0.10177047
230	0xbd294dca	-0.04133395
231	0xbe00cab4	-0.12577325
232	0x3c759f4b	0.014991592
233	0xbd29726b	-0.041368883
234	0xbe5db896	-0.21652445
235	0x3d9998ea	0.07499869
236	0x3e652296	0.22376475
237	0x3db037cb	0.08604392
238	0xbe31a5a4	-0.17348343
239	0xbb834534	-0.0040060524
240	0xbe7242ca	-0.2365829
241	0x3d5916b5	0.05300017
242	0x3df54ba0	0.11977315
243	0x3cf8909d	0.030342394
244	0x3a9a59f3	0.0011776075
245	0xbdbdd5b8	-0.09269279
246	0x3e27a0e8	0.16369975
247	0xbcd6e1a1	-0.026230635
248	0xbc739ed5	-0.0148694115
249	0xbd975103	-0.07388499
250	0x3eb37639	0.35051134
251	0xbd89909c	-0.06717035
252	0xbe92069d	-0.2852067
253	0xbe8915b1	-0.26774362
254	0xbd8b2b90	-0.06795418
255	0xbd14c29c	-0.036318406

fc2.bias f4 [64]
0	0x3cb5a011	0.022171052
1	0xbcd33be2	-0.02578539
2	0x3d31dd4c	0.043423936
3	0xbdd86282	-0.10565664
4	0xbc70e00d	-0.014701855
5	0x3dca2108	0.098695815
6	0x3e1bc2fd	0.15211101
7	0x3d926b2e	0.07149349
8	0xbca6ccdc	-0.020361356
9	0x3caff54d	0.021479273
10	0xbc2ef347	-0.010678119
11	0xbd25d2df	-0.040484305
12	0xbc4a0345	-0.012329881
13	0x3d286ef8	0.041121453
14	0x3d845161	0.06460834
15	0x3e0faf54	0.14031726
16	0x3d94f9ce	0.07274209
17	0x3e0cfd1e	0.13768432
18	0xbda47517	-0.080301456
19	0xbd9c2810	-0.07624829
20	0xbce6e8b8	-0.02818714
21	0xbc70deb6	-0.014701536
22	0x3a9bfeb2	0.0011901467
23	0x3d0be319	0.034152124
24	0xbd8574db	-0.06516429
25	0xbcf395a3	-0.029734438
26	0xbd8044e3	-0.06263139
27	0x3d057f96	0.03259238
28	0xbaceb01c	-0.0015769037
29	0x3c18ffea	0.009338358
30	0xbd014cd6	-0.031567417
31	0x3c831c66	0.016004752
32	0x3d3d29d7	0.04618248
33	0x3ce1b88f	0.027553825
34	0x3ce3cec6	0.027808558
35	0x3d409eca	0.047026433
36	0x3d1579bb	0.036493044
37	0xbd00ed97	-0.031476583
38	0x3ddcf760	0.107893705
39	0xbd3f15d6	-0.046651684
40	0xbda3ba9a	-0.07994576
41	0x3d34c347	0.044131543
42	0x3da2c9b7	0.0794863
43	0x3e3f51c3	0.18683533
44	0xbcce484c	-0.025180958
45	0xbd998541	-0.07496119
46	0xbd01e4a7	-0.0317122
47	0x3d89a673	0.06721201
48	0x3d0980c9	0.033570085
49	0x3d9680fc	0.073488206
50	0x3bec38ba	0.007208911
51	0x3c65ed0e	0.014033569
52	0x3d14f001	0.036361698
53	0xbddee0ff	-0.10882758
54	0x3d185ff0	0.037200868
55	0x3cc36227	0.023850514
56	0x3d4d1607	0.050069835
57	0xbe0b6018	-0.13610876
58	0x3d6f51c8	0.058427602
59	0x3e01abe0	0.12663221
60	0xbc424ff0	-0.011859879
61	0xbd9c9ecf	-0.07647478
62	0x3e1a6734	0.15078431
63	0x3d049eb8	0.03237793

mu.weight f4 [8, 64]
0	0x3d053b3b	0.03252719
1	0x3dad8017	0.08471697
2	0xbe318ff2	-0.17340067
3	0xbd0698b3	-0.03286047
4	0xbe197fcd	-0.14990158
5	0xbd5bbb2d	-0.0536453
6	0x3e44fbb3	0.1923664
7	0x3e305560	0.17220068
8	0x3d625e31	0.05526561
9	0xbdfa3cea	-0.1221865
10	0xbdda21e3	-0.10650995
11	0xbd64f352	-0.05589611
12	0xbd0b1601	-0.03395653
13	0x3e3f95a7	0.18709432
14	0xbcb3f68f	-0.021968154
15	0x3dbf9d16	0.09356134
16	0x3c7b51f2	0.0153393615
17	0xbe16417a	-0.14673415
18	0xbe8e0582	-0.27738577
19	0xbea2cb61	-0.3179579
20	0xbda7bb29	-0.08189995
21	0xbdc4201f	-0.09576439
22	0x3d064a97	0.03278598
23	0x3d9d6be2	0.07686593
24	0xbe6bec36	-0.23039326
25	0x3da96fa1	0.08273245
26	0xbe0f6208	-0.1400224
27	0xbdcc83fa	-0.0998611
28	0x3e2d262d	0.16909094
29	0x3cefc456	0.029268425
30	0xbc762b91	-0.0150250355
31	0x3dd19438	0.102333486
32	0xbe57cd3f	-0.21074389
33	0xbd7a9ca1	-0.06118453
34	0x3df9e236	0.122013494
35	0xbdabaf71	-0.08383072
36	0x3e840efe	0.25792688
37	0xbe4e0778	-0.20120037
38	0x3dcc5266	0.09976654
39	0xbd53db16	-0.05172261
40	0xbc1bb409	-0.009503373
41	0xbe8ebbd4	-0.27877676
42	0xbe24feca	-0.1611282
43	0xbe2443df	-0.16041516
44	0xbecdfb7e	-0.40230936
45	0xbdf4fe1d	-0.11962531
46	0x3df3d744	0.11906293
47	0xbed07f70	-0.40722227
48	0x3e46e8b3	0.19424705
49	0x3da4f47e	0.08054446
50	0xbe0668e0	-0.13125944
51	0x3d943d9e	0.07238315
52	0x3eafb4c3	0.34317598
53	0x3d3788fa	0.044808365
54	0x3e320c8e	0.17387602
55	0x3ea7a7b1	0.32745126
56	0x3dd029af	0.101642005
57	0x3a6fc61e	0.0009146648
58	0xbe5c9570	-0.21541381
59	0x3959886a	0.00020745551
60	0xbcfa5c2d	-0.030561531
61	0xbe330f51	-0.17486311
62	0xbe1ca8eb	-0.15298812
63	0x3cc635cb	0.024195572
64	0xbca58b65	-0.02020807
65	0x3d43aee5	0.047774214
66	0x3e950dba	0.29112035
67	0xbcd6fffe	-0.026245113
68	0xbdc12527	-0.09430914
69	0xbe2d3f30	-0.16918635
70	0x3d26c84a	0.040718354
71	0x3c67e22f	0.014153047
72	0xbdadede4	-0.0849264
73	0x3e4b6101	0.19861223
74	0x3e2e5e9b	0.17028277
75	0x3b244fa8	0.0025071893
76	0xbe159ab5	-0.14609797
77	0x3dcc707a	0.09982391
78	0x3d8dd3d2	0.06925167
79	0x3df07ec1	0.117429264
80	0x3db442ba	0.088017896
81	0xbd646293	-0.05575807
82	0xbea3ae56	-0.31968945
83	0xbcb0ef78	-0.021598563
84	0x3ab14cd6	0.0013526927
85	0x3cd5383c	0.026027791
86	0xbe83df9a	-0.25756532
87	0xbd6c54af	-0.057697948
88	0x3c5136ea	0.01276944
89	0x3ddcefcb	0.107879244
90	0x3dec754c	0.1154581
91	0x3dce8c51	0.10085357
92	0xbc3a026b	-0.011353116
93	0x3cc1b121	0.023644032
94	0x3d946582	0.072459236
95	0xbe8f047e	-0.27933115
96	0xbd526b96	-0.051372133
97	0xbdb019ce	-0.08598672
98	0xbd77cba9	-0.06049696
99	0x3e105bad	0.14097472
100	0xbdfc7948	-0.1232782
101	0x3dd8d50c	0.105875105
102	0xbdc23f53	-0.094847344
103	0x3e2e941e	0.1704869
104	0x3d005e41	0.031339888
105	0x3d63307f	0.05546617
106	0xbcff4a50	-0.031163365
107	0xbe903434	-0.28164828
108	0x3e0f402e	0.13989326
109	0x3dc70eaf	0.097195975
110	0xbbc09868	-0.0058775432
111	0x3db5fe24	0.08886364
112	0xbe01b517	-0.12666737
113	0x3c82c59d	0.01596337
114	0xbe3af242	-0.18256477
115	0xba9f51de	-0.0012155136
116	0xbdb8e21f	-0.09027504
117	0x3e199824	0.14999443
118	0xbba9e534	-0.005184794
119	0x3cf08c34	0.029363729
120	0xbdf233c6	-0.11826281
121	0x3dda181b	0.10649129
122	0xbe0c7c6a	-0.13719335
123	0x3e6ead5d	0.2330832
124	0x3e1dd976	0.15414986
125	0x3e0286c6	0.12746724
126	0xbe2b560f	-0.16732047
127	0x3e27f379	0.16401471
128	0x3e1bc3bd	0.15211387
129	0x3e84fb31	0.25972894
130	0xbe393917	-0.18088184
131	0x3dd5992c	0.10429606
132	0x3d9d4921	0.07679964
133	0x3e2586ef	0.16164754
134	0xbf020fbc	-0.5080526
135	0xbe106a5f	-0.14103077
136	0xbdf08132	-0.11743392
137	0x3df0798d	0.11741934
138	0x3e6925b4	0.22768289
139	0x3d7e8173	0.06213517
140	0xbcde06b8	-0.027102813
141	0x3db66eb4	0.08907834
142	0xbc990a53	-0.01868168
143	0x3dd23408	0.102638304
144	0xbd615e78	-0.055021733
145	0xbd9a9b9c	-0.075492114
146	0x3d2c039e	0.041995637
147	0x3c979e6a	0.018508155
148	0x3dcf3730	0.10117948
149	0xbdbb9d07	-0.0916081
150	0xbd125c80	-0.035732746
151	0x3dbe4f55	0.09292475
152	0xbc4bf4cb	-0.0124485
153	0x3e2d8ee3	0.16949038
154	0x3dee8750	0.116469026
155	0x3ed7251d	0.42020503
156	0xbdea37e1	-0.11436439
157	0xbe154b36	-0.14579472
158	0xbe51daed	-0.2049367
159	0x3c884a74	0.016637065
160	0xbe370424	-0.17872673
161	0xbe56844f	-0.20948909
162	0xbe8ade2f	-0.27122638
163	0x3e94d08f	0.29065368
164	0x3e435ec6	0.19079122
165	0x3dea864d	0.11451397
166	0x3e0d2488	0.13783467
167	0xbe20b532	-0.1569412
168	0x3cba1504	0.0227151
169	0xbcc69ce4	-0.024244733
170	0x3e79b5ff	0.24385832
171	0xbea61ce4	-0.32443917
172	0x3de513b6	0.111854
173	0x3d02e684	0.031958118
174	0x3e4d7966	0.20065841
175	0xbb8e770a	-0.0043476867
176	0x3e11110d	0.1416666
177	0x3cf86a81	0.030324223
178	0x3e6b5a76	0.22983727
179	0xbe2e9b4c	-0.17051429
180	0xbd300ccd	-0.042980958
181	0xbc574d8b	-0.013141046
182	0xbd9c80c9	-0.07641751
183	0xbe5ba81a	-0.21450844
184	0x3d26f5c0	0.04076171
185	0x3d9cd971	0.07658661
186	0x3e6d8985	0.23196991
187	0x3c3bc068	0.011459447
188	0xbd5a499c	-0.053292856
189	0x3da2c068	0.07946855
190	0x3df6f565	0.12058524
191	0xbd2650a5	-0.040604252
192	0xbe6681f2	-0.22510508
193	0x3e0723c6	0.1319724
194	0x3da541cd	0.08069191
195	0x3e25ce1c	0.16191906
196	0xbdfdca75	-0.12392131
197	0x3d857220	0.06515908
198	0x3dd087e3	0.10182168
199	0x3e09a0ea	0.1344029
200	0xbbf7e1b5	-0.007564748
201	0x3dc8a09b	0.09796258
202	0xbde26861	-0.11055065
203	0x3e06dfe5	0.13171346
204	0xbdd7b67d	-0.10532854
205	0x3d6f9b57	0.058497753
206	0xbd77ec8c	-0.060528323
207	0xbe0603f9	-0.13087453
208	0xbe160b4d	-0.14652748
209	0x3dcfca10	0.10145962
210	0xbd5d3242	-0.054003008
211	0xbe29202d	-0.1651618
212	0x3e058eb0	0.13042712
213	0xbd97ea20	-0.07417703
214	0xbe257284	-0.16156965
215	0xbd279ac3	-0.040919077
216	0x3d5dac8f	0.054119643
217	0xbcc0e889	-0.023548381
218	0xbd57a624	-0.05264868
219	0x3ce189d6	0.027531546
220	0x3ce9f616	0.028559726
221	0x3dcf01ad	0.101077415
222	0x3df7c50e	0.12098132
223	0xbcf388ba	-0.029728282
224	0xbddc4be1	-0.1075666
225	0x3b69a4a7	0.003565112
226	0xbdf2e48f	-0.1186
227	0x3ab5b869	0.0013864163
228	0x3d30a76a	0.04312841
229	0x3b93b48b	0.0045076064
230	0x3dcd047a	0.100106195
231	0x3dab520e	0.0836526
232	0xbd9cd4f7	-0.07657807
233	0xbb7c3757	-0.0038485134
234	0x3dd94705	0.10609249
235	0xbd9969db	-0.074908935
236	0xbdda4609	-0.106578894
237	0x3e1ce8e8	0.15323222
238	0x3d9aaf27	0.07552939
239	0x39d798c4	0.00041121815
240	0xbae80b98	-0.001770365
241	0xbe215712	-0.15755871
242	0x3c67920f	0.014133944
243	0xbd29ca2b	-0.041452568
244	0xbd8ded1e	-0.06929992
245	0x3eafb5c4	0.34318364
246	0x3c25b846	0.010114735
247	0x3c9f32ee	0.019433465
248	0x3e8efa00	0.2792511
249	0xbc9d56d8	-0.01920645
250	0xbd49d8fc	-0.049279198
251	0xbe94b89a	-0.2904709
252	0xbd9e25c4	-0.07722047
253	0xbcae17d8	-0.021251604
254	0x3de0ce8e	0.10976897
255	0x3e190a24	0.14945275

mu.bias f4 [8]
0	0x3b9dda19	0.004817259
1	0xbdb6ff60	-0.08935428
2	0xbbd6b16c	-0.006551912
3	0xbd4bf715	-0.049796183
4	0x3d44f108	0.048081428
5	0x3de62a0c	0.112384886
6	0x3c908c8c	0.017645143
7	0x3db0f2bb	0.08640047

fc1.weight f4 [64, 111]
0	0xbedf7178	-0.43641257
1	0x3f086068	0.53272104
2	0x3f0908bc	0.5352895
3	0xbe974452	-0.29544312
4	0xbd89ae7f	-0.067227356
5	0x3dc333f0	0.09531391
6	0x3dfac291	0.12244142
7	0x3d141fde	0.036163203
8	0xbde65fdc	-0.112487525
9	0xbe0965ff	-0.13417815
10	0xbd9e6256	-0.077336
11	0x3d03b8a4	0.03215851
12	0x3e210958	0.1572622
13	0xbe4fa6b3	-0.20278434
14	0xbd7a6c6a	-0.061138548
15	0xbe4646b4	-0.19362909
16	0xbd646604	-0.055761352
17	0x3e687d25	0.22703989
18	0xbe141b84	-0.14463621
19	0xbcdb5a57	-0.026776476
20	0x3d0500ab	0.03247134
21	0xbd15d55f	-0.03658044
22	0x3c9e22cc	0.019303702
23	0xbd1c8d37	-0.03822061
24	0x3b95d923	0.004573004
25	0xbde3adda	-0.11117144
26	0x3d15b7c2	0.0365522
27	0xbdbda937	-0.09260791
28	0xbe8279b5	-0.2548348
29	0xbdc1c633	-0.094616316
30	0x3dd50ddd	0.10403035
31	0x3e2e1cad	0.17003126
32	0x3de3d0b7	0.111237936
33	0x3c15f3ba	0.009152347
34	0xbd8dcf9d	-0.06924365
35	0x3e131df7	0.143669
36	0xbd860266	-0.06543426
37	0x3cdee3cb	0.02720823
38	0x3d1866c6	0.037207387
39	0xbc055c70	-0.008139715
40	0xbda4102e	-0.080108985
41	0x3d940c29	0.07228882
42	0xbe466f4e	-0.19378397
43	0xbcd59daf	-0.026076166
44	0xbe436eff	-0.1908531
45	0xbd010833	-0.03150196
46	0xbcd4cf5a	-0.02597778
47	0xbe2c52a3	-0.16828398
48	0xbd9d878d	-0.0769187
49	0x3e0bc72e	0.136502
50	0xbdca3716	-0.09873788
51	0x3dba5dcf	0.09099924
52	0xbea17961	-0.31537917
53	0x3d2cf633	0.04222698
54	0x3da5493c	0.08070609
55	0x3d1ace90	0.03779465
56	0xbcb30057	-0.021850748
57	0x3d91b2b5	0.07114164
58	0xbde67830	-0.11253393
59	0xbe048c83	-0.12944226
60	0xbd3454b8	-0.044026107
61	0x3d94d539	0.072672315
62	0xbbc4fa50	-0.006011285
63	0xbd68c420	-0.056827664
64	0x3da1d3ac	0.07901701
65	0x3d8d3864	0.06895521
66	0xbdebb3b6	-0.115088865
67	0xbc8cb5a8	-0.017176464
68	0x3dc587e3	0.09645059
69	0x3e0ce93a	0.13760844
70	0x3db6d86b	0.08927997
71	0x3cb4ce1b	0.022070935
72	0xbda82050	-0.08209288
73	0xbda2de86	-0.07952599
74	0xbca68d8b	-0.020331165
75	0x3c6c1b1a	0.014410758
76	0xbdee5337	-0.11636966
77	0x3cdf016f	0.027222363
78	0x3be56c24	0.0070014168
79	0xbcb70929	-0.022343235
80	0xbddf182b	-0.108932815
81	0xbdc96471	-0.09833611
82	0x3cf76b54	0.030202545
83	0x3d71de08	0.059049636
84	0xbe393f2d	-0.18090506
85	0x3c29eae4	0.010370944
86	0xbdc30a9e	-0.095235094
87	0xbc4e0fde	-0.012577025
88	0xbd6aa73a	-0.057288386
89	0x3e5c3f7c	0.21508592
90	0xbe3ad748	-0.18246186
91	0x3d2eaaeb	0.04264347
92	0xbd8c5e79	-0.06853957
93	0x3cd26271	0.025681706
94	0x3de83288	0.11337763
95	0xbc2f9a8d	-0.010718
96	0xbd13455a	-0.03595481
97	0x3d876e3c	0.066128224
98	0xbd7919ff	-0.060815807
99	0xbd215425	-0.039386887
100	0x3d42897a	0.04749439
101	0x3da8c3a8	0.082404435
102	0xbcdd5f4f	-0.027022986
103	0xbcac2827	-0.02101524
104	0x3da1b10f	0.07895099
105	0xbd362cb7	-0.044476237
106	0xbcc40ba0	-0.023931324
107	0xbdbefa38	-0.09325069
108	0xbb9e26d3	-0.0048264056
109	0x3dda2a97	0.106526546
110	0xbd8f9b5c	-0.07012054
111	0xbed23663	-0.4105712
112	0x3f6b01c8	0.9179959
113	0xbcc8fec0	-0.024535537
114	0xbea83ce2	-0.3285895
115	0x3e7c6fc5	0.24652012
116	0x3e340f88	0.1758405
117	0xbd214069	-0.039368067
118	0x3b81c735	0.003960515
119	0x3df0c4b5	0.11756269
120	0x3e8c31ab	0.27381644
121	0x3c07f344	0.008297745
122	0x3daf7eaa	0.08569081
123	0xbdc2ef54	-0.095183045
124	0x3d194bfc	0.03742598
125	0x3cc9c376	0.024629336
126	0xbe89d422	-0.26919657
127	0xbd055244	-0.032549158
128	0x3a9be61f	0.0011894143
129	0x3bf1dd22	0.0073810974
130	0xbcd41567	-0.025889112
131	0xbd1d967b	-0.038473587
132	0x3beb4565	0.0071799033
133	0xbcd19c23	-0.025587147
134	0xbb852f3c	-0.0040644687
135	0xbb0511cf	-0.0020304804
136	0x3bd1eedc	0.006406648
137	0xbba586c1	-0.0050514643
138	0xbd4b3ece	-0.049620442
139	0x3d31ccbf	0.04340815
140	0x3db022e2	0.08600403
141	0x3d847a3f	0.06468629
142	0x3d535512	0.0515948
143	0xbe1636b6	-0.14669308
144	0x3d18c438	0.037296504
145	0x3d20b68f	0.0392366
146	0xbd4f78e2	-0.050652392
147	0xbd892054	-0.06695619
148	0xbc5ea65d	-0.013589469
149	0x3d5fecfb	0.05466936
150	0xbd964ab2	-0.07338466
151	0xbd546575	-0.05185457
152	0x3d7a283b	0.061073523
153	0x3de21768	0.11039621
154	0xbd1840d9	-0.03717122
155	0x3dfba165	0.12286643
156	0x3d16bb5f	0.036799785
157	0xbd127d2e	-0.035763912
158	0x3dfda48e	0.12384902
159	0xbdf66844	-0.12031606
160	0xb929cb58	-0.00016192847
161	0xbe38bbd5	-0.18040402
162	0xbd43b7ec	-0.047782823
163	0xbdf07eda	-0.11742945
164	0xbca12c29	-0.019674378
165	0xbd952be8	-0.07283765
166	0x3e446092	0.19177464
167	0xbe07ff22	-0.13280919
168	0x3baabb19	0.005210292
169	0xbc1a9a4c	-0.009436201
170	0x3e27f44e	0.16401789
171	0xbcdd0f42	-0.026984815
172	0xbccbe775	-0.02489064
173	0x3da6efb7	0.08151191
174	0x3dd60603	0.104503654
175	0xbbfebb61	-0.007773802
176	0x3c543cd4	0.012953956
177	0x3e284cae	0.16435501
178	0x3e144833	0.14480667
179	0x3e1896c0	0.14901257
180	0xbc5fe435	-0.013665249
181	0xbdb4289f	-0.0879681
182	0x3bd29cf7	0.006427403
183	0x3e1429b3	0.14469032
184	0xbd52db22	-0.051478513
185	0x3da76dcd	0.0817524
186	0x3da5b671	0.080914386
187	0x3dd466a1	0.103711374
188	0xbd17d23a	-0.037065722
189	0xbcde307c	-0.027122729
190	0x3e2467d6	0.16055235
191	0xbe188605	-0.14894874
192	0xbd63a64a	-0.055578507
193	0x3e044c09	0.1291963
194	0xbdb958a0	-0.09050107
195	0xbbcf1822	-0.0063200155
196	0xbe4329b2	-0.19058874
197	0x3dc83129	0.097750016
198	0xbc9d0c47	-0.019170893
199	0x3dd06065	0.10174636
200	0x3ca5067d	0.020144695
201	0x3ca26ef8	0.019828305
202	0x3e075e21	0.13219501
203	0xbd538673	-0.051641893
204	0x3ce43c63	0.027860826
205	0x3c5ae7fe	0.013360975
206	0x39d6c89b	0.00040966723
207	0xbd9f146a	-0.077675655
208	0xbdb0f2a3	-0.08640029
209	0x3d988140	0.074465275
210	0x3dcf9bc2	0.1013713
211	0x3d963606	0.07334523
212	0x3e634ba4	0.22196823
213	0xbd30f733	-0.043204498
214	0x3e3e4d69	0.18584217
215	0x3e809e70	0.25120878
216	0xbca33f49	-0.019927638
217	0x3b93a581	0.0045058136
218	0xbe09d7e7	-0.13461266
219	0xbdc17a15	-0.094471134
220	0xbd478f28	-0.04872051
221	0xbd0bdc87	-0.03414586
222	0x3ed827c1	0.4221783
223	0xbf56332f	-0.8367185
224	0x3e5923e1	0.21205093
225	0xbe116bec	-0.14201325
226	0xbf32545b	-0.69659966
227	0x3e700005	0.23437507
228	0x3e5324e7	0.20619546
229	0xbe98204c	-0.2971214
230	0xbdfee5d9	-0.12446184
231	0xbe550792	-0.20803669
232	0xbe578247	-0.2104579
233	0x3e6192bb	0.2202863
234	0x3f04455c	0.51668334
235	0x3d945d27	0.0724433
236	0x3e1f72fa	0.15571204
237	0x3e15176f	0.1455972
238	0xbd929bed	-0.07158647
239	0x3e4bd834	0.19906694
240	0xbd9d6163	-0.07684591
241	0x3d004a86	0.03132107
242	0x3d9faa97	0.07796209
243	0x3c6c1d89	0.014411339
244	0xbbe33c60	-0.0069346875
245	0xbdbf3044	-0.09335378
246	0x3d06e620	0.032934308
247	0xbe06463c	-0.1311273
248	0xbdd1e985	-0.102496184
249	0xbdf06dac	-0.11739668
250	0x3c2d377d	0.0105723115
251	0x3d8b1ac8	0.067922175
252	0x3d03f35c	0.032214507
253	0xbd6b356b	-0.05742399
254	0xbd5e6aea	-0.05430118
255	0xbdd04122	-0.10168673

fc1.bias f4 [64]
0	0x3f13b1ab	0.57692975
1	0xbe695e59	-0.22789897
2	0x3ce91637	0.028452976
3	0x3eb312a0	0.34975147
4	0xbe86b461	-0.26309493
5	0x3d0062ac	0.0313441
6	0xbf209ca7	-0.6273903
7	0x3f3bbaf9	0.7333217
8	0x3e953ff8	0.29150367
9	0x3f5c0d13	0.8595745
10	0x3eb890b1	0.3604789
11	0x3e2d9e41	0.169549
12	0xbe258195	-0.16162713
13	0x3f1ae471	0.60504824
14	0xbe272cf8	-0.16325748
15	0x3ee83245	0.45350853
16	0x3f91c099	1.1386901
17	0x3f81c163	1.0137142
18	0x3ea2c691	0.3179212
19	0x3f34949a	0.7053925
20	0xb94f0681	-0.00019743481
21	0xbde4bdcb	-0.11169013
22	0x3f126bb7	0.5719561
23	0xbeab4443	-0.33450517
24	0xbe030d56	-0.12798056
25	0x3e108c5d	0.14116044
26	0x3e84ff3f	0.25975987
27	0xbea6438d	-0.32473412
28	0x3e9e9408	0.30972314
29	0x3efbf4cc	0.49210203
30	0x3e75532b	0.23957507
31	0xbf020ab3	-0.50797576
32	0x3ef4c00c	0.4780277
33	0x3f7bb8b2	0.983287
34	0xbd8e339f	-0.0694344
35	0x3e9636d7	0.29338714
36	0xbef1f8e1	-0.47260192
37	0xbecb2144	-0.39673817
38	0xbe929160	-0.28626537
39	0x3e86bd73	0.26316413
40	0xbd85cd51	-0.065333016
41	0xbefb7dbe	-0.4911937
42	0x3f9bf81e	1.2185094
43	0x3eb7e882	0.35919577
44	0xbe23dee8	-0.16003
45	0xbc42b709	-0.011884459
46	0xbe6c2074	-0.23059255
47	0xbe8ae53f	-0.27128026
48	0xbed222b2	-0.41042095
49	0x3f18cf01	0.5969086
50	0x3dd8e180	0.10589886
51	0xbee3b979	-0.44477442
52	0x3cc551d9	0.02408688
53	0xbd24cbf0	-0.040233552
54	0x3ef5e543	0.48026475
55	0x3f0ae635	0.5425752
56	0xbe9963ee	-0.29959053
57	0xbedc7f1e	-0.43065733
58	0xbf0e1cfe	-0.5551299
59	0x3f15359e	0.5828494
60	0x3ee309d3	0.44343433
61	0x3ebd8742	0.37017256
62	0x3e2b55ed	0.16731997
63	0xbe8b9ddb	-0.27268872

fc2.weight f4 [64, 64]
0	0x3dbe2793	0.09284892
1	0x3f51dd86	0.8197864
2	0xbc070510	-0.008240953
3	0xbea530a6	-0.32263678
4	0xbe6a863f	-0.22902773
5	0x3dc17245	0.09445623
6	0x3f552ad8	0.832685
7	0x3e271209	0.16315474
8	0xbe2dc3db	-0.16969244
9	0x3db12be1	0.08650947
10	0xbee32eb2	-0.44371563
11	0xbe8bad89	-0.27280834
12	0xbf30f03d	-0.69116575
13	0x3def4ebb	0.116849385
14	0x3ebdf722	0.3710261
15	0x3e376c0e	0.17912313
16	0xbe8bec17	-0.2732856
17	0xbf90e015	-1.1318384
18	0x3e4f18e0	0.20224333
19	0xbf279f4b	-0.65477437
20	0x3f0fa6b8	0.5611377
21	0xbeed6921	-0.4636927
22	0xbf5384ff	-0.8262481
23	0x3e8f4445	0.27981773
24	0x3f2f91c7	0.68581814
25	0xbf269e75	-0.65085536
26	0xbf2ac507	-0.6670689
27	0xbe9c0977	-0.3047597
28	0x3d15bb3a	0.036555506
29	0xbf573f89	-0.8408132
30	0xbefc6e22	-0.49302775
31	0x3f2296c2	0.6351129
32	0xbe0e6e39	-0.13909234
33	0x3e0dbbaf	0.13841127
34	0x3f418abb	0.7560231
35	0xbf8ad09c	-1.0844913
36	0x3f7d3527	0.9890923
37	0xbed4380b	-0.41449007
38	0x3f04e263	0.5190794
39	0xbf9145e5	-1.1349455
40	0x3ec5c83c	0.3862933
41	0x3d7fcffa	0.0624542
42	0xbf3e6ee1	-0.7438794
43	0x3eb317f9	0.34979227
44	0x3e2333a2	0.15937665
45	0x3f21c3cf	0.63189405
46	0xbf646e85	-0.8923114
47	0xbf62dca7	-0.8861794
48	0x3eff64e1	0.49881652
49	0xbf565598	-0.83724356
50	0x3e4cf8f9	0.2001685
51	0xbeca431d	-0.39504328
52	0x3f337f7c	0.701164
53	0x3d8aacc6	0.06771235
54	0xbf84eb66	-1.0384338
55	0x3e14e2ea	0.14539686
56	0x3f2fd4e0	0.68684196
57	0x3f142a77	0.57877296
58	0xbf68b0f7	-0.90895027
59	0x3edbd6fc	0.42937458
60	0x3d944d56	0.07241313
61	0xbf0f4273	-0.5596077
62	0xbf36d4ab	-0.71418256
63	0x3d08a23e	0.03335785
64	0x3e74f0cf	0.23919986
65	0x3e6833e6	0.22676048
66	0xbdeea27a	-0.11652084
67	0x3f1d44c0	0.6143303
68	0x3d307a3b	0.043085318
69	0x3eb0e49f	0.34549424
70	0x3f020fb3	0.50805205
71	0xbd86e689	-0.0658694
72	0xbe2b4a85	-0.16727646
73	0x3e14364a	0.14473835
74	0x3ec78080	0.38965225
75	0x3ed794a7	0.421056
76	0xbedd948b	-0.43277392
77	0xbcfe531a	-0.031045485
78	0x3e49251a	0.1964306
79	0x3d1e1613	0.03859527
80	0x3ead4f72	0.33849674
81	0xbeb7f71a	-0.3593071
82	0xbeaee2cf	-0.34157416
83	0xbe6e0425	-0.23243769
84	0xbe5fb1c7	-0.2184516
85	0x3d37fc76	0.0449185
86	0x3ecda065	0.40161434
87	0x3eb08d7f	0.34482953
88	0x3dd491b2	0.10379352
89	0xbf21808c	-0.6308677
90	0xbd6e68ce	-0.05820542
91	0x3d4869b9	0.04892895
92	0x3e39f6f7	0.18160616
93	0x3daf52a3	0.085606836
94	0x3c4447a7	0.011979974
95	0x3df4e65f	0.11958002
96	0xbddbc1e3	-0.1073034
97	0xbec6c2c6	-0.38820475
98	0xbeab40f2	-0.33447987
99	0x3e9da863	0.3079253
100	0xbda45f80	-0.08026028
101	0xbd28f2a7	-0.041247036
102	0xbd058ccb	-0.032604974
103	0x3e4bea20	0.1991353
104	0x3e081786	0.13290223
105	0xbe4607e0	-0.19338942
106	0xbdfcd0f6	-0.12344544
107	0x3e054171	0.13013245
108	0xbdbf943b	-0.093544446
109	0x3de7f042	0.113251224
110	0xbe8e7d45	-0.27829948
111	0xbf14c9a5	-0.58120185
112	0xbcc4097c	-0.023930304
113	0xbda0860e	-0.07838069
114	0xbea20abb	-0.31648812
115	0x3dcc1634	0.099651724
116	0xbdbe66b5	-0.092969336
117	0xbc29f880	-0.010374188
118	0x3e8c0834	0.27350008
119	0xbe2e8224	-0.17041832
120	0x3eeb6210	0.45973253
121	0xbdfa17d6	-0.122115776
122	0x3cc48968	0.023991302
123	0xbed5bef9	-0.41747263
124	0xbdb4ac2e	-0.08821903
125	0x3f43c951	0.7647906
126	0xbd0159c6	-0.031579755
127	0x3e0d6e09	0.13811506
128	0xbfb3bc40	-1.4041824
129	0x3d3bb22b	0.04582421
130	0x3f8362ff	1.0264586
131	0xbe9b269b	-0.3030289
132	0xbf45c93e	-0.77260196
133	0xbd520617	-0.05127534
134	0x3fd79724	1.6843
135	0xbfca88e6	-1.5823028
136	0x3f0533e6	0.52032316
137	0xbed55017	-0.41662666
138	0xbf3e71b6	-0.7439226
139	0x3f8c737b	1.0972742
140	0x3eee0ec7	0.4649565
141	0xbfeb4507	-1.838044
142	0x3f1113f5	0.56671077
143	0xbf07478a	-0.52843535
144	0xc0300a6b	-2.7506359
145	0xc07c3c78	-3.9411907
146	0x3e5d4a57	0.2161039
147	0xbfc84e18	-1.5648832
148	0xbd343e85	-0.044004936
149	0x3e6dd169	0.23224415
150	0xbeb14d17	-0.34629127
151	0x3eb7e881	0.35919574
152	0x3f0b32d7	0.5437445
153	0xbe505c3b	-0.20347683
154	0xbf52977d	-0.822624
155	0x3d219e56	0.03945764
156	0xbd18a3a8	-0.03726545
157	0xbf288e4e	-0.6584214
158	0xbf5c279a	-0.8599793
159	0x3bd5809a	0.0065155746
160	0xbeb4aec6	-0.35289592
161	0xc00522c5	-2.0802472
162	0xbf337068	-0.70093393
163	0xbdbe81c8	-0.093020976
164	0x3f3a9c43	0.72894686
165	0x3f66679f	0.90001863
166	0x3e8e07dc	0.2774037
167	0xbdfac396	-0.12244336
168	0x3f05e282	0.5229875
169	0x3e9d4d9e	0.3072328
170	0xc0399317	-2.8996027
171	0xbf39e2a5	-0.7261146
172	0xbebb9b9e	-0.36642164
173	0x3e729b1a	0.23691979
174	0xbe77f450	-0.24214292
175	0x3e2faa7e	0.17154881
176	0x3ec4d9ba	0.38447362
177	0xbe7cbd0c	-0.2468149
178	0xbe77a5ac	-0.24184293
179	0x3d058d19	0.032605264
180	0xbeedaddb	-0.46421704
181	0x3ebf88f3	0.3740917
182	0xbf3f44d4	-0.747144
183	0x3ec3d943	0.38251695
184	0x3ffd3a45	1.9783407
185	0x3e5d2e32	0.21599653
186	0xbf0dd96a	-0.5540987
187	0xbf3ff266	-0.74979246
188	0x3bc85438	0.0061135553
189	0x3e027c88	0.12742817
190	0xbf0044b5	-0.5010484
191	0xbea454cf	-0.32095954
192	0x3f256a3a	0.64615214
193	0x3f6e2a17	0.93032974
194	0xbf65613f	-0.8960151
195	0x3ee22590	0.44169283
196	0x3f94db24	1.1629376
197	0x3e44a12b	0.19202106
198	0xbf8d3c36	-1.1034
199	0x3fb3d593	1.4049553
200	0xbf9e9211	-1.2388326
201	0xbe8c7de7	-0.27439806
202	0x3f4296fe	0.76011646
203	0xbfa0d5be	-1.2565229
204	0xbf974322	-1.1817362
205	0x3f97cf20	1.1860085
206	0xbfff0723	-1.9924053
207	0xbece67a0	-0.40313435
208	0x3febed10	1.8431721
209	0x3f89b65b	1.0758775
210	0xbf5063af	-0.81402105
211	0x3fbfe78a	1.4992535
212	0x3f1e63bc	0.6187093
213	0xbf9e25dd	-1.2355305
214	0x3f9d8d71	1.230879
215	0x3ef69aef	0.4816508
216	0x3f5a981f	0.8538837
217	0xbf374913	-0.7159588
218	0xbe070bf0	-0.13188148
219	0x3f2efb63	0.68352336
220	0x3f93beb1	1.1542569
221	0xbf33c4a6	-0.70221937
222	0x3f384952	0.7198688
223	0x3f5c4635	0.8604463
224	0xbf0c45b8	-0.5479388
225	0x3fbbd268	1.4673586
226	0x3f3f47e8	0.74719095
227	0xbf2c8dc7	-0.67403835
228	0x3ecfd61f	0.4059305
229	0xbf29ce40	-0.6633034
230	0xbf1e22ef	-0.61772054
231	0xbf540b40	-0.82829666
232	0x3ebcdbc5	0.3688642
233	0xbf5f6017	-0.87255996
234	0x3fcbf031	1.5932676
235	0x3f971713	1.1803917
236	0x3fbc2d2c	1.4701285
237	0xbf94680f	-1.1594256
238	0x3e9fa557	0.31180832
239	0x3f30d208	0.6907048
240	0xbf88425e	-1.0645254
241	0xbf39d7ff	-0.7259521
242	0xbee34596	-0.44389027
243	0x3f2f739e	0.6853579
244	0x3f0b2017	0.5434584
245	0x3eb8f44a	0.36123878
246	0xbec12615	-0.37724367
247	0xbf8be802	-1.0930178
248	0xbf6109fb	-0.87905854
249	0x3f50a938	0.8150821
250	0x3f96b6cc	1.1774535
251	0x3f0bb03b	0.5456578
252	0x3e44f75a	0.19234982
253	0x3f67acb9	0.9049793
254	0xbe068955	-0.13138326
255	0x3f97256a	1.1808293

fc2.bias f4 [64]
0	0xbf5893c6	-0.84600484
1	0x3e0169e7	0.12638055
2	0xbf993945	-1.1970602
3	0xbe4df37b	-0.20112412
4	0xbec1f15f	-0.37879464
5	0x3f574f97	0.8410582
6	0x400295b0	2.0403862
7	0xbd85d586	-0.06534867
8	0xbec86508	-0.3913958
9	0xbdba2a04	-0.09090045
10	0xc00f3707	-2.2377336
11	0xc00d0339	-2.2033217
12	0xbee739d9	-0.45161322
13	0xbec2a34e	-0.38015217
14	0x3ffc7568	1.972333
15	0xbebb5181	-0.3658562
16	0xbe51bc59	-0.20482005
17	0x3fd59042	1.6684649
18	0x3f06ac0e	0.52606285
19	0x3fdfead9	1.7493545
20	0xbf257df7	-0.6464533
21	0xbf50e3d8	-0.8159766
22	0xbf9fa54c	-1.247232
23	0xbf5543a5	-0.8330634
24	0x3f6ab053	0.916753
25	0xbf9c60ab	-1.2217001
26	0x3d05c978	0.03266284
27	0xbf3124cb	-0.69196767
28	0x3ea44d9b	0.32090458
29	0xbe2ff748	-0.17184174
30	0xbf827572	-1.0192091
31	0xbe1587d5	-0.14602597
32	0x3f485903	0.7826082
33	0xbe8d2f4e	-0.27575153
34	0x3e95f9af	0.29292056
35	0xbde2d5c4	-0.11075929
36	0x3c95ef1b	0.018302491
37	0x3def311d	0.116792895
38	0xbf79f120	-0.9763355
39	0xbda257d8	-0.07926911
40	0xc00f9eb7	-2.2440622
41	0x3c8f0f70	0.017463416
42	0x3f1c5233	0.61062926
43	0x3d2d9197	0.042375173
44	0xbe5767ae	-0.21035644
45	0xbfb96608	-1.4484262
46	0xbf3248a1	-0.6964207
47	0x3d8374ae	0.06418739
48	0x3f96e975	1.1789995
49	0x3f23b90b	0.6395423
50	0x3f42666a	0.7593752
51	0x3f440009	0.76562554
52	0x3f9ee4c1	1.241356
53	0xbd2ebd7e	-0.042661183
54	0x3d9a4565	0.07532767
55	0x3f4a190c	0.7894447
56	0x3e2b6a51	0.16739775
57	0xbd20e1ed	-0.03927796
58	0x3fc27fe3	1.5195278
59	0x40105ec4	2.255784
60	0xbebe2e2f	-0.3714461
61	0xbef80aa9	-0.48445633
62	0x3d6e0325	0.058108468
63	0xbfd73b64	-1.6815

value.weight f4 [1, 64]
0	0xc0fdeb2a	-7.9349566
1	0xc1015d73	-8.085315
2	0xc0f36483	-7.6060195
3	0x40f81fc9	7.75388
4	0x40f9c257	7.804973
5	0xc0f42b87	-7.6303134
6	0x40fd4537	7.914699
7	0x40e9f06e	7.3105993
8	0xc0f3f2f0	-7.6234055
9	0xc0f262ca	-7.574559
10	0xc0ff8cfd	-7.9859605
11	0xc104a608	-8.290535
12	0x40f9b28b	7.803045
13	0x40fe1db1	7.9411244
14	0x40ee6939	7.4503446
15	0x40fea9ef	7.958244
16	0xc0f1ad0a	-7.552373
17	0x41015ce4	8.085178
18	0xc0f9e972	-7.8097467
19	0x40f15b7a	7.5424166
20	0x40f9cc0d	7.8061585
21	0x40f8731d	7.764052
22	0xc0fb934c	-7.8617306
23	0x40f76fcc	7.732397
24	0xc0f57155	-7.6700845
25	0xc0f8d4a3	-7.7759566
26	0x40f818d8	7.7530327
27	0xc0e4fb1e	-7.155654
28	0xc0fd64ee	-7.9185705
29	0xc0f48c5f	-7.642135
30	0x40f9b942	7.8038645
31	0x40fb36ab	7.8504233
32	0xc0f8e1c4	-7.7775593
33	0x40edf94e	7.4366827
34	0x40fc3595	7.881541
35	0xc0fcb4ff	-7.8970942
36	0xc10302fe	-8.1882305
37	0x40eefcf2	7.468377
38	0xc103d76f	-8.240096
39	0xc101b9c9	-8.107858
40	0xc102943a	-8.161188
41	0xc0ec7233	-7.3889403
42	0x4101b818	8.107445
43	0x40facad4	7.8372593
44	0x40fa6415	7.824717
45	0xc1025a70	-8.147079
46	0x40f9fee8	7.8123665
47	0x40f75c62	7.730027
48	0x40ef422d	7.476828
49	0xc0fb6177	-7.8556476
50	0x41015aba	8.08465
51	0x40e61da6	7.191119
52	0x40f2590f	7.5733714
53	0xc0f36033	-7.605493
54	0xc0f99da0	-7.8004913
55	0x40f07d4c	7.515295
56	0x40f3392d	7.6007295
57	0x40f9a21e	7.8010397
58	0x40f2fb17	7.5931506
59	0x41039fb2	8.226488
60	0xc0f46332	-7.637109
61	0x40e1a4cf	7.051368
62	0xc0f8d463	-7.775926
63	0xc0fe2aa5	-7.9427056

exp_avg f4 [1, 8]
0	0xbaf821f3	-0.0018931016
1	0x3b031234	0.0019999864
2	0x3b0b719e	0.0021277438
3	0xbb7db95f	-0.0038715226
4	0xbb67af57	-0.0035352313
5	0xbbb7f216	-0.0056135757
6	0xbb4be0a2	-0.0031109233
7	0xb98e49e1	-0.00027139395

exp_avg_sq f4 [1, 8]
0	0x38c53db5	9.405186e-05
1	0x38c5a812	9.4249976e-05
2	0x38dbfbe9	0.00010489656
3	0x38d58557	0.00010181468
4	0x38b576ef	8.652906e-05
5	0x38f55054	0.00011697473
6	0x38e892c0	0.000110899564
7	0x38d2aa60	0.00010045315

exp_avg f4 [64, 111]
0	0xba459c80	-0.0007538274
1	0xba092781	-0.0005232022
2	0xb7ac58b3	-2.0545302e-05
3	0x39bf2280	0.00036456063
4	0x3a8a1211	0.0010533949
5	0xbae82f78	-0.0017714342
6	0x3a1af495	0.00059110794
7	0xb8d53348	-0.00010166183
8	0x3a263e6e	0.00063417
9	0x39e73f07	0.00044106712
10	0x39864743	0.00025611566
11	0x39511d0c	0.00019942614
12	0x394cd17a	0.00019532992
13	0xbb531e18	-0.0032213982
14	0x3a9c93e6	0.0011945933
15	0xbae5f4e6	-0.0017544299
16	0x3b356999	0.002768135
17	0x3b01e587	0.0019820647
18	0x3a96708e	0.0011477636
19	0xbaf577db	-0.0018727736
20	0x3b4b9e8e	0.0031069848
21	0xb9277953	-0.00015971558
22	0x3ab07c73	0.0013464823
23	0xb9c6edab	-0.0003794258
24	0x38e7783e	0.00011037335
25	0xbacdcb55	-0.0015700856
26	0xbb50bb8b	-0.0031850066
27	0x00000000	0.0
28	0x00000000	0.0
29	0x00000000	0.0
30	0x00000000	0.0
31	0x00000000	0.0
32	0x00000000	0.0
33	0x00000000	0.0
34	0x00000000	0.0
35	0x00000000	0.0
36	0x00000000	0.0
37	0x00000000	0.0
38	0x00000000	0.0
39	0x00000000	0.0
40	0x00000000	0.0
41	0x00000000	0.0
42	0x00000000	0.0
43	0x00000000	0.0
44	0x00000000	0.0
45	0x00000000	0.0
46	0x00000000	0.0
47	0x00000000	0.0
48	0x00000000	0.0
49	0x00000000	0.0
50	0x00000000	0.0
51	0x00000000	0.0
52	0x00000000	0.0
53	0x00000000	0.0
54	0x00000000	0.0
55	0x00000000	0.0
56	0x00000000	0.0
57	0x00000000	0.0
58	0x00000000	0.0
59	0x00000000	0.0
60	0x00000000	0.0
61	0x00000000	0.0
62	0x00000000	0.0
63	0x00000000	0.0
64	0x00000000	0.0
65	0x00000000	0.0
66	0x00000000	0.0
67	0x00000000	0.0
68	0x00000000	0.0
69	0x00000000	0.0
70	0x00000000	0.0
71	0x00000000	0.0
72	0x00000000	0.0
73	0x00000000	0.0
74	0x00000000	0.0
75	0x00000000	0.0
76	0x00000000	0.0
77	0x00000000	0.0
78	0x00000000	0.0
79	0x00000000	0.0
80	0x00000000	0.0
81	0x00000000	0.0
82	0x00000000	0.0
83	0x00000000	0.0
84	0x00000000	0.0
85	0x00000000	0.0
86	0x00000000	0.0
87	0x00000000	0.0
88	0x00000000	0.0
89	0x00000000	0.0
90	0x00000000	0.0
91	0x00000000	0.0
92	0x00000000	0.0
93	0x00000000	0.0
94	0x00000000	0.0
95	0x00000000	0.0
96	0x00000000	0.0
97	0x00000000	0.0
98	0x00000000	0.0
99	0x00000000	0.0
100	0x00000000	0.0
101	0x00000000	0.0
102	0x00000000	0.0
103	0x00000000	0.0
104	0x00000000	0.0
105	0x00000000	0.0
106	0x00000000	0.0
107	0x00000000	0.0
108	0x00000000	0.0
109	0x00000000	0.0
110	0x00000000	0.0
111	0x3a5059ec	0.000794797
112	0xb994ab13	-0.0002835622
113	0x3930adbf	0.00016849393
114	0x388e47c2	6.7844536e-05
115	0x3a3f1372	0.00072889694
116	0xbb2089c1	-0.002449617
117	0x39ef2c12	0.00045618467
118	0xbaa1f994	-0.0012357705
119	0x39c9bad4	0.00038476905
120	0xb9f4ec2c	-0.00046715268
121	0x398d7ff2	0.00026988942
122	0x3a528ed6	0.00080321485
123	0xbb0add6d	-0.002118911
124	0xbb8d2d06	-0.0043083457
125	0x3963b265	0.00021714864
126	0xbb8bbcbe	-0.004264443
127	0x3a0c14e0	0.0005343687
128	0x3b0771ed	0.002066727
129	0x3a8c8c0e	0.0010722892
130	0xbb96c1ec	-0.004600754
131	0x3a8c743b	0.0010715792
132	0xbc5eb27f	-0.0135923615
133	0x3a720e8d	0.00092337356
134	0xbba5fd83	-0.0050656213
135	0x3a81336b	0.0009857243
136	0x3c59631f	0.013268261
137	0xbbb5e5c3	-0.0055510714
138	0x00000000	0.0
139	0x00000000	0.0
140	0x00000000	0.0
141	0x00000000	0.0
142	0x00000000	0.0
143	0x00000000	0.0
144	0x00000000	0.0
145	0x00000000	0.0
146	0x00000000	0.0
147	0x00000000	0.0
148	0x00000000	0.0
149	0x00000000	0.0
150	0x00000000	0.0
151	0x00000000	0.0
152	0x00000000	0.0
153	0x00000000	0.0
154	0x00000000	0.0
155	0x00000000	0.0
156	0x00000000	0.0
157	0x00000000	0.0
158	0x00000000	0.0
159	0x00000000	0.0
160	0x00000000	0.0
161	0x00000000	0.0
162	0x00000000	0.0
163	0x00000000	0.0
164	0x00000000	0.0
165	0x00000000	0.0
166	0x00000000	0.0
167	0x00000000	0.0
168	0x00000000	0.0
169	0x00000000	0.0
170	0x00000000	0.0
171	0x00000000	0.0
172	0x00000000	0.0
173	0x00000000	0.0
174	0x00000000	0.0
175	0x00000000	0.0
176	0x00000000	0.0
177	0x00000000	0.0
178	0x00000000	0.0
179	0x00000000	0.0
180	0x00000000	0.0
181	0x00000000	0.0
182	0x00000000	0.0
183	0x00000000	0.0
184	0x00000000	0.0
185	0x00000000	0.0
186	0x00000000	0.0
187	0x00000000	0.0
188	0x00000000	0.0
189	0x00000000	0.0
190	0x00000000	0.0
191	0x00000000	0.0
192	0x00000000	0.0
193	0x00000000	0.0
194	0x00000000	0.0
195	0x00000000	0.0
196	0x00000000	0.0
197	0x00000000	0.0
198	0x00000000	0.0
199	0x00000000	0.0
200	0x00000000	0.0
201	0x00000000	0.0
202	0x00000000	0.0
203	0x00000000	0.0
204	0x00000000	0.0
205	0x00000000	0.0
206	0x00000000	0.0
207	0x00000000	0.0
208	0x00000000	0.0
209	0x00000000	0.0
210	0x00000000	0.0
211	0x00000000	0.0
212	0x00000000	0.0
213	0x00000000	0.0
214	0x00000000	0.0
215	0x00000000	0.0
216	0x00000000	0.0
217	0x00000000	0.0
218	0x00000000	0.0
219	0x00000000	0.0
220	0x00000000	0.0
221	0x00000000	0.0
222	0x394d8875	0.00019601158
223	0x3ac4d318	0.0015016524
224	0x39ee4a18	0.00045450102
225	0x3809445a	3.2727003e-05
226	0xb896eada	-7.196302e-05
227	0xb98263b0	-0.00024869805
228	0x39e3374b	0.0004333801
229	0xba08267c	-0.0005193723
230	0xba565cbb	-0.000817727
231	0x3afdbcb4	0.0019358606
232	0xba4d897b	-0.00078406156
233	0xb9f49a1d	-0.0004665413
234	0x3b38db1f	0.0028206778
235	0x3bbf5c5b	0.005839867
236	0x3a80c017	0.0009822872
237	0x3b767d64	0.003761136
238	0x3bae92ca	0.005327557
239	0xbad13448	-0.0015961016
240	0x3b22da35	0.00248493
241	0x3b6bc2d1	0.0035974274
242	0xbb234fcc	-0.0024919389
243	0x3c018c3e	0.0079069715
244	0x3b7b4614	0.003834133
245	0xb9965515	-0.0002867362
246	0x39ba2887	0.0003550688
247	0xbc4467bd	-0.011987624
248	0x39d766ae	0.00041084498
249	0x00000000	0.0
250	0x00000000	0.0
251	0x00000000	0.0
252	0x00000000	0.0
253	0x00000000	0.0
254	0x00000000	0.0
255	0x00000000	0.0
