drl/ran2/Ant75000_ran2_weights.pth (torch, 292784 bytes, 36 tensors)

log_std f4 [1, 8]
00000000: b8e1 b7bf e353 f7bf 5cda 9dbf ee0e c2bf
00000010: 3b2b b7bf fceb d2bf 2ad8 b0bf 6d5b ccbf
-1.4365759 -1.9322475 -1.2332263 -1.5160806 -1.4310068 -1.6478267 -1.3815968 -1.5965401

fc1.weight f4 [64, 111]
00000000: 1ded b0be b44f 46bd c4a3 073e b6b7 61bd
00000010: 4565 e73d f197 1fbe 7242 3f3c 3890 743d
00000020: 33ae 503d 405b a23c 450b 82be 0e6d 71be
00000030: c504 a53d a5ca c6bd a7b8 4f3c ed87 2b3d
00000040: c98d 483d 980d 9f3c c41f a3bd 0027 f3bc
00000050: c00f b6bd 6f1b 9abc c055 34be 77d0 2fbc
00000060: 39c7 aabc 1fe3 84ba 9f71 0a3e ee4f ffbb
00000070: 581d 0ebd 1287 683d 2154 8dbd 1dc9 cabc
00000080: 9740 8a3d 0bda c13d a3b8 ee3d 087f 31be
00000090: b837 efbd 31e0 213c 0145 a73d 989d 9abd
000000a0: 7d83 11be 30b3 c53d 7c43 54bc 6be8 0fbe
000000b0: a561 223d 067a 923c f9e5 ca3d 397c 46bb
000000c0: 2dba 02bd d672 09be 770e cabd 9ca3 eb3c
000000d0: 89c0 c3bd 1c0c 64bd 0a22 8a3d bbcc 983c
000000e0: bda1 60bd 1e71 8f3c 833b 55be 012d 1ebd
000000f0: 5a35 a73d 3922 edbb cd5d eb3d ebb0 e4bd
00000100: fd63 7c3c d4cd 303e 9d31 8cbe f627 98bc
00000110: 57d2 a93d 0664 383d ef1c 663d 1b03 debd
00000120: f7e4 463d c764 c1bd 3454 08bd 65a8 883d
00000130: b514 123d b2c6 cf3c 8c86 a4bd b64f 803d
00000140: cc80 0a3d 9bda ccbb 29bd 7a3c ca79 043d
00000150: 34d1 543e b385 fdbd fa76 4fbc 772d 003e
00000160: cf77 8bbd 3a0d 82bd f78e 823d 7717 553d
00000170: 3a85 bbbc 53ff 0c3e f277 26be 6e25 083e
00000180: a3e2 bab9 d33a b03d c5c7 c3bb 2d7a 0fbe
00000190: c506 d9bd b450 19bd d530 cc3d 41a5 193e
000001a0: 05b5 d8bc 0978 2cbe acf3 49bd 4b19 5e3c
000001b0: 481c e63d c4ef 87bc ce0d 5b3d f540 8ebd
000001c0: 8bf2 49bd b082 2ebf adc4 cc3d 3bf7 83be
000001d0: 862a ba3c 36cf 25be 5330 443e 0826 963d
000001e0: 50df 93bd 68c6 a3ba eb72 29be a340 99bd
000001f0: ef39 63bd 94a2 23bc e9f3 0dbe e0be 75bc
00000200: bd27 653d 971b 64bc dd07 a2bd aa57 93bd
00000210: a0aa a83d c901 253d b057 0ebe cee8 8e3d
00000220: df60 63bd 347e 88bd a4bc eebd c724 2dba
00000230: 6d40 88bd 8720 6abd 3c7f d33c 9cdd 513d
00000240: 132c 0bbe 956b 6cbd 15c9 c73d c286 cfbd
00000250: d918 1ebd 661d 2c3e 189c 74bd 2993 21bd
00000260: 562a b3bd 184b 36bd b70f 663e 1a54 313e
00000270: 3110 1e3d eed6 c3bd 54e7 d9bd b5c9 29be
00000280: b379 813d 9270 7ebd e9cb 013d 21d5 a4bc
00000290: 9219 e23d 032d 74bd f259 c2bc 95be 483e
000002a0: c846 793e 1f93 6c3d d7cc 70bd 7717 923d
000002b0: 6ac3 7abd 8e6a 423d 9948 353e 2cdc 18bd
000002c0: ebbe f9bc 7b4c 25be e69f bebb 1dbb b43c
000002d0: b470 6e3d caec c33c 2e12 883e 2e49 d83d
000002e0: b62b 4b3c c273 913c c2d8 debb 94ca 83bd
000002f0: 8938 5bbd 5636 cfbb 65b6 2f3e b3fd a23b
00000300: 7a9e 733d 8d8f 1d3d 78cd eabd e314 0dbe
00000310: 1191 acbd 7415 993d 6092 34bc 24d0 bc3d
00000320: 453d 803d 34a1 1ebd f38e 1dbd 5197 b03c
00000330: a4a2 ab3d f12e ed3c 6af7 203e 13c6 e73c
00000340: c395 1b3e fcec 463d 7f0d 3abd 693a 2c3e
00000350: c3af bab9 c931 d0bc ce4c 5b3d 1af1 8f3b
00000360: a988 9dbd 42bf 1e3d 22fd aa3c 475c 19bc
00000370: fe39 543d b9f7 6fbd f31e a3bd de76 14be
00000380: bcaa a03d 7e5b 903c 468d 123f acfc bb3d
00000390: 8cde 8cbe ad6c 8e3e f2c8 383e 8c92 ed3d
000003a0: bae1 9e3e f3f5 9abe fd11 00bd 9c8f 3fbd
000003b0: bda6 1ebd 34a3 24bd 15b2 00bd f8d1 2d3d
000003c0: ef45 103c 892c 9a3d b95b d9bc 21aa bc3c
000003d0: 0844 8e3c eb89 343d 375d afbc 6f03 38be
000003e0: 848c 7b3d 7714 143d 0659 5e3d 5f4f c2bb
000003f0: 1c36 cb3c 2b76 fabd bc76 c4bc 4827 133d
-0.34555903 -0.048415855 0.13246065 -0.05510684 0.112986125 -0.15585305 0.011673557 0.05970785
0.05094738 0.019818902 -0.25399223 -0.23576757 0.0805755 -0.0970662 0.012678302 0.041877676
0.04896334 0.019415662 -0.07965043 -0.029681683 -0.08889723 -0.01881191 -0.17610836 -0.010730854
-0.02084695 -0.0010138488 0.13519906 -0.007791511 -0.034695953 0.056769438 -0.06900812 -0.024754101
0.06750601 0.094654165 0.116563104 -0.17333615 -0.116805494 0.009880112 0.08167458 -0.0754959
-0.14210315 0.09653318 -0.012955543 -0.14053504 0.039643902 0.017880451 0.09907145 -0.0030286445
-0.031915832 -0.13422713 -0.0986604 0.028764538 -0.095582075 -0.05567561 0.06744774 0.01865231
-0.054841746 0.017509993 -0.20823483 -0.038617138 0.08164473 -0.0072367457 0.114925005 -0.11166557
0.015404698 0.17266017 -0.27381602 -0.018573742 0.08292072 0.045017265 0.056179937 -0.10840436
0.0485582 -0.0944305 -0.033283427 0.06672744 0.03566428 0.0253633 -0.08033475 0.06265204
0.033814237 -0.0062516457 0.015303888 0.03234271 0.2078293 -0.12379017 -0.012662644 0.12517343
-0.06809961 -0.06350179 0.06374925 0.05202433 -0.022890676 0.13769273 -0.16256693 0.13295528
-0.00035645542 0.0860497 -0.005974742 -0.1401145 -0.10596994 -0.03743048 0.099702515 0.15004446
-0.026453504 -0.16842665 -0.04930465 0.013555835 0.11235863 -0.016593821 0.053479962 -0.06945983
-0.049303573 -0.68168163 0.099984504 -0.2577456 0.022725355 -0.16192326 0.19159059 0.07331473
-0.07220328 -0.0012495043 -0.16547744 -0.074830316 -0.05547517 -0.009987492 -0.13862576 -0.014999121
0.0559461 -0.013922594 -0.07911656 -0.07194455 0.08235669 0.040284906 -0.13900638 0.06977998
-0.055512305 -0.06664696 -0.11657074 -0.00066049065 -0.06652913 -0.057159927 0.025817506 0.051236734
-0.13591032 -0.057719786 0.0975515 -0.10133125 -0.038597915 0.1680809 -0.059719175 -0.039446983
-0.08748309 -0.04450521 0.22466932 0.17317238 0.03858966 -0.09562479 -0.106398255 -0.16580851
0.063220404 -0.062119074 0.031688605 -0.020121159 0.110400334 -0.05961324 -0.02372453 0.19603951
0.24343407 0.057757493 -0.0587891 0.07133382 -0.061221518 0.0474649 0.17703475 -0.037319347
-0.030486545 -0.16142456 -0.005817401 0.022061879 0.05821295 0.02391662 0.2657637 0.10560833
0.012400558 0.017755393 -0.006800742 -0.06435123 -0.053520713 -0.006323616 0.17159422 0.004974091
0.059477307 0.03846698 -0.11464971 -0.13777499 -0.08426107 0.07474795 -0.011021227 0.09219387
0.06261686 -0.038727954 -0.038466405 0.021556528 0.083806306 0.028953047 0.15719381 0.028292691
0.15193848 0.04856585 -0.045423027 0.16819157 -0.00035607637 -0.025414364 0.053540044 0.004392755
-0.076920815 0.038756616 0.020872656 -0.00936038 0.05181312 -0.058585856 -0.079648875 -0.14498469
0.07845065 0.017621752 0.57246816 0.09179053 -0.2751354 0.27817288 0.18045405 0.11600217
0.3103159 -0.3026577 -0.031267155 -0.046767816 -0.038733233 -0.040194705 -0.031419832 0.04243657
0.008805736 0.07528026 -0.026532995 0.023030343 0.017366424 0.04407684 -0.021406753 -0.1797006
0.061413303 0.03615233 0.054284118 -0.005929872 0.024806075 -0.1222957 -0.023982398 0.035926133

fc1.bias f4 [64]
00000000: e851 3ebc 9bff 00bd 8bc0 1cbe d554 e2bd
00000010: a245 1ebe 2030 21bc 40d1 ae3c 3026 713d
00000020: a441 b2bd 4b07 0fbd a453 013c a8b0 acbd
00000030: 27be 53bd 1e4c c93b 2aba 683c c169 b03d
00000040: 072f 6cbd 79a9 53bd 19b4 893d dcca d73d
00000050: f21b 2c3e 1853 bcbc 7598 cebd 5a9f b53d
00000060: 695c e03d 5c29 063e 2f81 223d 11ec 07bd
00000070: f83e e4bc cce6 473c a1c7 b6bc 795b 92bd
00000080: 2f02 52bd 37e9 833c 020b 1a3d 9145 51bc
00000090: 3b70 b73d 5342 8938 e2fa 043d 1990 b73d
000000a0: 2f60 83bc d307 943d 008e 1f3c d643 3ebc
000000b0: 085b 24bd 7d63 3b3e 1c8e b9bd 563c 2a3d
000000c0: a83e e1bc ce2d c23d 9d8e 5fbe 5077 1f3e
000000d0: ec36 1cbe 54b8 b53c 92a0 8c3c 8ff2 313e
000000e0: 9cd4 c53b 97f6 3a3d 23f0 a93c d2cf febb
000000f0: 1687 febc c3d9 323d caa1 153d 09c0 61be
-0.011616208 -0.031493764 -0.15307824 -0.11051337 -0.1545625 -0.009838134 0.021340013 0.05887431
-0.08703926 -0.034919064 0.007893477 -0.08432132 -0.051695015 0.006143107 0.014204541 0.08613921
-0.057662036 -0.051675294 0.06723804 0.10536739 0.16807535 -0.022988841 -0.100876726 0.088682845
0.10955126 0.13101715 0.03967398 -0.033184115 -0.027862057 0.012201022 -0.022311987 -0.07146353
-0.051271614 0.016102416 0.037608154 -0.012772934 0.08956953 6.545023e-05 0.032465823 0.08963031
-0.016037075 0.07228055 0.009738445 -0.011612853 -0.040125877 0.1829967 -0.09060308 0.041561447
-0.027495697 0.09481393 -0.21831746 0.15572858 -0.15255326 0.022182621 0.01716641 0.17377685
0.006037308 0.045645323 0.020744389 -0.007776239 -0.031070273 0.043664705 0.036531247 -0.22045912

fc2.weight f4 [64, 64]
00000000: 245d a93d f4f0 83bd 489a 2bbe 238c 18bd
00000010: 9c1b 4f3e 7f05 cdbc 5295 893e 528a 8bbd
00000020: 6c45 2b3d 366c 983e ed00 923c badb 933d
00000030: 8613 0bbe b282 bcbe ec28 a53c 40f2 5fbd
00000040: 65b2 7c3e 67c7 9ebd 7b57 df3d a354 eebd
00000050: 9310 63bb 58f3 8dbd 8d3b 42be 0296 c13d
00000060: 9743 913d 9faa 863e 4ad5 35bd e66a 993d
00000070: b2c7 2cbe 2ed2 8abd 3d00 47bd 6647 73be
00000080: c946 253d e506 153e acaa f13b fb4c 85bd
00000090: e0fa a73d b7bf 9e3d 054d ba3e b22e e0bd
000000a0: abb7 723e d033 043d 63e1 c7bd 5b46 683e
000000b0: 9ca3 153e 65fa a6bd 15ea 573e 9cab b7bd
000000c0: 1dbb e33d 136a 81bd 2605 d43d feed c13d
000000d0: 79dc cc3c 6c0c 8dbe e140 06be 64d8 a63c
000000e0: db76 41bd 47d5 53be d59b 793e 9c9c 4ebe
000000f0: fc64 eabc c911 6abe 4887 27be 9dee 903d
00000100: dd41 893c b3f4 e03e 3bab 88be cb2b 283e
00000110: fd32 e639 91c1 76bd 79ee 9b3e 20a8 2b3e
00000120: f81d e03d 1625 123e dec4 6bbb 521c bbbd
00000130: 9606 33be 06f4 d7ba 7cbe d83d 4bf2 b93d
00000140: bcb1 14be a506 0dbe b037 273d ef73 37be
00000150: 1d8f 493c 395f f4bd a67b db3c 39ca 193d
00000160: 4894 cdbd 0202 28be 043e 043c 24c8 d3bd
00000170: fe43 f8ba c1b2 82bd 0efa d63d e2c1 9c3d
00000180: b99e 02be fda4 f4b7 1327 e8bd 8cee 70bd
00000190: c0fb 223e 72fa 073e f602 8b3d 1d99 39be
000001a0: 4ef2 03bd 29b1 dfbb db00 d03d b392 10be
000001b0: b577 0fbc d160 10bc 8c5e 10be 5cf7 fcbd
000001c0: 5fdb 143c ba63 d0bd 04c1 c93c 8733 983d
000001d0: ccd6 583d e712 edbd 422e d8bd 0125 79bd
000001e0: 19c3 a93e 08bc 1b3e 48c9 1cbd dfcd fe3d
000001f0: c7f0 443d 2abc 78bd a9e6 dfbd 5205 833e
00000200: b3be 72be 545b 2abd ba97 e9bd 9550 80bd
00000210: 31f5 4d3c e2f3 ae3d c24c 43bc 8e34 c5bd
00000220: 973d bbbd 6f78 103e 61e1 fbbd 99d6 07be
00000230: aa2e 3f3d 01ba f13d 731b 103d bd33 583d
00000240: 27cb 8cbe bbcd 1bbe 9a17 033f 5d05 a13b
00000250: f8a1 b13d 7bb4 45be cf26 8cbd 1366 7abd
00000260: 6af4 503e 5ceb 923d b33f 923d 0971 09be
00000270: 646d 973b 6975 58bd 4f7d a43d fc4e 593d
00000280: 18de 9a3d 6402 0a3e 4f13 8b3d 85e5 6abc
00000290: cdb7 30be fb70 26bd 8dd9 d6ba f6f0 93be
000002a0: 4d34 cc3b 1aa0 803e 42ed 8ebe f0c5 90bd
000002b0: de52 573e 532a 29be ec5d 303e d985 5b3e
000002c0: 3efd acba f236 703d 38d1 d9bd 3d97 96bd
000002d0: 9c81 b7bd 6f00 8d3d 2253 743d fbc5 5dbc
000002e0: 4e31 82be a70c 553d ebe3 5b3d b794 a63d
000002f0: 5ed1 0d3e 8daa 493e dd60 0bbe 731d bebd
00000300: d385 413a eb47 803c e264 84bc adcd 48be
00000310: dea9 94be bd16 8e3d 3d6e d7bd 1b2e 4fbc
00000320: 87db 4d3e 41ad 9c3e 834a c1bc 04eb 8c3e
00000330: 3528 61be 5e1b 883d f998 a73e 9bd5 4bbd
00000340: 4e75 803b cf63 2e3d 4878 27bd f1d2 9fbe
00000350: f18f 3a3d 1cdc 7b3d 5d9b 9a3d 505c 15be
00000360: 7334 cabc 4f36 3a3e daf9 103d f555 bbbe
00000370: 3391 80be 3abf 1e3d deb6 15bd 6ef9 0dbd
00000380: 789b a93d fd34 1abd db4d afbd 4d47 663e
00000390: 69d0 cdbd 267e 0a3e 8218 17bd a02b 07be
000003a0: 65d0 5d3b 5794 43bd 6e75 61be 849f b03d
000003b0: f634 873e 7296 bc3d 32df 34be 1260 4b3b
000003c0: 1ffb 82be 42c9 a43d 5d1a 053e 92c5 8d3c
000003d0: 86ec 5a3a b0e9 febd 37bf 2e3e 0448 33bd
000003e0: 049a 02bb 69c7 b5bd eaeb bf3e 84bf aebd
000003f0: ef25 95be 7ff3 95be 58af a9bd 73ed 25bd
0.08269718 -0.064424425 -0.16758072 -0.03724302 0.20225376 -0.025027035 0.26871735 -0.06813492
0.041814253 0.29770058 0.017822707 0.07219644 -0.13581666 -0.36818463 0.020161115 -0.054674387
0.24677427 -0.07752877 0.109053575 -0.11637237 -0.003464733 -0.0693118 -0.1896803 0.0945244
0.0709297 0.2630205 -0.04439286 0.074910924 -0.16873053 -0.0677837 -0.04858421 -0.23757705
0.04035071 0.14553411 0.007375082 -0.065088235 0.082021475 0.077514105 0.36386886 -0.109464064
0.23702876 0.032275975 -0.09759786 0.22683088 0.14613193 -0.08153228 0.21085389 -0.08968279
0.111196734 -0.0631906 0.103525445 0.094692215 0.025007473 -0.2754854 -0.13110687 0.020366855
-0.04723249 -0.20686828 0.24375851 -0.20176929 -0.028612606 -0.22858347 -0.163602 0.07076762
0.016755039 0.4393669 -0.26693138 0.16422956 0.00043907008 -0.060243193 0.30455378 0.16763353
0.10943216 0.1427196 -0.0035975496 -0.09136261 -0.17482981 -0.0016475923 0.10583207 0.09079417
-0.14520925 -0.13772066 0.040824592 -0.17915319 0.012302187 -0.11932225 0.026792359 0.03754637
-0.10038048 -0.16407016 0.008071426 -0.10340908 -0.0018941162 -0.06381751 0.10496913 0.07654168
-0.1275586 -2.9163895e-05 -0.11335578 -0.058821246 0.15916348 0.13279131 0.06787674 -0.18124814
-0.0322135 -0.006826539 0.10156413 -0.14118461 -0.008756568 -0.008812145 -0.14098567 -0.123518676
0.009085505 -0.10175271 0.02462817 0.07431703 0.05293922 -0.11575871 -0.10555698 -0.060826305
0.3315666 0.15208447 -0.038277894 0.124416105 0.048081186 -0.060726322 -0.10932667 0.25589997
-0.23705558 -0.041591004 -0.11405893 -0.0626537 0.012570665 0.08542611 -0.011920156 -0.09629165
-0.09142607 0.14108442 -0.12298847 -0.13265456 0.04667536 0.118030556 0.035182428 0.052783716
-0.27498743 -0.15215199 0.5120789 0.0049139694 0.08673471 -0.19307129 -0.0684334 -0.0611325
0.20405737 0.071737975 0.07141056 -0.13422026 0.0046211947 -0.052846346 0.08031713 0.05305384
0.07561892 0.13477474 0.06790792 -0.014336948 -0.17257614 -0.04063509 -0.001639174 -0.28894776
0.0062318207 0.25122148 -0.27915388 -0.070690036 0.21027705 -0.16520052 0.17223328 0.21437778
-0.0013198031 0.05864615 -0.106356084 -0.07353065 -0.08960268 0.06884848 0.059649594 -0.013535972
-0.25428241 0.05201402 0.053684156 0.08133834 0.13849398 0.19693966 -0.13611169 -0.09282961
0.0007382307 0.015659293 -0.016161386 -0.19609709 -0.29035848 0.06937931 -0.10519073 -0.01264527
0.20103274 0.30600932 -0.0235951 0.27523053 -0.21987994 0.06645845 0.32733896 -0.049764257
0.003920234 0.042575654 -0.040886194 -0.31215623 0.04554743 0.06148921 0.075491644 -0.14585996
-0.024683213 0.1818478 0.035394527 -0.36589018 -0.25110778 0.038756587 -0.03655135 -0.034661703
0.082816064 -0.03764819 -0.085597716 0.22488137 -0.10049517 0.13524684 -0.036888607 -0.13200235
0.0033846137 -0.04774889 -0.22017452 0.08624175 0.26407593 0.09208383 -0.17663267 0.0031032604
-0.25582215 0.080461994 0.12998338 0.017306123 0.0008351285 -0.12446916 0.1706513 -0.04376985
-0.0019928226 -0.08875925 0.37484676 -0.085326225 -0.29130504 -0.29287335 -0.08285397 -0.040509652

fc2.bias f4 [64]
00000000: d3e8 ea3c 0e8c e0bc 6c59 1c3d 2ac1 e2bd
00000010: 9e6c a5bc 33dc c23d 181e 243e 4e9c 8a3d
00000020: 03f3 97bc 3936 a13c 083f 88bb 49b6 0ebd
00000030: df54 9cbb 7739 303d 9b57 863d 1ca0 1f3e
00000040: c744 a43d 8b6c 093e 595e b9bd 3ed6 b6bd
00000050: 60a9 b5bc aa27 5fbc be01 343c ceb5 233d
00000060: e8cc 91bd fa1e 09bd 6689 84bd 3996 0e3d
00000070: ca85 b83a 9357 6a3c 83d3 09bd f40d 5e3c
00000080: e200 5e3d 3e23 8d3c 8d07 053d 7f1c 4d3d
00000090: fe49 243d 8bcb e1bc 9fad e03d e930 39bd
000000a0: 239c aabd ac69 383d e873 bf3d 1db6 3f3e
000000b0: 9259 fdbc 6320 92bd 6d78 22bd 966e 9d3d
000000c0: 0d54 0a3d b6b6 9e3d 0fac da3a 564a c53b
000000d0: 30c2 1c3d 5eab e5bd a53f 103d dc41 a13c
000000e0: 244b 433d 5696 13be a0fd 503d e893 f23d
000000f0: 53d3 27bc 2c50 adbd 4cc0 1f3e e5d4 1c3d
0.028675472 -0.027410533 0.038171217 -0.11071999 -0.020193394 0.09514656 0.16027105 0.06768094
-0.018548494 0.019679176 -0.0041579045 -0.03484181 -0.0047708596 0.043023553 0.06559678 0.1558842
0.08020931 0.13420312 -0.090511985 -0.08927582 -0.02217549 -0.0136202965 0.0109867435 0.039968304
-0.07119161 -0.033476807 -0.06471519 0.034811232 0.0014077958 0.014303106 -0.03364898 0.013553131
0.05420006 0.017228719 0.032477904 0.050076004 0.040109627 -0.027562877 0.109706156 -0.04521266
-0.08330562 0.04502265 0.09348279 0.18721814 -0.0309265 -0.071350835 -0.03966563 0.07687108
0.033771563 0.07749693 0.0016683358 0.0060208244 0.03827113 -0.11214326 0.035216946 0.019684725
0.04767908 -0.14412817 0.051023126 0.11844617 -0.010243255 -0.08462557 0.15600699 0.03828897

mu.weight f4 [8, 64]
00000000: 0310 0b3d 64f0 9b3d 21f6 32be 87b4 d4bc
00000010: 3111 15be e69f 66bd 8a6d 3b3e dc53 3c3e
00000020: ac8a 723d 418c f2bd 27fa dabd 3e7a 30bd
00000030: 32fc 15bd 8c5e 413e c1d8 93bc 5b3d d63d
00000040: 9269 a43c fa89 19be 7536 8fbe ed6b a6be
00000050: 984d 98bd e7ed b8bd f970 013d f463 8d3d
00000060: 0a36 7abe 8b4f b03d 113e 0cbe f428 d2bd
00000070: a980 283e ad8b 1c3d 38f7 61bc b1b0 d63d
00000080: 396a 5bbe f9ea 87bd eb34 f63d e2ee a3bd
00000090: 1625 863e 6d00 55be 6bc0 d83d 7bc8 4cbd
000000a0: 45a9 94bc 1644 95be 328d 27be 03bf 26be
000000b0: d4e6 ccbe 12d3 e4bd a981 f63d bcd4 d4be
000000c0: 08c1 423e 99f8 a53d c381 04be a596 9f3d
000000d0: 82c2 ae3e dbad 223d 0f71 383e 9b8c a73e
000000e0: 7b1a cb3d c523 133c 7912 63be aad1 aeba
000000f0: 94c6 f1bc 163c 39be c9fc 1cbe 919e bc3c
00000100: dd9c f2bc aa30 f83c ed73 953e 7aa6 01bd
00000110: 6bdc acbd 10aa 2cbe 3992 073d 5cbe 833c
00000120: 0dc1 a8bd 5d5d 453e 0314 303e aca1 ec3a
00000130: 3a07 16be cef5 c63d d76a 9a3d c11c e43d
00000140: 4fa3 b33d 7717 69bd cb22 a3be f6c2 39bc
00000150: 5353 f53b af43 e63c eef2 82be 8d08 60bd
00000160: 5784 753c 9f95 e63d 86e4 f03d dd0e d03d
00000170: 3247 96bc f102 083d 4d3e 993d 8aee 93be
00000180: a3ce 5abd 2837 99bd b4ab 55bd 0f27 0b3e
00000190: 44b1 d8bd c29e f13d 1fb8 cebd 17ea 2a3e
000001a0: b798 da3c 1c9f 6c3d af1a 00bd 0a28 91be
000001b0: 2253 193e 5073 c13d 445a 73bb b942 b13d
000001c0: 22f7 03be 3037 923c 7979 4abe 3d24 3abc
000001d0: be08 cebd fcfe 123e bda9 09bc b3cc f73c
000001e0: 9d94 01be 83db d23d 3852 fdbd fe68 703e
000001f0: 500b 1d3e f2c8 023e d3a2 23be bc19 303e
00000200: 62bc 263e 31d4 803e b88a 3bbe dc8d ec3d
00000210: 59b9 943d 7319 283e 951a 04bf 3489 0ebe
00000220: 636b fdbd 8143 f93d 50c0 703e f141 833d
00000230: b8f3 50bc a2c8 cd3d b4c8 24bc 3470 e03d
00000240: dd15 81bd 7404 8cbd bcbc 4c3d 3593 503c
00000250: ed13 d33d 448c b4bd f1aa 2cbd 2542 c83d
00000260: b374 19bc 46b7 2e3e 1155 013e fd2e d63e
00000270: a21c e3bd 9a6a 25be 2c46 57be edab d23c
00000280: 05c6 32be ccb3 60be 2043 8bbe 5580 973e
00000290: 443a 4b3e 29a7 f33d aa9b fe3d 5d7c 23be
000002a0: 0a57 bb3c 9645 b7bc cd97 7f3e a69c a5be
000002b0: 062e e23d 82f1 e93c 5cd8 503e 8c6d 64bc
000002c0: d7cb 1e3e efa0 223d 4d03 6e3e 01d5 32be
000002d0: 02ec 17bd 766f a5bc 82aa 96bd a55d 5bbe
000002e0: ea19 503d e9c6 a03d c19e 733e 9fe9 6a3c
000002f0: be54 70bd 8005 9f3d ce0c f63d 11db 1cbd
00000300: 7715 69be 7cba 043e cf38 bd3d 8cf8 393e
00000310: 8cc5 0dbe ed37 853d df90 ac3d e894 163e
00000320: bf3a 97bc bebd d03d ef58 e7bd 41e4 0a3e
00000330: a11b cfbd 559d 743d f0c5 87bd bf52 febd
00000340: 0a88 19be 8c31 dd3d 5c14 06bd 9cb2 2cbe
00000350: e59c 053e 98d7 a6bd b7f9 2dbe 25f8 c3bc
00000360: 7a7c 833d 2bab b5bc c8f6 32bd 8b61 833b
00000370: fa3e 033d 9368 ca3d 00da ef3d 607f 17bd
00000380: 52da cebd 5271 ed3c 9407 cabd 2050 a2bb
00000390: 32f2 283d 37a0 a1bb 0f39 a33d b5d4 a33d
000003a0: d709 8dbd 7529 e73b 7534 d63d ebb7 8abd
000003b0: f9da d6bd f8c1 2e3e 6b54 8c3d 0503 0ebb
000003c0: 1cf2 ffba 801c 1fbe d799 d73c 1202 15bd
000003d0: e4a8 8cbd 2a4c af3e 1306 5a3c 446b 5a3c
000003e0: 0a7e 943e 4c18 b5bc 23ef 05bd 989a 90be
000003f0: 12f1 9bbd 376d ffbc 1ad7 ce3d 2938 1a3e
0.033950817 0.0761421 -0.17476703 -0.025964988 -0.14557339 -0.056304835 0.18303505 0.18391365
0.05921428 -0.118431576 -0.10692244 -0.04308533 -0.036617465 0.18883723 -0.018047692 0.104609214
0.020069871 -0.1499404 -0.27971235 -0.32504216 -0.07436675 -0.09029751 0.03160188 0.0690383
-0.24434677 0.086089216 -0.13695551 -0.102617174 0.1645533 0.038219143 -0.013791852 0.1048292
-0.2142724 -0.06636614 0.12021812 -0.08004548 0.2620017 -0.20800944 0.10583576 -0.04999588
-0.01814712 -0.29153508 -0.16362455 -0.16283803 -0.40019858 -0.11173071 0.120364495 -0.41568553
0.19018948 0.08104057 -0.12940125 0.07792405 0.34132773 0.039716583 0.18011878 0.3272446
0.0991716 0.008980696 -0.22175016 -0.0013337631 -0.029513635 -0.18089327 -0.15330805 0.02302483
-0.029615814 0.030296642 0.29190007 -0.031652905 -0.08440479 -0.16861749 0.033098433 0.016081981
-0.082399465 0.19273897 0.17195134 0.0018053553 -0.14651194 0.09714852 0.07539909 0.11138297
0.08771383 -0.056907143 -0.31862482 -0.011337986 0.0074867397 0.028108446 -0.25575966 -0.054695655
0.014985166 0.11259007 0.117623374 0.10159085 -0.018344495 0.03320593 0.07482586 -0.28892928
-0.05341972 -0.07481223 -0.052165702 0.13589118 -0.10580686 0.11797859 -0.10093712 0.1669086
0.026684148 0.057768926 -0.031275447 -0.2835086 0.14973119 0.09445822 -0.003713266 0.086553045
-0.12887242 0.017848581 -0.197729 -0.011361179 -0.10060261 0.14355081 -0.008402285 0.030248975
-0.12654348 0.10295775 -0.123691976 0.23477551 0.15336347 0.12771967 -0.15980081 0.17197317
0.162828 0.2516189 -0.18314636 0.11550495 0.07261915 0.16415958 -0.5160306 -0.13919526
-0.12373998 0.121710785 0.23510861 0.06409062 -0.01275342 0.10048033 -0.010057617 0.10958901
-0.06302998 -0.06836787 0.04998468 0.012730409 0.10306535 -0.08815816 -0.04215521 0.09778241
-0.009366202 0.17062101 0.12630107 0.41832724 -0.11089446 -0.16153947 -0.21022862 0.025716746
-0.17458351 -0.21943587 -0.2719965 0.29590097 0.19846445 0.11897118 0.12432034 -0.1596541
0.022868652 -0.022372048 0.24960251 -0.32346076 0.110439345 0.028557543 0.20395035 -0.013942134
0.15507446 0.03970426 0.23243447 -0.17464067 -0.03709031 -0.02019475 -0.073567405 -0.21422441
0.050805964 0.07850439 0.23791029 0.014337926 -0.058674566 0.07764721 0.12014161 -0.038294856
-0.22762094 0.12961763 0.09239351 0.1816122 -0.1384489 0.065048076 0.084260695 0.1470524
-0.01846063 0.101924405 -0.112962596 0.13563634 -0.10112692 0.059720356 -0.066295505 -0.12418126
-0.14993301 0.10800466 -0.03273426 -0.16865009 0.13048132 -0.0814659 -0.1698979 -0.023922035
0.064202264 -0.022176346 -0.04369238 0.0040094308 0.03204248 0.09883227 0.11711502 -0.03698671
-0.10100235 0.0289847 -0.09864727 -0.0049533993 0.0412466 -0.004932429 0.079698674 0.07999555
-0.068866424 0.0070545026 0.10459224 -0.06773361 -0.104909845 0.1706618 0.06852039 -0.002166928
-0.001952711 -0.15538216 0.026318474 -0.036378928 -0.06868151 0.34237796 0.013307112 0.013331238
0.2900241 -0.022106312 -0.03269876 -0.28242946 -0.0761434 -0.031180007 0.10099621 0.15060486

mu.bias f4 [8]
00000000: e2f5 953b 6e02 bbbd dc9a 62bb 6907 54bd
00000010: e27a 533d d9fe dd3d 7925 b43c 1e40 b83d
0.0045764307 -0.09131323 -0.0034577167 -0.05176488 0.051630862 0.10839624 0.021990525 0.089966044

fc1.weight f4 [64, 111]
00000000: c304 e5be 8ef4 083f 9e53 183f 464f a0be
00000010: 296f fcbb 3d6d cb3d ef6e 943d 08a7 b33c
00000020: a0fb 9ebd 3b79 20be 88ad 8fbd d9f4 043d
00000030: aa48 1b3e df46 6bbe 7dd7 a2bd df54 56be
00000040: db6b 4dbd fbea 4d3e 90b7 2dbe dd83 24bd
00000050: 6bfb 3b3d 2b1d 1bbd 6ce7 fc3a fafe 04bd
00000060: 4350 3b3c fc40 10be 8284 053d 37a9 bdbd
00000070: b579 82be 33c6 c1bd dd0d d53d ad1c 2e3e
00000080: b7d0 e33d baf3 153c 9dcf 8dbd f71d 133e
00000090: 6602 86bd cbe3 de3c c666 183d 705c 05bc
000000a0: 2e10 a4bd 290c 943d 4e6f 46be af9d d5bc
000000b0: ff6e 43be 3308 01bd 5acf d4bc a352 2cbe
000000c0: 8d87 9dbd 2ec7 0b3e 1637 cabd cf5d ba3d
000000d0: 6179 a1be 33f6 2c3d 3c49 a53d 90ce 1a3d
000000e0: 5700 b3bc b5b2 913d 3078 e6bd 838c 04be
000000f0: b854 34bd 39d5 943d 50fa c4bb 20c4 68bd
00000100: acd3 a13d 6438 8d3d b6b3 ebbd a8b5 8cbc
00000110: e387 c53d 3ae9 0c3e 6bd8 b63d 1bce b43c
00000120: 5020 a8bd 86de a2bd 8b8d a6bc 1a1b 6c3c
00000130: 3753 eebd 6f01 df3c 246c e53b 2909 b7bc
00000140: 2b18 dfbd 7164 c9bd 546b f73c 08de 713d
00000150: 2d3f 39be e4ea 293c 9e0a c3bd de0f 4ebc
00000160: 3aa7 6abd 7c3f 5c3e 48d7 3abe ebaa 2e3d
00000170: 795e 8cbd 7162 d23c 8832 e83d 8d9a 2fbc
00000180: 5a45 13bd 3c6e 873d ff19 79bd 2554 21bd
00000190: 7a89 423d a8c3 a83d 4f5f ddbc 2728 acbc
000001a0: 0fb1 a13d b72c 36bd a00b c4bc 38fa bebd
000001b0: d326 9ebb 972a da3d 5c9b 8fbd b166 d6be
000001c0: dcc0 703f c1b3 58bc e538 b0be 83a5 9b3e
000001d0: 4b74 113e 8865 02bd 0940 563d 94d1 f63d
000001e0: 564f 9d3e 69ff 223c f7ad dc3d bb08 a6bd
000001f0: 6975 e93c 82c7 113c 32b2 88be 454d 83bd
00000200: 708d af3a 1584 ae3c 0e46 04bd 4b8f d3bb
00000210: 056c 383c 07dc c0bc 23a3 5dbc 18b3 69bb
00000220: fdc1 8e3b 1b25 103c ce3e 4bbd bfcc 313d
00000230: e222 b03d 3f7a 843d 1255 533d b636 16be
00000240: 38c4 183d 8fb6 203d e278 4fbd 5420 89bd
00000250: 5da6 5ebc fbec 5f3d b24a 96bd 7565 54bd
00000260: 3b28 7a3d 6817 e23d d940 18bd 65a1 fb3d
00000270: 5fbb 163d 2e7d 12bd 8ea4 fd3d 4468 f6bd
00000280: 58cb 29b9 d5bb 38be ecb7 43bd da7e f0bd
00000290: 292c a1bc e82b 95bd 9260 443e 22ff 07be
000002a0: 19bb aa3b 4c9a 1abc 4ef4 273e 420f ddbc
000002b0: 75e7 cbbc b7ef a63d 0306 d63d 61bb febb
000002c0: d43c 543c ae4c 283e 3348 143e c096 183e
000002d0: 35e4 5fbc 9f28 b4bd f79c d23b b329 143e
000002e0: 22db 52bd cd6d a73d 71b6 a53d a166 d43d
000002f0: 3ad2 17bd 7c30 debc d667 243e 0586 18be
00000300: 4aa6 63bd 094c 043e a058 b9bd 2218 cfbb
00000310: b229 43be 2931 c83d 470c 9dbc 6560 d03d
00000320: 7d06 a53c f86e a23c 215e 073e 7386 53bd
00000330: 633c e43c fee7 5a3c 9bc8 d639 6a14 9fbd
00000340: a3f2 b0bd 4081 983d c29b cf3d 0636 963d
00000350: a44b 633e 33f7 30bd 694d 3e3e 709e 803e
00000360: 493f a3bc 81a5 933b e7d7 09be 157a c1bd
00000370: 288f 47bd 87dc 0bbd afb7 e03e 0299 55bf
00000380: c84e 5c3e 13ad adbd 0997 3bbf e555 723e
00000390: 7cb8 5e3e 60e9 9dbe dc05 14be 229b 76be
000003a0: 9df3 6dbe c7eb 4d3e 2e3b 023f f64b 863d
000003b0: b3ad 213e 8f64 0b3e 1ee8 efbc b2c6 333e
000003c0: a79c 78bd 0e8f 9c3c c936 bf3d 3f3f 7dbc
000003d0: bf4c 063d 4d89 dbbd 9cb2 143d 6d5c e8bd
000003e0: 6ed6 c0bd ac6d f0bd 7d37 2d3c c81a 8b3d
000003f0: 5cf3 033d 6b35 6bbd ea6a 5ebd 2241 d0bd
-0.44730195 0.5349816 0.5950259 -0.3131048 -0.007703681 0.09932945 0.072477214 0.021930233
-0.077628374 -0.15671246 -0.0701552 0.032460067 0.15164438 -0.22976254 -0.079512574 -0.20930813
-0.050151687 0.20109169 -0.16964555 -0.040164817 0.045894068 -0.037869614 0.0019295043 -0.032469727
0.01143271 -0.1408729 0.032597072 -0.09260791 -0.2548348 -0.094616316 0.10403035 0.17003126
0.111237936 0.009152347 -0.06924365 0.143669 -0.06543426 0.02720823 0.037207387 -0.008139715
-0.080108985 0.07228882 -0.19378397 -0.026076166 -0.1908531 -0.03150196 -0.02597778 -0.16828398
-0.0769187 0.136502 -0.09873788 0.09099924 -0.31537917 0.04222698 0.08070609 0.03779465
-0.021850748 0.07114164 -0.11253393 -0.12944226 -0.044026107 0.072672315 -0.006011285 -0.056827664
0.07901701 0.06895521 -0.115088865 -0.017176464 0.09645059 0.13760844 0.08927997 0.022070935
-0.08209288 -0.07952599 -0.020331165 0.014410758 -0.11636966 0.027222363 0.0070014168 -0.022343235
-0.108932815 -0.09833611 0.030202545 0.059049636 -0.18090506 0.010370944 -0.095235094 -0.012577025
-0.057288386 0.21508592 -0.18246186 0.04264347 -0.06853957 0.025681706 0.11337763 -0.010718
-0.03595481 0.066128224 -0.060815807 -0.039386887 0.04749439 0.082404435 -0.027022986 -0.02101524
0.07895099 -0.044476237 -0.023931324 -0.09325069 -0.0048264056 0.106526546 -0.07012054 -0.41875222
0.9404428 -0.01322645 -0.34418407 0.30399713 0.14204518 -0.03183511 0.052307162 0.120516926
0.3072459 0.00994859 0.10775369 -0.08107134 0.028498368 0.008897664 -0.26698452 -0.06411222
0.0013393592 0.021303216 -0.03229337 -0.006456291 0.011256223 -0.023542417 -0.013527664 -0.0035659727
0.0043566213 0.008797909 -0.049620442 0.04340815 0.08600403 0.06468629 0.0515948 -0.14669308
0.037296504 0.0392366 -0.050652392 -0.06695619 -0.013589469 0.05466936 -0.07338466 -0.05185457
0.061073523 0.11039621 -0.03717122 0.12286643 0.036799785 -0.035763912 0.12384902 -0.12031606
-0.00016192847 -0.18040402 -0.047782823 -0.11742945 -0.019674378 -0.07283765 0.19177464 -0.13280919
0.005210292 -0.009436201 0.16401789 -0.026984815 -0.02489064 0.08151191 0.104503654 -0.007773802
0.012953956 0.16435501 0.14480667 0.14901257 -0.013665249 -0.0879681 0.006427403 0.14469032
-0.051478513 0.0817524 0.080914386 0.103711374 -0.037065722 -0.027122729 0.16055235 -0.14894874
-0.055578507 0.1291963 -0.09050107 -0.0063200155 -0.19058874 0.097750016 -0.019170893 0.10174636
0.020144695 0.019828305 0.13219501 -0.051641893 0.027860826 0.013360975 0.00040966723 -0.077675655
-0.08640029 0.074465275 0.1013713 0.07334523 0.22196823 -0.043204498 0.18584217 0.25120878
-0.019927638 0.0045058136 -0.13461266 -0.094471134 -0.04872051 -0.03414586 0.4389014 -0.83436596
0.21514428 -0.08480277 -0.73277336 0.23665579 0.21750063 -0.30842113 -0.1445536 -0.24082616
-0.23237462 0.20109473 0.5087155 0.06557457 0.15788917 0.13612579 -0.029285487 0.17556265
-0.06069627 0.019111183 0.09336621 -0.015456974 0.032788035 -0.107195474 0.036303148 -0.11345754
-0.09415899 -0.11739668 0.0105723115 0.067922175 0.032214507 -0.05742399 -0.05430118 -0.10168673

fc1.bias f4 [64]
00000000: 1b73 1a3f c97f 7ebe b96d 4b3d ddef cc3e
00000010: 7ef9 93be b1cf 833d 95c7 25bf f5e6 403f
00000020: 2a22 a93e 9b23 623f 1c8f cb3e 614f 373e
00000030: 5e98 25be d0dd 203f a8c7 1cbe 0ff3 ef3e
00000040: 2d92 953f da30 843f 08d0 a53e d2be 383f
00000050: 119e 33bc da60 0bbe 69c8 103f f75a adbe
00000060: 3c4a 06be eefe 2c3e 1cec 963e e52c b0be
00000070: 4da9 a63e 952d 073f bc70 853e 777d 11bf
00000080: 4a34 0c3f a389 843f 9611 aebd be70 a93e
00000090: 897d 01bf 9e2d dbbe 518f 94be 4ca9 8e3e
000000a0: 1575 4cbc ec04 06bf 24b5 9f3f 0da6 b93e
000000b0: 7b8d 4cbe 1b9a c83b 9fe4 8cbe f503 96be
000000c0: d1ea acbe bd7d 283f 4fa5 c63d 6c2a f0be
000000d0: 5928 163d 2a87 abbd 703c 023f 2adc 133f
000000e0: 432f 9ebe 51f0 fbbe aa2f 15bf bedd 223f
000000f0: f1d6 033f 51d9 c23e a57e 273e 2c82 98be
0.60331887 -0.24853434 0.049665187 0.4002675 -0.28901285 0.06436098 -0.64757663 0.7535241
0.33033878 0.8833558 0.3975762 0.17901374 -0.16171405 0.6283846 -0.15310538 0.46865126
1.1685234 1.0327408 0.32385278 0.7216617 -0.010962979 -0.13611165 0.565558 -0.33858463
-0.13114256 0.16894123 0.29477012 -0.34409252 0.3255104 0.5280393 0.26062572 -0.5683207
0.54767287 1.0354503 -0.08499448 0.33093828 -0.50582176 -0.4280824 -0.29015592 0.27863538
-0.012479086 -0.5235126 1.2477155 0.362595 -0.19975846 0.0061218864 -0.27518174 -0.29299894
-0.337729 0.6581686 0.09699499 -0.46907365 0.036659572 -0.0837539 0.5087347 0.5775782
-0.30895433 -0.49206784 -0.58275855 0.636196 0.5149985 0.38056424 0.16356905 -0.29786813

fc2.weight f4 [64, 64]
00000000: f440 de3d e325 493f 1df5 33bd a4d6 c0be
00000010: efcf 80be 3bf8 6fbd ccc2 553f 7226 4f3e
00000020: 67ce c0bd f4e4 a43d 07e1 e4be 7846 a2be
00000030: f1b6 2fbf fdc5 fa3d ec12 9b3e 530d 7b3e
00000040: d4d2 88be 08cc 8cbf 59c5 813e 1e4b 23bf
00000050: 39ad fe3e ef00 08bf 1036 61bf 8527 5a3e
00000060: a9bb 383f 0b42 22bf 6089 2ebf cdd0 a9be
00000070: db32 4b3b 7ca2 62bf 26d3 0dbf ac75 293f
00000080: d6c3 03be 61f6 483e af24 443f c222 8bbf
00000090: bac2 703f bc3e cdbe a6e5 063f 441e 9abf
000000a0: 2bcd d13e f481 d13d 6726 39bf 33d0 ba3e
000000b0: 7984 6f3d a8b2 2e3f a421 61bf df84 79bf
000000c0: e017 fc3e 9c4f 4ebf f992 493e 4bfb bebe
000000d0: 2427 313f 4e5f 923d b143 8abf 565e 433e
000000e0: 21f5 2d3f b87e 0b3f 7961 6bbf 60f7 d63e
000000f0: 43f9 043e 4760 19bf f53b 36bf 7bad 7ebc
00000100: 2939 3c3e 4f23 723e 000a 07be 449a 143f
00000110: 1519 1c3d 7cd4 c63e de18 083f 3724 09bd
00000120: 9447 58be cdc8 1a3e 7782 d93e 26c1 cb3e
00000130: 4dc0 bdbe 7887 a1bc 4d5c 213e 1505 153d
00000140: 7f53 d63e 723c b7be b926 ddbe 6fe3 73be
00000150: 922e 81be 37d9 2b3d 52f7 d53e 84a1 953e
00000160: 9b35 c93d 9e5c 1dbf feb1 93bc 4077 9a3d
00000170: 048d 2e3e 6153 9b3d 6a1a 4c3d 17f8 c13d
00000180: 4d50 88bd 857b a0be 0e9a b4be f448 ac3e
00000190: 46ab cfbd 00a5 d2b9 47a7 b6bc 50e0 5f3e
000001a0: 2da6 473e 57a6 5abe 5efb acbd c5e4 103e
000001b0: 042a 9bbd 93f3 1e3e b3f0 7cbe 44d9 12bf
000001c0: 5e9d a1bd e453 88bd e258 a1be c6f6 2c3d
000001d0: c8e8 30bd 2ee8 1c3d 08af 883e 39b1 10be
000001e0: a216 ee3e dd46 44be b4e4 8b3c f463 e2be
000001f0: 1cb5 51bd 52e5 493f bd17 b3bc 6a2f 343e
00000200: 703b c0bf fb4a f43d f558 8b3f ffdd dabe
00000210: fc68 73bf 93df e3bd a502 df3f 2b56 d1bf
00000220: 0eda 143f 53e8 e5be 784a 3cbf 4108 9b3f
00000230: 09c4 e13e 0050 00c0 30a2 ec3e d5fc 0dbf
00000240: e1a6 34c0 e8f5 7ec0 0ef6 6d3e b540 c0bf
00000250: 12aa 1ebe 7a29 703e a750 7cbe 399f 8d3e
00000260: 4071 283f ea32 52be b5ca 7fbf 0c6c c53d
00000270: 0a8e dabd f6b5 1cbf 6d2f 76bf 62cf ffbc
00000280: 8211 bcbe db81 05c0 1f8b 3cbf 3d02 6cbb
00000290: bc46 4f3f 2503 6e3f c712 9b3e 15c1 19be
000002a0: 1565 1c3f e6f6 e53e 18f7 2dc0 130b 2cbf
000002b0: d9bd ccbe 8ec3 653e b6ba 80be d9d6 333e
000002c0: b77a c63e b29c 79be cb55 88be e0bf 1d3d
000002d0: 8565 f4be 3601 d93e 03b2 2ebf 9398 db3e
000002e0: ec2c 0c40 189d 6d3e d5b0 45bf d888 55bf
000002f0: cc36 ae3c 137a 153e b7d7 eabe 97b3 aabe
00000300: 5d95 2f3f 95db 6c3f 6388 71bf ee27 db3e
00000310: 6d45 943f cb0d 293e cf09 95bf 5b32 be3f
00000320: d158 9cbf e815 8bbe 5f22 423f d36c a2bf
00000330: ff54 98bf aae4 9f3f 844b 04c0 9c9f d7be
00000340: ecf4 0040 d595 953f aa2f 59bf 6339 c93f
00000350: b5c5 103f 92ba a1bf 00b3 a73f 69f2 f43e
00000360: 8bc1 683f 1a64 43bf 17a5 3ebd 1ee8 343f
00000370: c0a8 963f d563 35bf d846 343f d787 673f
00000380: 7bbc 0dbf ff4c c33f dc9b 443f 8c90 26bf
00000390: 9314 c53e 3d46 31bf be54 1fbf 280e 52bf
000003a0: 70d2 bf3e 3eaa 72bf e91b d93f 4b65 9e3f
000003b0: 0f1b c43f ede2 96bf 0de0 b13e 7a3e 283f
000003c0: 81da 8bbf e61c 43bf 7650 c9be b6d8 383f
000003d0: b2be 123f 4776 a73e b96c c1be 1368 92bf
000003e0: abcc 7abf 06cc 633f b7fe 9b3f 86e1 123f
000003f0: 83be 673e cf33 6c3f cdc1 edbd 3d7a 973f
0.108522326 0.78573436 -0.04393493 -0.37663758 -0.2515864 -0.05858634 0.8350036 0.2022951
-0.09414368 0.08051482 -0.44702932 -0.31694388 -0.6863852 0.122447945 0.30287874 0.24516802
-0.2672335 -1.0999765 0.25345877 -0.63786495 0.49741533 -0.53126425 -0.8797312 0.21304138
0.72161347 -0.63382024 -0.6817837 -0.33167115 0.0031005654 -0.8852918 -0.5540031 0.6619518
-0.12867674 0.19625236 0.76618475 -1.0869982 0.9404713 -0.40086925 0.52694166 -1.2040486
0.40976843 0.10229865 -0.7232422 0.36486968 0.058475945 0.6824136 -0.87941957 -0.9746837
0.49236965 -0.80590224 0.19684972 -0.37301096 0.6920035 0.07147084 -1.0801908 0.19078955
0.6795216 0.5449023 -0.91945606 0.41985607 0.12985711 -0.5991253 -0.7118524 -0.015544291
0.1838118 0.23646282 -0.13187408 0.5804789 0.038109858 0.38833988 0.53162944 -0.033481803
-0.21121055 0.15115662 0.4248235 0.39795798 -0.37060776 -0.019717917 0.15757866 0.0363818
0.41860577 -0.35788304 -0.43193606 -0.23817228 -0.25230843 0.0419552 0.41790253 0.2922479
0.098246776 -0.6146945 -0.01802921 0.075422764 0.1704598 0.07584263 0.049829878 0.094711475
-0.06655941 -0.31344238 -0.35273784 0.3364941 -0.1014009 -0.00040177256 -0.02229656 0.21862912
0.19496985 -0.21352516 -0.08446382 0.14149769 -0.07576373 0.15522604 -0.24701194 -0.5736277
-0.078913435 -0.06656626 -0.31513125 0.04222753 -0.043190747 0.03830736 0.26696038 -0.14130105
0.46501642 -0.19167657 0.017076828 -0.44216883 -0.05119811 0.7886554 -0.021861905 0.17596212
-1.5018139 0.11928364 1.0886523 -0.42747495 -0.9508207 -0.11126628 1.7422682 -1.6354421
0.58145225 -0.44903812 -0.7355113 1.2111894 0.44094875 -2.0048828 0.4621749 -0.55463916
-2.8226855 -3.983759 0.23238394 -1.5019747 -0.15494564 0.23453322 -0.24640141 0.2766054
0.65797806 -0.20527235 -0.9991868 0.09639749 -0.10671623 -0.6121515 -0.96166116 -0.031226818
-0.36732107 -2.0860507 -0.7364978 -0.0036012076 0.8096731 0.9297355 0.30287763 -0.15015061
0.6109174 0.4491493 -2.7182064 -0.672044 -0.39988592 0.2243788 -0.2514245 0.17562427
0.387655 -0.24376181 -0.26627955 0.038513064 -0.47733703 0.42383736 -0.68240374 0.42889842
2.1902418 0.23204458 -0.7722295 -0.8341193 0.021266364 0.14597349 -0.45867702 -0.3334014
0.68587285 0.92522556 -0.94348735 0.428039 1.1583687 0.16509168 -1.1643618 1.4859117
-1.2214605 -0.2716515 0.75833696 -1.268946 -1.1900939 1.2491658 -2.067109 -0.4211396
2.0149488 1.168635 -0.84838355 1.5720638 0.56551677 -1.2635062 1.3101501 0.47841194
0.90920323 -0.7632462 -0.04654416 0.7066668 1.1770248 -0.70855457 0.704206 0.9044165
-0.55365723 1.5257872 0.7680032 -0.6506431 0.3849226 -0.692478 -0.6223868 -0.8205285
0.3746524 -0.9479102 1.6961643 1.2374662 1.5320758 -1.1788002 0.3474125 0.6572033
-1.0926057 -0.7621597 -0.393192 0.72205675 0.5732223 0.32707426 -0.3777826 -1.1438011
-0.9796855 0.8898319 1.2187108 0.5737537 0.22631268 0.92266554 -0.1160923 1.1834179

fc2.bias f4 [64]
00000000: b110 57bf a56a 253e 5b3c 9fbf 4ad0 53be
00000010: a6af eabe 1244 5b3f 9462 0440 6a20 7cbd
00000020: 2b0f 01bf df48 cabd 82aa 11c0 a155 0fc0
00000030: 6b80 09bf 1458 ebbe 5a73 0040 1043 e2be
00000040: 0c9f 2ebe 8ff4 e13f 726d 193f e6de ea3f
00000050: 7841 35bf 0f3c 69bf 822a a5bf e4cc 6fbf
00000060: b59d 7d3f ca1a a3bf f959 0b3d bbec 2cbf
00000070: 4b24 ce3e ceac 22be 8329 8dbf 4b31 41be
00000080: e17b 573f f5ed 6ebe 1dc8 943e c5d6 cabd
00000090: b30d b63c 15f2 d13d d3ca 6dbf 95d8 b4bd
000000a0: 20ad 11c0 08d8 113d d5a8 183f d409 f33c
000000b0: 4283 84be 6db1 bdbf 912c 4bbf cf4c 463d
000000c0: fe4d a13f 5319 333f 38ad 3c3f 02dc 443f
000000d0: 2a76 a63f e07a 72bd 4dc4 5a3d 84c1 493f
000000e0: b788 233e 4c4b 93bd a288 c53f aa05 1340
000000f0: 8d53 d4be ea78 ecbe 2fa2 9b3d 61e1 e3bf
-0.84009844 0.16153963 -1.2440294 -0.20684925 -0.45837134 0.8565074 2.0685167 -0.06155435
-0.5041377 -0.0987718 -2.276032 -2.2396014 -0.53711575 -0.45965636 2.0070405 -0.4419179
-0.17052859 1.7652758 0.59932625 1.8349273 -0.7080302 -0.9110727 -1.2903597 -0.93672013
0.99068767 -1.274255 0.03402135 -0.6754872 0.40262064 -0.15886232 -1.1028293 -0.1886646
0.841734 -0.23332961 0.29058924 -0.09904245 0.02222333 0.102512516 -0.9288761 -0.08830372
-2.2761917 0.035606414 0.5963262 0.029667772 -0.25881392 -1.4819771 -0.7936488 0.048413094
1.2601926 0.69960517 0.7370181 0.76898205 1.3004811 -0.059199214 0.053409863 0.78810906
0.15970121 -0.07192096 1.5432322 2.2972207 -0.41469994 -0.46186 0.075992934 -1.7803155

value.weight f4 [1, 64]
00000000: 425d 02c1 0c39 05c1 658c fbc0 2108 ff40
00000010: 194b 0041 fac4 f8c0 2de5 0141 4388 f140
00000020: cd96 fbc0 596e fac0 bd09 03c1 69e9 07c1
00000030: 424c 0041 e87d 0241 5aee f440 34c6 0241
00000040: 0994 f9c0 008f 0441 7e5e 00c1 a2e0 f740
00000050: 9c77 0041 4a97 ff40 8546 02c1 e53d ff40
00000060: f024 fdc0 6506 01c1 58fd fe40 6da6 ebc0
00000070: c224 02c1 f237 fbc0 26a4 0041 9500 0141
00000080: ddf6 ffc0 ebde f440 cfeb 0141 b1c7 01c1
00000090: 9d35 06c1 736c f540 c627 07c1 1f69 05c1
000000a0: 9bd7 05c1 a999 f2c0 bb57 0541 bdc5 0041
000000b0: d892 0041 baa5 05c1 3a89 0041 880b fe40
000000c0: ca65 f840 3b4f 01c1 7df3 0441 d6da ec40
000000d0: 679c fb40 9a1f f9c0 5648 00c1 a9fe f640
000000e0: 5e6d f740 2228 0041 d887 f940 13e3 0641
000000f0: d3f1 fbc0 35f7 e840 9c98 ffc0 d05b 02c1
-8.147768 -8.326427 -7.860888 7.9697423 8.018334 -7.774045 8.118451 7.5478835
-7.8621583 -7.82597 -8.1898775 -8.494485 8.018618 8.155739 7.6540956 8.173389
-7.7993207 8.284912 -8.023069 7.746171 8.0292015 7.987218 -8.142217 7.9763055
-7.910759 -8.064061 7.9684258 -7.3640656 -8.133974 -7.8505793 8.040075 8.062642
-7.9988847 7.6522117 8.12007 -8.111253 -8.388089 7.6694884 -8.44721 -8.338164
-8.365138 -7.5812573 8.333919 8.048276 8.035851 -8.352961 8.033503 7.9389076
7.7624254 -8.081843 8.309445 7.4017134 7.862842 -7.7851076 -8.01766 7.7185864
7.7321005 8.009798 7.7978325 8.430438 -7.8732696 7.2801766 -7.987379 -8.147415

exp_avg f4 [1, 8]
00000000: fb87 0a3b f55d 8d3b e4a1 64bb 0b37 5ebb
00000010: d4dd 2ebb c737 d6ba f48c 8f3a a043 4ebb
0.002113818 0.004314179 -0.0034886533 -0.003390732 -0.0026682513 -0.0016343527 0.0010952041 -0.0031473413

exp_avg_sq f4 [1, 8]
00000000: c575 e338 469c e538 ada9 e138 5c22 fc38
00000010: f92d b238 2daf dc38 9990 0339 9182 0239
0.0001084614 0.00010948679 0.00010760441 0.00012022696 8.4962645e-05 0.000105230465 0.00012547 0.00012446406

exp_avg f4 [64, 111]
00000000: e9f2 b4b9 93d6 8b3a dd37 b8b9 adba 02ba
00000010: 563d 7bba 6b0e b1ba c99a 38ba 7a78 e438
00000020: b2b3 06ba cbe3 5f3a 6d57 65b9 0511 00ba
00000030: 96f2 c73a 9e5a e63b a729 69bb 83ec 863a
00000040: dff1 93b8 f709 5c3a 7465 6b3a b0af 953b
00000050: dd6e 2fbc fc79 243c cc8f ceb7 97b0 34ba
00000060: 7839 58ba 2688 1bbc af39 2f3b 0000 0000
00000070: 0000 0000 0000 0000 0000 0000 0000 0000
00000080: 0000 0000 0000 0000 0000 0000 0000 0000
00000090: 0000 0000 0000 0000 0000 0000 0000 0000
000000a0: 0000 0000 0000 0000 0000 0000 0000 0000
000000b0: 0000 0000 0000 0000 0000 0000 0000 0000
000000c0: 0000 0000 0000 0000 0000 0000 0000 0000
000000d0: 0000 0000 0000 0000 0000 0000 0000 0000
000000e0: 0000 0000 0000 0000 0000 0000 0000 0000
000000f0: 0000 0000 0000 0000 0000 0000 0000 0000
00000100: 0000 0000 0000 0000 0000 0000 0000 0000
00000110: 0000 0000 0000 0000 0000 0000 0000 0000
00000120: 0000 0000 0000 0000 0000 0000 0000 0000
00000130: 0000 0000 0000 0000 0000 0000 0000 0000
00000140: 0000 0000 0000 0000 0000 0000 0000 0000
00000150: 0000 0000 0000 0000 0000 0000 0000 0000
00000160: 0000 0000 0000 0000 0000 0000 0000 0000
00000170: 0000 0000 0000 0000 0000 0000 0000 0000
00000180: 0000 0000 0000 0000 0000 0000 0000 0000
00000190: 0000 0000 0000 0000 0000 0000 0000 0000
000001a0: 0000 0000 0000 0000 0000 0000 0000 0000
000001b0: 0000 0000 0000 0000 0000 0000 4e8e 5a3a
000001c0: 9dba e03a ee3c f0b8 5a36 93b9 940b eaba
000001d0: d43e 53b9 78ba d839 2646 043a 14e9 91ba
000001e0: 4226 0538 4ee0 82ba 5f22 fdb9 b17c d23a
000001f0: 624d 133c b1ee 72bb 556b fd3a 2c66 a9b9
00000200: 9b85 0d3b ba3c e8ba 8bfe bb3b 2684 863a
00000210: 6b06 d43b 2d68 9638 866b 283a 72db b238
00000220: e72e d2bb 5e0a a5ba 0000 0000 0000 0000
00000230: 0000 0000 0000 0000 0000 0000 0000 0000
00000240: 0000 0000 0000 0000 0000 0000 0000 0000
00000250: 0000 0000 0000 0000 0000 0000 0000 0000
00000260: 0000 0000 0000 0000 0000 0000 0000 0000
00000270: 0000 0000 0000 0000 0000 0000 0000 0000
00000280: 0000 0000 0000 0000 0000 0000 0000 0000
00000290: 0000 0000 0000 0000 0000 0000 0000 0000
000002a0: 0000 0000 0000 0000 0000 0000 0000 0000
000002b0: 0000 0000 0000 0000 0000 0000 0000 0000
000002c0: 0000 0000 0000 0000 0000 0000 0000 0000
000002d0: 0000 0000 0000 0000 0000 0000 0000 0000
000002e0: 0000 0000 0000 0000 0000 0000 0000 0000
000002f0: 0000 0000 0000 0000 0000 0000 0000 0000
00000300: 0000 0000 0000 0000 0000 0000 0000 0000
00000310: 0000 0000 0000 0000 0000 0000 0000 0000
00000320: 0000 0000 0000 0000 0000 0000 0000 0000
00000330: 0000 0000 0000 0000 0000 0000 0000 0000
00000340: 0000 0000 0000 0000 0000 0000 0000 0000
00000350: 0000 0000 0000 0000 0000 0000 0000 0000
00000360: 0000 0000 0000 0000 0000 0000 0000 0000
00000370: 0000 0000 0000 0000 b25e dfb9 ffe2 7bba
00000380: 7e27 1f39 765b 99b7 b19a ad3a 8b77 adba
00000390: 7788 06ba 795d e436 7929 2f3a 6459 59ba
000003a0: 96ef 473a 3d24 e0b9 cda2 9dba c196 b8bb
000003b0: db00 da3b 048a 4ebb c94f 60bb 14d0 03bc
000003c0: 9e44 64ba e1bc e7bb b02b 89bb 3993 06bb
000003d0: e3c4 33ba 1f24 983b 72ac ceb9 364e b03a
000003e0: e130 5f3b 0000 0000 0000 0000 0000 0000
000003f0: 0000 0000 0000 0000 0000 0000 0000 0000
-0.00034513258 0.0010668806 -0.00035136836 -0.00049869233 -0.000958403 -0.0013508325 -0.0007042108 0.00010894328
-0.0005138471 0.00085407187 -0.0002187171 -0.00048853486 0.0015254791 0.0070298454 -0.0035577805 0.0010293875
-7.054558e-05 0.0008393819 0.0008979656 0.0045680627 -0.010707584 0.010038849 -2.4624074e-05 -0.0006892769
-0.00082483096 -0.00949291 0.0026737263 0.0 0.0 0.0 0.0 0.0
0.0 0.0 0.0 0.0 0.0 0.0 0.0 0.0
0.0 0.0 0.0 0.0 0.0 0.0 0.0 0.0
0.0 0.0 0.0 0.0 0.0 0.0 0.0 0.0
0.0 0.0 0.0 0.0 0.0 0.0 0.0 0.0
0.0 0.0 0.0 0.0 0.0 0.0 0.0 0.0
0.0 0.0 0.0 0.0 0.0 0.0 0.0 0.0
0.0 0.0 0.0 0.0 0.0 0.0 0.0 0.0
0.0 0.0 0.0 0.0 0.0 0.0 0.0 0.0
0.0 0.0 0.0 0.0 0.0 0.0 0.0 0.0
0.0 0.0 0.0 0.0 0.0 0.0 0.0 0.0008337245
0.0017145459 -0.00011455441 -0.0002807852 -0.0017856234 -0.00020145933 0.0004133766 0.00050458533 -0.0011132085
3.17453e-05 -0.0009985061 -0.0004828153 0.001605889 0.0089906175 -0.003706854 0.0019334356 -0.00032310316
0.0021594528 -0.0017718293 0.005737131 0.0010262772 0.0064704916 7.1719616e-05 0.00064247136 8.528576e-05
-0.0064142826 -0.0012591591 0.0 0.0 0.0 0.0 0.0 0.0
0.0 0.0 0.0 0.0 0.0 0.0 0.0 0.0
0.0 0.0 0.0 0.0 0.0 0.0 0.0 0.0
0.0 0.0 0.0 0.0 0.0 0.0 0.0 0.0
0.0 0.0 0.0 0.0 0.0 0.0 0.0 0.0
0.0 0.0 0.0 0.0 0.0 0.0 0.0 0.0
0.0 0.0 0.0 0.0 0.0 0.0 0.0 0.0
0.0 0.0 0.0 0.0 0.0 0.0 0.0 0.0
0.0 0.0 0.0 0.0 0.0 0.0 0.0 0.0
0.0 0.0 0.0 0.0 0.0 0.0 0.0 0.0
0.0 0.0 0.0 0.0 0.0 0.0 -0.00042604428 -0.0009608715
0.00015178134 -1.8281611e-05 0.0013244954 -0.0013234479 -0.0005132029 6.805811e-06 0.00066819 -0.00082912133
0.00076269486 -0.0004275161 -0.0012026668 -0.0056332056 0.006652934 -0.003151537 -0.0034227243 -0.008045215
-0.00087077345 -0.0070720767 -0.004186116 -0.002053453 -0.00068576465 0.004642978 -0.00039419864 0.0013451043
0.0034056234 0.0 0.0 0.0 0.0 0.0 0.0 0.0

exp_avg_sq f4 [64, 111]
00000000: bc0f 8e37 d8a0 1738 31e8 d135 d1c1 1436
00000010: 192f 9137 19d2 c637 46f5 ba37 b131 f437
00000020: 63f9 4937 72be b337 1e6c 5937 c10f e937
00000030: 83c2 c537 2965 123a fe70 a338 c3cd bd38
00000040: 1a1e d838 39fe 0439 a3b7 8838 dfb6 9339
00000050: b9c1 0739 23c2 123a 32bb d337 a9d1 2939
00000060: c886 1638 2658 273a 877e 5d39 0000 0000
00000070: 0000 0000 0000 0000 0000 0000 0000 0000
00000080: 0000 0000 0000 0000 0000 0000 0000 0000
00000090: 0000 0000 0000 0000 0000 0000 0000 0000
000000a0: 0000 0000 0000 0000 0000 0000 0000 0000
000000b0: 0000 0000 0000 0000 0000 0000 0000 0000
000000c0: 0000 0000 0000 0000 0000 0000 0000 0000
000000d0: 0000 0000 0000 0000 0000 0000 0000 0000
000000e0: 0000 0000 0000 0000 0000 0000 0000 0000
000000f0: 0000 0000 0000 0000 0000 0000 0000 0000
00000100: 0000 0000 0000 0000 0000 0000 0000 0000
00000110: 0000 0000 0000 0000 0000 0000 0000 0000
00000120: 0000 0000 0000 0000 0000 0000 0000 0000
00000130: 0000 0000 0000 0000 0000 0000 0000 0000
00000140: 0000 0000 0000 0000 0000 0000 0000 0000
00000150: 0000 0000 0000 0000 0000 0000 0000 0000
00000160: 0000 0000 0000 0000 0000 0000 0000 0000
00000170: 0000 0000 0000 0000 0000 0000 0000 0000
00000180: 0000 0000 0000 0000 0000 0000 0000 0000
00000190: 0000 0000 0000 0000 0000 0000 0000 0000
000001a0: 0000 0000 0000 0000 0000 0000 0000 0000
000001b0: 0000 0000 0000 0000 0000 0000 4e78 5e37
000001c0: 16c0 f037 65fa 9535 fc81 ed35 d6ef 5537
000001d0: d4c7 8937 6f9d 6f37 925f cf37 1190 1d37
000001e0: ed33 8237 d5df 2c37 cab8 d137 4233 8537
000001f0: a06b f739 a39c 4638 d1c2 9b38 1577 a938
00000200: d1c6 b338 ba0d 4338 a1da 4c39 fe06 b638
00000210: 5188 8e39 5d9d ad37 2265 b538 a720 e437
00000220: 540d a439 3622 3739 0000 0000 0000 0000
00000230: 0000 0000 0000 0000 0000 0000 0000 0000
00000240: 0000 0000 0000 0000 0000 0000 0000 0000
00000250: 0000 0000 0000 0000 0000 0000 0000 0000
00000260: 0000 0000 0000 0000 0000 0000 0000 0000
00000270: 0000 0000 0000 0000 0000 0000 0000 0000
00000280: 0000 0000 0000 0000 0000 0000 0000 0000
00000290: 0000 0000 0000 0000 0000 0000 0000 0000
000002a0: 0000 0000 0000 0000 0000 0000 0000 0000
000002b0: 0000 0000 0000 0000 0000 0000 0000 0000
000002c0: 0000 0000 0000 0000 0000 0000 0000 0000
000002d0: 0000 0000 0000 0000 0000 0000 0000 0000
000002e0: 0000 0000 0000 0000 0000 0000 0000 0000
000002f0: 0000 0000 0000 0000 0000 0000 0000 0000
00000300: 0000 0000 0000 0000 0000 0000 0000 0000
00000310: 0000 0000 0000 0000 0000 0000 0000 0000
00000320: 0000 0000 0000 0000 0000 0000 0000 0000
00000330: 0000 0000 0000 0000 0000 0000 0000 0000
00000340: 0000 0000 0000 0000 0000 0000 0000 0000
00000350: 0000 0000 0000 0000 0000 0000 0000 0000
00000360: 0000 0000 0000 0000 0000 0000 0000 0000
00000370: 0000 0000 0000 0000 6c40 4d37 2ea6 9238
00000380: 8573 ce35 eeda 6536 a8db d837 b72d 2d38
00000390: aff1 6237 65af 4d38 97e4 c637 013e 1538
000003a0: f9dd b437 a3a5 4438 3308 9738 e42c a83a
000003b0: 3157 2039 e933 6339 18d5 8739 2092 ac39
000003c0: f594 1539 8089 cc39 def4 7238 266c c13a
000003d0: db59 d038 2faa b939 1245 aa37 69d7 bb3a
000003e0: 36d9 1e3a 0000 0000 0000 0000 0000 0000
000003f0: 0000 0000 0000 0000 0000 0000 0000 0000
1.6935046e-05 3.6151003e-05 1.563929e-06 2.2166535e-06 1.7307279e-05 2.3701274e-05 2.2287142e-05 2.9110206e-05
1.20385985e-05 2.1427146e-05 1.2959381e-05 2.77831e-05 2.3574807e-05 0.0005584532 7.793492e-05 9.0505484e-05
0.000103052895 0.00012683206 6.51919e-05 0.00028174274 0.0001294677 0.00055983866 2.524033e-05 0.000161952
3.588831e-05 0.00063836796 0.00021123338 0.0 0.0 0.0 0.0 0.0
0.0 0.0 0.0 0.0 0.0 0.0 0.0 0.0
0.0 0.0 0.0 0.0 0.0 0.0 0.0 0.0
0.0 0.0 0.0 0.0 0.0 0.0 0.0 0.0
0.0 0.0 0.0 0.0 0.0 0.0 0.0 0.0
0.0 0.0 0.0 0.0 0.0 0.0 0.0 0.0
0.0 0.0 0.0 0.0 0.0 0.0 0.0 0.0
0.0 0.0 0.0 0.0 0.0 0.0 0.0 0.0
0.0 0.0 0.0 0.0 0.0 0.0 0.0 0.0
0.0 0.0 0.0 0.0 0.0 0.0 0.0 0.0
0.0 0.0 0.0 0.0 0.0 0.0 0.0 1.3260242e-05
2.8699676e-05 1.117424e-06 1.7695706e-06 1.27516305e-05 1.6424725e-05 1.42821655e-05 2.4720826e-05 9.391472e-06
1.5521387e-05 1.0304114e-05 2.500079e-05 1.5878704e-05 0.00047191698 4.7352758e-05 7.427263e-05 8.080729e-05
8.5724176e-05 4.6504407e-05 0.00019536402 8.679739e-05 0.00027185914 2.0696485e-05 8.64959e-05 2.7194923e-05
0.00031290448 0.00017464985 0.0 0.0 0.0 0.0 0.0 0.0
0.0 0.0 0.0 0.0 0.0 0.0 0.0 0.0
0.0 0.0 0.0 0.0 0.0 0.0 0.0 0.0
0.0 0.0 0.0 0.0 0.0 0.0 0.0 0.0
0.0 0.0 0.0 0.0 0.0 0.0 0.0 0.0
0.0 0.0 0.0 0.0 0.0 0.0 0.0 0.0
0.0 0.0 0.0 0.0 0.0 0.0 0.0 0.0
0.0 0.0 0.0 0.0 0.0 0.0 0.0 0.0
0.0 0.0 0.0 0.0 0.0 0.0 0.0 0.0
0.0 0.0 0.0 0.0 0.0 0.0 0.0 0.0
0.0 0.0 0.0 0.0 0.0 0.0 1.2233952e-05 6.992776e-05
1.5381817e-06 3.4251093e-06 2.5851492e-05 4.128899e-05 1.3526921e-05 4.9039158e-05 2.3709885e-05 3.5582114e-05
2.1561036e-05 4.6884303e-05 7.201768e-05 0.0012830761 0.0001529127 0.00021667745 0.00025907974 0.00032915268
0.00014265238 0.00039012358 5.7925346e-05 0.0014756962 9.93495e-05 0.00035412746 2.0297743e-05 0.0014331165
0.00060595886 0.0 0.0 0.0 0.0 0.0 0.0 0.0
