drl/ran2/Ant70000_ran2_weights.pth (torch, 292784 bytes, 36 tensors)

log_std f4 [1, 8]
-1.4020827 -1.9173065 -1.1827153 -1.4706247 -1.4045495 -1.6057047 -1.3604348 -1.5775218
00000000: 7277 b3bf 4d6a f5bf 3763 97bf 6e3d bcbf
00000010: 47c8 b3bf bb87 cdbf ba22 aebf 3cec c9bf

fc1.weight f4 [64, 111]
-0.3458942 -0.047277898 0.108741455 -0.051142734 0.108250774 -0.15058415 0.0066493033 0.042580515
0.05522565 0.027834784 -0.25633273 -0.22659634 0.083625995 -0.104634956 -0.0009418435 0.024734795
0.05837663 0.011435909 -0.06284508 -0.039132264 -0.11013048 -0.018484376 -0.15149838 -0.019779481
-0.029062588 -5.431541e-05 0.13341394 -0.007791511 -0.034695953 0.056769438 -0.06900812 -0.024754101
0.06750601 0.094654165 0.116563104 -0.17333615 -0.116805494 0.009880112 0.08167458 -0.0754959
-0.14210315 0.09653318 -0.012955543 -0.14053504 0.039643902 0.017880451 0.09907145 -0.0030286445
-0.031915832 -0.13422713 -0.0986604 0.028764538 -0.095582075 -0.05567561 0.06744774 0.01865231
-0.054841746 0.017509993 -0.20823483 -0.038617138 0.08164473 -0.0072367457 0.114925005 -0.11166557
0.015404698 0.17266017 -0.27381602 -0.018573742 0.08292072 0.045017265 0.056179937 -0.10840436
0.0485582 -0.0944305 -0.033283427 0.06672744 0.03566428 0.0253633 -0.08033475 0.06265204
0.033814237 -0.0062516457 0.015303888 0.03234271 0.2078293 -0.12379017 -0.012662644 0.12517343
-0.06809961 -0.06350179 0.06374925 0.05202433 -0.022890676 0.13769273 -0.16256693 0.13295528
-0.00035645542 0.0860497 -0.005974742 -0.1401145 -0.10596994 -0.03743048 0.099702515 0.15004446
-0.026453504 -0.16842665 -0.04930465 0.013555835 0.11235863 -0.016593821 0.053479962 -0.076077744
-0.05743585 -0.65399474 0.13199738 -0.25466833 0.011550806 -0.163203 0.18539914 0.07869997
-0.07343373 0.009465159 -0.15186417 -0.081555635 -0.06464306 -0.0022274852 -0.14885984 -0.013159768
0.033866826 0.0046908865 -0.089383796 -0.07773605 0.08926977 0.036816433 -0.1538965 0.065237276
-0.05515382 -0.07354827 -0.11657074 -0.00066049065 -0.06652913 -0.057159927 0.025817506 0.051236734
-0.13591032 -0.057719786 0.0975515 -0.10133125 -0.038597915 0.1680809 -0.059719175 -0.039446983
-0.08748309 -0.04450521 0.22466932 0.17317238 0.03858966 -0.09562479 -0.106398255 -0.16580851
0.063220404 -0.062119074 0.031688605 -0.020121159 0.110400334 -0.05961324 -0.02372453 0.19603951
0.24343407 0.057757493 -0.0587891 0.07133382 -0.061221518 0.0474649 0.17703475 -0.037319347
-0.030486545 -0.16142456 -0.005817401 0.022061879 0.05821295 0.02391662 0.2657637 0.10560833
0.012400558 0.017755393 -0.006800742 -0.06435123 -0.053520713 -0.006323616 0.17159422 0.004974091
0.059477307 0.03846698 -0.11464971 -0.13777499 -0.08426107 0.07474795 -0.011021227 0.09219387
0.06261686 -0.038727954 -0.038466405 0.021556528 0.083806306 0.028953047 0.15719381 0.028292691
0.15193848 0.04856585 -0.045423027 0.16819157 -0.00035607637 -0.025414364 0.053540044 0.004392755
-0.076920815 0.038756616 0.020872656 -0.00936038 0.05181312 -0.058585856 -0.06382791 -0.13532874
0.07322604 -0.005800846 0.5528628 0.09624544 -0.27087948 0.27662066 0.16851783 0.12098821
0.29845262 -0.30500823 -0.023771193 -0.039078396 -0.0502831 -0.039473 -0.036645032 0.0422056
0.006876932 0.06719964 -0.033963338 0.025475252 0.016821608 0.03355284 -0.035695545 -0.17606366
0.07412555 0.03615233 0.054284118 -0.005929872 0.024806075 -0.1222957 -0.023982398 0.035926133
00000000: 0b19 b1be 78a6 41bd d7b3 de3d 0b7b 51bd
00000010: 95b2 dd3d bb32 1abe 66e2 d93b e868 2e3d
00000020: 4b34 623d c605 e43c 0b3e 83be df08 68be
00000030: 1b44 ab3d da4a d6bd 0ce6 76ba a0a0 ca3c
00000040: 551c 6f3d ae5d 3b3c ecb4 80bd 2749 20bd
00000050: 178c e1bd 8c6c 97bc 6422 1bbe 9408 a2bc
00000060: aa14 eebc bad0 63b8 aa9d 083e ee4f ffbb
00000070: 581d 0ebd 1287 683d 2154 8dbd 1dc9 cabc
00000080: 9740 8a3d 0bda c13d a3b8 ee3d 087f 31be
00000090: b837 efbd 31e0 213c 0145 a73d 989d 9abd
000000a0: 7d83 11be 30b3 c53d 7c43 54bc 6be8 0fbe
000000b0: a561 223d 067a 923c f9e5 ca3d 397c 46bb
000000c0: 2dba 02bd d672 09be 770e cabd 9ca3 eb3c
000000d0: 89c0 c3bd 1c0c 64bd 0a22 8a3d bbcc 983c
000000e0: bda1 60bd 1e71 8f3c 833b 55be 012d 1ebd
000000f0: 5a35 a73d 3922 edbb cd5d eb3d ebb0 e4bd
00000100: fd63 7c3c d4cd 303e 9d31 8cbe f627 98bc
00000110: 57d2 a93d 0664 383d ef1c 663d 1b03 debd
00000120: f7e4 463d c764 c1bd 3454 08bd 65a8 883d
00000130: b514 123d b2c6 cf3c 8c86 a4bd b64f 803d
00000140: cc80 0a3d 9bda ccbb 29bd 7a3c ca79 043d
00000150: 34d1 543e b385 fdbd fa76 4fbc 772d 003e
00000160: cf77 8bbd 3a0d 82bd f78e 823d 7717 553d
00000170: 3a85 bbbc 53ff 0c3e f277 26be 6e25 083e
00000180: a3e2 bab9 d33a b03d c5c7 c3bb 2d7a 0fbe
00000190: c506 d9bd b450 19bd d530 cc3d 41a5 193e
000001a0: 05b5 d8bc 0978 2cbe acf3 49bd 4b19 5e3c
000001b0: 481c e63d c4ef 87bc ce0d 5b3d a6ce 9bbd
000001c0: db41 6bbd 336c 27bf 522a 073e e363 82be
000001d0: 983f 3d3c b01e 27be 46d9 3d3e 732d a13d
000001e0: 6c64 96bd c113 1b3c 4882 1bbe a406 a7bd
000001f0: 9563 84bd 00fb 11bb b76e 18be 119c 57bc
00000200: f1b7 0a3d 02b6 993b da0e b7bd 1434 9fbd
00000210: 12d3 b63d d4cc 163d 0b97 1dbe 1f9b 853d
00000220: f9e8 61bd 7aa0 96bd a4bc eebd c724 2dba
00000230: 6d40 88bd 8720 6abd 3c7f d33c 9cdd 513d
00000240: 132c 0bbe 956b 6cbd 15c9 c73d c286 cfbd
00000250: d918 1ebd 661d 2c3e 189c 74bd 2993 21bd
00000260: 562a b3bd 184b 36bd b70f 663e 1a54 313e
00000270: 3110 1e3d eed6 c3bd 54e7 d9bd b5c9 29be
00000280: b379 813d 9270 7ebd e9cb 013d 21d5 a4bc
00000290: 9219 e23d 032d 74bd f259 c2bc 95be 483e
000002a0: c846 793e 1f93 6c3d d7cc 70bd 7717 923d
000002b0: 6ac3 7abd 8e6a 423d 9948 353e 2cdc 18bd
000002c0: ebbe f9bc 7b4c 25be e69f bebb 1dbb b43c
000002d0: b470 6e3d caec c33c 2e12 883e 2e49 d83d
000002e0: b62b 4b3c c273 913c c2d8 debb 94ca 83bd
000002f0: 8938 5bbd 5636 cfbb 65b6 2f3e b3fd a23b
00000300: 7a9e 733d 8d8f 1d3d 78cd eabd e314 0dbe
00000310: 1191 acbd 7415 993d 6092 34bc 24d0 bc3d
00000320: 453d 803d 34a1 1ebd f38e 1dbd 5197 b03c
00000330: a4a2 ab3d f12e ed3c 6af7 203e 13c6 e73c
00000340: c395 1b3e fcec 463d 7f0d 3abd 693a 2c3e
00000350: c3af bab9 c931 d0bc ce4c 5b3d 1af1 8f3b
00000360: a988 9dbd 42bf 1e3d 22fd aa3c 475c 19bc
00000370: fe39 543d b9f7 6fbd 35b8 82bd 9e93 0abe
00000380: 89f7 953d 0615 bebb 6b88 0d3f 541c c53d
00000390: b7b0 8abe 39a1 8d3e f08f 2c3e abc8 f73d
000003a0: c8ce 983e 0a2a 9cbe cebb c2bc ab10 20bd
000003b0: a7f5 4dbd 71ae 21bd 1a19 16bd c7df 2c3d
000003c0: e357 e13b f79f 893d 241d 0bbd 7ab1 d03c
000003d0: 78cd 893c b46e 093d 7e35 12bd 084a 34be
000003e0: 23cf 973d 7714 143d 0659 5e3d 5f4f c2bb
000003f0: 1c36 cb3c 2b76 fabd bc76 c4bc 4827 133d

fc1.bias f4 [64]
-0.0091601545 -0.040061053 -0.14017366 -0.110506944 -0.1630314 -0.0061889063 0.021214668 0.06224309
-0.083777115 -0.03696775 0.010619961 -0.08932573 -0.060759034 0.013058944 0.009977897 0.090511955
-0.06707631 -0.05354217 0.06487695 0.09921889 0.16625652 -0.021651912 -0.1017149 0.079005584
0.10052836 0.13851501 0.042982828 -0.039170537 -0.025456129 0.0016952418 -0.02533095 -0.068525724
-0.053466886 0.00972493 0.037848577 -0.0040661287 0.08065611 0.012503228 0.019753566 0.0806938
-0.022728533 0.07529254 0.003941995 -0.008888574 -0.03683844 0.17091267 -0.08185294 0.045041896
-0.030137256 0.09472051 -0.21565594 0.14731564 -0.14794505 0.020533571 0.016741471 0.16941904
-6.581552e-05 0.046332195 0.01838813 -0.0045884377 -0.037693992 0.056134664 0.029627807 -0.2195918
00000000: 7914 16bc 0f17 24bd af89 0fbe 7751 e2bd
00000010: b4f1 26be 4fcc cabb 62ca ad3c 9cf2 7e3d
00000020: 5693 abbd 7f6b 17bd 58ff 2d3c 69f0 b6bd
00000030: 77de 78bd 2ef5 553c 557a 233c 555e b93d
00000040: 4e5f 89bd 094f 5bbd 35de 843d 4633 cb3d
00000050: 263f 2a3e 5a5f b1bc e74f d0bd aecd a13d
00000060: d0e1 cd3d e1d6 0d3e c30e 303d 4971 20bd
00000070: 5f89 d0bc e032 de3a da82 cfbc 3757 8cbd
00000080: 1800 5bbd 5055 1f3c 1c07 1b3d 293d 85bb
00000090: 082f a53d 57da 4c3c 3bd2 a13c ca42 a53d
000000a0: 3031 babc fa32 9a3d da2b 813b 62a1 11bc
000000b0: e7e3 16bd bb03 2f3e 84a2 a7bd da7d 383d
000000c0: 68e2 f6bc d4fc c13d e9d4 5cbe e9d9 163e
000000d0: e87e 17be 0536 a83c 6925 893c 2f7c 2d3e
000000e0: 7006 8ab8 d4c6 3d3d b4a2 963c 9b5a 96bb
000000f0: 0465 1abd 76ed 653d 04b6 f23c acdc 60be

fc2.weight f4 [64, 64]
0.07861348 -0.06539107 -0.16367695 -0.032914106 0.20768288 -0.018038448 0.26577178 -0.08831934
0.04911489 0.30325925 0.01906524 0.06349846 -0.13977027 -0.3719433 0.025552168 -0.05904865
0.24299373 -0.0578469 0.098985955 -0.11676855 -0.0027106628 -0.05582711 -0.19464421 0.07883768
0.06172822 0.2537205 -0.038978577 0.079572745 -0.14604409 -0.060560398 -0.042149853 -0.21913315
0.03385555 0.1399298 0.017509703 -0.054848142 0.086281486 0.07829992 0.3622957 -0.09816402
0.22901574 0.039098047 -0.10429022 0.2175575 0.12639652 -0.0792389 0.2129674 -0.080818236
0.117961176 -0.07663499 0.0966747 0.083049975 0.02663372 -0.2742722 -0.13023317 0.013113223
-0.05145853 -0.21423152 0.2517314 -0.19404782 -0.033072498 -0.24109142 -0.16023949 0.073134705
0.014787132 0.45308954 -0.2595352 0.1760186 0.0055338466 -0.07193962 0.29551724 0.1689143
0.105484575 0.14001302 0.002006894 -0.0813146 -0.17715539 0.006479328 0.104563 0.08733554
-0.13742174 -0.14191377 0.03159372 -0.19109496 0.012276443 -0.12069898 0.03489537 0.032158323
-0.10837753 -0.16011941 0.011922291 -0.10461405 0.0060982234 -0.057864692 0.11337131 0.080200486
-0.12819439 0.0020298813 -0.11375977 -0.066723414 0.16117544 0.1402461 0.059919223 -0.18426949
-0.03502147 -0.005890864 0.109660335 -0.15735641 -0.013850191 -0.0076619047 -0.14306296 -0.11565183
0.006940213 -0.1012993 0.028283566 0.070408836 0.042434502 -0.10889191 -0.10755728 -0.05978725
0.32029888 0.1508039 -0.03696238 0.11560505 0.055941638 -0.05376417 -0.11203503 0.25482896
-0.23545814 -0.04360421 -0.11580352 -0.073296845 0.008878751 0.08383917 -0.017044164 -0.09083546
-0.085015304 0.14874186 -0.120446324 -0.13430429 0.04488378 0.11233236 0.035841484 0.05656494
-0.27714297 -0.14864317 0.50793636 0.00959113 0.10130933 -0.19177438 -0.070831515 -0.05772074
0.19978662 0.085679226 0.06368144 -0.13911988 -0.008412657 -0.058005553 0.07432212 0.050046824
0.0774222 0.14632559 0.07521083 -0.016610675 -0.17362644 -0.03431095 -4.489355e-05 -0.28064924
0.008499936 0.25128168 -0.29050007 -0.07458566 0.21912743 -0.15345633 0.17388171 0.21616311
-0.0024865973 0.05893458 -0.11207301 -0.06963588 -0.09240972 0.058614917 0.055281818 -0.018788109
-0.25850642 0.04608263 0.054369483 0.0750212 0.13667512 0.18702666 -0.14349265 -0.09955421
-0.0005074051 0.030523472 -0.012907087 -0.17578954 -0.2972261 0.05427136 -0.11680513 -0.016053803
0.16998403 0.2972695 -0.016168168 0.2791532 -0.21087924 0.07194736 0.30738604 -0.053668838
0.009598086 0.04953963 -0.047744807 -0.3121395 0.040396433 0.054046344 0.08833074 -0.14650404
-0.02742242 0.1740414 0.032600243 -0.35139033 -0.23859233 0.047383383 -0.021384975 -0.024504991
0.07159916 -0.052162044 -0.086936705 0.21772839 -0.10029927 0.122514635 -0.038037743 -0.13286565
0.0012065648 -0.04116925 -0.19970761 0.07358551 0.2436633 0.085234545 -0.17460035 0.0081064375
-0.25306225 0.067849666 0.13017033 0.014785669 -0.005228515 -0.10727067 0.1667274 -0.033272065
-0.0070758997 -0.07424338 0.36818066 -0.08310866 -0.28994095 -0.27554405 -0.06979233 -0.03385815
00000000: 1b00 a13d c1eb 85bd ee9a 27be f1d0 06bd
00000010: d2aa 543e 5ec5 93bc 3d13 883e c5e0 b4bd
00000020: b22c 493d cc44 9b3e b52e 9c3c 7b0b 823d
00000030: f01f 0fbe 5a6f bebe c852 d13c ffdc 71bd
00000040: 59d3 783e dff0 6cbd 26b9 ca3d 5924 efbd
00000050: 60a5 31bb f8aa 64bd d050 47be a675 a13d
00000060: bbd6 7c3d a7e7 813e 00a8 1fbd 09f7 a23d
00000070: 958c 15be 2e0e 78bd 53a5 2cbd 7164 60be
00000080: 1eac 0a3d c249 0f3e 8270 8f3c 72a8 60bd
00000090: 59b4 b03d b55b a03d d27e b93e 380a c9bd
000000a0: 1a83 6a3e 4625 203d 1c96 d5bd 65c7 5e3e
000000b0: 176e 013e 0148 a2bd 2014 5a3e 0884 a5bd
000000c0: a195 f13d cef2 9cbd 63fd c53d 1b16 aa3d
000000d0: f62e da3c 686d 8cbe d85b 05be d8d8 563c
000000e0: 2ec6 52bd 825f 5bbe f0e2 803e 79b4 46be
000000f0: 0777 07bd abe0 76be d215 24be a6c7 953d
00000100: ba45 723c 5afb e73e cce1 84be 383e 343e
00000110: 4555 b53b 1455 93bd 094e 973e dff7 2c3e
00000120: 4c08 d83d 935f 0f3e 1886 033b 4588 a6bd
00000130: 3968 35be 8b50 d43b 2025 d63d fadc b23d
00000140: 49b8 0cbe d851 11be 6b68 013d 66ae 43be
00000150: 2223 493c 0731 f7bd 73ee 0e3d 72b8 033d
00000160: 0af5 ddbd 58f6 23be b655 433c e43f d6bd
00000170: 9bd3 c73b 8703 6dbd 382f e83d 2740 a43d
00000180: 6445 03be c207 053b e2fa e8bd 49a6 88bd
00000190: 2d0b 253e ac9c 0f3e dc6d 753d 24b1 3cbe
000001a0: ac72 0fbd 2608 c1bb 9995 e03d 0a22 21be
000001b0: e9eb 62bc b710 fbbb 197f 12be deda ecbd
000001c0: ba6a e33b 0276 cfbd f0b2 e73c 8232 903d
000001d0: cdcf 2d3d b902 dfbd fe46 dcbd 7ae3 74bd
000001e0: 37fe a33e 566c 1a3e dd65 17bd 57c2 ec3d
000001f0: 0f23 653d d137 5cbd 9f72 e5bd f178 823e
00000200: f01b 71be 549a 32bd 652a edbd a81c 96bd
00000210: 2e78 113c dfb3 ab3d 34a0 8bbc f107 babd
00000220: 811c aebd c94f 183e 90ac f6bd 1087 09be
00000230: 0ed8 373d 820e e63d 85ce 123d a3b0 673d
00000240: afe5 8dbe ea35 18be 1e08 023f 1d24 1d3c
00000250: 447b cf3d 8160 44be 1d10 91bd 956c 6cbd
00000260: dd94 4c3e 9778 af3d 6a6b 823d 7175 0ebe
00000270: 3ed5 09bc 3b97 6dbd 3236 983d e6fd 4c3d
00000280: 888f 9e3d 60d6 153e 2308 9a3d 1c13 88bc
00000290: 21cb 31be a489 0cbd 154c 3cb8 42b1 8fbe
000002a0: 5143 0b3c fea7 803e 6dbc 94be 5ec0 98bd
000002b0: f162 603e a823 1dbe 0c0e 323e dd59 5d3e
000002c0: 2ef6 22bb 6365 713d 8986 e5bd 429d 8ebd
000002d0: 4f41 bdbd 3216 703d 306f 623d 85e9 99bc
000002e0: f45a 84be 24c1 3c3d 89b2 5e3d b7a4 993d
000002f0: 90f4 0b3e eb83 3f3e bdef 12be 14e3 cbbd
00000300: 6103 05ba 5c0c fa3c 3f78 53bc 2c02 34be
00000310: 052e 98be a54b 5e3d 8737 efbd 4483 83bc
00000320: 4b10 2e3e b533 983e 1b73 84bc 2bed 8e3e
00000330: baf0 57be 2359 933d b461 9d3e dbd3 5bbd
00000340: 4a41 1d3c 11ea 4a3d 0f90 43bd c0d0 9fbe
00000350: bb76 253d b35f 5d3d bfe6 b43d 2805 16be
00000360: fca4 e0bc e937 323e d587 053d 6fe9 b3be
00000370: 8c51 74be 1415 423d 8b2f afbc b1be c8bc
00000380: 95a2 923d dea7 55bd df0b b2bd 31f4 5e3e
00000390: b469 cdbd f4e8 fa3d 77cd 1bbd ef0d 08be
000003a0: 9925 9e3a 16a1 28bd 2780 4cbe 00b4 963d
000003b0: df82 793e 738f ae3d 6fca 32be ddd0 043c
000003c0: 6091 81be c4f4 8a3d 5f4b 053e 973f 723c
000003d0: f653 abbb bab0 dbbd 96ba 2a3e 4a48 08bd
000003e0: f3dc e7bb ea0c 98bd 2d82 bc3e e034 aabd
000003f0: 2473 94be 1c14 8dbe 48ef 8ebd d8ae 0abd

fc2.bias f4 [64]
0.019073965 -0.0314531 0.042857163 -0.11314151 -0.0053554587 0.096772544 0.15043364 0.0726834
-0.019489963 0.02725051 -0.013716877 -0.042314272 -0.011887362 0.038722355 0.06738532 0.15992719
0.07704885 0.13838461 -0.07239128 -0.086567536 -0.026632152 -0.015728325 0.0080321375 0.034950837
-0.06728989 -0.033841748 -0.05848917 0.039611638 0.0085157305 0.015295764 -0.028899444 0.012256085
0.04524415 0.02602555 0.029814953 0.046302833 0.038087778 -0.0273338 0.10520708 -0.03765506
-0.08818343 0.041997395 0.08704508 0.18944867 -0.027329529 -0.06718285 -0.036761813 0.06517486
0.03261916 0.07254225 -0.0017064812 0.011481366 0.0377431 -0.108730726 0.04687763 0.020261664
0.04513956 -0.13992071 0.051302068 0.117037505 -0.01345572 -0.083678484 0.1467528 0.03235071
00000000: 0141 9c3c f7d4 00bd fe8a 2f3d bcb6 e7bd
00000010: d87c afbb af30 c63d 470b 1a3e 09db 943d
00000020: 6aa9 9fbc 763c df3c c1bc 60bc bb51 2dbd
00000030: 36c3 42bc 559b 1e3d 5101 8a3d f4c3 233e
00000040: cacb 9d3d b2b4 0d3e e141 94bd 524a b1bd
00000050: ac2b dabc b0d8 80bc 3a99 033c 9c28 0f3d
00000060: 48cf 89bd a59d 0abd 5792 6fbd d03f 223d
00000070: 9085 0b3c 169b 7a3c 87be ecbc bfcd 483c
00000080: ee51 393d 8933 d53c 7d3e f43c 0aa8 3d3d
00000090: ee01 1c3d 22eb dfbc cf76 d73d 313c 1abd
000000a0: 8499 b4bd 7605 2c3d b144 b23d d5fe 413e
000000b0: 2de2 dfbc 2997 89bd 8e93 16bd 667a 853d
000000c0: ab9b 053d 0891 943d 02ac dfba 571c 3c3c
000000d0: 8298 1a3d 37ae debd c202 403d cafb a53c
000000e0: 42e4 383d 6047 0fbe 1e22 523d 5cb1 ef3d
000000f0: 6175 5cbc a05f abbd 5e46 163e 2e82 043d

mu.weight f4 [8, 64]
0.03378343 0.08425525 -0.17752206 -0.019317718 -0.14380659 -0.059659116 0.18362406 0.1802626
0.05320068 -0.11599236 -0.105308756 -0.045006484 -0.034729097 0.18602435 -0.020085206 0.09763341
0.017937677 -0.14569478 -0.27023628 -0.31610098 -0.067753546 -0.0908309 0.031021426 0.07059492
-0.23266391 0.08712942 -0.13665365 -0.10496592 0.16401216 0.025081923 -0.013125887 0.09793335
-0.21848159 -0.06366736 0.11933912 -0.079263434 0.2671021 -0.20511289 0.098644145 -0.04710672
-0.01929348 -0.28702843 -0.16152216 -0.16148041 -0.395674 -0.116512634 0.11763334 -0.41511565
0.18892781 0.07837405 -0.13336766 0.07369522 0.33845353 0.039809685 0.17914182 0.32674488
0.09962582 0.010243212 -0.21808118 0.0034225793 -0.03136825 -0.16997354 -0.15690613 0.020446388
-0.027394345 0.03547262 0.29468262 -0.023934692 -0.095485866 -0.16788593 0.040790558 0.013816686
-0.08708859 0.19545032 0.17718366 -0.0039897766 -0.15339614 0.09584961 0.07451203 0.11523349
0.09367937 -0.05580934 -0.31253 -0.017238874 0.013136849 0.026775364 -0.26221266 -0.048948705
0.016590266 0.10648262 0.11000095 0.10648858 -0.011241099 0.027473826 0.07231456 -0.28475147
-0.05303904 -0.0742985 -0.057727996 0.14153971 -0.11024896 0.10736838 -0.10259933 0.16616945
0.024698839 0.059673145 -0.02757058 -0.28231564 0.14336503 0.09904506 7.8249876e-05 0.093367174
-0.12592492 0.015977634 -0.17949253 -0.008044227 -0.09557353 0.14726898 -0.0068189795 0.030664759
-0.12577602 0.094182774 -0.12827575 0.23978944 0.15858981 0.124336176 -0.16142957 0.17114572
0.15388942 0.25509143 -0.18157364 0.108736366 0.06916707 0.15585639 -0.5041974 -0.13955775
-0.12680237 0.11919923 0.23108926 0.05557953 -0.020522242 0.09528029 -0.008829136 0.106865175
-0.05711299 -0.076986685 0.038424574 0.013638096 0.10272813 -0.094699465 -0.037742935 0.095173575
-0.013420266 0.17052966 0.12422398 0.41458958 -0.11060738 -0.15086041 -0.20626993 0.01737241
-0.1779347 -0.21060519 -0.27634066 0.28696707 0.19835933 0.11976535 0.12798056 -0.15342046
0.019540623 -0.020072216 0.24233699 -0.32820442 0.11334792 0.029454168 0.19660278 -0.011900244
0.14982651 0.03131477 0.22407848 -0.16798967 -0.041527823 -0.011905969 -0.074729815 -0.21003264
0.041534286 0.08619952 0.23374826 0.0122288745 -0.055312164 0.08054757 0.11889058 -0.037912767
-0.22647035 0.12503469 0.09378053 0.17272167 -0.13110176 0.06032277 0.085633315 0.13473777
-0.012135972 0.108122915 -0.115415186 0.1390582 -0.090613015 0.062301684 -0.06251048 -0.12589648
-0.15154038 0.11208961 -0.036576536 -0.16816694 0.113807335 -0.077056535 -0.16355862 -0.03732646
0.050250493 -0.023127353 -0.051372476 0.01153321 0.026445668 0.09749989 0.11252422 -0.029023556
-0.10074203 0.028801367 -0.10206449 0.002140106 0.048536424 -0.008399422 0.088492185 0.07718934
-0.06982787 0.0038790028 0.1064129 -0.06641635 -0.10650417 0.17753115 0.07594454 -0.00020432021
0.0024621254 -0.14795552 0.017915824 -0.036409307 -0.06899935 0.34396824 0.016326442 0.013285746
0.2975995 -0.01753851 -0.038351316 -0.28362435 -0.076703265 -0.03172078 0.10959717 0.1459037
00000000: 7e60 0a3d 048e ac3d 58c8 35be 3140 9ebc
00000010: 0942 13be 1e5d 74bd f207 3c3e c296 383e
00000020: f5e8 593d 678d edbd 1eac d7bd b858 38bd
00000030: 1940 0ebd 2b7d 3e3e bb89 a4bc 06f4 c73d
00000040: 09f2 923c 0331 15be 695c 8abe fdd7 a1be
00000050: 5fc2 8abd 8d05 babd a520 fe3c 1294 903d
00000060: 733f 6ebe e970 b23d efee 0bbe 5ff8 d6bd
00000070: cef2 273e 9b78 cd3c f60d 57bc 4891 c83d
00000080: a3b9 5fbe 0864 82bd 1268 f43d de54 a2bd
00000090: 9bc1 883e 1d09 52be f105 ca3d faf2 40bd
000000a0: 5c0d 9ebc 64f5 92be 1166 25be 1f5b 25be
000000b0: c895 cabe 2d9e eebd c0e9 f03d 0a8a d4be
000000c0: 4b76 413e 9382 a03d 8891 08be 85ed 963d
000000d0: c849 ad3e 7b0f 233d f470 373e 1b4b a73e
000000e0: 9f08 cc3d 25d3 273c ac50 5fbe 5a4d 603b
000000f0: fe7b 00bd 8b0d 2ebe 00ac 20be 2f7f a73c
00000100: 1b6a e0bc bd4b 113d a4e0 963e b012 c4bc
00000110: 188e c3bd 4aea 2bbe 0014 273d 625f 623c
00000120: 815b b2bd 2124 483e a26f 353e acbc 82bb
00000130: e113 1dbe cd4c c43d c399 983d 89ff eb3d
00000140: f8da bf3d 5698 64bd ef03 a0be 8a38 8dbc
00000150: f03b 573c 0258 db3c bd40 86be 707e 48bd
00000160: 4fe8 873c 8f13 da3d 2e48 e13d af16 da3d
00000170: 962c 38bc ca10 e13c a819 943d f2ca 91be
00000180: 773f 59bd d029 98bd 3174 6cbd c9ef 103e
00000190: 35ca e1bd f4e3 db3d 991f d2bd 5328 2a3e
000001a0: 3855 ca3c d46b 743d b2db e1bc ad8b 90be
000001b0: 48ce 123e 23d8 ca3d 151a a438 4a37 bf3d
000001c0: 76f2 00be 87e3 823c e4cc 37be efcb 03bc
000001d0: 0ebc c3bd aecd 163e bf71 dfbb a934 fb3c
000001e0: 6ecb 00be e6e2 c03d b85a 03be 5d8b 753e
000001f0: 5e65 223e f7a3 fe3d cb4d 25be d340 2f3e
00000200: 3095 1d3e 589b 823e 71ee 39be 2cb1 de3d
00000210: 77a7 8d3d d198 1f3e 1513 01bf 3ae8 0ebe
00000220: 7bd8 01be ba1e f43d aaa2 6c3e 5ca7 633d
00000230: 431e a8bc 5022 c33d 15a8 10bc 21dc da3d
00000240: 50ef 69bd 32ab 9dbd 1663 1d3d 5272 5f3c
00000250: 2063 d23d cbf1 c1bd 5698 1abd 5dea c23d
00000260: ade0 5bbc 549f 2e3e 2469 fe3d 1645 d43e
00000270: 1f86 e2bd 277b 1abe 6d38 53be 9650 8e3c
00000280: 8434 36be e3a8 57be 867c 8dbe 59ed 923e
00000290: b51e 4b3e 8947 f53d 560d 033e 411a 1dbe
000002a0: a813 a03c 7d6e a4bc 3027 783e 690a a8be
000002b0: f422 e83d de49 f13c 3d52 493e 3ef9 42bc
000002c0: 1f6c 193e eb43 003d d474 653e 7c05 2cbe
000002d0: 1419 2abd 4111 43bc f20b 99bd cc12 57be
000002e0: db1f 2a3d 6089 b03d b45b 6f3e 9e5b 483c
000002f0: 028f 62bd 20f6 a43d e87c f33d 6b4a 1bbd
00000300: d8e7 67be 1809 003e 0210 c03d f3dd 303e
00000310: 8a3f 06be 0215 773d 8560 af3d b3f8 093e
00000320: f5d5 46bc 8c6f dd3d cc5e ecbd 4665 0e3e
00000330: 5193 b9bd 0d30 7f3d 7f05 80bd 02eb 00be
00000340: 672d 1bbe 3d8f e53d 47d1 15bd f433 2cbe
00000350: d213 e93d d1cf 9dbd e97b 27be a1e3 18bd
00000360: 76d3 4d3d 9375 bdbc f26b 52bd caf5 3c3c
00000370: 96a4 d83c 06ae c73d 1973 e63d cfc2 edbc
00000380: d651 cebd d8f0 eb3c 3007 d1bd 0541 0c3b
00000390: 21ce 463d bb9d 09bc 643b b53d 7215 9e3d
000003a0: ea01 8fbd de36 7e3b 02ef d93d 4c05 88bd
000003b0: dc1e dabd baca 353e d088 9b3d ca3e 56b9
000003c0: 9c5b 213b a781 17be 35c4 923c ed21 15bd
000003d0: 884f 8dbd 9b1c b03e 08bf 853c 75ac 593c
000003e0: f65e 983e ecac 8fbc 4516 1dbd 3637 91be
000003f0: 9a16 9dbd a6ed 01bd 7b74 e03d c867 153e

mu.bias f4 [8]
0.0030255392 -0.088928595 -0.0087245 -0.047747377 0.050300684 0.10756349 0.012866992 0.09079088
00000000: 2048 463b 3220 b6bd 35f1 0ebc c192 43bd
00000010: 1708 4e3d 3f4a dc3d 13d0 523c 92f0 b93d

fc1.weight f4 [64, 111]
-0.44813263 0.53451115 0.6037282 -0.31613407 -0.032887608 0.103698015 0.09309738 0.03232808
-0.0864098 -0.1435964 -0.06377325 0.044840932 0.1483957 -0.22852187 -0.07852817 -0.19836688
-0.02622421 0.21007426 -0.16116355 -0.03894484 0.045845646 -0.048745368 0.0013743922 -0.031377427
0.015123445 -0.13358821 0.034444693 -0.09260791 -0.2548348 -0.094616316 0.10403035 0.17003126
0.111237936 0.009152347 -0.06924365 0.143669 -0.06543426 0.02720823 0.037207387 -0.008139715
-0.080108985 0.07228882 -0.19378397 -0.026076166 -0.1908531 -0.03150196 -0.02597778 -0.16828398
-0.0769187 0.136502 -0.09873788 0.09099924 -0.31537917 0.04222698 0.08070609 0.03779465
-0.021850748 0.07114164 -0.11253393 -0.12944226 -0.044026107 0.072672315 -0.006011285 -0.056827664
0.07901701 0.06895521 -0.115088865 -0.017176464 0.09645059 0.13760844 0.08927997 0.022070935
-0.08209288 -0.07952599 -0.020331165 0.014410758 -0.11636966 0.027222363 0.0070014168 -0.022343235
-0.108932815 -0.09833611 0.030202545 0.059049636 -0.18090506 0.010370944 -0.095235094 -0.012577025
-0.057288386 0.21508592 -0.18246186 0.04264347 -0.06853957 0.025681706 0.11337763 -0.010718
-0.03595481 0.066128224 -0.060815807 -0.039386887 0.04749439 0.082404435 -0.027022986 -0.02101524
0.07895099 -0.044476237 -0.023931324 -0.09325069 -0.0048264056 0.106526546 -0.07012054 -0.42648554
0.9164613 -0.0030655093 -0.33452734 0.2936028 0.17620039 -0.03308009 0.026621928 0.12809591
0.2814389 0.027449667 0.111429125 -0.10428941 0.019698873 -0.015926806 -0.27062818 -0.041378528
-0.0068972264 0.01640721 -0.037529882 -0.01137022 -0.0014730647 -0.033003636 -0.01380773 0.0044537643
0.006794609 0.0028690847 -0.049620442 0.04340815 0.08600403 0.06468629 0.0515948 -0.14669308
0.037296504 0.0392366 -0.050652392 -0.06695619 -0.013589469 0.05466936 -0.07338466 -0.05185457
0.061073523 0.11039621 -0.03717122 0.12286643 0.036799785 -0.035763912 0.12384902 -0.12031606
-0.00016192847 -0.18040402 -0.047782823 -0.11742945 -0.019674378 -0.07283765 0.19177464 -0.13280919
0.005210292 -0.009436201 0.16401789 -0.026984815 -0.02489064 0.08151191 0.104503654 -0.007773802
0.012953956 0.16435501 0.14480667 0.14901257 -0.013665249 -0.0879681 0.006427403 0.14469032
-0.051478513 0.0817524 0.080914386 0.103711374 -0.037065722 -0.027122729 0.16055235 -0.14894874
-0.055578507 0.1291963 -0.09050107 -0.0063200155 -0.19058874 0.097750016 -0.019170893 0.10174636
0.020144695 0.019828305 0.13219501 -0.051641893 0.027860826 0.013360975 0.00040966723 -0.077675655
-0.08640029 0.074465275 0.1013713 0.07334523 0.22196823 -0.043204498 0.18584217 0.25120878
-0.019927638 0.0045058136 -0.13461266 -0.094471134 -0.04872051 -0.03414586 0.44454587 -0.82201517
0.17737512 -0.11781307 -0.74350506 0.23820333 0.23009945 -0.3041485 -0.14509308 -0.2203863
-0.23211893 0.17761926 0.52913535 0.08363679 0.16497652 0.14628793 -0.06433654 0.21302898
-0.078779496 0.02719487 0.08044729 0.030787477 0.034339506 -0.093709305 0.024296388 -0.113778666
-0.10336734 -0.11739668 0.0105723115 0.067922175 0.032214507 -0.05742399 -0.05430118 -0.10168673
00000000: a471 e5be b9d5 083f ee8d 1a3f 53dc a1be
00000010: 28b5 06bd a05f d43d d7a9 be3d 736a 043d
00000020: 9ff7 b0bd ef0a 13be 8d9b 82bd 20ab 373d
00000030: 0bf5 173e a301 6abe 61d3 a0bd b020 4bbe
00000040: 28d4 d6bc b51d 573e 0f08 25be a084 1fbd
00000050: a5c8 3b3d 39a9 47bd f324 b43a 9e85 00bd
00000060: 53c8 773c 59cb 08be e115 0d3d 37a9 bdbd
00000070: b579 82be 33c6 c1bd dd0d d53d ad1c 2e3e
00000080: b7d0 e33d baf3 153c 9dcf 8dbd f71d 133e
00000090: 6602 86bd cbe3 de3c c666 183d 705c 05bc
000000a0: 2e10 a4bd 290c 943d 4e6f 46be af9d d5bc
000000b0: ff6e 43be 3308 01bd 5acf d4bc a352 2cbe
000000c0: 8d87 9dbd 2ec7 0b3e 1637 cabd cf5d ba3d
000000d0: 6179 a1be 33f6 2c3d 3c49 a53d 90ce 1a3d
000000e0: 5700 b3bc b5b2 913d 3078 e6bd 838c 04be
000000f0: b854 34bd 39d5 943d 50fa c4bb 20c4 68bd
00000100: acd3 a13d 6438 8d3d b6b3 ebbd a8b5 8cbc
00000110: e387 c53d 3ae9 0c3e 6bd8 b63d 1bce b43c
00000120: 5020 a8bd 86de a2bd 8b8d a6bc 1a1b 6c3c
00000130: 3753 eebd 6f01 df3c 246c e53b 2909 b7bc
00000140: 2b18 dfbd 7164 c9bd 546b f73c 08de 713d
00000150: 2d3f 39be e4ea 293c 9e0a c3bd de0f 4ebc
00000160: 3aa7 6abd 7c3f 5c3e 48d7 3abe ebaa 2e3d
00000170: 795e 8cbd 7162 d23c 8832 e83d 8d9a 2fbc
00000180: 5a45 13bd 3c6e 873d ff19 79bd 2554 21bd
00000190: 7a89 423d a8c3 a83d 4f5f ddbc 2728 acbc
000001a0: 0fb1 a13d b72c 36bd a00b c4bc 38fa bebd
000001b0: d326 9ebb 972a da3d 5c9b 8fbd 505c dabe
000001c0: 359d 6a3f b6e6 48bb 2b47 abbe 1b53 963e
000001d0: e06d 343e fd7e 07bd 3b16 da3c 932b 033e
000001e0: c218 903e 20de e03c f434 e43d b095 d5bd
000001f0: 885f a13c ef78 82bc c78f 8abe 887c 29bd
00000200: 2102 e2bb 6a68 863c efb8 19bd 294a 3abc
00000210: d913 c1ba d22e 07bd d139 62bc e2f0 913b
00000220: 50a5 de3b 4107 3c3b ce3e 4bbd bfcc 313d
00000230: e222 b03d 3f7a 843d 1255 533d b636 16be
00000240: 38c4 183d 8fb6 203d e278 4fbd 5420 89bd
00000250: 5da6 5ebc fbec 5f3d b24a 96bd 7565 54bd
00000260: 3b28 7a3d 6817 e23d d940 18bd 65a1 fb3d
00000270: 5fbb 163d 2e7d 12bd 8ea4 fd3d 4468 f6bd
00000280: 58cb 29b9 d5bb 38be ecb7 43bd da7e f0bd
00000290: 292c a1bc e82b 95bd 9260 443e 22ff 07be
000002a0: 19bb aa3b 4c9a 1abc 4ef4 273e 420f ddbc
000002b0: 75e7 cbbc b7ef a63d 0306 d63d 61bb febb
000002c0: d43c 543c ae4c 283e 3348 143e c096 183e
000002d0: 35e4 5fbc 9f28 b4bd f79c d23b b329 143e
000002e0: 22db 52bd cd6d a73d 71b6 a53d a166 d43d
000002f0: 3ad2 17bd 7c30 debc d667 243e 0586 18be
00000300: 4aa6 63bd 094c 043e a058 b9bd 2218 cfbb
00000310: b229 43be 2931 c83d 470c 9dbc 6560 d03d
00000320: 7d06 a53c f86e a23c 215e 073e 7386 53bd
00000330: 633c e43c fee7 5a3c 9bc8 d639 6a14 9fbd
00000340: a3f2 b0bd 4081 983d c29b cf3d 0636 963d
00000350: a44b 633e 33f7 30bd 694d 3e3e 709e 803e
00000360: 493f a3bc 81a5 933b e7d7 09be 157a c1bd
00000370: 288f 47bd 87dc 0bbd 849b e33e 966f 52bf
00000380: d3a1 353e fb47 f1bd 5956 3ebf 93eb 733e
00000390: 319f 6b3e 5ab9 9bbe 4893 14be f2ac 61be
000003a0: 96b0 6dbe d3e1 353e 6a75 073f c449 ab3d
000003b0: 9bef 283e 81cc 153e e0c2 83bd 4524 5a3e
000003c0: 2557 a1bd c7c7 de3c 8cc1 a43d 0536 fc3c
000003d0: 95a7 0c3d aaea bfbd 3809 c73c ca04 e9bd
000003e0: 42b2 d3bd ac6d f0bd 7d37 2d3c c81a 8b3d
000003f0: 5cf3 033d 6b35 6bbd ea6a 5ebd 2241 d0bd

fc1.bias f4 [64]
0.5825558 -0.2524687 0.051871654 0.39188457 -0.28677675 0.049870912 -0.64057714 0.7452821
0.3160017 0.8846334 0.371254 0.19062994 -0.16893354 0.5981679 -0.14904705 0.44875863
1.1372207 1.0165461 0.32863688 0.7049317 -0.021950096 -0.11954923 0.5731489 -0.32026115
-0.1397638 0.16003656 0.2716573 -0.3659337 0.32023636 0.52898836 0.23902132 -0.5410036
0.50927407 1.0122355 -0.07060307 0.31730428 -0.5039016 -0.4183901 -0.28914115 0.28507024
-0.051825274 -0.5117998 1.2308807 0.34924743 -0.18359716 -0.012587284 -0.2556836 -0.2927381
-0.3831168 0.62132293 0.097480334 -0.45162985 0.042880237 -0.07316778 0.49905962 0.5649931
-0.2946418 -0.4806564 -0.5605309 0.625388 0.48328093 0.38131437 0.17164466 -0.2891428
00000000: 6022 153f 9443 81be 5f77 543d 18a5 c83e
00000010: 67d4 92be 7145 4c3d ddfc 23bf cfca 3e3f
00000020: faca a13e 5677 623f 0115 be3e 7f34 433e
00000030: eafc 2cbe 8821 193f ca9f 18be b1c3 e53e
00000040: 7390 913f 2f1e 823f 1843 a83e 6776 343f
00000050: b0d0 b3bc 3ad6 f4bd e3b9 123f 45f9 a3be
00000060: 3e1e 0fbe a0e0 233e aa16 8b3e a95b bbbe
00000070: 05f6 a33e c86b 073f 01c2 743e 367f 0abf
00000080: c95f 023f ef90 813f 5898 90bd b575 a23e
00000090: b2ff 00bf 3a37 d6be 4f0a 94be baf4 913e
000000a0: bd46 54bd 5005 03bf 808d 9d3f 8fd0 b23e
000000b0: e500 3cbe e53a 4ebc f6e8 82be c5e1 95be
000000c0: e327 c4be 050f 1f3f c5a3 c73d 073c e7be
000000d0: 30a3 2f3d fdd8 95bd be84 ff3e 63a3 103f
000000e0: 4adb 96be 9818 f6be f47e 0fbf 6e19 203f
000000f0: 9970 f73e a33b c33e 9ec3 2f3e 860a 94be

fc2.weight f4 [64, 64]
0.11172124 0.7992746 -0.015286426 -0.3654831 -0.24277146 -0.011332657 0.831765 0.18893257
-0.13951227 0.10329641 -0.4665446 -0.2965966 -0.6764054 0.14736526 0.3300686 0.22389616
-0.2491899 -1.1061544 0.25076884 -0.63177717 0.5392079 -0.5175066 -0.83792245 0.25106883
0.7046432 -0.63716596 -0.69192725 -0.34584096 0.041979983 -0.87285984 -0.52907115 0.63442904
-0.123652086 0.17752795 0.7401654 -1.0835708 0.97942847 -0.4195995 0.50665224 -1.1709253
0.4264239 0.09511425 -0.7236089 0.37113988 0.07372517 0.64740264 -0.8943177 -0.9590681
0.4800445 -0.8057331 0.17815988 -0.41270506 0.7163197 0.07423171 -1.0487057 0.20040737
0.66697997 0.5652405 -0.9406337 0.4381095 0.123888224 -0.5659535 -0.71837306 0.0021094487
0.23222598 0.25363442 -0.13742948 0.5885638 0.017703196 0.36198732 0.5106579 -0.029765656
-0.15960154 0.1578351 0.44721818 0.39599854 -0.4076546 -0.03917881 0.17024782 0.03315264
0.39519954 -0.34898183 -0.39471984 -0.22646491 -0.21904182 0.01008434 0.43962213 0.2884282
0.10796163 -0.636542 -0.053015642 0.07447007 0.18027811 0.08352207 0.043327276 0.096139215
-0.07051438 -0.3316053 -0.32880342 0.34265384 -0.07713233 -0.006704491 -0.03467967 0.17500924
0.20450681 -0.2080604 -0.09519212 0.15646346 -0.059743058 0.11949706 -0.25257456 -0.57942045
-0.07027754 -0.059259713 -0.33419585 0.0656664 -0.059333596 0.03841267 0.26019144 -0.15765262
0.4721088 -0.15044838 -0.0075985715 -0.42757308 -0.054550987 0.7854731 -0.049455646 0.120109275
-1.4623929 0.08587831 1.0395038 -0.3461919 -0.8410767 -0.09328131 1.7222899 -1.6564608
0.5469823 -0.43576333 -0.7568338 1.1577556 0.47975764 -1.8831306 0.5076609 -0.5438482
-2.7692354 -3.9642968 0.23117009 -1.5278783 -0.12135165 0.2426445 -0.2833522 0.34501055
0.63214105 -0.20027196 -0.8827333 0.072053984 -0.024618275 -0.6666031 -0.89348745 -0.021656318
-0.36818627 -2.1123872 -0.7236865 -0.06475804 0.7785056 0.919314 0.32003903 -0.1347884
0.5419576 0.3631722 -2.8391917 -0.7190705 -0.39760697 0.2414964 -0.24337907 0.19867353
0.39028466 -0.24910025 -0.25796443 0.03610725 -0.47212678 0.3894375 -0.7303334 0.41395327
2.0985453 0.2266512 -0.66321313 -0.7767182 0.028567394 0.14363946 -0.46953905 -0.33794668
0.64921117 0.92737937 -0.91723067 0.4377248 1.1623098 0.15292706 -1.1537204 1.4474118
-1.220234 -0.29310814 0.73034275 -1.2403075 -1.1987625 1.2320821 -2.0351934 -0.40346983
1.9100411 1.0980521 -0.82567567 1.5315832 0.6128626 -1.2350022 1.2741362 0.49908286
0.88011193 -0.74713707 -0.08860828 0.68082994 1.1627753 -0.70747805 0.6967881 0.88421273
-0.5687735 1.4921223 0.7415641 -0.69052434 0.3752189 -0.72301334 -0.64557433 -0.8138472
0.3753181 -0.88793623 1.6353068 1.2216905 1.5018816 -1.2088784 0.32552907 0.6536427
-1.0833625 -0.7730669 -0.44154447 0.73358476 0.5572038 0.35748956 -0.3792197 -1.1137938
-0.89647245 0.8511198 1.1974753 0.5559188 0.19947717 0.8987367 -0.12644075 1.200292
00000000: 1bce e43d 439d 4c3f eb73 7abc 9a20 bbbe
00000010: 1599 78be 9cac 39bc 8dee 543f 8a77 413e
00000020: 4edc 0ebe 118d d33d efde eebe 82db 97be
00000030: e728 2dbf ebe6 163e c0fe a83e 0945 653e
00000040: a32b 7fbe 7896 8dbf c664 803e 26bc 21bf
00000050: 8709 0a3f 507b 04bf 1682 56bf 188c 803e
00000060: 7f63 343f 4f1d 23bf 2522 31bf 1112 b1be
00000070: 34f3 2b3d be73 5fbf 3571 07bf f169 223f
00000080: 4e3d fdbd e3c9 353e 7b7b 3d3f 73b2 8abf
00000090: d3bb 7a3f bfd5 d6be f6b3 013f e1e0 95bf
000000a0: 3c54 da3e 43cb c23d 6f3e 39bf 0c06 be3e
000000b0: 39fd 963d 2ebc 253f 01f2 64bf 7d85 75bf
000000c0: 65c8 f53e 8644 4ebf 8b6f 363e 144e d3be
000000d0: ba60 373f cb06 983d fd3b 86bf 9737 4d3e
000000e0: 33bf 2a3f 9ab3 103f 5fcd 70bf e34f e03e
000000f0: 1cb9 fd3d 54e2 10bf 4ce7 37bf ad3e 0a3b
00000100: a6cc 6d3e 5fdc 813e 50ba 0cbe 1eac 163f
00000110: 4b06 913c 6756 b93e 7aba 023f 1bd7 f3bc
00000120: 966e 23be 869f 213e c8f9 e43e 52c0 ca3e
00000130: 1bb8 d0be f679 20bd 7255 2e3e 10cb 073d
00000140: 9857 ca3e bfad b2be b818 cabe 6be6 67be
00000150: 804c 60be ca38 253c 2716 e13e dcac 933e
00000160: fd1a dd3d 6bf4 22bf ee26 59bd c483 983d
00000170: d39a 383e 9e0d ab3d f177 313d a3e4 c43d
00000180: d869 90bd 2bc8 a9be ec58 a8be 5370 af3e
00000190: 8ef7 9dbd 59b1 dbbb 450c 0ebd 9f35 333e
000001a0: 3c6a 513e c90d 55be 16f4 c2bd f537 203e
000001b0: 23b5 74bd e0ba f43d 7451 81be e654 14bf
000001c0: aced 8fbd 50ba 72bd b81b abbe 1b7c 863d
000001d0: c907 73bd 9b56 1d3d d037 853e b06f 21be
000001e0: 3fb8 f13e 240f 1abe 70fd f8bb dcea dabe
000001f0: db70 5fbd c414 493f 0192 4abd dafb f53d
00000200: b12f bbbf f8e0 af3d 760e 853f 1140 b1be
00000210: cd50 57bf 450a bfbd ff73 dc3f e806 d4bf
00000220: 0807 0c3f 5f1c dfbe dcbf 41bf 5631 943f
00000230: cba2 f53e 6c0a f1bf 11f6 013f a339 0bbf
00000240: 273b 31c0 0ab7 7dc0 dab7 6c3e 8491 c3bf
00000250: 3787 f8bd cd77 783e 8a13 91be 39a5 b03e
00000260: ffd3 213f 1814 4dbe cffa 61bf 0a91 933d
00000270: 44ac c9bc 80a6 2abf 98bb 64bf 9768 b1bc
00000280: e982 bcbe 5a31 07c0 8543 39bf dd9f 84bd
00000290: 254c 473f 2a58 6b3f 28dc a33e f805 0abe
000002a0: bcbd 0a3f b5f1 b93e 51b5 35c0 0115 38bf
000002b0: 2493 cbbe d54a 773e 5d38 79be 1371 4b3e
000002c0: 64d3 c73e 2314 7fbe ea13 84be 32e5 133d
000002d0: 9aba f1be 5a64 c73e 21f7 3abf aff1 d33e
000002e0: 914e 0640 4117 683e 56c8 29bf 01d7 46bf
000002f0: 2b06 ea3c 3916 133e 6c67 f0be 5907 adbe
00000300: b432 263f bc68 6d3f a1cf 6abf 771d e03e
00000310: 91c6 943f e998 1c3e 1cad 93bf ca44 b93f
00000320: a130 9cbf 4512 96be bef7 3a3f 65c2 9ebf
00000330: 0d71 99bf deb4 9d3f 9c40 02c0 9993 cebe
00000340: 3a7c f43f f98c 8c3f 7b5f 53bf eb0a c43f
00000350: 90e4 1c3f 8d14 9ebf e516 a33f ca87 ff3e
00000360: 044f 613f 6044 3fbf 4278 b5bd df4a 2e3f
00000370: d2d5 943f 481d 35bf b460 323f c45b 623f
00000380: 249b 11bf ddfd be3f 25d7 3d3f 34c6 30bf
00000390: b11c c03e 6717 39bf 5c44 25bf 4a58 50bf
000003a0: b229 c03e ca4f 63bf bc51 d13f 5b60 9c3f
000003b0: a83d c03f 87bc 9abf bfab a63e 2155 273f
000003c0: 9fab 8abf b6e7 45bf 1e12 e2be 36cc 3b3f
000003d0: e9a4 0e3f df08 b73e 1629 c2be cc90 8ebf
000003e0: 387f 65bf fde2 593f df46 993f b250 0e3f
000003f0: be43 4c3e 9c13 663f af79 01be 2ba3 993f

fc2.bias f4 [64]
-0.83410203 0.15453236 -1.2254801 -0.22743668 -0.40431803 0.85603666 2.0455492 -0.085998476
-0.40121782 -0.09058236 -2.2463799 -2.205324 -0.4849594 -0.40940493 1.9884369 -0.41645518
-0.2034314 1.704951 0.57009375 1.7861152 -0.68518466 -0.8715 -1.2646706 -0.8960048
0.97997266 -1.2421509 0.012099812 -0.7049432 0.3483087 -0.15261532 -1.051997 -0.17135744
0.83292127 -0.2586067 0.299461 -0.08997647 0.029330418 0.10145611 -0.9541917 -0.07632318
-2.2527678 0.031622265 0.58200604 0.02070806 -0.22896093 -1.4923055 -0.7478927 0.044827778
1.2214892 0.68445283 0.7421362 0.7657282 1.2672354 -0.06281309 0.09039336 0.79253346
0.16908939 -0.055680547 1.5262005 2.2633028 -0.3671207 -0.48437613 0.07612193 -1.7292905
00000000: b687 55bf bb3d 1e3e 88dc 9cbf 29e5 68be
00000010: c602 cfbe 3825 5b3f 47ea 0240 f81f b0bd
00000020: 6c6c cdbe 3f83 b9bd b0c4 0fc0 0724 0dc0
00000030: 994c f8be 869d d1be 1a85 fe3f 9d39 d5be
00000040: 5250 50be d63b da3f aaf1 113f 6c9f e43f
00000050: 4368 2fbf a01a 5fbf bae0 a1bf 9260 65bf
00000060: 7ddf 7a3f cdfe 9ebf 4a3e 463c 2877 34bf
00000070: 8555 b23e 3147 1cbe d6a7 86bf 5378 2fbe
00000080: 543a 553f 1968 84be f452 993e 9545 b8bd
00000090: 5846 f03c 39c8 cf3d e845 74bf 544f 9cbd
000000a0: 592d 10c0 5986 013d 59fe 143f f3a3 a93c
000000b0: bc74 6abe de03 bfbf e575 3fbf 559d 373d
000000c0: c259 9c3f 4d38 2f3f a3fc 3d3f c306 443f
000000d0: c534 a23f 26a4 80bd 2720 b93d 79e3 4a3f
000000e0: c525 2d3e 4911 64bd 8a5a c33f f4d9 1040
000000f0: 3ff7 bbbe 2600 f8be d0e5 9b3d 6459 ddbf

value.weight f4 [1, 64]
-8.0770035 -8.224971 -7.7615943 7.8863564 7.9340973 -7.736213 8.049753 7.4628754
-7.774463 -7.7267523 -8.121179 -8.425786 7.9368696 8.071789 7.5854206 8.092379
-7.7199264 8.218462 -7.9428535 7.6774907 7.938439 7.9061456 -8.029923 7.8756657
-7.8091617 -7.9486756 7.8849583 -7.2930946 -8.049941 -7.770457 7.9526405 7.982168
-7.910464 7.5597034 8.040974 -8.029738 -8.318734 7.6211 -8.376795 -8.273618
-8.296439 -7.528626 8.252506 7.9680357 7.9563065 -8.282366 7.951241 7.859969
7.647398 -7.9887056 8.227948 7.3328633 7.7472987 -7.7312937 -7.93389 7.6522946
7.679599 7.931794 7.728451 8.361737 -7.771312 7.188441 -7.907326 -8.078076
00000000: 683b 01c1 7b99 03c1 fb5e f8c0 085d fc40
00000010: 20e4 fd40 0f8f f7c0 cacb 0041 e0cf ee40
00000020: 67c8 f8c0 8e41 f7c0 59f0 01c1 05d0 06c1
00000030: d6fa fd40 0c26 0141 c4bb f240 627a 0141
00000040: a309 f7c0 d27e 0341 db2b fec0 01ae f540
00000050: b107 fe40 25ff fc40 917a 00c1 7405 fc40
00000060: a7e4 f9c0 8d5b fec0 9451 fc40 0861 e9c0
00000070: 8fcc 00c1 95a7 f8c0 087c fe40 ec6d ff40
00000080: 8522 fdc0 17e9 f140 d4a7 0041 cf79 00c1
00000090: 8919 05c1 0de0 f340 5a07 06c1 bd60 04c1
000000a0: 37be 04c1 81ea f0c0 440a 0441 26fa fe40
000000b0: 109a fe40 9284 04c1 9170 fe40 de84 fb40
000000c0: 7cb7 f440 7aa3 ffc0 ada5 0341 d1a6 ea40
000000d0: dfe9 f740 c266 f7c0 6de2 fdc0 99df f440
000000e0: 46bf f540 42d1 fd40 784f f740 adc9 0541
000000f0: 97ae f8c0 b507 e640 d108 fdc0 cd3f 01c1

exp_avg f4 [1, 8]
-0.00022167532 -0.00093978114 -0.008919214 -0.00010732089 -0.00086250424 0.006277991 0.0041252263 -0.00051705335
00000000: 8471 68b9 a55b 76ba e521 12bc 7711 e1b8
00000010: ae19 62ba 9bb7 cd3b e82c 873b dd8a 07ba

exp_avg_sq f4 [1, 8]
0.00011014769 0.000108577246 0.00013707226 0.00012417679 0.00012248638 0.0001391928 0.00010449331 0.000107926666
00000000: 17ff e638 f7b3 e338 0ebb 0f39 7435 0239
00000010: b06f 0039 48f4 1139 6b23 db38 b056 e238

exp_avg f4 [64, 111]
0.0019766146 0.0017054044 -0.00023012776 0.00023653124 -0.00029054863 -0.0034096555 0.0012851334 0.00043322472
-0.0011609577 0.0018147536 -0.0009620602 0.00036918183 0.00012795444 0.004004231 0.0022885296 -0.0005672331
-0.0025258118 0.004462028 -0.0069767516 0.007315385 2.569751e-05 0.0037860814 -0.0021767907 0.006946152
-0.0018967482 -0.00020681645 0.006535123 0.0 0.0 0.0 0.0 0.0
0.0 0.0 0.0 0.0 0.0 0.0 0.0 0.0
0.0 0.0 0.0 0.0 0.0 0.0 0.0 0.0
0.0 0.0 0.0 0.0 0.0 0.0 0.0 0.0
0.0 0.0 0.0 0.0 0.0 0.0 0.0 0.0
0.0 0.0 0.0 0.0 0.0 0.0 0.0 0.0
0.0 0.0 0.0 0.0 0.0 0.0 0.0 0.0
0.0 0.0 0.0 0.0 0.0 0.0 0.0 0.0
0.0 0.0 0.0 0.0 0.0 0.0 0.0 0.0
0.0 0.0 0.0 0.0 0.0 0.0 0.0 0.0
0.0 0.0 0.0 0.0 0.0 0.0 0.0 -0.00060946855
-0.0018900317 -0.00030541862 -7.6167834e-07 0.00030709396 -0.0004964888 -0.0023080583 -0.0020903787 0.000698742
0.00021120229 0.00093451346 0.001839678 -0.00097530877 -0.0042736814 -0.0034691223 -0.0031250725 -0.0014722004
-0.0014258772 -0.0036652028 0.005982181 0.0043956586 0.010642826 -0.0013666095 0.005094639 0.0005861753
-0.008989521 0.012189516 0.0 0.0 0.0 0.0 0.0 0.0
0.0 0.0 0.0 0.0 0.0 0.0 0.0 0.0
0.0 0.0 0.0 0.0 0.0 0.0 0.0 0.0
0.0 0.0 0.0 0.0 0.0 0.0 0.0 0.0
0.0 0.0 0.0 0.0 0.0 0.0 0.0 0.0
0.0 0.0 0.0 0.0 0.0 0.0 0.0 0.0
0.0 0.0 0.0 0.0 0.0 0.0 0.0 0.0
0.0 0.0 0.0 0.0 0.0 0.0 0.0 0.0
0.0 0.0 0.0 0.0 0.0 0.0 0.0 0.0
0.0 0.0 0.0 0.0 0.0 0.0 0.0 0.0
0.0 0.0 0.0 0.0 0.0 0.0 0.001728759 0.0008998232
-0.000741051 0.0006660212 -5.6995563e-05 0.00044678466 0.0002747733 0.0013430751 -0.00091400556 0.0018662701
-0.00042881825 -0.00085091044 0.0016742366 0.005258266 -0.00014905495 0.003022444 -0.006458216 0.006786513
2.0480184e-05 0.0020412807 -0.0040569613 1.1693782e-05 -0.001635759 0.0074405647 -0.0014206225 -0.00042415207
0.0029318426 0.0 0.0 0.0 0.0 0.0 0.0 0.0
00000000: 178a 013b e087 df3a 734e 71b9 5f05 7839
00000010: c754 98b9 8774 5fbb ec71 a83a 7022 e339
00000020: 472b 98ba 07dd ed3a c432 7cba bf8e c139
00000030: 822b 0639 ed35 833b 28fb 153b 5eb2 14ba
00000040: 1788 25bb 3436 923b 3c9d e4bb e6b5 ef3b
00000050: fc90 d737 e81f 783b 7da8 0ebb 8c9c e33b
00000060: 4f9c f8ba dedc 58b9 9624 d63b 0000 0000
00000070: 0000 0000 0000 0000 0000 0000 0000 0000
00000080: 0000 0000 0000 0000 0000 0000 0000 0000
00000090: 0000 0000 0000 0000 0000 0000 0000 0000
000000a0: 0000 0000 0000 0000 0000 0000 0000 0000
000000b0: 0000 0000 0000 0000 0000 0000 0000 0000
000000c0: 0000 0000 0000 0000 0000 0000 0000 0000
000000d0: 0000 0000 0000 0000 0000 0000 0000 0000
000000e0: 0000 0000 0000 0000 0000 0000 0000 0000
000000f0: 0000 0000 0000 0000 0000 0000 0000 0000
00000100: 0000 0000 0000 0000 0000 0000 0000 0000
00000110: 0000 0000 0000 0000 0000 0000 0000 0000
00000120: 0000 0000 0000 0000 0000 0000 0000 0000
00000130: 0000 0000 0000 0000 0000 0000 0000 0000
00000140: 0000 0000 0000 0000 0000 0000 0000 0000
00000150: 0000 0000 0000 0000 0000 0000 0000 0000
00000160: 0000 0000 0000 0000 0000 0000 0000 0000
00000170: 0000 0000 0000 0000 0000 0000 0000 0000
00000180: 0000 0000 0000 0000 0000 0000 0000 0000
00000190: 0000 0000 0000 0000 0000 0000 0000 0000
000001a0: 0000 0000 0000 0000 0000 0000 0000 0000
000001b0: 0000 0000 0000 0000 0000 0000 bec4 1fba
000001c0: f1ba f7ba 9820 a0b9 2376 4cb5 7401 a139
000001d0: cd26 02ba cb42 17bb bcfe 08bb c82b 373a
000001e0: 2f76 5d39 23fa 743a 5a21 f13a ddab 7fba
000001f0: 3d0a 8cbb 375a 63bb 04ce 4cbb d9f6 c0ba
00000200: 80e4 baba e633 70bb 2c06 c43b 7509 903b
00000210: 3f5f 2e3c ce1f b3ba eef0 a63b 8fa9 193a
00000220: c948 13bc 89b6 473c 0000 0000 0000 0000
00000230: 0000 0000 0000 0000 0000 0000 0000 0000
00000240: 0000 0000 0000 0000 0000 0000 0000 0000
00000250: 0000 0000 0000 0000 0000 0000 0000 0000
00000260: 0000 0000 0000 0000 0000 0000 0000 0000
00000270: 0000 0000 0000 0000 0000 0000 0000 0000
00000280: 0000 0000 0000 0000 0000 0000 0000 0000
00000290: 0000 0000 0000 0000 0000 0000 0000 0000
000002a0: 0000 0000 0000 0000 0000 0000 0000 0000
000002b0: 0000 0000 0000 0000 0000 0000 0000 0000
000002c0: 0000 0000 0000 0000 0000 0000 0000 0000
000002d0: 0000 0000 0000 0000 0000 0000 0000 0000
000002e0: 0000 0000 0000 0000 0000 0000 0000 0000
000002f0: 0000 0000 0000 0000 0000 0000 0000 0000
00000300: 0000 0000 0000 0000 0000 0000 0000 0000
00000310: 0000 0000 0000 0000 0000 0000 0000 0000
00000320: 0000 0000 0000 0000 0000 0000 0000 0000
00000330: 0000 0000 0000 0000 0000 0000 0000 0000
00000340: 0000 0000 0000 0000 0000 0000 0000 0000
00000350: 0000 0000 0000 0000 0000 0000 0000 0000
00000360: 0000 0000 0000 0000 0000 0000 0000 0000
00000370: 0000 0000 0000 0000 8797 e23a 1de2 6b3a
00000380: 1743 42ba ed97 2e3a 850e 6fb8 6c3e ea39
00000390: 730f 9039 1f0a b03a e099 6fba a29d f43a
000003a0: 03d3 e0b9 a20f 5fba 0f72 db3a 884d ac3b
000003b0: a24b 1cb9 3214 463b 719f d3bb 6661 de3b
000003c0: dccc ab37 02c7 053b 42f0 84bb 6930 4437
000003d0: f766 d6ba fbcf f33b 2e34 baba ba60 deb9
000003e0: 2824 403b 0000 0000 0000 0000 0000 0000
000003f0: 0000 0000 0000 0000 0000 0000 0000 0000

exp_avg_sq f4 [64, 111]
1.6871516e-05 4.188167e-05 1.5913316e-06 2.6008354e-06 1.1669873e-05 2.8085775e-05 1.9869974e-05 2.2379307e-05
1.4108603e-05 2.3964021e-05 1.1099403e-05 2.294014e-05 3.143789e-05 0.0005456142 7.30435e-05 7.388623e-05
0.00011092552 0.00015306268 8.708852e-05 0.00026430778 0.00012164848 0.0006207755 5.9271453e-05 0.00019192745
1.0388367e-05 0.0006899221 0.00022633452 0.0 0.0 0.0 0.0 0.0
0.0 0.0 0.0 0.0 0.0 0.0 0.0 0.0
0.0 0.0 0.0 0.0 0.0 0.0 0.0 0.0
0.0 0.0 0.0 0.0 0.0 0.0 0.0 0.0
0.0 0.0 0.0 0.0 0.0 0.0 0.0 0.0
0.0 0.0 0.0 0.0 0.0 0.0 0.0 0.0
0.0 0.0 0.0 0.0 0.0 0.0 0.0 0.0
0.0 0.0 0.0 0.0 0.0 0.0 0.0 0.0
0.0 0.0 0.0 0.0 0.0 0.0 0.0 0.0
0.0 0.0 0.0 0.0 0.0 0.0 0.0 0.0
0.0 0.0 0.0 0.0 0.0 0.0 0.0 1.2647364e-05
3.0219246e-05 1.3307778e-06 2.088065e-06 9.144735e-06 1.7366268e-05 1.2805828e-05 2.4122815e-05 1.1497304e-05
1.4207175e-05 8.550432e-06 2.4410443e-05 1.7179897e-05 0.00041480656 4.8268084e-05 7.094091e-05 7.202777e-05
7.599135e-05 6.0976992e-05 0.0001960203 9.8607066e-05 0.0003242337 5.0237468e-05 0.00012244708 8.924378e-06
0.00034727098 0.00019349852 0.0 0.0 0.0 0.0 0.0 0.0
0.0 0.0 0.0 0.0 0.0 0.0 0.0 0.0
0.0 0.0 0.0 0.0 0.0 0.0 0.0 0.0
0.0 0.0 0.0 0.0 0.0 0.0 0.0 0.0
0.0 0.0 0.0 0.0 0.0 0.0 0.0 0.0
0.0 0.0 0.0 0.0 0.0 0.0 0.0 0.0
0.0 0.0 0.0 0.0 0.0 0.0 0.0 0.0
0.0 0.0 0.0 0.0 0.0 0.0 0.0 0.0
0.0 0.0 0.0 0.0 0.0 0.0 0.0 0.0
0.0 0.0 0.0 0.0 0.0 0.0 0.0 0.0
0.0 0.0 0.0 0.0 0.0 0.0 1.2897594e-05 6.978839e-05
3.4854327e-06 2.8473473e-06 1.67833e-05 3.7423484e-05 1.3901006e-05 4.054332e-05 2.456291e-05 3.871542e-05
1.779242e-05 4.281682e-05 7.562503e-05 0.0009804758 0.000111930276 0.00017506436 0.00020835717 0.00032440122
0.00014707353 0.00045610472 0.00010979981 0.0011613717 0.0001003588 0.0003608273 1.2974376e-05 0.0012048854
0.00050277053 0.0 0.0 0.0 0.0 0.0 0.0 0.0
00000000: 4e87 8d37 1aaa 2f38 bd95 d535 038a 2e36
00000010: b9c9 4337 be99 eb37 72ae a637 32bb bb37
00000020: fdb3 6c37 5806 c937 9337 3a37 936f c037
00000030: 2ddc 0338 8d07 0f3a ee2e 9938 5ef3 9a38
00000040: afa0 e838 737f 2039 4ba3 b638 ca92 8a39
00000050: 881d ff38 8abb 223a 3d9a 7838 2240 4939
00000060: b249 2e37 e3db 343a 3654 6d39 0000 0000
00000070: 0000 0000 0000 0000 0000 0000 0000 0000
00000080: 0000 0000 0000 0000 0000 0000 0000 0000
00000090: 0000 0000 0000 0000 0000 0000 0000 0000
000000a0: 0000 0000 0000 0000 0000 0000 0000 0000
000000b0: 0000 0000 0000 0000 0000 0000 0000 0000
000000c0: 0000 0000 0000 0000 0000 0000 0000 0000
000000d0: 0000 0000 0000 0000 0000 0000 0000 0000
000000e0: 0000 0000 0000 0000 0000 0000 0000 0000
000000f0: 0000 0000 0000 0000 0000 0000 0000 0000
00000100: 0000 0000 0000 0000 0000 0000 0000 0000
00000110: 0000 0000 0000 0000 0000 0000 0000 0000
00000120: 0000 0000 0000 0000 0000 0000 0000 0000
00000130: 0000 0000 0000 0000 0000 0000 0000 0000
00000140: 0000 0000 0000 0000 0000 0000 0000 0000
00000150: 0000 0000 0000 0000 0000 0000 0000 0000
00000160: 0000 0000 0000 0000 0000 0000 0000 0000
00000170: 0000 0000 0000 0000 0000 0000 0000 0000
00000180: 0000 0000 0000 0000 0000 0000 0000 0000
00000190: 0000 0000 0000 0000 0000 0000 0000 0000
000001a0: 0000 0000 0000 0000 0000 0000 0000 0000
000001b0: 0000 0000 0000 0000 0000 0000 0430 5437
000001c0: 567f fd37 2d9d b235 af20 0c36 566c 1937
000001d0: c7ad 9137 9dd8 5637 5a5b ca37 8be4 4037
000001e0: 5a5b 6e37 d373 0f37 07c5 cc37 8c1d 9037
000001f0: 657a d939 7673 4a38 1cc6 9438 9d0d 9738
00000200: 8c5d 9f38 8cc1 7f38 cc8a 4d39 44cb ce38
00000210: e9fd a939 12b6 5238 2365 0039 e9b9 1537
00000220: ec11 b639 dde5 4a39 0000 0000 0000 0000
00000230: 0000 0000 0000 0000 0000 0000 0000 0000
00000240: 0000 0000 0000 0000 0000 0000 0000 0000
00000250: 0000 0000 0000 0000 0000 0000 0000 0000
00000260: 0000 0000 0000 0000 0000 0000 0000 0000
00000270: 0000 0000 0000 0000 0000 0000 0000 0000
00000280: 0000 0000 0000 0000 0000 0000 0000 0000
00000290: 0000 0000 0000 0000 0000 0000 0000 0000
000002a0: 0000 0000 0000 0000 0000 0000 0000 0000
000002b0: 0000 0000 0000 0000 0000 0000 0000 0000
000002c0: 0000 0000 0000 0000 0000 0000 0000 0000
000002d0: 0000 0000 0000 0000 0000 0000 0000 0000
000002e0: 0000 0000 0000 0000 0000 0000 0000 0000
000002f0: 0000 0000 0000 0000 0000 0000 0000 0000
00000300: 0000 0000 0000 0000 0000 0000 0000 0000
00000310: 0000 0000 0000 0000 0000 0000 0000 0000
00000320: 0000 0000 0000 0000 0000 0000 0000 0000
00000330: 0000 0000 0000 0000 0000 0000 0000 0000
00000340: 0000 0000 0000 0000 0000 0000 0000 0000
00000350: 0000 0000 0000 0000 0000 0000 0000 0000
00000360: 0000 0000 0000 0000 0000 0000 0000 0000
00000370: 0000 0000 0000 0000 bf62 5837 5b5b 9238
00000380: 47e7 6936 0e15 3f36 ddc9 8c37 29f7 1c38
00000390: 5e38 6937 0f0d 2a38 730c ce37 5e62 2238
000003a0: ee40 9537 3696 3338 e198 9e38 4f83 803a
000003b0: 1cbc ea38 7b91 3739 747a 5a39 6514 aa39
000003c0: c037 1a39 5721 ef39 5344 e638 2b39 983a
000003d0: b877 d238 6c2d bd39 85ac 5937 3fed 9d3a
000003e0: 5ccc 033a 0000 0000 0000 0000 0000 0000
000003f0: 0000 0000 0000 0000 0000 0000 0000 0000
