drl/ran2/Ant80000_ran2_weights.pth (torch, 292784 bytes, 36 tensors)

log_std f4 [1, 8]
000000 d0 12 bc bf 17 c5 f8 bf 54 74 9f bf 6b 67 c4 bf
       -1.4693241 -1.9435147 -1.2457376 -1.5344061
000010 42 67 bc bf 7c 44 d9 bf 61 c5 b6 bf f6 20 cf bf
       -1.4719012 -1.6974025 -1.4278985 -1.6181934

fc1.weight f4 [64, 111]
000000 ef 19 b4 be f8 a5 5d bd 44 6f 00 3e 31 67 74 bd
       -0.35176036 -0.05411336 0.12542444 -0.059668723
000010 12 ed ed 3d cc 03 12 be b9 82 30 3c 8c 21 69 3d
       0.11617483 -0.14259261 0.010773354 0.05691676
000020 9c 78 51 3d 24 be be 3c 9a 79 7e be dd 39 75 be
       0.051140413 0.023284025 -0.24851075 -0.23947854
000030 51 1b a2 3d 1b 74 c7 bd c9 d9 a1 ba 10 34 31 3d
       0.079153664 -0.09738942 -0.001234823 0.04326254
000040 a6 03 44 3d 23 69 7a 3c d3 95 91 bd 56 c2 01 bd
       0.047855042 0.015283856 -0.07108655 -0.031679474
000050 8c f6 ae bd 15 e8 2a bc db ee 41 be 5c ea 81 bc
       -0.08543119 -0.010431309 -0.18938772 -0.015858822
000060 3b cd ea bc 8b 0e dc bb d2 7b 0b 3e ee 4f ff bb
       -0.028662315 -0.006715601 0.13621452 -0.007791511
000070 58 1d 0e bd 12 87 68 3d 21 54 8d bd 1d c9 ca bc
       -0.034695953 0.056769438 -0.06900812 -0.024754101
000080 97 40 8a 3d 0b da c1 3d a3 b8 ee 3d 08 7f 31 be
       0.06750601 0.094654165 0.116563104 -0.17333615
000090 b8 37 ef bd 31 e0 21 3c 01 45 a7 3d 98 9d 9a bd
       -0.116805494 0.009880112 0.08167458 -0.0754959
0000a0 7d 83 11 be 30 b3 c5 3d 7c 43 54 bc 6b e8 0f be
       -0.14210315 0.09653318 -0.012955543 -0.14053504
0000b0 a5 61 22 3d 06 7a 92 3c f9 e5 ca 3d 39 7c 46 bb
       0.039643902 0.017880451 0.09907145 -0.0030286445
0000c0 2d ba 02 bd d6 72 09 be 77 0e ca bd 9c a3 eb 3c
       -0.031915832 -0.13422713 -0.0986604 0.028764538
0000d0 89 c0 c3 bd 1c 0c 64 bd 0a 22 8a 3d bb cc 98 3c
       -0.095582075 -0.05567561 0.06744774 0.01865231
0000e0 bd a1 60 bd 1e 71 8f 3c 83 3b 55 be 01 2d 1e bd
       -0.054841746 0.017509993 -0.20823483 -0.038617138
0000f0 5a 35 a7 3d 39 22 ed bb cd 5d eb 3d eb b0 e4 bd
       0.08164473 -0.0072367457 0.114925005 -0.11166557
000100 fd 63 7c 3c d4 cd 30 3e 9d 31 8c be f6 27 98 bc
       0.015404698 0.17266017 -0.27381602 -0.018573742
000110 57 d2 a9 3d 06 64 38 3d ef 1c 66 3d 1b 03 de bd
       0.08292072 0.045017265 0.056179937 -0.10840436
000120 f7 e4 46 3d c7 64 c1 bd 34 54 08 bd 65 a8 88 3d
       0.0485582 -0.0944305 -0.033283427 0.06672744
000130 b5 14 12 3d b2 c6 cf 3c 8c 86 a4 bd b6 4f 80 3d
       0.03566428 0.0253633 -0.08033475 0.06265204
000140 cc 80 0a 3d 9b da cc bb 29 bd 7a 3c ca 79 04 3d
       0.033814237 -0.0062516457 0.015303888 0.03234271
000150 34 d1 54 3e b3 85 fd bd fa 76 4f bc 77 2d 00 3e
       0.2078293 -0.12379017 -0.012662644 0.12517343
000160 cf 77 8b bd 3a 0d 82 bd f7 8e 82 3d 77 17 55 3d
       -0.06809961 -0.06350179 0.06374925 0.05202433
000170 3a 85 bb bc 53 ff 0c 3e f2 77 26 be 6e 25 08 3e
       -0.022890676 0.13769273 -0.16256693 0.13295528
000180 a3 e2 ba b9 d3 3a b0 3d c5 c7 c3 bb 2d 7a 0f be
       -0.00035645542 0.0860497 -0.005974742 -0.1401145
000190 c5 06 d9 bd b4 50 19 bd d5 30 cc 3d 41 a5 19 3e
       -0.10596994 -0.03743048 0.099702515 0.15004446
0001a0 05 b5 d8 bc 09 78 2c be ac f3 49 bd 4b 19 5e 3c
       -0.026453504 -0.16842665 -0.04930465 0.013555835
0001b0 48 1c e6 3d c4 ef 87 bc ce 0d 5b 3d d7 01 a1 bd
       0.11235863 -0.016593821 0.053479962 -0.07861679
0001c0 cc 51 6b bd 61 13 2e bf 58 e9 bb 3d 55 73 82 be
       -0.057451054 -0.6799832 0.09175366 -0.25478616
0001d0 33 42 c4 3c 23 c4 2a be 31 9d 38 3e 15 76 a4 3d
       0.023957347 -0.16676383 0.18028714 0.08030335
0001e0 4c d2 a5 bd 9d 22 34 3c 11 7e 1f be cf 5a a4 bd
       -0.080967516 0.010994581 -0.15575434 -0.08025133
0001f0 c8 52 6c bd e2 37 92 bb 59 99 10 be f0 c0 b1 bc
       -0.057696134 -0.004462228 -0.14120997 -0.021698445
000200 1a 38 3e 3d db 33 6a bc 32 0b a6 bd 93 0f 80 bd
       0.04644022 -0.01429459 -0.08107604 -0.062529705
000210 a7 2f bc 3d 86 51 2b 3d 5e 6a 1f be ec 1d 92 3d
       0.091887765 0.041825794 -0.1556792 0.071346134
000220 15 a1 74 bd a6 a8 83 bd a4 bc ee bd c7 24 2d ba
       -0.059723932 -0.064286515 -0.11657074 -0.00066049065
000230 6d 40 88 bd 87 20 6a bd 3c 7f d3 3c 9c dd 51 3d
       -0.06652913 -0.057159927 0.025817506 0.051236734
000240 13 2c 0b be 95 6b 6c bd 15 c9 c7 3d c2 86 cf bd
       -0.13591032 -0.057719786 0.0975515 -0.10133125
000250 d9 18 1e bd 66 1d 2c 3e 18 9c 74 bd 29 93 21 bd
       -0.038597915 0.1680809 -0.059719175 -0.039446983
000260 56 2a b3 bd 18 4b 36 bd b7 0f 66 3e 1a 54 31 3e
       -0.08748309 -0.04450521 0.22466932 0.17317238
000270 31 10 1e 3d ee d6 c3 bd 54 e7 d9 bd b5 c9 29 be
       0.03858966 -0.09562479 -0.106398255 -0.16580851
000280 b3 79 81 3d 92 70 7e bd e9 cb 01 3d 21 d5 a4 bc
       0.063220404 -0.062119074 0.031688605 -0.020121159
000290 92 19 e2 3d 03 2d 74 bd f2 59 c2 bc 95 be 48 3e
       0.110400334 -0.05961324 -0.02372453 0.19603951
0002a0 c8 46 79 3e 1f 93 6c 3d d7 cc 70 bd 77 17 92 3d
       0.24343407 0.057757493 -0.0587891 0.07133382
0002b0 6a c3 7a bd 8e 6a 42 3d 99 48 35 3e 2c dc 18 bd
       -0.061221518 0.0474649 0.17703475 -0.037319347
0002c0 eb be f9 bc 7b 4c 25 be e6 9f be bb 1d bb b4 3c
       -0.030486545 -0.16142456 -0.005817401 0.022061879
0002d0 b4 70 6e 3d ca ec c3 3c 2e 12 88 3e 2e 49 d8 3d
       0.05821295 0.02391662 0.2657637 0.10560833
0002e0 b6 2b 4b 3c c2 73 91 3c c2 d8 de bb 94 ca 83 bd
       0.012400558 0.017755393 -0.006800742 -0.06435123
0002f0 89 38 5b bd 56 36 cf bb 65 b6 2f 3e b3 fd a2 3b
       -0.053520713 -0.006323616 0.17159422 0.004974091
000300 7a 9e 73 3d 8d 8f 1d 3d 78 cd ea bd e3 14 0d be
       0.059477307 0.03846698 -0.11464971 -0.13777499
000310 11 91 ac bd 74 15 99 3d 60 92 34 bc 24 d0 bc 3d
       -0.08426107 0.07474795 -0.011021227 0.09219387
000320 45 3d 80 3d 34 a1 1e bd f3 8e 1d bd 51 97 b0 3c
       0.06261686 -0.038727954 -0.038466405 0.021556528
000330 a4 a2 ab 3d f1 2e ed 3c 6a f7 20 3e 13 c6 e7 3c
       0.083806306 0.028953047 0.15719381 0.028292691
000340 c3 95 1b 3e fc ec 46 3d 7f 0d 3a bd 69 3a 2c 3e
       0.15193848 0.04856585 -0.045423027 0.16819157
000350 c3 af ba b9 c9 31 d0 bc ce 4c 5b 3d 1a f1 8f 3b
       -0.00035607637 -0.025414364 0.053540044 0.004392755
000360 a9 88 9d bd 42 bf 1e 3d 22 fd aa 3c 47 5c 19 bc
       -0.076920815 0.038756616 0.020872656 -0.00936038
000370 fe 39 54 3d b9 f7 6f bd 4f 59 9c bd fd e6 13 be
       0.05181312 -0.058585856 -0.07634222 -0.14443584
000380 1c bf 95 3d e8 67 fe 3c 81 6c 11 3f 7e 6c a7 3d
       0.07311842 0.031055406 0.5680619 0.0817499
000390 ec c9 8c be 84 4f 8d 3e 13 76 39 3e c6 18 f4 3d
       -0.27497804 0.27599728 0.18111448 0.11918788
0003a0 42 6a a0 3e 4d 2e 9a be 43 2f f9 bc 41 57 3a bd
       0.31331068 -0.3011345 -0.030418044 -0.045493368
0003b0 e1 2f 27 bd 30 6c 43 bd 9f 02 e5 bc 4f fd 3a 3d
       -0.040817145 -0.047710598 -0.027955351 0.04565173
0003c0 81 88 f1 b9 d6 50 93 3d fd f7 09 bd 4b fb ae 3c
       -0.00046068805 0.071931526 -0.033683766 0.02136006
0003d0 6e 47 ef bb b8 66 50 3d 0d 24 d9 bc 32 42 37 be
       -0.0073022163 0.05087921 -0.026506448 -0.17896345
0003e0 87 e0 8f 3d 77 14 14 3d 06 59 5e 3d 5f 4f c2 bb
       0.07025247 0.03615233 0.054284118 -0.005929872
0003f0 1c 36 cb 3c 2b 76 fa bd bc 76 c4 bc 48 27 13 3d
       0.024806075 -0.1222957 -0.023982398 0.035926133

fc1.bias f4 [64]
000000 6d f4 89 bc 5a 42 18 bd 72 b7 1e be 40 0a dc bd
       -0.016840184 -0.037172653 -0.15499666 -0.107441425
000010 2b 8b 25 be 4d 22 74 bc 2f 48 c7 3c 3d 49 61 3d
       -0.1616637 -0.014900756 0.024326412 0.055001486
000020 ed a9 b0 bd 5e 1d f2 bc 75 72 58 3c bf 13 b0 bd
       -0.08626161 -0.029555019 0.013210882 -0.08597516
000030 8c aa 6b bd f2 e3 09 3b 99 52 34 3c e2 7f bb 3d
       -0.057535693 0.0021040407 0.011006021 0.09155251
000040 dd 2f 74 bd 9f dc 61 bd 13 e3 79 3d 5d 71 d2 3d
       -0.05961596 -0.05514204 0.06100757 0.102755286
000050 ed 57 30 3e 37 20 fd bc 95 27 ce bd ff c1 b3 3d
       0.17221041 -0.03089915 -0.100661434 0.08777236
000060 41 e8 d9 3d 54 91 08 3e ef 4f 28 3d 8d eb 00 bd
       0.10640002 0.13336688 0.041091856 -0.03147464
000070 73 00 fe bc ca ac e7 b9 53 35 d7 bc be 1e 91 bd
       -0.031006074 -0.0004418849 -0.026270544 -0.07085942
000080 1c ff 42 bd 6a 66 84 3b 1b 98 08 3d 31 a5 62 bc
       -0.047606573 0.004040529 0.033348184 -0.01383333
000090 f0 94 bd 3d 90 2d 0f 3b c0 b8 fe 3c 55 5b b9 3d
       0.09256923 0.0021847226 0.031093955 0.09050623
0000a0 56 e6 9c bc 91 04 ab 3d 64 50 31 3c 99 a4 8d bc
       -0.019152801 0.0835048 0.010822389 -0.0172904
0000b0 c6 48 1a bd 7d 24 39 3e e2 91 bb bd 71 75 40 3d
       -0.03766706 0.18080325 -0.09158684 0.046987
0000c0 77 91 09 bd 16 80 b3 3d 8f de 5e be 72 e1 22 3e
       -0.03358599 0.08764665 -0.21764587 0.15906313
0000d0 02 1a 20 be 1b 22 ac 3c 9c 49 63 3c 1a 3a 2d 3e
       -0.15634921 0.021012357 0.01387253 0.16916695
0000e0 26 e6 6d 3b cc 78 2c 3d dd 91 95 3c 7d 8f d5 bb
       0.003630051 0.04210739 0.01825803 -0.0065173493
0000f0 1d e9 d3 bc 91 c4 37 3d 81 91 01 3d a3 0b 5f be
       -0.025867993 0.044865195 0.031632904 -0.21781783

fc2.weight f4 [64, 64]
000000 7d fe 85 3d 1b 0e 98 bd 35 b5 32 be 5a a6 16 bd
       0.065426804 -0.074245654 -0.17451937 -0.03677974
000010 49 7f 40 3e 53 8b 31 bc e4 eb 8d 3e 84 72 9e bd
       0.18798555 -0.01083644 0.27719033 -0.07736686
000020 8a cd 3d 3d a5 dd 96 3e 29 5a 2d 3c 21 24 93 3d
       0.046338595 0.29465976 0.010580578 0.071846254
000030 0c 4f 0a be fa de bd be 6e 73 0f 3d cf eb 5c bd
       -0.13506716 -0.3708418 0.03502219 -0.053935822
000040 b5 8f 7c 3e 05 09 ab bd 3e 56 d8 3d 8e b9 ea bd
       0.24664195 -0.0835133 0.105633244 -0.11461173
000050 7a 2f 8d ba e7 45 7f bd c0 5a 42 be 7b ae a9 3d
       -0.0010771595 -0.062322523 -0.18979931 0.08285233
000060 1f 3e 9a 3d e7 86 84 3e 3c cf 2c bd 27 24 b7 3d
       0.0753138 0.25884172 -0.04218982 0.089424424
000070 5c c5 28 be fa e7 8e bd 33 c5 30 bd 7c 60 77 be
       -0.16481537 -0.0697784 -0.043156814 -0.241579
000080 79 03 1f 3d 4c 9d 0d 3e e3 57 b9 3b be 02 74 bd
       0.03882167 0.13829535 0.005656229 -0.059572928
000090 f5 bf b0 3d a8 88 99 3d 60 59 ba 3e 85 5a df bd
       0.08630363 0.07496768 0.36396313 -0.10905937
0000a0 f6 20 6a 3e 34 a7 21 3d 09 e0 c1 bd 86 a8 6d 3e
       0.22864136 0.039466098 -0.094665594 0.23208818
0000b0 53 8a 0b 3e 3d 0d ac bd f3 e9 53 3e 28 89 cc bd
       0.13626985 -0.084009625 0.20694713 -0.09987098
0000c0 3f df ee 3d 15 db 86 bd 62 30 c1 3d 8a 4a ca 3d
       0.116636746 -0.06584755 0.094330564 0.098774984
0000d0 fe 41 e2 3c 6f a8 90 be c4 c8 00 be 85 ab 91 3c
       0.027619358 -0.28253505 -0.12576586 0.017781982
0000e0 d2 da 3a bd cf 88 57 be e7 e3 7f 3e 78 c0 47 be
       -0.04561884 -0.21048282 0.24989282 -0.19507015
0000f0 a8 42 2f bd ae be 6e be 07 84 24 be c7 15 8a 3d
       -0.042788178 -0.23314926 -0.1606599 0.06742435
000100 a7 44 81 3c 66 3e e6 3e 85 dc 88 be 96 18 29 3e
       0.015779806 0.4496948 -0.26730743 0.16513285
000110 7c 7a 60 3b f1 eb 8b bd d7 ed 99 3e 32 f8 29 3e
       0.0034252694 -0.068321116 0.3006427 0.16598585
000120 c8 73 dc 3d 84 de 10 3e 03 b0 e7 3a 60 d0 ad bd
       0.10764271 0.14147383 0.0017676357 -0.0848701
000130 2c 1e 2f be 5c 15 c9 3a 9e 6c d1 3d 9e 96 b2 3d
       -0.17101353 0.0015341449 0.10225795 0.08720134
000140 37 9c 11 be 97 b5 0a be b4 b4 3b 3d 8d 69 33 be
       -0.14219747 -0.13545834 0.04582663 -0.17520733
000150 52 52 39 3c 13 0f 01 be 65 7c fd 3c 48 01 1f 3d
       0.011311131 -0.12603407 0.030943105 0.03881958
000160 1f cd cb bd 57 32 2a be 48 01 df 3b f6 68 cb bd
       -0.09951233 -0.16620766 0.0068055727 -0.09932129
000170 9b 22 ad bb 70 82 7c bd ff 2e e4 3d 66 2e 92 3d
       -0.0052836663 -0.061647832 0.11141776 0.07137756
000180 1c c9 03 be c7 fb c7 ba 21 10 df bd 22 f9 94 bd
       -0.12869686 -0.0015257531 -0.10891748 -0.07274081
000190 3c ba 23 3e a8 e8 08 3e 52 3c 88 3d 38 d6 40 be
       0.15989012 0.13370001 0.0665213 -0.18831718
0001a0 49 29 e8 bc d3 ad 30 bc 90 e2 cb 3d 1a a6 13 be
       -0.028339999 -0.01078363 0.09955323 -0.14418831
0001b0 81 b3 3b bb dc 23 8d bc 39 6c 13 be 6b 40 07 be
       -0.0028640928 -0.017229013 -0.14396752 -0.13208167
0001c0 05 82 b2 3c b8 11 c2 bd 21 ba d7 3c 20 96 9b 3d
       0.021790514 -0.09476036 0.02633387 0.075969934
0001d0 fc 3c 36 3d 27 49 f4 bd b0 99 e8 bd 2c 51 81 bd
       0.044491753 -0.11928015 -0.113574386 -0.063143104
0001e0 87 ed aa 3e 49 a6 17 3e 81 25 17 bd 53 50 e2 3d
       0.33384344 0.14809527 -0.036901 0.11050477
0001f0 de 3a 3f 3d cf 37 87 bd 29 f8 da bd cf d8 87 3e
       0.046687 -0.066024415 -0.10691864 0.265326
000200 3e e8 70 be a8 e8 1d bd 1e 58 eb bd 90 3f 7a bd
       -0.23526093 -0.038551956 -0.114914164 -0.061095774
000210 05 ea 4c 3c e3 1d ac 3d b0 dd a1 bc ab 85 d2 bd
       0.0125069665 0.08404138 -0.01975903 -0.102794014
000220 56 ce ba bd 11 84 13 3e 8a c6 e3 bd e1 a8 09 be
       -0.09121387 0.14405848 -0.11121853 -0.13443328
000230 2b 3b 40 3d 6f 9b e6 3d 85 54 16 3d 4c 9a 4a 3d
       0.046931427 0.11260115 0.036701698 0.049463555
000240 17 3d 8e be c4 7b 1b be 09 44 02 3f 68 92 a9 3a
       -0.27780983 -0.15183932 0.50885063 0.0012937309
000250 66 e4 be 3d 15 ad 46 be 39 d9 8e bd 40 51 5a bd
       0.09320907 -0.19401963 -0.06975026 -0.053300142
000260 25 9b 46 3e 78 67 97 3d a2 67 8f 3d 43 b6 0f be
       0.1939512 0.07392782 0.07002188 -0.14034371
000270 34 94 a8 ba 43 0f 49 bd 9b 05 91 3d d8 af 57 3d
       -0.0012861551 -0.04908682 0.07081147 0.052657932
000280 a1 b3 9d 3d 8d 51 12 3e b0 ef 81 3d a1 e6 9a bc
       0.07700277 0.14288922 0.06344545 -0.0189088
000290 27 2f 31 be 94 4c 21 bd f5 7e 8b ba 66 d7 92 be
       -0.17303143 -0.03937967 -0.0010642695 -0.2867996
0002a0 bb 4f aa 3b 13 e5 7e 3e b8 3f 91 be 04 c0 8d bd
       0.005197493 0.24892072 -0.28368926 -0.0692139
0002b0 6e d5 5c 3e ee b4 21 be 47 bd 2e 3e c8 1c 66 3e
       0.21565792 -0.15791675 0.17064391 0.22471917
0002c0 3e 1c fb bb 68 7b 64 3d b5 4d d7 bd 68 7d 98 bd
       -0.007663279 0.055781752 -0.10512868 -0.07445794
0002d0 2e 85 ab bd 99 f8 75 3d 7d 1c 74 3d 72 77 81 bc
       -0.083750114 0.060051534 0.05959748 -0.015804026
0002e0 c8 16 7e be 6f 9a 41 3d 26 19 4c 3d 64 19 a1 3d
       -0.24813378 0.04726642 0.04982867 0.07866171
0002f0 78 5c 11 3e d4 16 43 3e ff 9a 11 be 27 3e c3 bd
       0.1419543 0.19051677 -0.14219283 -0.09533339
000300 87 7b d8 3b 47 99 b1 3c 97 d5 5a bc cc f5 4a be
       0.0066065225 0.021679534 -0.013356588 -0.19820327
000310 e0 da 94 be 81 69 6e 3d e6 3f ef bd b1 fa 00 bc
       -0.29073238 0.058206085 -0.116821095 -0.0078722695
000320 65 ba 52 3e a3 64 9c 3e 3f eb 80 bc 83 e7 8e 3e
       0.20578916 0.3054553 -0.015737174 0.27911004
000330 ff ee 66 be 96 33 92 3d aa 43 a5 3e 9d 68 5f bd
       -0.22552107 0.071387455 0.32278186 -0.054543126
000340 5d b9 34 3c 58 3d 4a 3d ec 87 17 bd d7 d1 a1 be
       0.011030522 0.04937491 -0.03699486 -0.31605408
000350 fc a3 13 3d 86 a5 5e 3d 12 27 a0 3d 99 9c 1a be
       0.03604506 0.054357074 0.07819952 -0.150988
000360 78 56 14 bd ff ac 3e 3e 31 69 00 3d 82 68 ba be
       -0.036215276 0.1862068 0.03135032 -0.36407858
000370 59 6d 81 be 4c aa 33 3d c2 de 04 bd 0a fb 22 bd
       -0.25278738 0.04386358 -0.032439 -0.03979019
000380 ac 4f b3 3d d3 ca 0c bd e3 bd 93 bd 41 61 67 3e
       0.087554306 -0.034373116 -0.072139524 0.22595693
000390 68 e1 cf bd de 54 17 3e 6c 7e 04 bd 6a 8f 06 be
       -0.10150415 0.14778468 -0.032347128 -0.13140646
0003a0 8a 37 b6 3b 9c e2 44 bd 59 72 61 be f7 65 a2 3d
       0.00556082 -0.048067674 -0.22016276 0.079296045
0003b0 af b9 88 3e 8e 59 b3 3d ea f5 37 be b7 67 1a 3c
       0.26704165 0.087573156 -0.17964903 0.009424142
0003c0 1f 00 79 be 07 d1 ba 3d 52 f1 09 3e 4a ef 4f 3c
       -0.24316452 0.091219 0.13470963 0.012691328
0003d0 d0 1e b1 3b 7c 20 03 be 93 2c 26 3e 07 e6 51 bd
       0.0054052845 -0.1280536 0.16227941 -0.05124476
0003e0 bc d0 17 bb 8e 5a c3 bd 02 d5 bc 3e 8e 36 bb bd
       -0.0023165187 -0.09538756 0.36881262 -0.09141265
0003f0 95 2d 97 be 9c 47 9b be 2a 9a a2 bd 9d e3 00 bd
       -0.29526964 -0.3032807 -0.07939561 -0.03146707

fc2.bias f4 [64]
000000 76 76 fe 3c e9 24 d4 bc bf 7a 28 3d 73 81 ef bd
       0.031062346 -0.025896506 0.041132685 -0.11694612
000010 f5 83 c4 bc df c1 b9 3d 5f ff 20 3e 3b 34 9e 3d
       -0.023988703 0.09070181 0.15722416 0.07724806
000020 d8 4c 9b bc 63 11 c4 3c fb 4a 02 3a 86 d0 12 bd
       -0.01895754 0.023934072 0.00049702794 -0.035843395
000030 02 d1 f6 bb a9 3b 68 3d fa f8 7f 3d 99 d3 20 3e
       -0.00753224 0.05669752 0.062493302 0.15705718
000040 86 12 9f 3d 43 86 05 3e 02 85 b8 bd 9d 68 b3 bd
       0.07767205 0.13039498 -0.09009744 -0.08760188
000050 52 ba bb bc 14 d9 67 bc be e8 ec 3b 53 b5 19 3d
       -0.022915993 -0.014150877 0.0072298935 0.03752644
000060 20 8e 90 bd aa 11 10 bd e7 9d 78 bd a6 89 27 3d
       -0.07058358 -0.035173096 -0.060697462 0.040902756
000070 35 b0 fc 3a 91 91 91 3c db 05 30 bd ef df 59 3c
       0.0019278588 0.017769607 -0.042974334 0.013298019
000080 24 b1 5d 3d 18 04 8d 3c 3d 0a 00 3d 26 b9 3f 3d
       0.054124013 0.017213866 0.031259764 0.04680743
000090 51 df 10 3d fe b5 d7 bc 8b 59 db 3d 10 1d 15 bd
       0.03536922 -0.026331898 0.10710438 -0.03640467
0000a0 d2 3d a1 bd 07 3e 40 3d 3d cc cc 3d 07 8c 3b 3e
       -0.078731194 0.046934154 0.09999893 0.18315135
0000b0 d4 57 ff bc 95 c8 86 bd 87 fd 23 bd 70 87 99 3d
       -0.03116981 -0.06581227 -0.040036704 0.07496536
0000c0 2c 9a f0 3c dd 68 9d 3d 43 50 d5 3a f2 9c f8 3b
       0.02937039 0.07686017 0.001627453 0.0075870687
0000d0 64 61 0b 3d c0 2e d8 bd 47 8d 2e 3d c7 c9 ce 3c
       0.034028426 -0.10555792 0.0426152 0.0252427
0000e0 46 08 3c 3d ac 36 0f be af 0f 55 3d 20 da ee 3d
       0.045906328 -0.139857 0.05201691 0.11662698
0000f0 56 24 77 bc 64 15 a1 bd 80 1c 1c 3e 8d 00 28 3d
       -0.015084347 -0.07865408 0.15245247 0.04101615

mu.weight f4 [8, 64]
000000 d5 0c ee 3c 45 e2 9e 3d 28 2d 35 be 66 56 b6 bc
       0.029058853 0.07758001 -0.17693007 -0.022257995
000010 2b cf 10 be 5b e9 6c bd df f4 3d 3e 44 41 3c 3e
       -0.14141528 -0.057839733 0.18550442 0.18384272
000020 f4 4b 8b 3d 09 e0 f1 bd 92 4a d6 bd 6a d0 3a bd
       0.06801596 -0.118103094 -0.10463442 -0.045608915
000030 a6 cd 17 bd 5a 5c 3d 3e 38 1a c1 bc 7d 2e c8 3d
       -0.037061356 0.1849226 -0.023572072 0.09774492
000040 81 40 78 3c 7e 6e 1f be 9a ed 8d be ea 5a a3 be
       0.015152098 -0.15569493 -0.27720338 -0.319053
000050 5e ab 83 bd 51 1c bc bd 55 47 e3 3c a9 20 a0 3d
       -0.0642917 -0.091850884 0.027743975 0.078187294
000060 34 dd 7c be 1b 5e b6 3d cb 5d 02 be f6 6e db bd
       -0.24693757 0.08904668 -0.12731092 -0.107145235
000070 c8 94 2f 3e cd 67 08 3d 61 77 0a bc 2a e2 d2 3d
       0.171466 0.033302117 -0.008451314 0.102970436
000080 5e 15 5e be ba b2 85 bd b3 cf 01 3e 8b 31 a4 bd
       -0.21687838 -0.0652823 0.12676887 -0.08017262
000090 94 8a 88 3e 26 39 56 be ea 6f d2 3d f0 97 54 bd
       0.26668227 -0.20920238 0.10275252 -0.05190271
0000a0 72 3a bd bc 02 1c 97 be dc 2d 2c be 13 c7 27 be
       -0.023099158 -0.29513556 -0.16814369 -0.16384535
0000b0 01 73 c7 be 7d 12 ea bd 0c 93 06 3e 60 3b d5 be
       -0.3895493 -0.114293076 0.13142031 -0.41646862
0000c0 d1 42 3f 3e 0a 3a ab 3d c2 c6 02 be a3 80 a1 3d
       0.18677832 0.083606794 -0.12771133 0.07885864
0000d0 2a d4 a9 3e c7 8c 28 3d a0 2a 41 3e 70 ed a1 3e
       0.3316968 0.04114988 0.18863916 0.31626463
0000e0 8b 83 c9 3d 28 fd 3f 3c 4a 0d 66 be 38 cc 8b 3b
       0.09839543 0.011718072 -0.22466007 0.004266288
0000f0 54 7a f2 bc e3 c5 39 be 01 17 1e be 55 24 ed 3c
       -0.029599346 -0.18141894 -0.15438463 0.028947989
000100 e1 43 e2 bc 92 26 16 3d 0f d7 94 3e a6 2c c1 bc
       -0.027620258 0.036657877 0.29070327 -0.02358086
000110 8a 59 b1 bd 9b 5a 2d be f0 75 07 3d fd 09 91 3c
       -0.08659656 -0.16929094 0.03307146 0.017704958
000120 ff bc aa bd 50 f0 45 3e 9d 51 33 3e d7 5f 66 bb
       -0.083368294 0.19329953 0.17511602 -0.003515234
000130 72 ab 0e be ff e6 cc 3d 3c ce 99 3d fe 5a ee 3d
       -0.13932589 0.100049965 0.07510039 0.11638449
000140 22 9b c4 3d c3 d0 66 bd e4 60 a3 be 8f cd 6a bc
       0.09599902 -0.056351434 -0.3190986 -0.014331236
000150 75 d3 d8 3b c6 43 d0 3c a6 0a 82 be 07 ae 5d bd
       0.0066170045 0.025422942 -0.2539875 -0.054121044
000160 73 64 37 3c 0d 28 e4 3d d3 bc e6 3d 9d ca d5 3d
       0.011193383 0.111404516 0.11266484 0.10439036
000170 02 6b 6d bc bc 9d 23 3d e9 4a 9b 3d 83 5f 96 be
       -0.014490845 0.03994535 0.07582647 -0.29369745
000180 73 10 62 bd ee d6 9c bd 12 57 3e bd a5 f2 0c 3e
       -0.05519147 -0.07658182 -0.046469755 0.13764437
000190 c2 ed da bd 43 0b ec 3d 48 82 c6 bd 1b 98 2a 3e
       -0.1068988 0.115255855 -0.09692818 0.16659586
0001a0 83 e5 ef 3c 0f fe 5e 3d 01 03 ff bc 81 0b 91 be
       0.029284244 0.054441508 -0.031129362 -0.2832909
0001b0 2c 24 19 3e ec 7a c6 3d ca ed 72 3a cf b7 b8 3d
       0.14955205 0.09691414 0.0009267001 0.09019434
0001c0 9e 91 05 be 20 59 95 3c 40 a6 47 be 4d 44 3b bc
       -0.1304383 0.018230975 -0.19497013 -0.011429858
0001d0 7c 84 c8 bd 51 79 13 3e 90 f5 6d bb 51 b9 cc 3c
       -0.097908944 0.14401747 -0.0036309697 0.02499071
0001e0 fe cf fe bd e1 ee c0 3d 38 82 fe bd 75 a4 77 3e
       -0.12442015 0.094205625 -0.12427181 0.24183829
0001f0 ab 56 1f 3e 8e e2 00 3e 96 ee 20 be ce 66 35 3e
       0.15560405 0.12586424 -0.15716013 0.17714998
000200 5b 0c 27 3e a5 96 84 3e 71 4c 35 be f6 f9 e5 3d
       0.16313307 0.25896183 -0.17704941 0.11229317
000210 c5 0c 9c 3d e0 20 27 3e 2e cd 05 bf 93 df 16 be
       0.07619623 0.16321135 -0.52266204 -0.14733724
000220 c0 73 ed bd 1b 00 f9 3d d7 8f 69 3e 48 d5 8a 3d
       -0.11594343 0.12158223 0.22808777 0.067789614
000230 c1 09 b5 bc 2a 6b d5 3d 93 b0 41 bc f3 03 e1 3d
       -0.022099378 0.104208305 -0.011821884 0.109870814
000240 ed 1b 7e bd e1 42 92 bd c6 80 29 3d 20 27 61 3c
       -0.06203835 -0.071416624 0.041382574 0.013742238
000250 80 56 d6 3d 65 9a b4 bd f7 e8 0f bd c1 be a8 3d
       0.10465717 -0.08818511 -0.035134282 0.082395084
000260 ae ce 49 bc 28 9b 33 3e a4 c4 f7 3d 5b 37 db 3e
       -0.012317343 0.17539656 0.12098053 0.4281567
000270 d2 a6 f9 bd 49 46 11 be 30 52 52 be 57 a8 be 3c
       -0.121900216 -0.14186968 -0.20539165 0.02327363
000280 59 97 36 be 2b fb 5a be e7 ad 87 be 93 ae 96 3e
       -0.17831172 -0.21384875 -0.26499864 0.29430065
000290 95 37 4b 3e 50 0a f1 3d be 85 ff 3d 7f 98 27 be
       0.19845422 0.11769545 0.12476681 -0.16366766
0002a0 d4 3b ae 3c 83 45 d3 bc f1 e0 78 3e 16 14 a5 be
       0.021268763 -0.025789982 0.24304558 -0.32241887
0002b0 ab bf e4 3d fc 2c de 3c b9 e0 5d 3e 5b af 20 bc
       0.1116937 0.02712106 0.21667756 -0.009807433
0002c0 8c ec 20 3e 46 9a 47 3d 47 89 61 3e 21 ee 34 be
       0.15715235 0.04873111 0.22025023 -0.17668964
0002d0 a2 db 1e bd cf e3 96 bc 3c 9f 9d bd 17 a1 58 be
       -0.038783677 -0.018419174 -0.07696387 -0.21155201
0002e0 dc 05 3c 3d 1b 04 8c 3d 6d a3 76 3e a8 f0 e5 3b
       0.045904025 0.068367206 0.2408578 0.007017214
0002f0 a3 17 88 bd 82 86 a2 3d a6 c9 f8 3d 02 8d 3e bd
       -0.06645133 0.079358116 0.121478364 -0.046521194
000300 30 9a 66 be d6 7f 03 3e d1 57 c2 3d 37 e7 3c 3e
       -0.22519755 0.12841734 0.09489406 0.18447576
000310 af a3 01 be 3e e3 85 3d 49 f2 ae 3d 85 b8 15 3e
       -0.12660097 0.06537484 0.08542306 0.1462117
000320 a9 39 4d bc 45 9e cf 3d 98 dd e6 bd f0 7e 11 3e
       -0.012525954 0.101376094 -0.112727344 0.14208579
000330 a0 75 be bd e1 79 7c 3d 82 bf 88 bd 40 24 09 be
       -0.09299779 0.06163967 -0.06677152 -0.13392735
000340 5b 84 1a be 34 17 e3 3d 3c 38 03 bd 8c ed 27 be
       -0.15089552 0.1108841 -0.03203605 -0.1639921
000350 5d 58 f1 3d 96 31 ab bd 72 d4 26 be 5b 2a e5 bc
       0.11784432 -0.08359067 -0.16291979 -0.027974298
000360 ab 73 81 3d fa 52 97 bc 88 03 3e bd 4c 0d 9f 3b
       0.0632089 -0.018472183 -0.046390086 0.00485388
000370 94 db ee 3c f1 eb c8 3d 41 e5 ed 3d a4 35 f0 bc
       0.029157437 0.09810627 0.11615992 -0.029322453
000380 5a 77 d0 bd c3 96 db 3c f9 9d d0 bd 01 73 9e bb
       -0.101790145 0.026805287 -0.10186381 -0.004835487
000390 88 54 35 3d 9c de 11 bc 9b 4d b2 3d 0a 18 95 3d
       0.04427007 -0.008903172 0.08706208 0.07279976
0003a0 8c 2a 92 bd b1 ba 4c ba fa 10 d0 3d 63 fa 8b bd
       -0.071370214 -0.00078098016 0.10159488 -0.06834867
0003b0 27 2c da bd fd 2d 28 3e 09 e7 85 3d af 19 a9 ba
       -0.10652953 0.16423793 0.06538207 -0.0012901331
0003c0 d8 dd ac bb 4e 71 1b be ff 68 0c 3d ae 15 04 bd
       -0.0052754693 -0.15179941 0.03427982 -0.032247238
0003d0 76 32 8e bd 44 a7 ae 3e 12 96 98 3c a9 a2 5b 3c
       -0.069432184 0.3411199 0.018626247 0.01340548
0003e0 c1 cc 94 3e f6 03 ab bc d5 05 1c bd f5 c5 90 be
       0.29062465 -0.020875912 -0.0380915 -0.2827603
0003f0 b5 d0 9b bd fa c1 0c bd 79 d9 d7 3d 8d 32 11 3e
       -0.07608167 -0.034364678 0.105395265 0.1417944

mu.bias f4 [8]
000000 ee e6 54 39 14 eb b7 bd 5c 70 7a bb 72 00 4f bd
       0.00020303924 -0.089803845 -0.0038213944 -0.050537534
000010 f2 9a 3f 3d 19 68 d6 3d 03 2d 8b 3c bc 9c ad 3d
       0.046778627 0.10469074 0.016989237 0.0847716

fc1.weight f4 [64, 111]
000000 e2 18 e4 be 94 73 02 3f 01 62 23 3f 07 fa a8 be
       -0.44550234 0.5095761 0.6382142 -0.33003256
000010 07 bf 08 bc 70 5b d3 3d 10 26 19 3d 47 f8 0f 3d
       -0.008346326 0.10320175 0.037389815 0.035148885
000020 4b 97 71 bd 44 e7 32 be 5c af 57 bd 0e 7d be 3c
       -0.058982175 -0.17471033 -0.05265747 0.02325299
000030 f2 26 04 3e eb 59 7d be 44 81 93 bd e5 ee 60 be
       0.12905481 -0.24741332 -0.0720239 -0.21966131
000040 1f d1 44 bd 8f 2c 61 3e 99 4b 47 be fc bd 05 bd
       -0.048050996 0.21989654 -0.19462432 -0.032651886
000050 77 4d 1f 3d 57 39 22 bd 44 db 87 3c 0c 90 0e bd
       0.038892236 -0.039605465 0.016584046 -0.034805343
000060 41 6e 21 3c 20 0e 20 be e7 6d 2b 3d 37 a9 bd bd
       0.009852947 -0.15630388 0.041852858 -0.09260791
000070 b5 79 82 be 33 c6 c1 bd dd 0d d5 3d ad 1c 2e 3e
       -0.2548348 -0.094616316 0.10403035 0.17003126
000080 b7 d0 e3 3d ba f3 15 3c 9d cf 8d bd f7 1d 13 3e
       0.111237936 0.009152347 -0.06924365 0.143669
000090 66 02 86 bd cb e3 de 3c c6 66 18 3d 70 5c 05 bc
       -0.06543426 0.02720823 0.037207387 -0.008139715
0000a0 2e 10 a4 bd 29 0c 94 3d 4e 6f 46 be af 9d d5 bc
       -0.080108985 0.07228882 -0.19378397 -0.026076166
0000b0 ff 6e 43 be 33 08 01 bd 5a cf d4 bc a3 52 2c be
       -0.1908531 -0.03150196 -0.02597778 -0.16828398
0000c0 8d 87 9d bd 2e c7 0b 3e 16 37 ca bd cf 5d ba 3d
       -0.0769187 0.136502 -0.09873788 0.09099924
0000d0 61 79 a1 be 33 f6 2c 3d 3c 49 a5 3d 90 ce 1a 3d
       -0.31537917 0.04222698 0.08070609 0.03779465
0000e0 57 00 b3 bc b5 b2 91 3d 30 78 e6 bd 83 8c 04 be
       -0.021850748 0.07114164 -0.11253393 -0.12944226
0000f0 b8 54 34 bd 39 d5 94 3d 50 fa c4 bb 20 c4 68 bd
       -0.044026107 0.072672315 -0.006011285 -0.056827664
000100 ac d3 a1 3d 64 38 8d 3d b6 b3 eb bd a8 b5 8c bc
       0.07901701 0.06895521 -0.115088865 -0.017176464
000110 e3 87 c5 3d 3a e9 0c 3e 6b d8 b6 3d 1b ce b4 3c
       0.09645059 0.13760844 0.08927997 0.022070935
000120 50 20 a8 bd 86 de a2 bd 8b 8d a6 bc 1a 1b 6c 3c
       -0.08209288 -0.07952599 -0.020331165 0.014410758
000130 37 53 ee bd 6f 01 df 3c 24 6c e5 3b 29 09 b7 bc
       -0.11636966 0.027222363 0.0070014168 -0.022343235
000140 2b 18 df bd 71 64 c9 bd 54 6b f7 3c 08 de 71 3d
       -0.108932815 -0.09833611 0.030202545 0.059049636
000150 2d 3f 39 be e4 ea 29 3c 9e 0a c3 bd de 0f 4e bc
       -0.18090506 0.010370944 -0.095235094 -0.012577025
000160 3a a7 6a bd 7c 3f 5c 3e 48 d7 3a be eb aa 2e 3d
       -0.057288386 0.21508592 -0.18246186 0.04264347
000170 79 5e 8c bd 71 62 d2 3c 88 32 e8 3d 8d 9a 2f bc
       -0.06853957 0.025681706 0.11337763 -0.010718
000180 5a 45 13 bd 3c 6e 87 3d ff 19 79 bd 25 54 21 bd
       -0.03595481 0.066128224 -0.060815807 -0.039386887
000190 7a 89 42 3d a8 c3 a8 3d 4f 5f dd bc 27 28 ac bc
       0.04749439 0.082404435 -0.027022986 -0.02101524
0001a0 0f b1 a1 3d b7 2c 36 bd a0 0b c4 bc 38 fa be bd
       0.07895099 -0.044476237 -0.023931324 -0.09325069
0001b0 d3 26 9e bb 97 2a da 3d 5c 9b 8f bd 3e 5a d7 be
       -0.0048264056 0.106526546 -0.07012054 -0.42061037
0001c0 45 2e 73 3f 00 b3 81 3a 20 25 b3 be a3 bc 9a 3e
       0.94992477 0.0009895265 -0.34989262 0.30222043
0001d0 ee f3 da 3d c1 46 73 bd 1a 5e 2f 3d 0f a7 07 3e
       0.10691057 -0.059393648 0.04281435 0.13247322
0001e0 09 3a 96 3e 91 7f a4 3c 5e 56 05 3e 20 e3 be bd
       0.29341152 0.02008036 0.13021228 -0.093206644
0001f0 52 30 b3 3c 8c cf 2c bc 0c cf 85 be b6 cb aa bd
       0.021873627 -0.01054753 -0.26134527 -0.08339636
000200 91 ea a0 3c 1b 6f 55 ba b7 1d 09 bd a8 bb 09 bc
       0.0196431 -0.0008141861 -0.033475604 -0.008406557
000210 6d 7b 0e 3c f7 85 b0 bc 72 27 30 3c 50 de 72 ba
       0.008696419 -0.021548254 0.010751592 -0.00092646945
000220 de d5 b6 3b df ab 16 3b ce 3e 4b bd bf cc 31 3d
       0.005579694 0.0022990627 -0.049620442 0.04340815
000230 e2 22 b0 3d 3f 7a 84 3d 12 55 53 3d b6 36 16 be
       0.08600403 0.06468629 0.0515948 -0.14669308
000240 38 c4 18 3d 8f b6 20 3d e2 78 4f bd 54 20 89 bd
       0.037296504 0.0392366 -0.050652392 -0.06695619
000250 5d a6 5e bc fb ec 5f 3d b2 4a 96 bd 75 65 54 bd
       -0.013589469 0.05466936 -0.07338466 -0.05185457
000260 3b 28 7a 3d 68 17 e2 3d d9 40 18 bd 65 a1 fb 3d
       0.061073523 0.11039621 -0.03717122 0.12286643
000270 5f bb 16 3d 2e 7d 12 bd 8e a4 fd 3d 44 68 f6 bd
       0.036799785 -0.035763912 0.12384902 -0.12031606
000280 58 cb 29 b9 d5 bb 38 be ec b7 43 bd da 7e f0 bd
       -0.00016192847 -0.18040402 -0.047782823 -0.11742945
000290 29 2c a1 bc e8 2b 95 bd 92 60 44 3e 22 ff 07 be
       -0.019674378 -0.07283765 0.19177464 -0.13280919
0002a0 19 bb aa 3b 4c 9a 1a bc 4e f4 27 3e 42 0f dd bc
       0.005210292 -0.009436201 0.16401789 -0.026984815
0002b0 75 e7 cb bc b7 ef a6 3d 03 06 d6 3d 61 bb fe bb
       -0.02489064 0.08151191 0.104503654 -0.007773802
0002c0 d4 3c 54 3c ae 4c 28 3e 33 48 14 3e c0 96 18 3e
       0.012953956 0.16435501 0.14480667 0.14901257
0002d0 35 e4 5f bc 9f 28 b4 bd f7 9c d2 3b b3 29 14 3e
       -0.013665249 -0.0879681 0.006427403 0.14469032
0002e0 22 db 52 bd cd 6d a7 3d 71 b6 a5 3d a1 66 d4 3d
       -0.051478513 0.0817524 0.080914386 0.103711374
0002f0 3a d2 17 bd 7c 30 de bc d6 67 24 3e 05 86 18 be
       -0.037065722 -0.027122729 0.16055235 -0.14894874
000300 4a a6 63 bd 09 4c 04 3e a0 58 b9 bd 22 18 cf bb
       -0.055578507 0.1291963 -0.09050107 -0.0063200155
000310 b2 29 43 be 29 31 c8 3d 47 0c 9d bc 65 60 d0 3d
       -0.19058874 0.097750016 -0.019170893 0.10174636
000320 7d 06 a5 3c f8 6e a2 3c 21 5e 07 3e 73 86 53 bd
       0.020144695 0.019828305 0.13219501 -0.051641893
000330 63 3c e4 3c fe e7 5a 3c 9b c8 d6 39 6a 14 9f bd
       0.027860826 0.013360975 0.00040966723 -0.077675655
000340 a3 f2 b0 bd 40 81 98 3d c2 9b cf 3d 06 36 96 3d
       -0.08640029 0.074465275 0.1013713 0.07334523
000350 a4 4b 63 3e 33 f7 30 bd 69 4d 3e 3e 70 9e 80 3e
       0.22196823 -0.043204498 0.18584217 0.25120878
000360 49 3f a3 bc 81 a5 93 3b e7 d7 09 be 15 7a c1 bd
       -0.019927638 0.0045058136 -0.13461266 -0.094471134
000370 28 8f 47 bd 87 dc 0b bd b6 75 de 3e 0d 2f 5a bf
       -0.04872051 -0.03414586 0.4344918 -0.85228044
000380 b6 fa 43 3e 0b 2d 61 bd b5 15 3c bf 19 b0 86 3e
       0.19138607 -0.054974597 -0.7347062 0.26306227
000390 9e 45 6b 3e e1 f9 98 be 1e 8a 19 be f7 ec 68 be
       0.22975776 -0.29878142 -0.14994094 -0.22746645
0003a0 55 6e 77 be a8 b8 29 3e 62 2b 03 3f c6 85 88 3d
       -0.24163182 0.16574347 0.5123807 0.0666614
0003b0 19 ec 23 3e 92 ef 07 3e 68 d3 62 bc 63 c1 33 3e
       0.16008033 0.13274983 -0.0138443485 0.1755424
0003c0 39 ba 35 bd 07 a0 30 3d 8c 55 55 3d 75 7f 9a bc
       -0.04436705 0.043121364 0.052083537 -0.018859604
0003d0 fb a5 17 3d e0 0d c8 bd e9 a1 0e 3d 44 85 cb bd
       0.037023526 -0.097682714 0.03482238 -0.09937528
0003e0 21 d5 da bd ac 6d f0 bd 7d 37 2d 3c c8 1a 8b 3d
       -0.10685182 -0.11739668 0.0105723115 0.067922175
0003f0 5c f3 03 3d 6b 35 6b bd ea 6a 5e bd 22 41 d0 bd
       0.032214507 -0.05742399 -0.05430118 -0.10168673

fc1.bias f4 [64]
000000 29 0a 1a 3f c3 44 88 be 72 c0 56 3d fe 2a ce 3e
       0.60171753 -0.2661496 0.052429624 0.40267175
000010 67 3f 96 be d5 b8 89 3d 06 4a 29 bf 7c 3f 48 3f
       -0.29345247 0.06724707 -0.66128576 0.7822187
000020 45 c9 b8 3e e1 cd 64 3f f7 a5 cc 3e fc ea 41 3e
       0.36091056 0.89376646 0.3997037 0.18937296
000030 53 c8 3f be c9 31 22 3f 4b 5e 10 be 8f 2f f6 3e
       -0.18728761 0.63357216 -0.1409847 0.4808316
000040 a8 44 97 3f 4d 0d 86 3f f1 57 ad 3e c0 87 3c 3f
       1.1817827 1.0472809 0.33856156 0.7364464
000050 85 40 3f bc f1 20 07 be 13 4d 0b 3f 53 f1 aa be
       -0.0116730975 -0.1319616 0.5441448 -0.3338724
000060 91 ca f9 bd 37 5b 41 3e c9 e5 a9 3e f0 0a b1 be
       -0.121968396 0.18882452 0.33183125 -0.34578657
000070 66 f3 a3 3e 09 ce 0a 3f 8e bc 8a 3e 1a 5a 15 bf
       0.32021636 0.54220635 0.2709698 -0.5834061
000080 57 a5 13 3f ad e0 85 3f 2e c3 e3 bd ad 73 b0 3e
       0.57674164 1.0459191 -0.11121212 0.34463254
000090 2e cb 08 bf b2 82 e4 be 46 c7 9a be c6 43 93 3e
       -0.5343503 -0.44630963 -0.3023016 0.28762645
0000a0 46 4e 16 bc bf 5f 0a bf 7c e8 a1 3f 9d 71 bd 3e
       -0.009173935 -0.54052347 1.2649074 0.37000743
0000b0 85 1f 45 be a7 12 02 3d 35 14 96 be f3 26 9e be
       -0.19250305 0.03175607 -0.29312292 -0.3088909
0000c0 ed 9c 83 be 9e de 31 3f 3b 1a cd 3d 3c 60 fc be
       -0.25705662 0.6948031 0.10014769 -0.4929217
0000d0 a3 72 0e 3d 3c 25 b6 bd 99 85 04 3f 9e af 0f 3f
       0.034777295 -0.08893821 0.51766354 0.56127346
0000e0 b3 cd 96 be 10 8a fd be 91 e1 14 bf f4 12 29 3f
       -0.2945381 -0.49519396 -0.5815669 0.66044545
0000f0 38 3d 08 3f 59 3d d2 3e a1 4d 3e 3e c1 b4 ab be
       0.5321841 0.4106243 0.185843 -0.33536342

fc2.weight f4 [64, 64]
000000 b8 f8 07 3e ec 55 43 3f 8d 11 ac bd fc 58 c2 be
       0.13278472 0.7630298 -0.08401785 -0.37958515
000010 1a 59 8a be 1a aa f0 bd c5 68 4f 3f e0 d5 5d 3e
       -0.27021104 -0.11751194 0.8101924 0.21663618
000020 a9 b2 cf bd bb 02 9f 3d e0 5b dc be ec 79 a3 be
       -0.101414986 0.07764193 -0.43038845 -0.31928957
000030 a4 a1 38 bf f3 24 f5 3d 82 66 a0 3e 07 60 6a 3e
       -0.72121644 0.11969938 0.31328207 0.22888194
000040 70 d4 8b be 58 c2 8c bf 08 ee 77 3e c9 d4 23 bf
       -0.27310514 -1.0996809 0.24211895 -0.6399656
000050 98 31 ff 3e 4b 0f 0d bf 95 f7 69 bf 8c 01 5f 3e
       0.49842525 -0.5510146 -0.91393405 0.21777934
000060 bd 92 3c 3f ca e2 24 bf e9 b4 32 bf bb 52 ae be
       0.73661405 -0.6440855 -0.69807297 -0.34047493
000070 72 0d 3b bc bf e7 62 bf 9f 32 11 bf b3 8a 2d 3f
       -0.01141678 -0.88634866 -0.56717867 0.67789763
000080 dd 02 04 be 9c 2b 6e 3e e6 70 3e 3f a0 e2 8c bf
       -0.12891717 0.23258823 0.7439102 -1.100666
000090 5d c4 6b 3f 25 15 cf be 8d 7b 05 3f 4d 4b 9b bf
       0.920965 -0.4044582 0.5214165 -1.2132355
0000a0 16 2b ca 3e 3c a5 12 3e fc d5 3a bf 72 d2 bb 3e
       0.39485997 0.14320844 -0.72982764 0.36683995
0000b0 c5 48 4a 3d c8 11 31 3f 44 2f 61 bf 2d 12 7f bf
       0.049385805 0.6916776 -0.87962747 -0.9963711
0000c0 66 e1 fd 3e 5b 3e 51 bf 35 a5 37 3e 1e fb b6 be
       0.49586028 -0.8173577 0.17934115 -0.35738462
0000d0 f8 93 3e 3f f7 08 9d 3d 67 ee 89 bf 40 7d 67 3e
       0.7444453 0.076677255 -1.077588 0.22606373
0000e0 9b 96 2a 3f ff 71 10 3f 1c 04 69 bf e5 32 d6 3e
       0.66636056 0.56423944 -0.91021895 0.41835704
0000f0 57 4e 10 3e 8e 9d 1f bf 47 54 37 bf a1 3a 92 ba
       0.14092384 -0.62349784 -0.7161297 -0.0011156389
000100 3f e2 17 3e c2 4d 81 3e 40 ed 12 be 58 1f 19 3f
       0.148324 0.25254637 -0.14348316 0.5981345
000110 04 f8 73 3d 89 04 b1 3e 8f d6 0d 3f af f8 e0 bc
       0.059562698 0.34573773 0.55405515 -0.027462332
000120 fd f6 6c be f4 fb fe 3d a1 87 cc 3e 18 2b c6 3e
       -0.23141094 0.124504 0.39947227 0.38704753
000130 b9 50 ad be 36 eb 59 bd ba 1c 17 3e e2 15 1c bc
       -0.3385065 -0.05320283 0.14757052 -0.009526702
000140 2b 9a dd 3e 8e b2 c0 be 61 82 f4 be b6 8d 6f be
       0.43281683 -0.37636226 -0.4775572 -0.23393902
000150 7b 62 86 be f8 01 b9 3d f2 a5 d3 3e f0 36 a9 3e
       -0.2624701 0.09033579 0.41337544 0.33049726
000160 8b 66 97 3d de 25 20 bf f9 91 45 ba c5 db c5 3d
       0.073926054 -0.6255778 -0.0007536705 0.09661058
000170 43 62 1e 3e bd 40 94 3d 5e 93 84 3d 1e 18 b9 3d
       0.15467171 0.0723891 0.064734206 0.09037803
000180 29 4c 8a bd 04 72 a3 be a4 3a b3 be 25 51 b3 3e
       -0.06752808 -0.31922925 -0.35005677 0.35022846
000190 15 11 0a be 0d 1c 30 bc b2 37 56 bc 41 68 64 3e
       -0.13483079 -0.010748875 -0.013074802 0.22305395
0001a0 ea 9c 4c 3e cd e8 38 be 68 30 c3 bd 83 03 24 3e
       0.19981733 -0.18057556 -0.09530717 0.16016965
0001b0 e6 77 9f bd 54 54 1a 3e c9 6b 5c be bf 07 11 bf
       -0.07786541 0.15071231 -0.21525492 -0.56652445
0001c0 aa e0 da bd e4 2d 9f bd 95 f9 ac be b8 2a 72 3d
       -0.106873825 -0.07772425 -0.33784166 0.05912277
0001d0 70 56 66 bc df 29 60 3d 59 d2 85 3e 20 f9 1a be
       -0.014058694 0.05472743 0.26137045 -0.15134096
0001e0 7f c9 02 3f 33 fe 44 be c3 39 2b 3d e4 c7 e2 be
       0.5108871 -0.19237594 0.041803133 -0.4429313
0001f0 10 6f 2a bd 95 d7 4f 3f 6d 72 77 bb d7 bf 5a 3e
       -0.041609824 0.8118833 -0.0037757412 0.21362244
000200 38 5e c4 bf 09 e7 09 3e 8e 26 92 3f ad ea fc be
       -1.5341253 0.13467039 1.1418016 -0.49397793
000210 40 c1 88 bf 97 49 6d bd 09 01 e7 3f 0f 66 de bf
       -1.0683975 -0.05793151 1.8047191 -1.7374896
000220 61 39 1e 3f a2 09 ea be d4 ad 2a bf c9 f1 a6 3f
       0.61806303 -0.45710474 -0.6667149 1.3042537
000230 41 51 d3 3e 62 a2 04 c0 e2 94 d5 3e 5c e1 12 bf
       0.4127293 -2.072411 0.4171515 -0.5737512
000240 c4 22 34 c0 a1 f0 7e c0 f2 ea 6d 3e 2b da bf bf
       -2.814622 -3.9834368 0.23234156 -1.4988455
000250 7f 8b 9b be 09 0a 5f 3e 03 2b 46 be 8e 0e 5c 3e
       -0.30379865 0.21781172 -0.19352345 0.21489927
000260 50 bb 3e 3f 84 fb 58 be bf 90 88 bf 6e 56 09 3e
       0.74504566 -0.21189696 -1.0669173 0.13411877
000270 ff 52 c3 bd 44 a9 03 bf 36 ba 8b bf 06 6c 34 bd
       -0.095373146 -0.51430154 -1.0916202 -0.04404833
000280 c4 7e b3 be 64 54 05 c0 38 0b 41 bf f0 65 11 3d
       -0.35057652 -2.0832758 -0.75407743 0.035497606
000290 07 74 63 3f 38 22 7f 3f 2b 3d ab 3e 23 74 21 be
       0.8884892 0.9966159 0.33445105 -0.15766959
0002a0 48 91 28 3f 6d ee 06 3f f0 4d 24 c0 48 b6 1f bf
       0.6584668 0.5270756 -2.567257 -0.62387514
0002b0 fc 2a c4 be b9 ef 55 3e 94 71 83 be 17 1a 26 3e
       -0.38314044 0.20892228 -0.2567259 0.1622089
0002c0 22 d6 cd 3e 13 ea 75 be 24 8e 7e be 90 f8 64 3d
       0.40202433 -0.24015073 -0.2485891 0.05590111
0002d0 21 ba fb be 20 be e7 3e a8 b9 1c bf b2 fa e1 3e
       -0.49165443 0.4526224 -0.6122079 0.44136578
0002e0 a0 bf 10 40 e2 c6 78 3e f2 23 68 bf 57 ec 60 bf
       2.2616959 0.24294618 -0.9067985 -0.87860626
0002f0 29 2b 1f 3b 09 42 14 3e 45 6d e7 be 7c 91 b9 be
       0.00242872 0.14478315 -0.45200554 -0.36243808
000300 b9 1d 2c 3f 07 4d 72 3f 15 ed 77 bf 39 07 cb 3e
       0.67232853 0.94648784 -0.96846133 0.39653948
000310 eb eb 94 3f 35 86 21 3e 0f 48 9a bf 17 9e c8 3f
       1.1634496 0.15773852 -1.205324 1.5673245
000320 55 48 9f bf 3f 3b 9a be 7c 0a 3b 3f c8 9e a5 bf
       -1.2443949 -0.30123326 0.7306287 -1.2939081
000330 d6 1a 97 bf af 19 a2 3f 89 11 08 c0 ba 56 de be
       -1.1805065 1.2664088 -2.1260703 -0.43425542
000340 5c 88 03 40 4a 05 99 3f 0e 72 58 bf 1b 81 c9 3f
       2.0551977 1.1954739 -0.84549034 1.5742525
000350 9f ec 0c 3f 97 9b a3 bf 76 be ad 3f dd 9c f2 3e
       0.55048555 -1.2781857 1.3573749 0.47385302
000360 f1 31 70 3f 95 e6 46 bf 98 d3 87 bd 79 9f 39 3f
       0.93826205 -0.7769559 -0.06632155 0.7250896
000370 8f 29 96 3f 3f 1d 4b bf 2f 8e 37 3f b1 0d 72 3f
       1.1731433 -0.793415 0.7170133 0.9455214
000380 c6 c9 15 bf 63 69 c4 3f a2 77 42 3f ac c9 1c bf
       -0.58511007 1.5344661 0.75963795 -0.61245227
000390 68 db c4 3e 7d c3 2e bf 1a c3 1c bf b3 24 56 bf
       0.38448644 -0.6826704 -0.612352 -0.8364975
0003a0 62 f4 b9 3e 9a 1e 73 bf 9e fa dc 3f 7f f6 9a 3f
       0.36319262 -0.9496857 1.7263982 1.2106475
0003b0 ad a8 c7 3f e3 5d 9b bf 22 b4 be 3e d8 11 33 3f
       1.5598351 -1.2138027 0.37246805 0.699491
0003c0 65 bc 8c bf 8a ad 49 bf a5 7c bf be 18 5a 36 3f
       -1.0994993 -0.78780425 -0.37399784 0.7123122
0003d0 5f db 11 3f e8 73 b3 3e 46 fa d6 be d0 df 93 bf
       0.5697536 0.35049367 -0.41987818 -1.1552677
0003e0 6c e2 8a bf 5b fc 6d 3f f9 7c a0 3f 34 98 17 3f
       -1.0850348 0.9296319 1.2538139 0.5921662
0003f0 86 8d 7d 3e 7f 12 69 3f bf bd ed bd 3f 82 9a 3f
       0.24761018 0.9104385 -0.11608457 1.2070998

fc2.bias f4 [64]
000000 36 fe 59 bf c3 28 21 3e ad 5c a0 bf 70 b6 75 be
       -0.8515352 0.15738206 -1.2528282 -0.23995376
000010 a9 23 fe be de 41 5d 3f 92 8f 04 40 0b 65 dd bd
       -0.49636582 0.8642863 2.0712628 -0.10810288
000020 45 8e 02 bf c9 f2 06 be ae a0 12 c0 ea 02 10 c0
       -0.50998336 -0.13178553 -2.291057 -2.2501779
000030 c5 c1 13 bf 68 30 fb be fd 02 01 40 90 51 f5 be
       -0.57717544 -0.4906037 2.0158074 -0.4791379
000040 b6 de 2c be 72 0f f6 3f e2 f9 22 3f 17 73 ed 3f
       -0.16881832 1.9223464 0.6366254 1.8550748
000050 60 14 3d bf e4 44 76 bf 90 22 a8 bf da 0a 80 bf
       -0.73859215 -0.9619887 -1.3135548 -1.0003312
000060 39 b2 81 3f 22 a1 a6 bf 5d e8 b1 3c 60 b6 2e bf
       1.0132514 -1.3017924 0.021717245 -0.6824703
000070 c6 fe e5 3e 67 bf 0b be ac 54 95 bf c9 46 66 be
       0.4492094 -0.13647233 -1.1666465 -0.2248794
000080 53 7f 63 3f 02 a9 70 be c4 42 8e 3e 3f c2 95 bd
       0.88866156 -0.23501971 0.27785313 -0.0731244
000090 ad 9c b5 3c 18 21 e1 3d b7 19 6c bf c4 4f c5 bd
       0.022169435 0.1099264 -0.9222674 -0.09634355
0000a0 32 59 13 c0 ad d6 e5 3c d9 71 16 3f 97 85 43 bb
       -2.302319 0.028056467 0.5876747 -0.0029834264
0000b0 3e 16 94 be 5b 67 c0 bf 69 19 57 bf 7d 22 a3 3c
       -0.2892322 -1.5031542 -0.8402315 0.019913906
0000c0 f0 59 a3 3f 7a 9b 3e 3f 46 02 37 3f a7 0a 46 3f
       1.2761822 0.7445599 0.71487844 0.77360004
0000d0 a0 bc a9 3f e0 a4 71 bd 6e f2 84 3d fa 7a 44 3f
       1.3260689 -0.058995128 0.06491552 0.7675015
0000e0 90 20 3b 3e fc e0 d0 bd 21 5f c6 3f 85 a5 13 40
       0.1827414 -0.10199162 1.5497781 2.3069775
0000f0 80 d5 da be 30 e9 e9 be f0 f0 d6 3d 01 0d e7 bf
       -0.42741013 -0.4568572 0.10495174 -1.8050843

value.weight f4 [1, 64]
000000 d2 75 04 c1 14 90 07 c1 4b 72 00 c1 3b f7 01 41
       -8.278765 -8.472675 -8.027904 8.122859
000010 47 b5 02 41 28 67 fc c0 05 ee 03 41 e8 2d f6 40
       8.169257 -7.8875923 8.24561 7.693104
000020 ab 0b 00 c1 e4 0e ff c0 92 12 05 c1 42 f2 09 c1
       -8.002849 -7.9705677 -8.317034 -8.621645
000030 ff c4 02 41 42 e7 04 41 e5 01 f9 40 bb 4d 05 41
       8.173095 8.306459 7.7814813 8.331477
000040 d7 9a fe c0 8b 97 06 41 93 e2 02 c1 2e f4 fb 40
       -7.9564013 8.411998 -8.180316 7.873557
000050 e8 e1 02 41 4a 6c 02 41 d5 28 05 c1 6f 48 02 41
       8.180153 8.151438 -8.322469 8.142684
000060 3d fe 00 c1 25 ee 03 c1 bb eb 01 41 3f c9 ef c0
       -8.06207 -8.245641 8.120051 -7.493316
000070 02 9a 04 c1 6d 00 00 c1 c7 5c 03 41 1f 72 03 41
       -8.2876 -8.000104 8.210151 8.215362
000080 41 5a 02 c1 c5 85 f9 40 07 84 04 41 9a 3b 04 c1
       -8.147035 7.7975793 8.282233 -8.264551
000090 c9 29 08 c1 83 35 f9 40 3b 3a 09 c1 a1 78 07 c1
       -8.510201 7.787782 -8.576716 -8.46695
0000a0 70 e0 07 c1 1d 89 f7 c0 08 99 07 41 05 2b 03 41
       -8.492294 -7.7354875 8.474861 8.198003
0000b0 38 fb 02 41 be b0 07 c1 f8 15 03 41 84 69 01 41
       8.186333 -8.48065 8.192863 8.088261
0000c0 50 50 fe 40 7f be 03 c1 fa 1c 07 41 42 2f f1 40
       7.947304 -8.234008 8.444574 7.537019
0000d0 2f b9 00 41 64 0d fd c0 35 c5 02 c1 e2 43 fb 40
       8.045211 -7.9078846 -8.173146 7.8520365
0000e0 59 29 fb 40 8a 8c 02 41 49 a1 fd 40 ec eb 08 41
       7.8487973 8.159311 7.925938 8.557598
0000f0 30 60 00 c1 56 11 ee 40 60 34 02 c1 45 65 04 c1
       -8.023483 7.439616 -8.137787 -8.274724

exp_avg f4 [1, 8]
000000 20 51 ba bb 1f e7 c7 3b f2 47 f6 ba 84 1d 3a 3b
       -0.0056859404 0.00610055 -0.0018789752 0.002839894
000010 b4 1e f2 ba 61 28 0c bc 99 5d 8b 3b fc 12 21 bb
       -0.0018472285 -0.008554549 0.004253101 -0.0024577966

exp_avg_sq f4 [1, 8]
000000 8d 61 da 38 ac c6 f5 38 09 c3 d2 38 48 78 f8 38
       0.0001041322 0.00011719516 0.000100499085 0.00011847966
000010 95 94 c8 38 00 20 15 39 f4 0c 08 39 c1 b2 17 39
       9.564419e-05 0.00014221668 0.00012974796 0.00014467073
