drl/ran2/Ant85000_ran2_weights.pth (torch, 292656 bytes, 36 tensors)

log_std f4 [1, 8]
-1.4907109 -1.9770596 -1.2814125 -1.5679256 -1.5097965 -1.7355999 -1.485536 -1.6579393
00000000: 9dcf bebf 4a10 fdbf 5305 a4bf c9b1 c8bf
00000010: 0341 c1bf 2328 debf 0b26 bebf 5b37 d4bf

fc1.weight f4 [64, 111]
-0.35709083 -0.055004794 0.11221493 -0.03840477 0.11651059 -0.13476408 0.02308553 0.06270047
0.045374803 0.013977677 -0.25149623 -0.24282597 0.07773467 -0.09481899 0.0043983934 0.046261672
0.055475835 0.015292567 -0.07248416 -0.032296937 -0.07639113 -0.012526942 -0.19312936 -0.01448693
-0.027623486 -0.0011108667 0.13716257 -0.007791511 -0.034695953 0.056769438 -0.06900812 -0.024754101
0.06750601 0.094654165 0.116563104 -0.17333615 -0.116805494 0.009880112 0.08167458 -0.0754959
-0.14210315 0.09653318 -0.012955543 -0.14053504 0.039643902 0.017880451 0.09907145 -0.0030286445
-0.031915832 -0.13422713 -0.0986604 0.028764538 -0.095582075 -0.05567561 0.06744774 0.01865231
-0.054841746 0.017509993 -0.20823483 -0.038617138 0.08164473 -0.0072367457 0.114925005 -0.11166557
0.015404698 0.17266017 -0.27381602 -0.018573742 0.08292072 0.045017265 0.056179937 -0.10840436
0.0485582 -0.0944305 -0.033283427 0.06672744 0.03566428 0.0253633 -0.08033475 0.06265204
0.033814237 -0.0062516457 0.015303888 0.03234271 0.2078293 -0.12379017 -0.012662644 0.12517343
-0.06809961 -0.06350179 0.06374925 0.05202433 -0.022890676 0.13769273 -0.16256693 0.13295528
-0.00035645542 0.0860497 -0.005974742 -0.1401145 -0.10596994 -0.03743048 0.099702515 0.15004446
-0.026453504 -0.16842665 -0.04930465 0.013555835 0.11235863 -0.016593821 0.053479962 -0.0789145
-0.056658998 -0.6747691 0.083933465 -0.25750393 0.019287212 -0.16249543 0.19194753 0.07956234
-0.0808581 0.010004564 -0.15729736 -0.080069244 -0.051550496 0.0035010057 -0.13010487 -0.020276602
0.051410668 -0.008619378 -0.087570615 -0.06738848 0.08451033 0.039943334 -0.16165458 0.061607957
-0.051875938 -0.06858806 -0.11657074 -0.00066049065 -0.06652913 -0.057159927 0.025817506 0.051236734
-0.13591032 -0.057719786 0.0975515 -0.10133125 -0.038597915 0.1680809 -0.059719175 -0.039446983
-0.08748309 -0.04450521 0.22466932 0.17317238 0.03858966 -0.09562479 -0.106398255 -0.16580851
0.063220404 -0.062119074 0.031688605 -0.020121159 0.110400334 -0.05961324 -0.02372453 0.19603951
0.24343407 0.057757493 -0.0587891 0.07133382 -0.061221518 0.0474649 0.17703475 -0.037319347
-0.030486545 -0.16142456 -0.005817401 0.022061879 0.05821295 0.02391662 0.2657637 0.10560833
0.012400558 0.017755393 -0.006800742 -0.06435123 -0.053520713 -0.006323616 0.17159422 0.004974091
0.059477307 0.03846698 -0.11464971 -0.13777499 -0.08426107 0.07474795 -0.011021227 0.09219387
0.06261686 -0.038727954 -0.038466405 0.021556528 0.083806306 0.028953047 0.15719381 0.028292691
0.15193848 0.04856585 -0.045423027 0.16819157 -0.00035607637 -0.025414364 0.053540044 0.004392755
-0.076920815 0.038756616 0.020872656 -0.00936038 0.05181312 -0.058585856 -0.071259364 -0.13957775
0.064639814 0.042461142 0.5738902 0.10631383 -0.26579612 0.27548254 0.17373867 0.11431312
0.30860764 -0.3035397 -0.03043858 -0.04222513 -0.035850238 -0.052179024 -0.0279829 0.03844815
0.0030526423 0.06991208 -0.03572271 0.019312153 0.0025407667 0.041176233 -0.016950969 -0.1758065
0.070523255 0.03615233 0.054284118 -0.005929872 0.024806075 -0.1222957 -0.023982398 0.035926133
00000000: 9cd4 b6be b54c 61bd f1d0 e53d 524e 1dbd
00000010: 1b9d ee3d 98ff 09be de1d bd3c 1b69 803d
00000020: eeda 393d a002 653c 1dc4 80be 5fa7 78be
00000030: 5b33 9f3d 7530 c2bd 6620 903b e17c 3d3d
00000040: a13a 633d ad8d 7a3c 9372 94bd cb49 04bd
00000050: f472 9cbd ce3d 4dbc b4c3 45be 975a 6dbc
00000060: a64a e2bc 809a 91ba 5874 0c3e ee4f ffbb
00000070: 581d 0ebd 1287 683d 2154 8dbd 1dc9 cabc
00000080: 9740 8a3d 0bda c13d a3b8 ee3d 087f 31be
00000090: b837 efbd 31e0 213c 0145 a73d 989d 9abd
000000a0: 7d83 11be 30b3 c53d 7c43 54bc 6be8 0fbe
000000b0: a561 223d 067a 923c f9e5 ca3d 397c 46bb
000000c0: 2dba 02bd d672 09be 770e cabd 9ca3 eb3c
000000d0: 89c0 c3bd 1c0c 64bd 0a22 8a3d bbcc 983c
000000e0: bda1 60bd 1e71 8f3c 833b 55be 012d 1ebd
000000f0: 5a35 a73d 3922 edbb cd5d eb3d ebb0 e4bd
00000100: fd63 7c3c d4cd 303e 9d31 8cbe f627 98bc
00000110: 57d2 a93d 0664 383d ef1c 663d 1b03 debd
00000120: f7e4 463d c764 c1bd 3454 08bd 65a8 883d
00000130: b514 123d b2c6 cf3c 8c86 a4bd b64f 803d
00000140: cc80 0a3d 9bda ccbb 29bd 7a3c ca79 043d
00000150: 34d1 543e b385 fdbd fa76 4fbc 772d 003e
00000160: cf77 8bbd 3a0d 82bd f78e 823d 7717 553d
00000170: 3a85 bbbc 53ff 0c3e f277 26be 6e25 083e
00000180: a3e2 bab9 d33a b03d c5c7 c3bb 2d7a 0fbe
00000190: c506 d9bd b450 19bd d530 cc3d 41a5 193e
000001a0: 05b5 d8bc 0978 2cbe acf3 49bd 4b19 5e3c
000001b0: 481c e63d c4ef 87bc ce0d 5b3d ed9d a1bd
000001c0: 4413 68bd abbd 2cbf 4fe5 ab3d 8ed7 83be
000001d0: 3700 9e3c 3465 26be e58d 443e 95f1 a23d
000001e0: ee98 a5bd 2fea 233c 8f12 21be 58fb a3bd
000001f0: 9d26 53bd 2171 653b 363a 05be 1e1b a6bc
00000200: fe93 523d 4b38 0dbc 3958 b3bd f902 8abd
00000210: c013 ad3d 9f9b 233d c788 25be a058 7c3d
00000220: dd7b 54bd e677 8cbd a4bc eebd c724 2dba
00000230: 6d40 88bd 8720 6abd 3c7f d33c 9cdd 513d
00000240: 132c 0bbe 956b 6cbd 15c9 c73d c286 cfbd
00000250: d918 1ebd 661d 2c3e 189c 74bd 2993 21bd
00000260: 562a b3bd 184b 36bd b70f 663e 1a54 313e
00000270: 3110 1e3d eed6 c3bd 54e7 d9bd b5c9 29be
00000280: b379 813d 9270 7ebd e9cb 013d 21d5 a4bc
00000290: 9219 e23d 032d 74bd f259 c2bc 95be 483e
000002a0: c846 793e 1f93 6c3d d7cc 70bd 7717 923d
000002b0: 6ac3 7abd 8e6a 423d 9948 353e 2cdc 18bd
000002c0: ebbe f9bc 7b4c 25be e69f bebb 1dbb b43c
000002d0: b470 6e3d caec c33c 2e12 883e 2e49 d83d
000002e0: b62b 4b3c c273 913c c2d8 debb 94ca 83bd
000002f0: 8938 5bbd 5636 cfbb 65b6 2f3e b3fd a23b
00000300: 7a9e 733d 8d8f 1d3d 78cd eabd e314 0dbe
00000310: 1191 acbd 7415 993d 6092 34bc 24d0 bc3d
00000320: 453d 803d 34a1 1ebd f38e 1dbd 5197 b03c
00000330: a4a2 ab3d f12e ed3c 6af7 203e 13c6 e73c
00000340: c395 1b3e fcec 463d 7f0d 3abd 693a 2c3e
00000350: c3af bab9 c931 d0bc ce4c 5b3d 1af1 8f3b
00000360: a988 9dbd 42bf 1e3d 22fd aa3c 475c 19bc
00000370: fe39 543d b9f7 6fbd 6ef0 91bd 78ed 0ebe
00000380: e161 843d bceb 2d3d 78ea 123f 11bb d93d
00000390: 6e16 88be 0c0c 8d3e 8de8 313e ff1c ea3d
000003a0: d201 9e3e 8e69 9bbe 545a f9bc 42f4 2cbd
000003b0: b3d7 12bd acb9 55bd 653c e5bc cf7b 1d3d
000003c0: d70e 483b 112e 8f3d fa51 12bd 8534 9e3c
000003d0: fe82 263b 69a8 283d c2dc 8abc 9e06 34be
000003e0: 7f6e 903d 7714 143d 0659 5e3d 5f4f c2bb
000003f0: 1c36 cb3c 2b76 fabd bc76 c4bc 4827 133d

fc1.bias f4 [64]
-0.01548063 -0.03540038 -0.15080644 -0.10728443 -0.15975976 -0.008709693 0.020789603 0.060586166
-0.076277524 -0.03892835 0.014877601 -0.08788269 -0.059933044 0.009881739 0.018057918 0.09178325
-0.068049185 -0.05471187 0.055025198 0.09802119 0.17482932 -0.034616347 -0.098689154 0.0855242
0.10915453 0.13749002 0.04413769 -0.036072392 -0.025567468 0.005760621 -0.024428038 -0.07413417
-0.05039804 0.006134354 0.032176815 -0.008024127 0.08964852 0.005561922 0.02743601 0.09303017
-0.017180512 0.08039656 0.0062507554 -0.014170289 -0.03624193 0.18522632 -0.09152322 0.048370402
-0.032017205 0.09425631 -0.22054991 0.15959372 -0.15271439 0.022603897 0.018753175 0.17086034
0.00027130227 0.041392233 0.02625988 -0.012701164 -0.023649264 0.049639735 0.025731813 -0.22218819
00000000: 78a2 7dbc fdff 10bd 016d 1abe f0b7 dbbd
00000010: 1098 23be 1ab3 0ebc f54e aa3c 3329 783d
00000020: 6437 9cbd 5573 1fbd 2ec1 733c d7fb b3bd
00000030: 5a7c 75bd 04e7 213c 33ee 933c dbf8 bb3d
00000040: 5f5d 8bbd 8e19 60bd 1a62 613d 55bf c83d
00000050: 7506 333e dfc9 0dbd 8a1d cabd 5027 af3d
00000060: 698c df3d 2fca 0c3e b9c9 343d a5c0 13bd
00000070: de72 d1bc 97c3 bc3b 4f1d c8bc a8d3 97bd
00000080: 2d6e 4ebd b102 c93b d6cb 033d a177 03bc
00000090: a599 b73d c940 b63b 7cc1 e03c 9a86 be3d
000000a0: 25be 8cbc f4a6 a43d 23d3 cc3b 802a 68bc
000000b0: 6b72 14bd f8ab 3d3e 8770 bbbd 0b20 463d
000000c0: 7924 03bd 7409 c13d d6d7 61be 896c 233e
000000d0: 2961 1cbe cf2b b93c 42a0 993c 03f6 2e3e
000000e0: 933d 8e39 e78a 293d f61e d73c 8b18 50bc
000000f0: 1abc c1bc 0953 4b3d 86cb d23c 4d85 63be

fc2.weight f4 [64, 64]
0.07229642 -0.06547867 -0.16499211 -0.03561633 0.1905348 -0.016802235 0.27526098 -0.0729551
0.056383945 0.2930915 0.012672263 0.07868342 -0.14006598 -0.36296642 0.040336326 -0.055928256
0.2544056 -0.07119194 0.107633024 -0.1251592 -0.007002029 -0.06361136 -0.18250443 0.07599758
0.066517636 0.2552041 -0.045456074 0.08650391 -0.17346133 -0.06182762 -0.05464875 -0.24427438
0.036739357 0.142302 0.010127486 -0.05781296 0.0858419 0.079574935 0.3631712 -0.11392523
0.23689733 0.020354478 -0.09848731 0.2262189 0.1437781 -0.08765968 0.20997892 -0.09637688
0.11193181 -0.0733511 0.10777092 0.095751755 0.035161946 -0.28210378 -0.12416122 0.019857328
-0.040759318 -0.21472505 0.249793 -0.20150377 -0.03884572 -0.23603892 -0.16694842 0.07305911
0.02122348 0.44501102 -0.265931 0.16506581 0.0135681275 -0.06472448 0.30411208 0.15789305
0.10736158 0.1487192 -0.0044686743 -0.08022616 -0.17555511 8.551239e-05 0.09987139 0.086042695
-0.13591559 -0.13580579 0.050804786 -0.18271756 0.012456347 -0.1284658 0.02712425 0.040571656
-0.09944422 -0.16888352 0.001060284 -0.10471596 -0.012957097 -0.06592063 0.106571235 0.0713425
-0.12863262 0.0034624804 -0.1075529 -0.07124495 0.15327917 0.1366822 0.064140186 -0.1908733
-0.021687493 -0.016386025 0.097874165 -0.1419551 0.0041645747 -0.020348446 -0.14011924 -0.13012412
0.019384963 -0.09442366 0.027116152 0.076558426 0.050767813 -0.12484143 -0.11099399 -0.06488377
0.34003404 0.14436527 -0.029946912 0.110557966 0.050892044 -0.06472632 -0.11617811 0.260743
-0.23150465 -0.03897553 -0.112165354 -0.056524083 0.009150247 0.087398924 -0.022040285 -0.09548932
-0.111728445 0.14572994 -0.11683247 -0.13700831 0.042667434 0.1141337 0.03564641 0.053316858
-0.2793131 -0.15686993 0.5092079 0.0017394416 0.09301216 -0.1930643 -0.071803 -0.05342432
0.19573693 0.07233585 0.080256954 -0.13824369 0.004690909 -0.057569206 0.0761654 0.05191484
0.084037505 0.14106226 0.058099803 -0.0069466247 -0.17724453 -0.03963201 -0.00028051608 -0.29553738
0.0017371187 0.24942468 -0.28390896 -0.06524059 0.22273616 -0.15928173 0.17465548 0.23110312
-0.013426073 0.056360766 -0.10354138 -0.07368275 -0.091179475 0.06435211 0.053867243 -0.018350756
-0.24846108 0.04949777 0.047302857 0.08038768 0.14001036 0.19500886 -0.13603544 -0.09368375
0.009122915 0.013067505 -0.014428735 -0.20384616 -0.28492698 0.060463242 -0.11380164 -0.0104636885
0.1921841 0.31807193 -0.022646552 0.27057958 -0.22817549 0.065724425 0.3117627 -0.04690182
0.006259662 0.048798673 -0.031630382 -0.3139861 0.042757407 0.052890785 0.06830479 -0.14001143
-0.03275053 0.18632364 0.03221329 -0.37669483 -0.26309597 0.034146305 -0.040992275 -0.0449993
0.08872642 -0.026428305 -0.080358066 0.23125023 -0.10960155 0.1372474 -0.028267736 -0.13875383
0.017936783 -0.054866 -0.22929256 0.09150245 0.28584895 0.0892675 -0.17036411 0.010032357
-0.2506231 0.08711058 0.13119097 0.016911095 0.009990517 -0.1351648 0.16491729 -0.045989674
0.0018043936 -0.102902606 0.37120005 -0.090229034 -0.29631922 -0.30540574 -0.08693356 -0.036675487
00000000: 2510 943d ae19 86bd b1f3 28be 6ee2 11bd
00000010: 8e1b 433e d7a4 89bc 02ef 8c3e 7c69 95bd
00000020: daf2 663d 1710 963e 539f 4f3c c624 a13d
00000030: 756d 0fbe bcd6 b9be b437 253d 0715 65bd
00000040: 7341 823e 14cd 91bd b46e dc3d bc29 00be
00000050: 4771 e5bb ac46 82bd 71e2 3abe 9fa4 9b3d
00000060: 663a 883d 1daa 823e 2630 3abd f628 b13d
00000070: d99f 31be f53e 7dbd 5ed7 5fbd 1023 7abe
00000080: 027c 163d 9eb7 113e c1ed 253c 48cd 6cbd
00000090: e1cd af3d 2ff8 a23d 93f1 b93e a251 e9bd
000000a0: 3795 723e 6fbe a63c b7b3 c9bd eda5 673e
000000b0: 913a 133e eb86 b3bd b704 573e 3e61 c5bd
000000c0: 813c e53d 1a39 96bd 00b7 dc3d 7f19 c43d
000000d0: f905 103d e86f 90be 3d48 febd d6ab a23c
000000e0: 3ef3 26bd e2e0 5bbe bcc9 7f3e 0157 4ebe
000000f0: b11c 1fbd 30b4 71be 87f4 2abe 04a0 953d
00000100: dddc ad3c 7cd8 e33e 1c28 88be 0307 293e
00000110: da4c 5e3c 458e 84bd 94b4 9b3e b7ae 213e
00000120: 63e0 db3d d949 183e f56d 92bb 9d4d a4bd
00000130: b8c4 33be 1d55 b338 5f89 cc3d 2737 b03d
00000140: 752d 0bbe ac10 0bbe ae18 503d 501a 3bbe
00000150: b515 4c3c 8a8c 03be ad33 de3c 772e 263d
00000160: 69a9 cbbd cdef 2cbe 3af9 8a3a 5275 d6bd
00000170: 014a 54bc 6501 87bd 0542 da3d 041c 923d
00000180: 45b8 03be c8ea 623b b244 dcbd dfe8 91bd
00000190: 37f5 1c3e 6bf6 0b3e ee5b 833d 4a74 43be
000001a0: f8a9 b1bc fc3b 86bc 4072 c83d ae5c 11be
000001b0: fc76 883b c9b1 a6bc 6b7b 0fbe 423f 05be
000001c0: 37cd 9e3c 3161 c1bd b122 de3c aaca 9c3d
000001d0: e9f1 4f3d ddac ffbd d150 e3bd c8e1 84bd
000001e0: f118 ae3e 7dd4 133e 3a53 f5bc 376c e23d
000001f0: 2d74 503d 3c8f 84bd caee edbd 1b80 853e
00000200: 8e0f 6dbe cea4 1fbd f3b6 e5bd cc85 67bd
00000210: ebea 153c 35fe b23d d48d b4bc e88f c3bd
00000220: e2d1 e4bd 3b3a 153e dd45 efbd e84b 0cbe
00000230: 0cc4 2e3d eebe e93d f801 123d c762 5a3d
00000240: 2002 8fbe 83a2 20be 735b 023f fafd e33a
00000250: 297d be3d a6b2 45be 740d 93bd 76d3 5abd
00000260: 436f 483e d124 943d c25d a43d c18f 0dbe
00000270: 32b6 993b b0cd 6bbd 9bfc 9b3d a8a4 543d
00000280: db1b ac3d a072 103e 0ffa 6d3d 83a0 e3bb
00000290: 977f 35be 2d55 22bd 3b12 93b9 ad50 97be
000002a0: 08b0 e33a 2f69 7f3e 845c 91be dc9c 85bd
000002b0: f314 643e c01a 23be e3d8 323e 4ca6 6c3e
000002c0: 08f9 5bbc 8cda 663d 810d d4bd fbe6 96bd
000002d0: 4ebc babd 0acb 833d e6a3 5c3d 5354 96bc
000002e0: 956c 7ebe 2cbe 4a3d a4c0 413d 4ca2 a43d
000002f0: e05e 0f3e 67b0 473e e04c 0bbe 44dd bfbd
00000300: 4778 153c 1719 563c 8066 6cbc 0cbd 50be
00000310: f3e1 91be 4ea8 773d d610 e9bd e46f 2bbc
00000320: e9cb 443e 53da a23e 4385 b9bc 6889 8a3e
00000330: d6a6 69be 879a 863d 5c9f 9f3e 1f1c 40bd
00000340: da1d cd3b 1ee1 473d dc8e 01bd c9c2 a0be
00000350: 6422 2f3d 02a4 583d 62e3 8b3d 285f 0fbe
00000360: 6b25 06bd a0cb 3e3e 15f2 033d 25de c0be
00000370: 84b4 86be ffdc 0b3d 84e7 27bd 3051 38bd
00000380: 33b6 b53d 2c80 d8bc c592 a4bd dccc 6c3e
00000390: c776 e0bd 958a 0c3e bd91 e7bc 7c15 0ebe
000003a0: 29f0 923c 2cbb 60bd abcb 6abe a365 bb3d
000003b0: cb5a 923e e1d1 b63d ee73 2ebe c15e 243c
000003c0: ac51 80be 0867 b23d ed56 063e 2389 8a3c
000003d0: 44af 233c a468 0abe 14e0 283e ab5f 3cbd
000003e0: 6781 ec3a 9abe d2bd ef0d be3e 00ca b8bd
000003f0: 27b7 97be 245e 9cbe 390a b2bd 0939 16bd

fc2.bias f4 [64]
0.022186523 -0.029983493 0.04226253 -0.11310284 -0.016586868 0.09482656 0.15609002 0.073880464
-0.01950015 0.025313072 -0.005358152 -0.040373836 -0.0056973035 0.048958935 0.06469217 0.15156226
0.08140001 0.14661795 -0.08950871 -0.08832366 -0.02522492 -0.011919263 0.008680414 0.039959624
-0.06835422 -0.034687374 -0.058299627 0.044112846 0.0073833466 0.016070664 -0.037298985 0.016909674
0.055937998 0.021450054 0.031736042 0.04578931 0.03467712 -0.03136666 0.10899152 -0.035676617
-0.08505864 0.040766764 0.1020479 0.18666764 -0.03383752 -0.066310436 -0.03826443 0.07551022
0.029807178 0.07193548 0.0032639205 0.008087104 0.038309984 -0.107926 0.044236694 0.026397629
0.052201923 -0.13982405 0.05308531 0.111226104 -0.019537812 -0.077021495 0.15608592 0.04170359
00000000: 83c0 b53c f19f f5bc 7a1b 2d3d 76a2 e7bd
00000010: 2fe1 87bc 6d34 c23d 10d6 1f3e a44e 973d
00000020: c7be 9fbc 5c5d cf3c 7093 afbb 095f 25bd
00000030: 72b0 babb 2a89 483d 547d 843d 2333 1b3e
00000040: 0cb5 a63d 0423 163e 5850 b7bd 09e3 b4bd
00000050: 7ea4 cebc 0349 43bc 4c38 0e3c b4ac 233d
00000060: 4cfd 8bbd 5914 0ebd 97cb 6ebd acaf 343d
00000070: 00f0 f13b a0a6 833c d2c6 18bd 2886 8a3c
00000080: 3e1f 653d 06b8 af3c a7fd 013d 928d 3b3d
00000090: 9909 0e3d 547a 00bd f236 df3d a521 12bd
000000a0: 3933 aebd 0dfb 263d 7dfe d03d cd25 3f3e
000000b0: 3699 0abd c4cd 87bd 2abb 1cbd 1aa5 9a3d
000000c0: 2f2e f43c e952 933d 80e7 553b c67f 043c
000000d0: eeea 1c3d 4f08 ddbd 8931 353d d73f d83c
000000e0: afd1 553d 092e 0fbe fb6f 593d 83ca e33d
000000f0: c30d a0bc 72bd 9dbd fdd4 1f3e 62d1 2a3d

mu.weight f4 [8, 64]
0.03187412 0.07668713 -0.17761876 -0.018533638 -0.1365377 -0.070334755 0.18552464 0.190161
0.062510215 -0.11910876 -0.10758833 -0.04383379 -0.039326288 0.18125033 -0.021600425 0.10012767
0.02279145 -0.15514742 -0.27560598 -0.3186797 -0.07370673 -0.089660235 0.030436676 0.067347385
-0.2420378 0.09219339 -0.13281111 -0.104878254 0.17086287 0.038990986 -0.008799179 0.104959
-0.22139929 -0.06387062 0.12455906 -0.07802825 0.26526976 -0.20610791 0.10477515 -0.04998787
-0.02260011 -0.29800108 -0.1649395 -0.16625135 -0.38807866 -0.11830227 0.12580256 -0.41404533
0.18758494 0.08606773 -0.12634732 0.075737126 0.3305011 0.04500934 0.18853424 0.32410416
0.09800417 0.013258663 -0.2247892 0.002765464 -0.034330543 -0.1767511 -0.15603136 0.028514575
-0.032951925 0.042889427 0.28881308 -0.019422743 -0.0829647 -0.17559335 0.03836884 0.014801569
-0.07749711 0.19567613 0.1761355 0.0016833012 -0.14594334 0.10197152 0.07161046 0.11314897
0.08906299 -0.057318486 -0.31834957 -0.014349958 0.00450497 0.024696598 -0.25247365 -0.058409397
0.012564379 0.11774973 0.11430914 0.10908134 -0.01385973 0.035056952 0.079245895 -0.2883114
-0.058119822 -0.06462959 -0.05059862 0.13393281 -0.109266415 0.11298308 -0.09374418 0.16787344
0.021760106 0.050254393 -0.03692572 -0.28599072 0.15234247 0.09944429 0.0059441403 0.089571245
-0.13137627 0.013499674 -0.1878455 -0.005559194 -0.101809844 0.14862293 -0.0030388685 0.019697534
-0.122377194 0.102414854 -0.12812687 0.24186265 0.15207082 0.12719518 -0.1620943 0.17447191
0.17148817 0.2646152 -0.18215948 0.12439019 0.081673615 0.15442932 -0.52562755 -0.14080112
-0.12962122 0.12263409 0.22800907 0.077088304 -0.023827046 0.10515434 -0.011180481 0.11419468
-0.055173367 -0.066075005 0.046490088 0.0107272975 0.10682235 -0.08220106 -0.03173829 0.07852517
-0.004180484 0.17972255 0.11964166 0.4258921 -0.12534598 -0.1465435 -0.21344109 0.023798114
-0.17952305 -0.22329278 -0.26666704 0.30452898 0.19265394 0.12007273 0.118924 -0.16719545
0.023364073 -0.031786285 0.25093114 -0.32291687 0.107297495 0.025528297 0.20945005 -0.0021631306
0.16235693 0.048337255 0.22468108 -0.1804012 -0.032343317 -0.021802953 -0.07748564 -0.21274349
0.05106627 0.07439385 0.24062596 0.005174593 -0.07399196 0.07887834 0.11725964 -0.046536986
-0.22493683 0.12133591 0.10192175 0.18134439 -0.12815677 0.06377291 0.080320396 0.1473128
-0.006591568 0.103069425 -0.11274627 0.137436 -0.092093796 0.06561491 -0.06289994 -0.13252217
-0.14908138 0.108374484 -0.030733548 -0.16654925 0.123526596 -0.08481359 -0.17082775 -0.022086369
0.06579916 -0.024796067 -0.052310266 0.0043051937 0.029536916 0.1087126 0.11518666 -0.034149006
-0.10050504 0.030804923 -0.09419806 -0.010700341 0.049900822 -0.008061438 0.08396848 0.07010386
-0.06374607 0.006429854 0.10441948 -0.065697156 -0.1050021 0.16573516 0.070000924 0.0059063165
-0.0029637935 -0.15261689 0.03264152 -0.031466775 -0.070595525 0.34072208 0.017484056 0.016510375
0.28792214 -0.02687302 -0.033254284 -0.28164184 -0.07599792 -0.036755975 0.10725499 0.14816605
00000000: 708e 023d 240e 9d3d b1e1 35be dbd3 97bc
00000010: 8ad0 0bbe ab0b 90bd 2cfa 3d3e 91b9 423e
00000020: 5b05 803d 4bef f3bd 4557 dcbd 0f8b 33bd
00000030: 9a14 21bd b099 393e 60f3 b0bc bc0f cd3d
00000040: 23b5 ba3c f7de 1ebe 3a1c 8dbe fc29 a3be
00000050: 8ef3 96bd c99f b7bd 5656 f93c 6ded 893d
00000060: c2d8 77be e3cf bc3d a3ff 07be 69ca d6bd
00000070: adf6 2e3e 03b5 1f3d 6f2a 10bc bff4 d63d
00000080: 7fb6 62be 9ace 82bd d218 ff3d 46cd 9fbd
00000090: 70d1 873e f40d 53be 5b94 d63d 15c0 4cbd
000000a0: de23 b9bc 9993 98be e6e5 28be cb3d 2abe
000000b0: 3fb2 c6be 7648 f2bd 63d2 003e c0fd d3be
000000c0: 4416 403e 4744 b03d 3161 01be 111c 9b3d
000000d0: 7137 a93e b75b 383d 1f0f 413e fbf0 a53e
000000e0: 69b6 c83d dd3a 593c 242f 66be c93c 353b
000000f0: 2f9e 0cbd 3efe 34be afc6 1fbe 6697 e93c
00000100: 99f8 06bd d3ac 2f3d 4fdf 933e 721c 9fbc
00000110: 66e9 a9bd bece 33be a528 1d3d 4882 723c
00000120: ceb6 9ebd 535f 483e dd5c 343e 37a2 dc3a
00000130: 2c72 15be 72d6 d03d 81a8 923d a6ba e73d
00000140: a866 b63d cac6 6abd b7fe a2be 161c 6bbc
00000150: 6d9e 933b 8550 ca3c 3a44 81be b13e 6fbd
00000160: d3da 4d3c c526 f13d e91a ea3d 0a66 df3d
00000170: ec13 63bc e197 0f3d ac4b a23d 8d9d 93be
00000180: 0d0f 6ebd 855c 84bd 8040 4fbd af25 093e
00000190: 12c7 dfbd ac63 e73d f3fc bfbd 04e7 2b3e
000001a0: 4042 b23c 8dd7 4d3d 6c3f 17bd 606d 92be
000001b0: aaff 1b3e 73a9 cb3d 10c7 c23b 2171 b73d
000001c0: 8087 06be bd2d 5d3c 925a 40be e629 b6bb
000001d0: ae81 d0bd 9c30 183e c127 47bb b95c a13c
000001e0: e5a0 fabd e1be d13d b133 03be d8aa 773e
000001f0: 74b8 1b3e 743f 023e 0cfc 25be c4a8 323e
00000200: 989a 2f3e a57b 873e 0488 3abe 49c0 fe3d
00000210: 7f44 a73d b822 1e3e 878f 06bf 2b2e 10be
00000220: 6dbb 04be 9527 fb3d 367b 693e 79e0 9d3d
00000230: f030 c3bc 295b d73d 562e 37bc e6de e93d
00000240: 78fd 61bd 5552 87bd 646c 3e3d 8cc1 2f3c
00000250: adc5 da3d 0859 a8bd 0200 02bd ced1 a03d
00000260: 71fc 88bb 3009 383e b006 f53d 880e da3e
00000270: b25a 00be 800f 16be 4d90 5abe 43f4 c23c
00000280: e4d4 37be dda6 64be 9588 88be 39eb 9b3e
00000290: 1347 453e b1e8 f53d 6d8e f33d 4935 2bbe
000002a0: 0366 bf3c 5632 02bd 0c7a 803e 5c55 a5be
000002b0: cabe db3d b820 d13c 137a 563e 4fc3 0dbb
000002c0: e540 263e 49fd 453d cc12 663e 18bb 38be
000002d0: 6d7a 04bd 1b9c b2bc cbb0 9ebd 6ed9 59be
000002e0: dd2a 513d ce5b 983d a766 763e a28f a93b
000002f0: 1989 97bd f88a a13d d225 f03d 919d 3ebd
00000300: d755 66be f67e f83d 5abc d03d 58b2 393e
00000310: 873b 03be 5f9b 823d 057f a43d 2bd9 163e
00000320: 14fe d7bb 1016 d33d 84e7 e6bd 06bc 0c3e
00000330: ac9b bcbd 1c61 863d afd1 80bd e4b3 07be
00000340: caa8 18be 71f3 dd3d ecc4 fbbc e38b 2abe
00000350: 83fb fc3d bfb2 adbd 78ed 2ebe 79ee b4bc
00000360: b6c1 863d 1f21 cbbc 4a43 56bd 9512 8d3b
00000370: 67f7 f13c b6a4 de3d fce6 eb3d d4df 0bbd
00000380: 96d5 cdbd 9b5a fc3c eaea c0bd 7c50 2fbc
00000390: ce64 4c3d 1f14 04bc abf7 ab3d 9d92 8f3d
000003a0: 4d8d 82bd 86b1 d23b e1d9 d53d 3b8c 86bd
000003b0: 570b d7bd 7ab6 293e a55c 8f3d c689 c13b
000003c0: 343c 42bb 9a47 1cbe 1db3 053d 4ee3 00bd
000003d0: 6394 90bd 2073 ae3e b93a 8f3c c440 873c
000003e0: 886a 933e cf24 dcbc a535 08bd 5c33 90be
000003f0: cca4 9bbd 6f8d 16bd 81a8 db3d d7b8 173e

mu.bias f4 [8]
-0.0020330576 -0.09426214 -0.0045979936 -0.04879382 0.050709967 0.10841529 0.01436128 0.08692786
00000000: 0c3d 05bb 820c c1bd c4aa 96bb 07dc 47bd
00000010: 41b5 4f3d d608 de3d 934b 6b3c 3c07 b23d

fc1.weight f4 [64, 111]
-0.43143833 0.52797186 0.654413 -0.3317771 -0.026085284 0.12880167 0.050820217 0.04724352
-0.07491053 -0.1688873 -0.059794433 -0.007844538 0.14387023 -0.25171474 -0.03438492 -0.21595728
-0.040536236 0.23094128 -0.21152765 -0.030663874 0.045302473 -0.04218983 0.00032833422 -0.04397266
0.0153707545 -0.16156417 0.035971873 -0.09260791 -0.2548348 -0.094616316 0.10403035 0.17003126
0.111237936 0.009152347 -0.06924365 0.143669 -0.06543426 0.02720823 0.037207387 -0.008139715
-0.080108985 0.07228882 -0.19378397 -0.026076166 -0.1908531 -0.03150196 -0.02597778 -0.16828398
-0.0769187 0.136502 -0.09873788 0.09099924 -0.31537917 0.04222698 0.08070609 0.03779465
-0.021850748 0.07114164 -0.11253393 -0.12944226 -0.044026107 0.072672315 -0.006011285 -0.056827664
0.07901701 0.06895521 -0.115088865 -0.017176464 0.09645059 0.13760844 0.08927997 0.022070935
-0.08209288 -0.07952599 -0.020331165 0.014410758 -0.11636966 0.027222363 0.0070014168 -0.022343235
-0.108932815 -0.09833611 0.030202545 0.059049636 -0.18090506 0.010370944 -0.095235094 -0.012577025
-0.057288386 0.21508592 -0.18246186 0.04264347 -0.06853957 0.025681706 0.11337763 -0.010718
-0.03595481 0.066128224 -0.060815807 -0.039386887 0.04749439 0.082404435 -0.027022986 -0.02101524
0.07895099 -0.044476237 -0.023931324 -0.09325069 -0.0048264056 0.106526546 -0.07012054 -0.4231093
0.9631915 0.0142145725 -0.35269877 0.2782328 0.12221993 -0.04188617 0.055353533 0.12248273
0.2956576 0.028839966 0.1211814 -0.07866187 0.03148068 0.027421959 -0.26617128 -0.06618481
0.028354727 0.0089890165 -0.027251314 -0.016809361 0.0062341094 -0.04435965 0.005636915 0.0145343635
-0.0059578414 0.013095199 -0.049620442 0.04340815 0.08600403 0.06468629 0.0515948 -0.14669308
0.037296504 0.0392366 -0.050652392 -0.06695619 -0.013589469 0.05466936 -0.07338466 -0.05185457
0.061073523 0.11039621 -0.03717122 0.12286643 0.036799785 -0.035763912 0.12384902 -0.12031606
-0.00016192847 -0.18040402 -0.047782823 -0.11742945 -0.019674378 -0.07283765 0.19177464 -0.13280919
0.005210292 -0.009436201 0.16401789 -0.026984815 -0.02489064 0.08151191 0.104503654 -0.007773802
0.012953956 0.16435501 0.14480667 0.14901257 -0.013665249 -0.0879681 0.006427403 0.14469032
-0.051478513 0.0817524 0.080914386 0.103711374 -0.037065722 -0.027122729 0.16055235 -0.14894874
-0.055578507 0.1291963 -0.09050107 -0.0063200155 -0.19058874 0.097750016 -0.019170893 0.10174636
0.020144695 0.019828305 0.13219501 -0.051641893 0.027860826 0.013360975 0.00040966723 -0.077675655
-0.08640029 0.074465275 0.1013713 0.07334523 0.22196823 -0.043204498 0.18584217 0.25120878
-0.019927638 0.0045058136 -0.13461266 -0.094471134 -0.04872051 -0.03414586 0.45237526 -0.8551069
0.20984054 -0.032091953 -0.7065365 0.28872842 0.23716098 -0.31433132 -0.15814583 -0.23827077
-0.26388788 0.18981351 0.50802636 0.05461852 0.15887901 0.1298176 -0.009766552 0.17224684
-0.049972944 0.038183514 0.06275132 -0.01207387 0.032869816 -0.0988165 0.018504292 -0.09323992
-0.101062335 -0.11739668 0.0105723115 0.067922175 0.032214507 -0.05742399 -0.05430118 -0.10168673
00000000: 7ce5 dcbe 2a29 073f 9c87 273f b0de a9be
00000010: ceb0 d5bc 96e4 033e dc28 503d 6c82 413d
00000020: b16a 99bd cbf0 2cbe 02eb 74bd 6186 00bc
00000030: b852 133e c1e0 80be 34d7 0cbd e823 5dbe
00000040: 5309 26bd df7b 6c3e b49a 58be ce32 fbbc
00000050: 168f 393d 3ecf 2cbd 4624 ac39 ad1c 34bd
00000060: 9ed5 7b3c 1471 25be 3e57 133d 37a9 bdbd
00000070: b579 82be 33c6 c1bd dd0d d53d ad1c 2e3e
00000080: b7d0 e33d baf3 153c 9dcf 8dbd f71d 133e
00000090: 6602 86bd cbe3 de3c c666 183d 705c 05bc
000000a0: 2e10 a4bd 290c 943d 4e6f 46be af9d d5bc
000000b0: ff6e 43be 3308 01bd 5acf d4bc a352 2cbe
000000c0: 8d87 9dbd 2ec7 0b3e 1637 cabd cf5d ba3d
000000d0: 6179 a1be 33f6 2c3d 3c49 a53d 90ce 1a3d
000000e0: 5700 b3bc b5b2 913d 3078 e6bd 838c 04be
000000f0: b854 34bd 39d5 943d 50fa c4bb 20c4 68bd
00000100: acd3 a13d 6438 8d3d b6b3 ebbd a8b5 8cbc
00000110: e387 c53d 3ae9 0c3e 6bd8 b63d 1bce b43c
00000120: 5020 a8bd 86de a2bd 8b8d a6bc 1a1b 6c3c
00000130: 3753 eebd 6f01 df3c 246c e53b 2909 b7bc
00000140: 2b18 dfbd 7164 c9bd 546b f73c 08de 713d
00000150: 2d3f 39be e4ea 293c 9e0a c3bd de0f 4ebc
00000160: 3aa7 6abd 7c3f 5c3e 48d7 3abe ebaa 2e3d
00000170: 795e 8cbd 7162 d23c 8832 e83d 8d9a 2fbc
00000180: 5a45 13bd 3c6e 873d ff19 79bd 2554 21bd
00000190: 7a89 423d a8c3 a83d 4f5f ddbc 2728 acbc
000001a0: 0fb1 a13d b72c 36bd a00b c4bc 38fa bebd
000001b0: d326 9ebb 972a da3d 5c9b 8fbd c8a1 d8be
000001c0: b893 763f 3de4 683c ef94 b4be 8874 8e3e
000001d0: 714e fa3d d590 2bbd 63ba 623d 3ad8 fa3d
000001e0: 6f60 973e cb41 ec3c f42d f83d 7919 a1bd
000001f0: e3f1 003d 04a4 e03c 9a47 88be e78b 87bd
00000200: 2c48 e83c ab46 133c 263e dfbc c9b3 89bc
00000210: 8047 cc3b 77b2 35bd dfb5 b83b 8a21 6e3c
00000220: ff39 c3bb 3f8d 563c ce3e 4bbd bfcc 313d
00000230: e222 b03d 3f7a 843d 1255 533d b636 16be
00000240: 38c4 183d 8fb6 203d e278 4fbd 5420 89bd
00000250: 5da6 5ebc fbec 5f3d b24a 96bd 7565 54bd
00000260: 3b28 7a3d 6817 e23d d940 18bd 65a1 fb3d
00000270: 5fbb 163d 2e7d 12bd 8ea4 fd3d 4468 f6bd
00000280: 58cb 29b9 d5bb 38be ecb7 43bd da7e f0bd
00000290: 292c a1bc e82b 95bd 9260 443e 22ff 07be
000002a0: 19bb aa3b 4c9a 1abc 4ef4 273e 420f ddbc
000002b0: 75e7 cbbc b7ef a63d 0306 d63d 61bb febb
000002c0: d43c 543c ae4c 283e 3348 143e c096 183e
000002d0: 35e4 5fbc 9f28 b4bd f79c d23b b329 143e
000002e0: 22db 52bd cd6d a73d 71b6 a53d a166 d43d
000002f0: 3ad2 17bd 7c30 debc d667 243e 0586 18be
00000300: 4aa6 63bd 094c 043e a058 b9bd 2218 cfbb
00000310: b229 43be 2931 c83d 470c 9dbc 6560 d03d
00000320: 7d06 a53c f86e a23c 215e 073e 7386 53bd
00000330: 633c e43c fee7 5a3c 9bc8 d639 6a14 9fbd
00000340: a3f2 b0bd 4081 983d c29b cf3d 0636 963d
00000350: a44b 633e 33f7 30bd 694d 3e3e 709e 803e
00000360: 493f a3bc 81a5 933b e7d7 09be 157a c1bd
00000370: 288f 47bd 87dc 0bbd bb9d e73e 49e8 5abf
00000380: 70e0 563e da72 03bd 93df 34bf 36d4 933e
00000390: 54da 723e 09f0 a0be fbf0 21be 41fd 73be
000003a0: 501c 87be 795e 423e 040e 023f abb7 5f3d
000003b0: 2eb1 223e e8ee 043e e303 20bc 7a61 303e
000003c0: 6eb0 4cbd 5166 1c3d c483 803d 7bd1 45bc
000003d0: 80a2 063d 4e60 cabd 5096 973c 92f4 bebd
000003e0: c5f9 cebd ac6d f0bd 7d37 2d3c c81a 8b3d
000003f0: 5cf3 033d 6b35 6bbd ea6a 5ebd 2241 d0bd

fc1.bias f4 [64]
0.63132566 -0.26497015 0.06155089 0.44272918 -0.2954869 0.086638674 -0.653015 0.78477055
0.34863558 0.930783 0.432222 0.20013252 -0.17923163 0.65368867 -0.15969056 0.46128044
1.1892288 1.0508989 0.32816017 0.75009894 0.00086713623 -0.15745455 0.5593005 -0.31782985
-0.11378035 0.18198803 0.32060844 -0.3447676 0.3263444 0.54582024 0.27426162 -0.5943733
0.57438457 1.0807621 -0.08709863 0.34110388 -0.51298827 -0.42592418 -0.3066319 0.28589168
0.014582639 -0.5392791 1.2744923 0.3817049 -0.18036662 0.036531106 -0.29588866 -0.32955998
-0.27407637 0.68921864 0.0730765 -0.48456347 0.065793104 -0.10786655 0.5344582 0.5356779
-0.29810065 -0.49775553 -0.5844191 0.69303715 0.5612726 0.4357762 0.17102818 -0.3250173
00000000: 8f9e 213f 2baa 87be c91c 7c3d 66ad e23e
00000010: 0f4a 97be 9e6f b13d fe2b 27bf b9e6 483f
00000020: 5d80 b23e cb47 6e3f 344c dd3e 8aef 4c3e
00000030: 7f88 37be 2458 273f ec85 23be f32c ec3e
00000040: a638 983f db83 863f 9c04 a83e 7c06 403f
00000050: 8750 633a c43b 21be 512e 0f3f 98ba a2be
00000060: ac05 e9bd 125b 3a3e ca26 a43e 6185 b0be
00000070: 9d16 a73e e0ba 0b3f 056c 8c3e d928 18bf
00000080: de0a 133f 6a56 8a3f c460 b2bd 2ba5 ae3e
00000090: 3353 03bf bc12 dabe dbfe 9cbe 6560 923e
000000a0: 05ec 6e3c 320e 0abf 9022 a33f d36e c33e
000000b0: 07b2 38be a4a1 153d b87e 97be 16bc a8be
000000c0: bd53 8cbe a270 303f 22a9 953d b418 f8be
000000d0: 89be 863d 23e9 dcbd 41d2 083f 3022 093f
000000e0: a6a0 98be d0d9 febe 7d9c 15bf e26a 313f
000000f0: 90af 0f3f 0f1e df3e 0322 2f3e ab68 a6be

fc2.weight f4 [64, 64]
0.1477281 0.7479577 -0.10552222 -0.4259829 -0.26725563 -0.13894857 0.8101373 0.22466642
-0.06795837 0.08542258 -0.40261385 -0.31757772 -0.7181553 0.10533487 0.30240187 0.2463963
-0.2750095 -1.0972011 0.25301635 -0.6435163 0.5096778 -0.5595259 -0.9462499 0.21582916
0.75553316 -0.62856185 -0.68919694 -0.36892736 -0.011182863 -0.9025039 -0.5473488 0.65748316
-0.12652165 0.25592983 0.7519568 -1.1518893 0.92157763 -0.39623055 0.50014627 -1.2015508
0.4057203 0.15202896 -0.72798157 0.37345165 0.028153824 0.68287486 -0.8765776 -0.9931192
0.48746604 -0.8234996 0.1637371 -0.35023192 0.74892336 0.109637365 -1.0910286 0.21213731
0.63881224 0.55162984 -0.90713495 0.42959964 0.15185292 -0.68073666 -0.7562288 0.004897198
0.11872369 0.2740532 -0.14695933 0.5712769 0.04794161 0.33721203 0.5386624 -0.01052393
-0.27770555 0.11714538 0.41107932 0.39446652 -0.2989131 -0.06732364 0.13494022 0.010000285
0.44360745 -0.4088772 -0.49034646 -0.23044619 -0.26619008 0.10256965 0.40371224 0.35079536
0.10275077 -0.6279347 0.021352086 0.09668799 0.17611979 0.0656473 0.053894732 0.07750243
-0.06491155 -0.30105338 -0.3421223 0.3257826 -0.14172159 0.01480059 -0.02046405 0.20569262
0.20003161 -0.14231218 -0.09777706 0.18530996 -0.05233525 0.12707175 -0.21164343 -0.5426316
-0.14300835 -0.08807851 -0.37753314 0.06433381 -0.042938374 0.061856862 0.2503939 -0.17168447
0.49547005 -0.17794184 0.046449974 -0.45964855 -0.034071732 0.82216394 0.0038493618 0.26630008
-1.5231192 0.14122911 1.2017345 -0.52467424 -1.1536738 -0.07494325 1.865649 -1.7728946
0.60869163 -0.46998715 -0.65893596 1.3707316 0.38028705 -2.106918 0.37129307 -0.58557916
-2.8423264 -3.9711263 0.23692688 -1.4405947 -0.30293432 0.20866884 -0.16423014 0.19499235
0.87009674 -0.19665016 -1.1266143 0.14328037 -0.09271536 -0.43013418 -1.1768391 -0.053337052
-0.35667294 -2.0902433 -0.7589052 0.064048514 0.8861335 0.98420036 0.35872743 -0.1403832
0.6479193 0.62055707 -2.5446026 -0.6151861 -0.38457933 0.19066216 -0.2946563 0.13796103
0.43172088 -0.24600005 -0.27577475 0.059569906 -0.47834623 0.48347893 -0.540287 0.45645702
2.375119 0.23930062 -1.0385259 -0.88017833 -0.035070147 0.13496055 -0.43796203 -0.36954883
0.67033464 0.94219667 -0.97846323 0.35791978 1.1536353 0.18183665 -1.2544858 1.6407679
-1.2381612 -0.3072749 0.76745474 -1.3266156 -1.1275162 1.2837439 -2.188633 -0.43205824
2.1043808 1.2237983 -0.8131864 1.6542772 0.57885593 -1.3035365 1.3920152 0.48126346
1.040291 -0.7869021 -0.046965234 0.70362353 1.1355983 -0.7907114 0.73941296 0.9715654
-0.5933598 1.591536 0.8054837 -0.6240657 0.36948293 -0.71367955 -0.66214466 -0.80677193
0.38779524 -0.97497594 1.7885482 1.2479186 1.5667048 -1.1976526 0.38531286 0.67889726
-1.0941991 -0.81892395 -0.40790975 0.69374645 0.59123474 0.393076 -0.41168496 -1.1672614
-1.1514524 0.95834076 1.2678989 0.59535736 0.31020445 0.9074033 -0.0698397 1.2210156
00000000: 0946 173e 287a 3f3f 091c d8bd 6e1a dabe
00000010: bbd5 88be 8948 0ebe 2865 4f3f f40e 663e
00000020: c22d 8bbd 09f2 ae3d 6723 cebe 8c99 a2be
00000030: 07d9 37bf cfb9 d73d 6bd4 9a3e 504f 7c3e
00000040: 0cce 8cbe 1671 8cbf 5c8b 813e 7cbd 24bf
00000050: 3f7a 023f 173d 0fbf 6f3d 72bf 5202 5d3e
00000060: 9f6a 413f 6ee9 20bf 366f 30bf 0ce4 bcbe
00000070: 5438 37bc 7f0a 67bf 0d1f 0cbf d150 283f
00000080: e48e 01be 3c09 833e 3e80 403f 1c71 93bf
00000090: 83ec 6b3f bbde cabe 9609 003f 6bcc 99bf
000000a0: 92ba cf3e 7bad 1b3e 005d 3abf 0e35 bf3e
000000b0: d9a2 e63c e3d0 2e3f 6467 60bf 0f3d 7ebf
000000c0: 2695 f93e dfd0 52bf b3aa 273e 9951 b3be
000000d0: 71b9 3f3f 8e89 e03d d3a6 8bbf 863a 593e
000000e0: 3389 233f 9d37 0d3f ff39 68bf 7cf4 db3e
000000f0: 557f 1b3e c244 2ebf 3698 41bf ad78 a03b
00000100: 6825 f33d b350 8c3e 827c 16be 343f 123f
00000110: 6c5e 443d 0ea7 ac3e c7e5 093f 906c 2cbc
00000120: 6c2f 8ebe ebe9 ef3d fd78 d23e 84f7 c93e
00000130: 230b 99be fae0 89bd c52d 0a3e 3cd8 233c
00000140: 8420 e33e 5a58 d1be b10e fbbe 16fa 6bbe
00000150: 114a 88be 0910 d23d 5fb3 ce3e 739b b33e
00000160: ff6e d23d 54c0 20bf 92ea ae3c 5a04 c63d
00000170: bf58 343e 1772 863d b9c0 5c3d 98b9 9e3d
00000180: 59f0 84bd ab23 9abe a72a afbe facc a63e
00000190: 771f 11be 2d7e 723c 39a4 a7bc 16a1 523e
000001a0: 16d5 4c3e 49ba 11be 573f c8bd e5c1 3d3e
000001b0: 7d5d 56bd 191f 023e 0eb9 58be e8e9 0abf
000001c0: c870 12be 8162 b4bd 064c c1be 72c1 833d
000001d0: 26e0 2fbd 9f5d 7d3d a133 803e 0ece 2fbe
000001e0: 40ae fd3e 6336 36be 5442 3e3d 0e57 ebbe
000001f0: cd8e 0bbd 5679 523f 9345 7c3b 7c58 883e
00000200: 92f5 c2bf 5d9e 103e 70d2 993f 0d51 06bf
00000210: 95ab 93bf d97b 99bd 96cd ee3f 36ee e2bf
00000220: 37d3 1b3f 28a2 f0be 07b0 28bf 2274 af3f
00000230: fcb4 c23e bfd7 06c0 201a be3e 84e8 15bf
00000240: ade8 35c0 ef26 7ec0 f69c 723e 6865 b8bf
00000250: 351a 9bbe 49ad 553e f22b 28be 13ac 473e
00000260: a9be 5e3f a95e 49be e634 90bf 17b8 123e
00000270: 8de1 bdbd 8c3a dcbe aaa2 96bf f477 5abd
00000280: d69d b6be 8cc6 05c0 9c47 42bf de2b 833d
00000290: a5d9 623f 8ef4 7b3f 1fab b73e 9dc0 0fbe
000002a0: 0ade 253f d4dc 1e3f c5da 22c0 d67c 1dbf
000002b0: 95e7 c4be f13c 433e 31dd 96be a845 0d3e
000002c0: 850a dd3e 70e7 7bbe 5932 8dbe 93ff 733d
000002d0: cce9 f4be 8d8a f73e 4050 0abf bcb4 e93e
000002e0: f301 1840 390b 753e 6bee 84bf 5e53 61bf
000002f0: b7a5 0fbd 1933 0a3e 8f3c e0be 8135 bdbe
00000300: 0d9b 2b3f cd33 713f 917c 7abf 4341 b73e
00000310: 52aa 933f 6333 3a3e fe92 a0bf af04 d23f
00000320: 117c 9ebf 2353 9dbe ea77 443f 8ace a9bf
00000330: 7352 90bf b851 a43f 9012 0cc0 bd36 ddbe
00000340: 2dae 0640 6ca5 9c3f fc2c 50bf 5bbf d33f
00000350: e72f 143f 49da a6bf 8e2d b23f 2a68 f63e
00000360: 4128 853f 6b72 49bf 9e5e 40bd ac20 343f
00000370: 495b 913f 106c 4abf 2b4a 3d3f 83b8 783f
00000380: 6ee6 17bf 74b7 cb3f 2e34 4e3f c5c2 1fbf
00000390: de2c bd3e b4b3 36bf 5082 29bf 9b88 4ebf
000003a0: 198d c63e 0698 79bf 26ef e43f ccbb 9f3f
000003b0: c889 c83f ae4c 99bf ba47 c53e 36cc 2d3f
000003c0: b70e 8cbf 00a5 51bf 8cd9 d0be 5e99 313f
000003d0: 295b 173f 4241 c93e 5fc8 d2be d268 95bf
000003e0: cb62 93bf d255 753f 834a a23f 5769 183f
000003f0: 1ed3 9e3e 954b 683f 1e08 8fbd 3d4a 9c3f

fc2.bias f4 [64]
-0.8566223 0.14974658 -1.2664021 -0.24599388 -0.51142 0.88327116 2.1118681 -0.121958494
-0.56396794 -0.14370947 -2.3214264 -2.2949224 -0.58858055 -0.5046082 2.020536 -0.4921113
-0.16914122 1.9608905 0.6434149 1.910711 -0.7494409 -0.9824131 -1.3344619 -0.99710876
1.0341617 -1.319581 0.031253494 -0.66933894 0.46008104 -0.13945769 -1.1805044 -0.2274999
0.92239 -0.22270617 0.24063802 -0.08640971 0.0049261404 0.12051961 -0.91042185 -0.09251386
-2.329629 0.035756666 0.63842833 0.00018238292 -0.29972208 -1.557651 -0.8495827 0.030600546
1.2958676 0.7598972 0.7114554 0.75333524 1.3432355 -0.068836816 0.05105568 0.78754735
0.18324877 -0.11143824 1.5795828 2.352462 -0.46667945 -0.45252302 0.11241219 -1.7795172
00000000: 994b 5bbf 2b57 193e 7719 a2bf d2e5 7bbe
00000010: 6cec 02bf 0f1e 623f d928 0740 60c5 f9bd
00000020: 3460 10bf 9328 13be 4092 14c0 02e0 12c0
00000030: 37ad 16bf 012e 01bf 7650 0140 03f6 fbbe
00000040: 5b33 2dbe 76fe fa3f d7b6 243f 2e92 f43f
00000050: 5cdb 3fbf 6d7f 7bbf a6cf aabf 8542 7fbf
00000060: 695f 843f 08e8 a8bf aa03 003d cc59 2bbf
00000070: be8f eb3e ffcd 0ebe c51a 97bf bcf5 68be
00000080: c021 6c3f 160d 64be d069 763e 93f7 b0bd
00000090: 766b a13b fcd2 f63d 6811 69bf e877 bdbd
000000a0: a418 15c0 9575 123d 0a70 233f 0b3e 3f39
000000b0: 2c75 99be 1c61 c7bf 407e 59bf ffad fa3c
000000c0: fdde a53f 9f88 423f f121 363f 94da 403f
000000d0: 24ef ab3f 51fa 8cbd c31f 513d b49c 493f
000000e0: 91a5 3b3e bb39 e4bd c52f ca3f bd8e 1640
000000f0: 9cf0 eebe 19b1 e7be 5d38 e63d 38c7 e3bf

value.weight f4 [1, 64]
-8.430125 -8.616159 -8.201742 8.268274 8.314684 -8.030869 8.393357 7.8597107
-8.165323 -8.132072 -8.464781 -8.769392 8.315597 8.451192 7.928988 8.474235
-8.124559 8.559744 -8.323015 8.0210905 8.327142 8.301162 -8.505277 8.294177
-8.205218 -8.430337 8.267336 -7.6439195 -8.432061 -8.144281 8.365008 8.358823
-8.29315 7.929178 8.444354 -8.411409 -8.651369 7.9262233 -8.726319 -8.620139
-8.640041 -7.8891497 8.629781 8.341913 8.330689 -8.629138 8.336632 8.232984
8.137165 -8.380497 8.599354 7.6950903 8.230131 -8.045356 -8.321765 8.004627
7.994357 8.303525 8.073358 8.705345 -8.181207 7.5894523 -8.281513 -8.42235
00000000: cbe1 06c1 cadb 09c1 563a 03c1 da4a 0441
00000010: f208 0541 707e 00c1 314b 0641 c082 fb40
00000020: 2aa5 02c1 f81c 02c1 be6f 07c1 6e4f 0cc1
00000030: af0c 0541 1538 0741 45ba fd40 7796 0741
00000040: 32fe 01c1 b6f4 0841 122b 05c1 6356 0041
00000050: f93b 0541 8fd1 0441 9d15 08c1 f3b4 0441
00000060: 9348 03c1 a9e2 06c1 0247 0441 fd9a f4c0
00000070: b9e9 06c1 fa4e 02c1 13d7 0541 bdbd 0541
00000080: beb0 04c1 d4bb fd40 131c 0741 2295 06c1
00000090: 026c 0ac1 9fa3 fd40 019f 0bc1 17ec 09c1
000000a0: 9c3d 0ac1 ea73 fcc0 9513 0a41 7a78 0541
000000b0: 814a 0541 f310 0ac1 d862 0541 4dba 0341
000000c0: d431 0241 8416 06c1 f496 0941 2e3e f640
000000d0: 9eae 0341 c7b9 00c1 f325 05c1 f412 0041
000000e0: c6d1 ff40 3ddb 0441 792c 0141 1849 0b41
000000f0: 39e6 02c1 cbdc f240 1481 04c1 f2c1 06c1

exp_avg f4 [1, 8]
0.0011557635 -0.0047016484 -1.3012949e-05 -0.005363492 0.00136107 0.0011254713 0.00012202046 -0.0023761664
00000000: fd7c 973a 4910 9abb 3152 5ab7 3bc0 afbb
00000010: ee65 b23a 8d84 933a 3ce5 ff38 75b9 1bbb

exp_avg_sq f4 [1, 8]
9.6906384e-05 0.0001101087 0.00015417868 0.00011431464 0.00012656527 0.00013408059 0.00011240891 0.00011633325
00000000: 383a cb38 28ea e638 06ab 2139 34bc ef38
00000010: 9bb6 0439 fc97 0c39 13bd eb38 f0f7 f338

exp_avg f4 [64, 111]
0.0012618431 0.0027399801 -0.0006190675 0.0002701481 -0.001428137 -0.00071822724 0.0035903633 -8.784494e-05
-0.0016360098 0.0017251256 -0.0014661264 0.00010037927 0.002980292 0.0070493207 0.00023791961 0.00034904288
-0.0062009864 -0.0039753797 -0.00057657144 -0.003138861 -0.0018260882 0.004944485 -0.00038142837 -0.0010429145
0.00072688085 -4.4132944e-06 0.00464294 0.0 0.0 0.0 0.0 0.0
0.0 0.0 0.0 0.0 0.0 0.0 0.0 0.0
0.0 0.0 0.0 0.0 0.0 0.0 0.0 0.0
0.0 0.0 0.0 0.0 0.0 0.0 0.0 0.0
0.0 0.0 0.0 0.0 0.0 0.0 0.0 0.0
0.0 0.0 0.0 0.0 0.0 0.0 0.0 0.0
0.0 0.0 0.0 0.0 0.0 0.0 0.0 0.0
0.0 0.0 0.0 0.0 0.0 0.0 0.0 0.0
0.0 0.0 0.0 0.0 0.0 0.0 0.0 0.0
0.0 0.0 0.0 0.0 0.0 0.0 0.0 0.0
0.0 0.0 0.0 0.0 0.0 0.0 0.0 -0.0008448304
0.0007628956 -0.0007028211 -0.000437189 0.00043264448 0.0029270148 0.0011939633 -0.0028838613 -0.00036700073
0.0012430332 -0.00030395668 0.0035226773 0.0016777685 0.0006460333 -0.00303165 -0.0013730404 0.0053942157
0.0026874612 0.007175622 -0.008729543 -0.009434178 0.0075505646 -0.0007874401 0.0009608239 0.0010143521
-0.0035627892 0.0039235745 0.0 0.0 0.0 0.0 0.0 0.0
0.0 0.0 0.0 0.0 0.0 0.0 0.0 0.0
0.0 0.0 0.0 0.0 0.0 0.0 0.0 0.0
0.0 0.0 0.0 0.0 0.0 0.0 0.0 0.0
0.0 0.0 0.0 0.0 0.0 0.0 0.0 0.0
0.0 0.0 0.0 0.0 0.0 0.0 0.0 0.0
0.0 0.0 0.0 0.0 0.0 0.0 0.0 0.0
0.0 0.0 0.0 0.0 0.0 0.0 0.0 0.0
0.0 0.0 0.0 0.0 0.0 0.0 0.0 0.0
0.0 0.0 0.0 0.0 0.0 0.0 0.0 0.0
0.0 0.0 0.0 0.0 0.0 0.0 0.00013490485 0.0005510851
0.00016040722 0.0003408645 -0.0023666776 -0.0058733886 2.909694e-05 0.0027818065 -0.0008675901 -0.00075784913
-0.0006813445 -0.0010275729 0.0025476473 0.002412976 0.0019851706 0.001659154 -0.0067948373 -0.008967004
-0.0016329743 -0.0028326744 0.0026376296 0.010112659 -0.0005891106 -0.0015575424 0.0014972112 -0.0076875384
0.0003904654 0.0 0.0 0.0 0.0 0.0 0.0 0.0
00000000: 6e64 a53a 3d91 333b eb48 22ba aaa2 8d39
00000010: 5330 bbba 6a47 3cba 4d4c 6b3b 6539 b8b8
00000020: 616f d6ba 9c1d e23a 0a2b c0ba b682 d238
00000030: 0151 433b fdfd e63b 0f7a 7939 beff b639
00000040: a531 cbbb e743 82bb 0e25 17ba 59b5 4dbb
00000050: 5a59 efba 5905 a23b 73fa c7b9 67b2 88ba
00000060: 268c 3e3a e915 94b6 ce23 983b 0000 0000
00000070: 0000 0000 0000 0000 0000 0000 0000 0000
00000080: 0000 0000 0000 0000 0000 0000 0000 0000
00000090: 0000 0000 0000 0000 0000 0000 0000 0000
000000a0: 0000 0000 0000 0000 0000 0000 0000 0000
000000b0: 0000 0000 0000 0000 0000 0000 0000 0000
000000c0: 0000 0000 0000 0000 0000 0000 0000 0000
000000d0: 0000 0000 0000 0000 0000 0000 0000 0000
000000e0: 0000 0000 0000 0000 0000 0000 0000 0000
000000f0: 0000 0000 0000 0000 0000 0000 0000 0000
00000100: 0000 0000 0000 0000 0000 0000 0000 0000
00000110: 0000 0000 0000 0000 0000 0000 0000 0000
00000120: 0000 0000 0000 0000 0000 0000 0000 0000
00000130: 0000 0000 0000 0000 0000 0000 0000 0000
00000140: 0000 0000 0000 0000 0000 0000 0000 0000
00000150: 0000 0000 0000 0000 0000 0000 0000 0000
00000160: 0000 0000 0000 0000 0000 0000 0000 0000
00000170: 0000 0000 0000 0000 0000 0000 0000 0000
00000180: 0000 0000 0000 0000 0000 0000 0000 0000
00000190: 0000 0000 0000 0000 0000 0000 0000 0000
000001a0: 0000 0000 0000 0000 0000 0000 0000 0000
000001b0: 0000 0000 0000 0000 0000 0000 9c77 5dba
000001c0: 0ffd 473a 873d 38ba 8436 e5b9 8fd4 e239
000001d0: 29d3 3f3b c37e 9c3a 2aff 3cbb 016a c0b9
000001e0: 46ed a23a 605c 9fb9 b8dc 663b 92e8 db3a
000001f0: 905a 293a a6ae 46bb 97f7 b3ba f6c1 b03b
00000200: 1e20 303b 7b21 eb3b 5b06 0fbc cf91 1abc
00000210: ba6a f73b 366c 4eba cddf 7b3a 02f4 843a
00000220: af7d 69bb 5491 803b 0000 0000 0000 0000
00000230: 0000 0000 0000 0000 0000 0000 0000 0000
00000240: 0000 0000 0000 0000 0000 0000 0000 0000
00000250: 0000 0000 0000 0000 0000 0000 0000 0000
00000260: 0000 0000 0000 0000 0000 0000 0000 0000
00000270: 0000 0000 0000 0000 0000 0000 0000 0000
00000280: 0000 0000 0000 0000 0000 0000 0000 0000
00000290: 0000 0000 0000 0000 0000 0000 0000 0000
000002a0: 0000 0000 0000 0000 0000 0000 0000 0000
000002b0: 0000 0000 0000 0000 0000 0000 0000 0000
000002c0: 0000 0000 0000 0000 0000 0000 0000 0000
000002d0: 0000 0000 0000 0000 0000 0000 0000 0000
000002e0: 0000 0000 0000 0000 0000 0000 0000 0000
000002f0: 0000 0000 0000 0000 0000 0000 0000 0000
00000300: 0000 0000 0000 0000 0000 0000 0000 0000
00000310: 0000 0000 0000 0000 0000 0000 0000 0000
00000320: 0000 0000 0000 0000 0000 0000 0000 0000
00000330: 0000 0000 0000 0000 0000 0000 0000 0000
00000340: 0000 0000 0000 0000 0000 0000 0000 0000
00000350: 0000 0000 0000 0000 0000 0000 0000 0000
00000360: 0000 0000 0000 0000 0000 0000 0000 0000
00000370: 0000 0000 0000 0000 3f75 0d39 b276 103a
00000380: fc32 2839 0fb6 b239 431a 1bbb 8e75 c0bb
00000390: 3415 f437 f84e 363b fc6e 63ba 65aa 46ba
000003a0: 419c 32ba a0af 86ba 6ef6 263b 0523 1e3b
000003b0: a319 023b f877 d93a 3aa7 debb 57ea 12bc
000003c0: 8609 d6ba 64a4 39bb 15dc 2c3b 91af 253c
000003d0: 8b6e 1aba 7326 ccba 123e c43a bfe7 fbbb
000003e0: 61b7 cc39 0000 0000 0000 0000 0000 0000
000003f0: 0000 0000 0000 0000 0000 0000 0000 0000

exp_avg_sq f4 [64, 111]
2.1572054e-05 4.4598906e-05 1.8330835e-06 2.8325094e-06 1.8070774e-05 2.5744474e-05 2.2900787e-05 3.3863984e-05
1.4168099e-05 2.3970328e-05 1.4088739e-05 3.5031073e-05 2.8567927e-05 0.0007712266 6.3857726e-05 0.000110487475
0.000119839504 0.00013230059 7.7430595e-05 0.00028527057 0.0001261046 0.000669436 1.8158566e-05 0.0002510591
2.8101626e-05 0.00064320845 0.0001915289 0.0 0.0 0.0 0.0 0.0
0.0 0.0 0.0 0.0 0.0 0.0 0.0 0.0
0.0 0.0 0.0 0.0 0.0 0.0 0.0 0.0
0.0 0.0 0.0 0.0 0.0 0.0 0.0 0.0
0.0 0.0 0.0 0.0 0.0 0.0 0.0 0.0
0.0 0.0 0.0 0.0 0.0 0.0 0.0 0.0
0.0 0.0 0.0 0.0 0.0 0.0 0.0 0.0
0.0 0.0 0.0 0.0 0.0 0.0 0.0 0.0
0.0 0.0 0.0 0.0 0.0 0.0 0.0 0.0
0.0 0.0 0.0 0.0 0.0 0.0 0.0 0.0
0.0 0.0 0.0 0.0 0.0 0.0 0.0 2.4814191e-05
4.3875698e-05 2.3158238e-06 3.7749141e-06 1.5392196e-05 2.7720758e-05 1.8892293e-05 4.014413e-05 1.3891893e-05
1.9827592e-05 1.419766e-05 4.0393203e-05 2.4620305e-05 0.0007739905 6.7750916e-05 0.00011425125 0.00012875709
0.00012270668 7.977327e-05 0.00025662757 0.00011617712 0.00047443135 3.4839242e-05 0.00019249428 3.979792e-05
0.00044238762 0.00026756633 0.0 0.0 0.0 0.0 0.0 0.0
0.0 0.0 0.0 0.0 0.0 0.0 0.0 0.0
0.0 0.0 0.0 0.0 0.0 0.0 0.0 0.0
0.0 0.0 0.0 0.0 0.0 0.0 0.0 0.0
0.0 0.0 0.0 0.0 0.0 0.0 0.0 0.0
0.0 0.0 0.0 0.0 0.0 0.0 0.0 0.0
0.0 0.0 0.0 0.0 0.0 0.0 0.0 0.0
0.0 0.0 0.0 0.0 0.0 0.0 0.0 0.0
0.0 0.0 0.0 0.0 0.0 0.0 0.0 0.0
0.0 0.0 0.0 0.0 0.0 0.0 0.0 0.0
0.0 0.0 0.0 0.0 0.0 0.0 1.649328e-05 7.336424e-05
2.0543446e-06 1.8374677e-06 2.2724224e-05 3.9217855e-05 1.7536575e-05 4.7167203e-05 2.2111506e-05 3.7389924e-05
2.10328e-05 4.686476e-05 7.27278e-05 0.0013966118 0.00012476053 0.00022084861 0.00022709214 0.0003556632
0.00014779455 0.0005009053 6.93529e-05 0.0015220164 8.205761e-05 0.00050719205 3.358486e-05 0.0013881323
0.000539534 0.0 0.0 0.0 0.0 0.0 0.0 0.0
00000000: a2f5 b437 b60f 3b38 4508 f635 2416 3e36
00000010: b196 9737 d6f5 d737 111b c037 2d09 0e38
00000020: 86b3 6d37 e313 c937 ac5e 6c37 54ee 1238
00000030: 28a5 ef37 242c 4a3a 5beb 8538 83b5 e738
00000040: 5852 fb38 2bba 0a39 3c62 a238 5e90 9539
00000050: f23a 0439 177d 2f3a 3953 9837 95a0 8339
00000060: c8bb eb37 fd9c 283a 26d5 4839 0000 0000
00000070: 0000 0000 0000 0000 0000 0000 0000 0000
00000080: 0000 0000 0000 0000 0000 0000 0000 0000
00000090: 0000 0000 0000 0000 0000 0000 0000 0000
000000a0: 0000 0000 0000 0000 0000 0000 0000 0000
000000b0: 0000 0000 0000 0000 0000 0000 0000 0000
000000c0: 0000 0000 0000 0000 0000 0000 0000 0000
000000d0: 0000 0000 0000 0000 0000 0000 0000 0000
000000e0: 0000 0000 0000 0000 0000 0000 0000 0000
000000f0: 0000 0000 0000 0000 0000 0000 0000 0000
00000100: 0000 0000 0000 0000 0000 0000 0000 0000
00000110: 0000 0000 0000 0000 0000 0000 0000 0000
00000120: 0000 0000 0000 0000 0000 0000 0000 0000
00000130: 0000 0000 0000 0000 0000 0000 0000 0000
00000140: 0000 0000 0000 0000 0000 0000 0000 0000
00000150: 0000 0000 0000 0000 0000 0000 0000 0000
00000160: 0000 0000 0000 0000 0000 0000 0000 0000
00000170: 0000 0000 0000 0000 0000 0000 0000 0000
00000180: 0000 0000 0000 0000 0000 0000 0000 0000
00000190: 0000 0000 0000 0000 0000 0000 0000 0000
000001a0: 0000 0000 0000 0000 0000 0000 0000 0000
000001b0: 0000 0000 0000 0000 0000 0000 1228 d037
000001c0: 2c07 3838 8d69 1b36 8854 7d36 7d1e 8137
000001d0: e089 e837 e47a 9e37 6e60 2838 3a11 6937
000001e0: 6e53 a637 7c32 6e37 df6b 2938 b487 ce37
000001f0: a0e5 4a3a 7f15 8e38 2c9a ef38 f802 0739
00000200: d3aa 0039 f34b a738 f88b 8639 1ea4 f338
00000210: 19bd f839 5a20 1238 4ad8 4939 b1ec 2638
00000220: 43f0 e739 2548 8c39 0000 0000 0000 0000
00000230: 0000 0000 0000 0000 0000 0000 0000 0000
00000240: 0000 0000 0000 0000 0000 0000 0000 0000
00000250: 0000 0000 0000 0000 0000 0000 0000 0000
00000260: 0000 0000 0000 0000 0000 0000 0000 0000
00000270: 0000 0000 0000 0000 0000 0000 0000 0000
00000280: 0000 0000 0000 0000 0000 0000 0000 0000
00000290: 0000 0000 0000 0000 0000 0000 0000 0000
000002a0: 0000 0000 0000 0000 0000 0000 0000 0000
000002b0: 0000 0000 0000 0000 0000 0000 0000 0000
000002c0: 0000 0000 0000 0000 0000 0000 0000 0000
000002d0: 0000 0000 0000 0000 0000 0000 0000 0000
000002e0: 0000 0000 0000 0000 0000 0000 0000 0000
000002f0: 0000 0000 0000 0000 0000 0000 0000 0000
00000300: 0000 0000 0000 0000 0000 0000 0000 0000
00000310: 0000 0000 0000 0000 0000 0000 0000 0000
00000320: 0000 0000 0000 0000 0000 0000 0000 0000
00000330: 0000 0000 0000 0000 0000 0000 0000 0000
00000340: 0000 0000 0000 0000 0000 0000 0000 0000
00000350: 0000 0000 0000 0000 0000 0000 0000 0000
00000360: 0000 0000 0000 0000 0000 0000 0000 0000
00000370: 0000 0000 0000 0000 0d5b 8a37 20db 9938
00000380: 5fdd 0936 e99e f635 e69f be37 da7d 2438
00000390: 821b 9337 66d5 4538 197c b937 20d3 1c38
000003a0: 986f b037 a790 4438 7185 9838 840e b73a
000003b0: 26d2 0239 9993 6739 951f 6e39 4e78 ba39
000003c0: 4cf9 1a39 304f 033a 8e71 9138 657e c73a
000003d0: 5816 ac38 15f5 043a 78dd 0c38 fef1 b53a
000003e0: 846f 0d3a 0000 0000 0000 0000 0000 0000
000003f0: 0000 0000 0000 0000 0000 0000 0000 0000
