drl/ran2/Ant90000_ran2_weights.pth (torch, 292784 bytes, 36 tensors)

log_std f4 [1, 8]
-1.5357785 -2.007906 -1.3255503 -1.6203438 -1.5451573 -1.7826176 -1.5134572 -1.6842194
00000000: 6494 c4bf 8881 00c0 a2ab a9bf 6d67 cfbf
00000010: b7c7 c5bf d02c e4bf f7b8 c1bf 8094 d7bf

fc1.weight f4 [64, 111]
-0.35870335 -0.05192358 0.12342745 -0.047968652 0.118368104 -0.13776267 0.027057078 0.06034098
0.037716568 0.016631093 -0.25472894 -0.23605461 0.08080695 -0.089510895 0.0027753958 0.044426873
0.05578108 0.0113441115 -0.070258155 -0.038178064 -0.085504696 -0.0126117915 -0.19283442 -0.011478763
-0.02556974 -0.003070537 0.13445935 -0.007791511 -0.034695953 0.056769438 -0.06900812 -0.024754101
0.06750601 0.094654165 0.116563104 -0.17333615 -0.116805494 0.009880112 0.08167458 -0.0754959
-0.14210315 0.09653318 -0.012955543 -0.14053504 0.039643902 0.017880451 0.09907145 -0.0030286445
-0.031915832 -0.13422713 -0.0986604 0.028764538 -0.095582075 -0.05567561 0.06744774 0.01865231
-0.054841746 0.017509993 -0.20823483 -0.038617138 0.08164473 -0.0072367457 0.114925005 -0.11166557
0.015404698 0.17266017 -0.27381602 -0.018573742 0.08292072 0.045017265 0.056179937 -0.10840436
0.0485582 -0.0944305 -0.033283427 0.06672744 0.03566428 0.0253633 -0.08033475 0.06265204
0.033814237 -0.0062516457 0.015303888 0.03234271 0.2078293 -0.12379017 -0.012662644 0.12517343
-0.06809961 -0.06350179 0.06374925 0.05202433 -0.022890676 0.13769273 -0.16256693 0.13295528
-0.00035645542 0.0860497 -0.005974742 -0.1401145 -0.10596994 -0.03743048 0.099702515 0.15004446
-0.026453504 -0.16842665 -0.04930465 0.013555835 0.11235863 -0.016593821 0.053479962 -0.0842007
-0.060267456 -0.662127 0.0758621 -0.25773057 0.012752234 -0.16780491 0.18809852 0.07895437
-0.08729528 0.011750626 -0.148638 -0.0808286 -0.05243896 -0.0019828617 -0.13548762 -0.015776565
0.03771027 -0.013463823 -0.085884854 -0.07704046 0.0911007 0.034131907 -0.1605963 0.071531326
-0.05673659 -0.07627382 -0.11657074 -0.00066049065 -0.06652913 -0.057159927 0.025817506 0.051236734
-0.13591032 -0.057719786 0.0975515 -0.10133125 -0.038597915 0.1680809 -0.059719175 -0.039446983
-0.08748309 -0.04450521 0.22466932 0.17317238 0.03858966 -0.09562479 -0.106398255 -0.16580851
0.063220404 -0.062119074 0.031688605 -0.020121159 0.110400334 -0.05961324 -0.02372453 0.19603951
0.24343407 0.057757493 -0.0587891 0.07133382 -0.061221518 0.0474649 0.17703475 -0.037319347
-0.030486545 -0.16142456 -0.005817401 0.022061879 0.05821295 0.02391662 0.2657637 0.10560833
0.012400558 0.017755393 -0.006800742 -0.06435123 -0.053520713 -0.006323616 0.17159422 0.004974091
0.059477307 0.03846698 -0.11464971 -0.13777499 -0.08426107 0.07474795 -0.011021227 0.09219387
0.06261686 -0.038727954 -0.038466405 0.021556528 0.083806306 0.028953047 0.15719381 0.028292691
0.15193848 0.04856585 -0.045423027 0.16819157 -0.00035607637 -0.025414364 0.053540044 0.004392755
-0.076920815 0.038756616 0.020872656 -0.00936038 0.05181312 -0.058585856 -0.07551513 -0.13861512
0.059800785 0.039947398 0.57076454 0.102384485 -0.2657918 0.27802497 0.16991825 0.11467503
0.30848163 -0.30721143 -0.027134702 -0.042431697 -0.037326235 -0.04562681 -0.028788256 0.04172829
0.0011221142 0.077613294 -0.034374144 0.01958594 0.015102111 0.045597374 -0.02318881 -0.17801462
0.07063677 0.03615233 0.054284118 -0.005929872 0.024806075 -0.1222957 -0.023982398 0.035926133
00000000: f7a7 b7be d2ad 54bd 88c7 fc3d c77a 44bd
00000010: fa6a f23d a811 0dbe cea6 dd3c 1a28 773d
00000020: b07c 1a3d ee3d 883c d56b 82be 4db8 71be
00000030: 1d7e a53d 7d51 b7bd 6ae3 353b f4f8 353d
00000040: b47a 643d a7dc 393c 82e3 8fbd 9a60 1cbd
00000050: 161d afbd b0a1 4ebc 6376 45be 6c11 3cbc
00000060: a277 d1bc 103b 49bb b6af 093e ee4f ffbb
00000070: 581d 0ebd 1287 683d 2154 8dbd 1dc9 cabc
00000080: 9740 8a3d 0bda c13d a3b8 ee3d 087f 31be
00000090: b837 efbd 31e0 213c 0145 a73d 989d 9abd
000000a0: 7d83 11be 30b3 c53d 7c43 54bc 6be8 0fbe
000000b0: a561 223d 067a 923c f9e5 ca3d 397c 46bb
000000c0: 2dba 02bd d672 09be 770e cabd 9ca3 eb3c
000000d0: 89c0 c3bd 1c0c 64bd 0a22 8a3d bbcc 983c
000000e0: bda1 60bd 1e71 8f3c 833b 55be 012d 1ebd
000000f0: 5a35 a73d 3922 edbb cd5d eb3d ebb0 e4bd
00000100: fd63 7c3c d4cd 303e 9d31 8cbe f627 98bc
00000110: 57d2 a93d 0664 383d ef1c 663d 1b03 debd
00000120: f7e4 463d c764 c1bd 3454 08bd 65a8 883d
00000130: b514 123d b2c6 cf3c 8c86 a4bd b64f 803d
00000140: cc80 0a3d 9bda ccbb 29bd 7a3c ca79 043d
00000150: 34d1 543e b385 fdbd fa76 4fbc 772d 003e
00000160: cf77 8bbd 3a0d 82bd f78e 823d 7717 553d
00000170: 3a85 bbbc 53ff 0c3e f277 26be 6e25 083e
00000180: a3e2 bab9 d33a b03d c5c7 c3bb 2d7a 0fbe
00000190: c506 d9bd b450 19bd d530 cc3d 41a5 193e
000001a0: 05b5 d8bc 0978 2cbe acf3 49bd 4b19 5e3c
000001b0: 481c e63d c4ef 87bc ce0d 5b3d 6b71 acbd
000001c0: 02db 76bd 2881 29bf 975d 9b3d 43f5 83be
000001d0: bfee 503c 0dd5 2bbe e69c 403e d4b2 a13d
000001e0: dec7 b2bd b385 403c 8f34 18be 7789 a5bd
000001f0: 3cca 56bd e6f2 01bb 44bd 0abe db3d 81bc
00000200: 1676 1a3d 5e97 5cbc 66e4 afbd 64c7 9dbd
00000210: 0193 ba3d e6cd 0b3d 5b73 24be 047f 923d
00000220: a064 68bd 7335 9cbd a4bc eebd c724 2dba
00000230: 6d40 88bd 8720 6abd 3c7f d33c 9cdd 513d
00000240: 132c 0bbe 956b 6cbd 15c9 c73d c286 cfbd
00000250: d918 1ebd 661d 2c3e 189c 74bd 2993 21bd
00000260: 562a b3bd 184b 36bd b70f 663e 1a54 313e
00000270: 3110 1e3d eed6 c3bd 54e7 d9bd b5c9 29be
00000280: b379 813d 9270 7ebd e9cb 013d 21d5 a4bc
00000290: 9219 e23d 032d 74bd f259 c2bc 95be 483e
000002a0: c846 793e 1f93 6c3d d7cc 70bd 7717 923d
000002b0: 6ac3 7abd 8e6a 423d 9948 353e 2cdc 18bd
000002c0: ebbe f9bc 7b4c 25be e69f bebb 1dbb b43c
000002d0: b470 6e3d caec c33c 2e12 883e 2e49 d83d
000002e0: b62b 4b3c c273 913c c2d8 debb 94ca 83bd
000002f0: 8938 5bbd 5636 cfbb 65b6 2f3e b3fd a23b
00000300: 7a9e 733d 8d8f 1d3d 78cd eabd e314 0dbe
00000310: 1191 acbd 7415 993d 6092 34bc 24d0 bc3d
00000320: 453d 803d 34a1 1ebd f38e 1dbd 5197 b03c
00000330: a4a2 ab3d f12e ed3c 6af7 203e 13c6 e73c
00000340: c395 1b3e fcec 463d 7f0d 3abd 693a 2c3e
00000350: c3af bab9 c931 d0bc ce4c 5b3d 1af1 8f3b
00000360: a988 9dbd 42bf 1e3d 22fd aa3c 475c 19bc
00000370: fe39 543d b9f7 6fbd ada7 9abd 1ff1 0dbe
00000380: abf1 743d e29f 233d a01d 123f f5ae d13d
00000390: dd15 88be 4a59 8e3e 0dff 2d3e beda ea3d
000003a0: 4ef1 9d3e d14a 9dbe 9849 debc dccc 2dbd
000003b0: 65e3 18bd 2ee3 3abd 59d5 ebbc 49eb 2a3d
000003c0: e813 933a b8f3 9e3d e7cb 0cbd b172 a03c
000003d0: d86e 773c 50c4 3a3d 76f6 bdbc 7749 36be
000003e0: 03aa 903d 7714 143d 0659 5e3d 5f4f c2bb
000003f0: 1c36 cb3c 2b76 fabd bc76 c4bc 4827 133d

fc1.bias f4 [64]
-0.013266474 -0.038042307 -0.149887 -0.11152241 -0.16555978 -0.008980793 0.02509797 0.06303153
-0.08041435 -0.03853761 0.013475581 -0.09157823 -0.06591539 0.0030249488 0.016335523 0.09466362
-0.06365494 -0.053562228 0.06250765 0.10054687 0.18102527 -0.036104508 -0.09888716 0.08570755
0.10607305 0.13518004 0.039031047 -0.037429683 -0.02489252 0.0041206856 -0.023387205 -0.07106376
-0.04780125 0.010039649 0.034188382 -0.0076290923 0.09160627 0.007227531 0.033601977 0.10012285
-0.02115293 0.08301514 0.009152731 -0.014810685 -0.039424352 0.1827402 -0.09626854 0.052325416
-0.03485305 0.099446 -0.22161719 0.15581265 -0.15328199 0.02493267 0.018361917 0.1719085
0.005364302 0.037878837 0.02256801 -0.006060662 -0.030063536 0.04851516 0.027281363 -0.22564219
00000000: a05b 59bc 40d2 1bbd fa7b 19be dc65 e4bd
00000010: 8188 29be 2d24 13bc 429a cd3c ad16 813d
00000020: 47b0 a4bd 9dd9 1dbd afc8 5c3c 5e8d bbbd
00000030: a6fe 86bd 383e 463b 13d2 853c 00df c13d
00000040: 855d 82bd 1164 5bbd 0304 803d 84eb cd3d
00000050: b05e 393e 52e2 13bd 5a85 cabd 7187 af3d
00000060: d43c d93d a36c 0a3e 05df 1f3d de4f 19bd
00000070: 66eb cbbc d106 873b 8696 bfbc e089 91bd
00000080: 3ecb 43bd 577d 243c 1e09 0c3d 77fd f9bb
00000090: 119c bb3d edd4 ec3b 3aa2 093d 350d cd3d
000000a0: e948 adbc d703 aa3d 56f5 153c 84a8 72bc
000000b0: 6e7b 21bd 3f20 3b3e 7128 c5bd 2d53 563d
000000c0: 12c2 0ebd 58aa cb3d 9eef 62be 5a8d 1f3e
000000d0: f4f5 1cbe 993f cc3c bb6b 963c c808 303e
000000e0: 07c7 af3b d726 1b3d 8ce0 b83c 8598 c6bb
000000f0: ce47 f6bc d5b7 463d 2a7d df3c bf0e 67be

fc2.weight f4 [64, 64]
0.075204246 -0.062257618 -0.16647276 -0.03852502 0.18985397 -0.017349668 0.2741438 -0.06870321
0.065180406 0.29330105 0.011702996 0.07944562 -0.1409677 -0.36191276 0.040281966 -0.054956906
0.25538534 -0.06332371 0.10526004 -0.12378493 -0.0072612297 -0.07217343 -0.18143208 0.07022972
0.066047564 0.26045987 -0.051211502 0.08066154 -0.16837132 -0.059115928 -0.05776029 -0.24506477
0.039105527 0.14220624 0.011272746 -0.048354283 0.08713726 0.080885135 0.36896086 -0.11236313
0.24295962 0.02185057 -0.10292007 0.22440057 0.14704292 -0.086803116 0.20676707 -0.09961218
0.11455011 -0.074846484 0.11206322 0.093539566 0.040002923 -0.28477216 -0.123948656 0.01962276
-0.041292816 -0.21668749 0.24805057 -0.20493841 -0.043290205 -0.24074171 -0.16710795 0.07548716
0.019128215 0.44547927 -0.27021977 0.16266796 0.008206156 -0.07259978 0.30712882 0.16037576
0.105131626 0.1453128 -0.001180402 -0.082263485 -0.17322204 -0.0017224132 0.09792238 0.088069424
-0.13761815 -0.13204472 0.0548459 -0.18684906 0.014772517 -0.123464085 0.030985784 0.038187772
-0.09804596 -0.16756287 -0.004171351 -0.106817394 -0.013423636 -0.060963366 0.104035944 0.07232583
-0.13320771 -3.3041248e-05 -0.097486444 -0.070732996 0.1582181 0.13878365 0.06670133 -0.18863703
-0.021255707 -0.020496843 0.10672022 -0.14969358 -0.0016865815 -0.018403582 -0.13779794 -0.13033466
0.015082463 -0.10430285 0.028593177 0.076869376 0.04568764 -0.12506531 -0.11444544 -0.05708947
0.34273782 0.15253608 -0.026596043 0.10337137 0.049332935 -0.062070042 -0.114531994 0.26043496
-0.2320962 -0.035844237 -0.11359629 -0.05327843 0.011655178 0.08209635 -0.022542756 -0.1000001
-0.10713525 0.14747316 -0.110263065 -0.1400782 0.040431473 0.11172984 0.036628567 0.04551908
-0.27709857 -0.15801646 0.506482 0.0016508715 0.09037912 -0.18699607 -0.07322393 -0.054594915
0.19254296 0.074626654 0.08071712 -0.13564089 0.005127432 -0.05482643 0.0740984 0.055947553
0.082468644 0.14321224 0.06272909 -0.018051147 -0.18190704 -0.034939513 -2.6043337e-05 -0.29504228
0.0002722303 0.24927981 -0.2878449 -0.0669874 0.22061577 -0.15416583 0.17539181 0.24006993
-0.017002638 0.05942955 -0.10374877 -0.07567115 -0.09141037 0.060974255 0.055391155 -0.017900275
-0.24654411 0.044334833 0.0496385 0.082253255 0.14405163 0.19184114 -0.13761954 -0.09633819
0.0075313738 0.01227988 -0.015177324 -0.21046749 -0.2886005 0.050764207 -0.112005204 -0.0061484417
0.19228958 0.31542286 -0.023086337 0.27556735 -0.22615132 0.068456255 0.31114128 -0.045553304
0.010638309 0.04850814 -0.030420506 -0.31717646 0.042347573 0.06333046 0.07031973 -0.14568077
-0.033968203 0.18709992 0.021045145 -0.37368238 -0.26262197 0.037561014 -0.040553946 -0.049469974
0.08684613 -0.0286967 -0.065293826 0.22643386 -0.105181284 0.14429188 -0.027360922 -0.13008767
0.015321522 -0.05670659 -0.21902154 0.08668138 0.2807526 0.08889357 -0.1649373 0.00864637
-0.24774197 0.08977516 0.1321507 0.018549915 0.005447446 -0.13349566 0.15827966 -0.04391709
0.008468551 -0.09789186 0.37687683 -0.092693806 -0.29944658 -0.29947877 -0.08356502 -0.03663054
00000000: af04 9a3d d801 7fbd d677 2abe 69cc 1dbd
00000010: 1469 423e e420 8ebc 935c 8c3e 45b4 8cbd
00000020: 4e7d 853d 8e2b 963e ecbd 3f3c 63b4 a23d
00000030: d659 10be a14c b9be b4fe 243d 7e1a 61bd
00000040: dec1 823e dcaf 81bd 9392 d73d f482 fdbd
00000050: 9cef edbb aacf 93bd 55c9 39be 99d4 8f3d
00000060: f243 873d ff5a 853e 27c3 51bd e131 a53d
00000070: 8869 2cbe 8b23 72bd 0e96 6cbd 42f2 7abe
00000080: 1e2d 203d 839e 113e 53b1 383c 240f 46bd
00000090: 0575 b23d 1ba7 a53d 70e8 bc3e a41e e6bd
000000a0: 68ca 783e f7ff b23c c2c7 d2bd 43c9 653e
000000b0: 6b92 163e d5c5 b1bd bfba 533e 7801 ccbd
000000c0: 4099 ea3d 1d49 99bd 6781 e53d ac91 bf3d
000000d0: 1bda 233d a8cd 91be cbd8 fdbd e9bf a03c
000000e0: a822 29bd 53e3 5dbe f800 7e3e 60db 51be
000000f0: 1251 31bd ff84 76be 591e 2bbe 0399 9a3d
00000100: c6b2 9c3c dc15 e43e 3f5a 8abe 6e92 263e
00000110: 1d73 063c 32af 94bd fd3f 9d3e 8b39 243e
00000120: 404f d73d e1cc 143e b8b7 9aba c279 a8bd
00000130: 1e61 31be 99c2 e1ba 878b c83d be5d b43d
00000140: c6eb 0cbe bb36 07be 18a6 603d 5c55 3fbe
00000150: 6d08 723c bdda fcbd e6d5 fd3c c86a 1c3d
00000160: 52cc c8bd 9a95 2bbe d4af 88bb 14c3 dabd
00000170: cfee 5bbc b9b4 79bd cc10 d53d 911f 943d
00000180: 9a67 08be c595 0ab8 f9a6 c7bd 76dc 90bd
00000190: ed03 223e 4d1d 0e3e b59a 883d 112a 41be
000001a0: 7320 aebc ffe8 a7bc 2190 da3d 4649 19be
000001b0: 4910 ddba 1cc3 96bc e71a 0dbe 7376 05be
000001c0: 6f1c 773c bc9c d5bd 3d3c ea3c b16d 9d3d
000001d0: f622 3b3d 1f11 00be 5f62 eabd a6d6 69bd
000001e0: 557b af3e 6b32 1c3e f2df d9bc 5eb4 d33d
000001f0: 5511 4a3d 283d 7ebd c08f eabd bb57 853e
00000200: a0aa 6dbe 68d1 12bd 2ca5 e8bd 7c3a 5abd
00000210: 5cf5 3e3c 2222 a83d 96ab b8bc dacc ccbd
00000220: ba69 dbbd 3403 173e 9ad1 e1bd a970 0fbe
00000230: 799b 253d 9dd2 e43d d607 163d 3772 3a3d
00000240: dddf 8dbe 11cf 21be cea8 013f 0e62 d83a
00000250: b018 b93d e67b 3fbe 6ef6 95bd eb9e 5fbd
00000260: fb29 453e dcd5 983d 044f a53d 72e5 0abe
00000270: 0404 a83b ae91 60bd e7c0 973d 4329 653d
00000280: 52e5 a83d 3ba6 123e 1c78 803d 00e0 93bc
00000290: d745 3abe bc1c 0fbd a477 dab7 c80f 97be
000002a0: 22ba 8e39 3543 7f3e 6860 93be b130 89bd
000002b0: 1ae9 613e a6dd 1dbe e999 333e e4d4 753e
000002c0: 1e49 8bbc 666c 733d 3c7a d4bd 7af9 9abd
000002d0: 5c35 bbbd 24c0 793d d6e1 623d 99a3 92bc
000002e0: 0f76 7cbe 7198 353d bd51 4b3d 6574 a83d
000002f0: 4582 133e 0172 443e 23ec 0cbe f54c c5bd
00000300: bec9 f63b 8d31 493c 50aa 78bc ca84 57be
00000310: 72c3 93be 21ee 4f3d fc62 e5bd de78 c9bb
00000320: 8fe7 443e 1b7f a13e 8f1f bdbc 2a17 8d3e
00000330: 3694 67be cb32 8c3d e94d 9f3e 1a96 3abd
00000340: 4d4c 2e3c 79b0 463d 6d34 f9bc f464 a2be
00000350: a674 2d3d 66b3 813d ca03 903d 572d 15be
00000360: 3e22 0bbd 1f97 3f3e de66 ac3c 4c53 bfbe
00000370: 6376 86be 94d9 193d e51b 26bd 07a1 4abd
00000380: 62dc b13d 5815 ebbc c5b8 85bd 47de 673e
00000390: 4969 d7bd 40c1 133e 0324 e0bc b435 05be
000003a0: 1f07 7b3c 2b45 68bd 2f47 60be 0286 b13d
000003b0: cebe 8f3e d50d b63d 53e5 28be 81a9 0d3c
000003c0: 12b0 7dbe 0adc b73d 8352 073e fef5 973c
000003d0: 7d80 b23b 16b3 08be 1014 223e 68e2 33bd
000003e0: adbf 0a3c 877b c8bd 00f6 c03e 40d6 bdbd
000003f0: 1051 99be 4855 99be 2324 abbd e809 16bd

fc2.bias f4 [64]
0.01963907 -0.02884412 0.040698066 -0.11208636 -0.01723834 0.09120209 0.15931177 0.07251081
-0.021210868 0.0247688 -0.0028389434 -0.033287734 -0.008124387 0.052656703 0.06158716 0.15290636
0.08087282 0.14343518 -0.09290814 -0.09487179 -0.02598028 -0.012683275 0.002569669 0.038944114
-0.06892225 -0.03709255 -0.060893815 0.043732684 0.010527103 0.01912297 -0.03564998 0.013298113
0.052693322 0.020131277 0.033859942 0.04479619 0.03310888 -0.03140411 0.10913019 -0.03618458
-0.08412298 0.043725673 0.10296314 0.18396312 -0.034784075 -0.06500425 -0.03517002 0.07539768
0.029358428 0.070374675 0.0025671518 0.0075260983 0.036995627 -0.10042565 0.048234414 0.023794284
0.05330954 -0.13951528 0.054924395 0.116428755 -0.017127236 -0.075184286 0.15381207 0.049075942
00000000: 1de2 a03c 814a ecbc 04b3 263d 898d e5bd
00000010: 6b37 8dbc 29c8 ba3d a022 233e 8c80 943d
00000020: 6ac2 adbc f0e7 ca3c 910d 3abb b858 08bd
00000030: 261c 05bc 8eae 573d d142 7c3d 7c93 1c3e
00000040: a6a0 a53d ace0 123e 9f46 bebd 244c c2bd
00000050: 99d4 d4bc 83cd 4fbc e467 283b dd83 1f3d
00000060: 1c27 8dbd 5cee 17bd cb6b 79bd 0b21 333d
00000070: df79 2c3c c6a7 9c3c b705 12bd 54e0 593c
00000080: f4d4 573d 59ea a43c b9b0 0a3d 367c 373d
00000090: 2d9d 073d 99a1 00bd a67f df3d 4836 14bd
000000a0: ab48 acbd b119 333d 57de d23d d460 3c3e
000000b0: bf79 0ebd f320 85bd 700e 10bd 196a 9a3d
000000c0: 1681 f03c 9920 903d a93d 283b 7d9d f63b
000000d0: ba88 173d f7ab cdbd 7391 453d 3bec c23c
000000e0: 1b5b 5a3d 18dd 0ebe 67f8 603d 3372 ee3d
000000f0: 6b4e 8cbc 38fa 99bd e980 1d3e db03 493d

mu.weight f4 [8, 64]
0.03201989 0.08572125 -0.17940691 -0.02037246 -0.1376746 -0.069592565 0.1857984 0.19352195
0.062967025 -0.120017946 -0.106975675 -0.04200283 -0.040189862 0.18008654 -0.023427589 0.10028721
0.02222834 -0.15736723 -0.27568683 -0.3186442 -0.06853841 -0.09191758 0.027504709 0.06813203
-0.24411947 0.09088113 -0.13295259 -0.10578843 0.16810495 0.041390393 -0.009561994 0.104716755
-0.22215495 -0.06555052 0.13024907 -0.0778854 0.27103972 -0.20459123 0.10663224 -0.049520012
-0.021350626 -0.29840153 -0.16326903 -0.16730724 -0.38693863 -0.118780985 0.12684187 -0.4202632
0.18821941 0.088080965 -0.12829626 0.072661944 0.3304041 0.046823848 0.18594962 0.3229688
0.09827033 0.015673017 -0.22133933 0.0051800204 -0.035724986 -0.1798575 -0.15409534 0.02575067
-0.030903567 0.042703174 0.28800127 -0.01977755 -0.08482397 -0.17377885 0.031203728 0.019957108
-0.08131769 0.19646077 0.17726956 0.0023636827 -0.13960063 0.10087145 0.07653961 0.11459099
0.091735974 -0.055234563 -0.31722543 -0.0153896855 0.006835212 0.03288558 -0.25399938 -0.057610683
0.011867345 0.11204155 0.11293176 0.10632178 -0.014543955 0.03504967 0.077488 -0.28887254
-0.05719533 -0.074679755 -0.05018239 0.13844372 -0.10932876 0.11560758 -0.09677925 0.1677107
0.022889813 0.052228797 -0.033667482 -0.2846911 0.15381654 0.09855554 0.004138003 0.08399938
-0.13179357 0.018907497 -0.1918228 -0.013925747 -0.10235532 0.14597115 -0.00393465 0.026858462
-0.12062482 0.09901995 -0.122202836 0.24206601 0.15215275 0.13270831 -0.16107386 0.1743406
0.1714855 0.2671866 -0.18780884 0.12462459 0.07850917 0.1543923 -0.52586335 -0.1396272
-0.1331168 0.12180393 0.23286775 0.0749252 -0.025675423 0.10022084 -0.010375052 0.11304264
-0.0540563 -0.06501088 0.045267798 0.014003397 0.10506525 -0.08809712 -0.03366481 0.08193701
-0.0069513223 0.17972922 0.12455207 0.42831197 -0.11925627 -0.15359275 -0.21653563 0.022225212
-0.17845812 -0.22371815 -0.27594438 0.30713674 0.19268367 0.118976586 0.12404691 -0.16308194
0.015400869 -0.034140468 0.2533598 -0.3255293 0.110643476 0.027073413 0.20743562 -0.0059151994
0.16103631 0.05005815 0.22457536 -0.1804376 -0.034355745 -0.02406257 -0.072216615 -0.20914139
0.05205224 0.081862845 0.23822124 0.00645893 -0.072713725 0.07470752 0.118798874 -0.04491545
-0.22761609 0.124508984 0.100604765 0.17760877 -0.12768039 0.06373743 0.08631695 0.14689915
-0.008101962 0.10512929 -0.112083234 0.14059427 -0.08700321 0.06704303 -0.061095756 -0.13278288
-0.14878796 0.110923044 -0.03492842 -0.16705067 0.12099037 -0.08822585 -0.17072745 -0.02442651
0.06115076 -0.02628889 -0.04550237 0.0047551426 0.02686743 0.106243595 0.11427257 -0.033443835
-0.10002437 0.02611958 -0.09600776 -0.007348887 0.044605486 -0.007835499 0.08955117 0.07286627
-0.06929396 0.008915345 0.1057544 -0.06628599 -0.10216244 0.16889803 0.06851057 0.004157209
-0.003351033 -0.15317698 0.030288016 -0.029774128 -0.07388566 0.3419855 0.016830508 0.014974738
0.2899339 -0.019703561 -0.037179083 -0.28205746 -0.07713124 -0.03836473 0.106334984 0.14883806
00000000: 4a27 033d 9f8e af3d 72b6 37be 25e4 a6bc
00000010: 92fa 0cbe 8c86 8ebd f041 3e3e 9e2a 463e
00000020: dbf4 803d f8cb f5bd 1016 dbbd 290b 2cbd
00000030: 209e 24bd 9b68 383e 37eb bfbc 6163 cd3d
00000040: 3518 b63c e024 21be d326 8dbe 5525 a3be
00000050: de5d 8cbd 493f bcbd 8e51 e13c ce88 8b3d
00000060: 74fa 79be e31f ba3d b924 08be 9ba7 d8bd
00000070: b423 2c3e f988 293d e9a9 1cbc bd75 d63d
00000080: 967c 63be 5a3f 86bd 0360 053e 6182 9fbd
00000090: b8c5 8a3e 5d80 51be 0162 da3d 7fd5 4abd
000000a0: 82e7 aebc 16c8 98be ff2f 27be 9752 2bbe
000000b0: d21c c6be 7243 f3bd d6e2 013e bd2c d7be
000000c0: 97bc 403e cb63 b43d 1860 03be c9cf 943d
000000d0: ba2a a93e 5dca 3f3d 9469 3e3e 2b5c a53e
000000e0: f441 c93d b364 803c c7a6 62be 29bd a93b
000000f0: 5d54 12bd 912c 38be 2bcb 1dbe 12f3 d23c
00000100: 7a29 fdbc 86e9 2e3d e774 933e 8704 a2bc
00000110: 31b8 adbd 15f3 31be f69e ff3c 177d a33c
00000120: e489 a6bd 032d 493e 2786 353e 04e8 1a3b
00000130: 78f3 0ebe b195 ce3d cdc0 9c3d aeae ea3d
00000140: 12e0 bb3d a33d 62bd 5f6b a2be 0525 7cbc
00000150: eaf9 df3b 08b3 063d 350c 82be 2ef9 6bbd
00000160: 416f 423c 0a76 e53d c448 e73d 3cbf d93d
00000170: c549 6ebc 3e90 0f3d 07b2 9e3d 1ae7 93be
00000180: a645 6abd b3f1 98bd 0d8c 4dbd 31c4 0d3e
00000190: c2e7 dfbd abc3 ec3d 3334 c6bd 5bbc 2b3e
000001a0: 6b83 bb3c dded 553d eae6 09bd 08c3 91be
000001b0: 1582 1d3e 7dd7 c93d 1698 873b de07 ac3d
000001c0: e5f4 06be e5e3 9a3c 326d 44be d128 64bc
000001d0: aa9f d1bd 7679 153e 3dee 80bb 4706 dc3c
000001e0: 250a f7bd f9ca ca3d 7b45 fabd 27e0 773e
000001f0: eecd 1b3e b0e4 073e 8cf0 24be 5886 323e
00000200: e599 2f3e afcc 883e f650 40be 2d3b ff3d
00000210: 6ac9 a03d 0419 1e3e fb9e 06bf 6ffa 0ebe
00000220: c54f 08be 5774 f93d e274 6e3e 6272 993d
00000230: 4455 d2bc 9540 cd3d 1ffc 29bc e682 e73d
00000240: 246a 5dbd 6d24 85bd ba6a 393d 816e 653c
00000250: 732c d73d 436c b4bd 1de4 09bd 97ce a73d
00000260: ebc7 e3bb f00a 383e 2815 ff3d b54b db3e
00000270: a23c f4bd 6b47 1dbe 84bb 5dbe a611 b63c
00000280: babd 36be 5f16 65be 9548 8dbe 0741 9d3e
00000290: de4e 453e ffa9 f33d 4e0c fe3d f4fe 26be
000002a0: ed53 7c3c e0d6 0bbd 60b8 813e c7ab a6be
000002b0: 0c99 e23d 10c9 dd3c 016a 543e 4ad4 c1bb
000002c0: b4e6 243e c609 4d3d 15f7 653e a2c4 38be
000002d0: 9cb8 0cbd de1e c5bc 4ee6 93bd 2929 56be
000002e0: bb34 553d b5a7 a73d 45f0 733e 6fa5 d33b
000002f0: efea 94bd 4200 993d d34c f33d 43f9 37bd
00000300: 3114 69be 91fe fe3d df09 ce3d 13df 353e
00000310: a6be 02be c588 823d f1c6 b03d bb6c 163e
00000320: 17be 04bc 064e d73d e58b e5bd f2f7 0f3e
00000330: bd2e b2bd db4d 893d 8b3f 7abd 3cf8 07be
00000340: df5b 18be 9f2b e33d 1a11 0fbd 550f 2bbe
00000350: cdc9 f73d c1af b4bd 2dd3 2ebe 1b1a c8bc
00000360: 3879 7a3d cc5b d7bc b160 3abd 07d1 9b3b
00000370: 1619 dc3c 3e96 d93d bd07 ea3d 67fc 08bd
00000380: 94d9 ccbd bbf8 d53c b79f c4bd efce f0bb
00000390: 3eb4 363d 7760 00bc 9b66 b73d e93a 953d
000003a0: fee9 8dbd ab11 123c c395 d83d f3c0 87bd
000003b0: 8b3a d1bd 9bf3 2c3e 454f 8c3d 3239 883b
000003c0: 019d 5bbb 6dda 1cbe 931e f83c dfe8 f3bc
000003d0: 5d51 97bd b918 af3e 22e0 893c 9a58 753c
000003e0: 3772 943e 5d69 a1bc 1849 18bd d669 90be
000003f0: fcf6 9dbd 5624 1dbd 28c6 d93d 0169 183e

mu.bias f4 [8]
-0.0013565114 -0.09238795 -0.005272153 -0.046724126 0.051518757 0.10847524 0.014759411 0.084049836
00000000: f8cc b1ba e535 bdbd 06c2 acbb cc61 3fbd
00000010: 5505 533d 4428 de3d 75d1 713c 5222 ac3d

fc1.weight f4 [64, 111]
-0.42041942 0.52646154 0.658055 -0.38452324 -0.031642105 0.10856753 0.060483664 0.06324665
-0.06170818 -0.17889306 -0.056031365 -0.0036457605 0.1477679 -0.26384088 -0.03332881 -0.21264936
-0.043150626 0.22378433 -0.23117056 -0.024475485 0.057332408 -0.04243551 0.0019573604 -0.04453367
0.0016273636 -0.15478678 0.046247207 -0.09260791 -0.2548348 -0.094616316 0.10403035 0.17003126
0.111237936 0.009152347 -0.06924365 0.143669 -0.06543426 0.02720823 0.037207387 -0.008139715
-0.080108985 0.07228882 -0.19378397 -0.026076166 -0.1908531 -0.03150196 -0.02597778 -0.16828398
-0.0769187 0.136502 -0.09873788 0.09099924 -0.31537917 0.04222698 0.08070609 0.03779465
-0.021850748 0.07114164 -0.11253393 -0.12944226 -0.044026107 0.072672315 -0.006011285 -0.056827664
0.07901701 0.06895521 -0.115088865 -0.017176464 0.09645059 0.13760844 0.08927997 0.022070935
-0.08209288 -0.07952599 -0.020331165 0.014410758 -0.11636966 0.027222363 0.0070014168 -0.022343235
-0.108932815 -0.09833611 0.030202545 0.059049636 -0.18090506 0.010370944 -0.095235094 -0.012577025
-0.057288386 0.21508592 -0.18246186 0.04264347 -0.06853957 0.025681706 0.11337763 -0.010718
-0.03595481 0.066128224 -0.060815807 -0.039386887 0.04749439 0.082404435 -0.027022986 -0.02101524
0.07895099 -0.044476237 -0.023931324 -0.09325069 -0.0048264056 0.106526546 -0.07012054 -0.43512526
0.96711195 0.05874745 -0.3636401 0.27840346 0.10810542 -0.042232953 0.07246939 0.13738514
0.29312077 0.042533092 0.14038561 -0.073905066 0.029973345 0.02343662 -0.25976443 -0.0643047
0.027439237 -0.004048534 -0.020098817 -0.0066326014 0.0012912353 -0.05058504 0.021444196 -0.003356926
0.010715779 0.0073855673 -0.049620442 0.04340815 0.08600403 0.06468629 0.0515948 -0.14669308
0.037296504 0.0392366 -0.050652392 -0.06695619 -0.013589469 0.05466936 -0.07338466 -0.05185457
0.061073523 0.11039621 -0.03717122 0.12286643 0.036799785 -0.035763912 0.12384902 -0.12031606
-0.00016192847 -0.18040402 -0.047782823 -0.11742945 -0.019674378 -0.07283765 0.19177464 -0.13280919
0.005210292 -0.009436201 0.16401789 -0.026984815 -0.02489064 0.08151191 0.104503654 -0.007773802
0.012953956 0.16435501 0.14480667 0.14901257 -0.013665249 -0.0879681 0.006427403 0.14469032
-0.051478513 0.0817524 0.080914386 0.103711374 -0.037065722 -0.027122729 0.16055235 -0.14894874
-0.055578507 0.1291963 -0.09050107 -0.0063200155 -0.19058874 0.097750016 -0.019170893 0.10174636
0.020144695 0.019828305 0.13219501 -0.051641893 0.027860826 0.013360975 0.00040966723 -0.077675655
-0.08640029 0.074465275 0.1013713 0.07334523 0.22196823 -0.043204498 0.18584217 0.25120878
-0.019927638 0.0045058136 -0.13461266 -0.094471134 -0.04872051 -0.03414586 0.4605448 -0.85606766
0.19414847 -0.011245557 -0.70460755 0.2982419 0.23327236 -0.34662682 -0.18304455 -0.26649106
-0.283924 0.20319538 0.51152545 0.052665178 0.1793549 0.12501383 0.0064849555 0.16955629
-0.027341759 0.041364945 0.04593127 -0.01244998 0.03252492 -0.03705521 0.009194575 -0.11394925
-0.09115954 -0.11739668 0.0105723115 0.067922175 0.032214507 -0.05742399 -0.05430118 -0.10168673
00000000: 3741 d7be 2fc6 063f 4b76 283f 3be0 c4be
00000010: 279b 01bd a758 de3d b8bd 773d 7687 813d
00000020: b7c1 7cbd be2f 37be 2581 65bd b6ed 6ebb
00000030: 7850 173e 2716 87be ca83 08bd c1c0 59be
00000040: b6be 30bd b827 653e fab7 6cbe d080 c8bc
00000050: 63d5 6a3d dbd0 2dbd 0f47 003b f068 36bd
00000060: 434d d53a 6d80 1ebe b66d 3d3d 37a9 bdbd
00000070: b579 82be 33c6 c1bd dd0d d53d ad1c 2e3e
00000080: b7d0 e33d baf3 153c 9dcf 8dbd f71d 133e
00000090: 6602 86bd cbe3 de3c c666 183d 705c 05bc
000000a0: 2e10 a4bd 290c 943d 4e6f 46be af9d d5bc
000000b0: ff6e 43be 3308 01bd 5acf d4bc a352 2cbe
000000c0: 8d87 9dbd 2ec7 0b3e 1637 cabd cf5d ba3d
000000d0: 6179 a1be 33f6 2c3d 3c49 a53d 90ce 1a3d
000000e0: 5700 b3bc b5b2 913d 3078 e6bd 838c 04be
000000f0: b854 34bd 39d5 943d 50fa c4bb 20c4 68bd
00000100: acd3 a13d 6438 8d3d b6b3 ebbd a8b5 8cbc
00000110: e387 c53d 3ae9 0c3e 6bd8 b63d 1bce b43c
00000120: 5020 a8bd 86de a2bd 8b8d a6bc 1a1b 6c3c
00000130: 3753 eebd 6f01 df3c 246c e53b 2909 b7bc
00000140: 2b18 dfbd 7164 c9bd 546b f73c 08de 713d
00000150: 2d3f 39be e4ea 293c 9e0a c3bd de0f 4ebc
00000160: 3aa7 6abd 7c3f 5c3e 48d7 3abe ebaa 2e3d
00000170: 795e 8cbd 7162 d23c 8832 e83d 8d9a 2fbc
00000180: 5a45 13bd 3c6e 873d ff19 79bd 2554 21bd
00000190: 7a89 423d a8c3 a83d 4f5f ddbc 2728 acbc
000001a0: 0fb1 a13d b72c 36bd a00b c4bc 38fa bebd
000001b0: d326 9ebb 972a da3d 5c9b 8fbd bdc8 debe
000001c0: a694 773f 2ba1 703d 092f babe e68a 8e3e
000001d0: 6066 dd3d 76fc 2cbd d56a 943d b1ae 0c3e
000001e0: ed13 963e 2e37 2e3d 3fc1 0f3e 8a5b 97bd
000001f0: a98a f53c 28fe bf3c d8ff 84be 2fb2 83bd
00000200: 40c8 e03c 91a9 84bb 46a6 a4bc 4b56 d9bb
00000210: ab3e a93a 4232 4fbd bdab af3c dfff 5bbb
00000220: 3c91 2f3c a102 f23b ce3e 4bbd bfcc 313d
00000230: e222 b03d 3f7a 843d 1255 533d b636 16be
00000240: 38c4 183d 8fb6 203d e278 4fbd 5420 89bd
00000250: 5da6 5ebc fbec 5f3d b24a 96bd 7565 54bd
00000260: 3b28 7a3d 6817 e23d d940 18bd 65a1 fb3d
00000270: 5fbb 163d 2e7d 12bd 8ea4 fd3d 4468 f6bd
00000280: 58cb 29b9 d5bb 38be ecb7 43bd da7e f0bd
00000290: 292c a1bc e82b 95bd 9260 443e 22ff 07be
000002a0: 19bb aa3b 4c9a 1abc 4ef4 273e 420f ddbc
000002b0: 75e7 cbbc b7ef a63d 0306 d63d 61bb febb
000002c0: d43c 543c ae4c 283e 3348 143e c096 183e
000002d0: 35e4 5fbc 9f28 b4bd f79c d23b b329 143e
000002e0: 22db 52bd cd6d a73d 71b6 a53d a166 d43d
000002f0: 3ad2 17bd 7c30 debc d667 243e 0586 18be
00000300: 4aa6 63bd 094c 043e a058 b9bd 2218 cfbb
00000310: b229 43be 2931 c83d 470c 9dbc 6560 d03d
00000320: 7d06 a53c f86e a23c 215e 073e 7386 53bd
00000330: 633c e43c fee7 5a3c 9bc8 d639 6a14 9fbd
00000340: a3f2 b0bd 4081 983d c29b cf3d 0636 963d
00000350: a44b 633e 33f7 30bd 694d 3e3e 709e 803e
00000360: 493f a3bc 81a5 933b e7d7 09be 157a c1bd
00000370: 288f 47bd 87dc 0bbd 87cc eb3e 4027 5bbf
00000380: dbce 463e 493f 38bc 2961 34bf 2ab3 983e
00000390: f3de 6e3e 1279 b1be 0870 3bbe 8471 88be
000003a0: 7d5e 91be 7312 503e 55f3 023f 71b7 573d
000003b0: d0a8 373e a003 003e c07f d43b 2aa0 2d3e
000003c0: d3fb dfbc 4a6e 293d 6d22 3c3d 00fb 4bbc
000003d0: da38 053d 34c7 17bd d8a4 163c 395e e9bd
000003e0: dab1 babd ac6d f0bd 7d37 2d3c c81a 8b3d
000003f0: 5cf3 033d 6b35 6bbd ea6a 5ebd 2241 d0bd

fc1.bias f4 [64]
0.6390184 -0.28569302 0.08016696 0.4400651 -0.31753254 0.07656518 -0.67713976 0.789834
0.3534566 0.920072 0.4384305 0.19086713 -0.15828837 0.64453083 -0.15234813 0.49508455
1.1877296 1.0462255 0.3520102 0.75535107 0.014646899 -0.17994826 0.572809 -0.31396225
-0.12547284 0.218964 0.35365844 -0.3420815 0.30367807 0.5406389 0.30036315 -0.6040069
0.5998538 1.0991691 -0.09078959 0.36668828 -0.5412414 -0.46019277 -0.30080158 0.27130672
0.028497258 -0.5358972 1.2880738 0.3762394 -0.19272919 0.06434138 -0.29416606 -0.30162755
-0.21400289 0.72628456 0.07762298 -0.5062764 0.066586316 -0.10588011 0.5375755 0.59460676
-0.30651718 -0.5315721 -0.6011103 0.72020316 0.58744144 0.44048095 0.17438792 -0.34987366
00000000: b696 233f 5b46 92be 932e a43d 3650 e13e
00000010: a093 a2be 35ce 9c3d 0859 2dbf 9032 4a3f
00000020: 43f8 b43e d789 6b3f f679 e03e ac72 433e
00000030: 5916 22be f9ff 243f 2601 1cbe b97b fd3e
00000040: 8607 983f b8ea 853f ae3a b43e b05e 413f
00000050: 8cf9 6f3c 5b44 38be 9ca3 123f a9bf a0be
00000060: f47b 00be 1938 603e b812 b53e 4e25 afbe
00000070: b17b 9b3e 5067 0a3f 33c9 993e 32a0 1abf
00000080: 0590 193f 93b1 8c3f e4ef b9bd 91be bb3e
00000090: cc8e 0abf 639e ebbe aa02 9abe b7e8 8a3e
000000a0: 1573 e93c 8f30 09bf 9adf a43f 73a2 c03e
000000b0: cd5a 45be 6ac5 833d ef9c 96be ed6e 9abe
000000c0: 9323 5bbe c9ed 393f ccf8 9e3d 559b 01bf
000000d0: 685e 883d acd7 d8bd 8c9e 093f 2638 183f
000000e0: d2ef 9cbe 1c15 08bf 5de2 19bf 3c5f 383f
000000f0: 9062 163f b886 e13e bf92 323e a422 b3be

fc2.weight f4 [64, 64]
0.16720879 0.7433158 -0.17376594 -0.42102602 -0.27336934 -0.19042811 0.80232537 0.21938953
-0.031578057 0.07895745 -0.4102102 -0.3075025 -0.72325075 0.06827446 0.27105471 0.2885013
-0.28702536 -1.1076913 0.30791232 -0.6503457 0.5029964 -0.5681858 -0.9640197 0.21917841
0.7515465 -0.6358895 -0.7059086 -0.4046546 -0.022741904 -0.90661675 -0.5664134 0.6565999
-0.1367808 0.2606318 0.75136983 -1.1389927 0.8908441 -0.40016666 0.4912795 -1.218446
0.38818812 0.17435038 -0.7386366 0.36292812 0.012707751 0.6886314 -0.8831626 -1.0534066
0.4962852 -0.8323124 0.12610878 -0.31040156 0.78838235 0.09442614 -1.0786402 0.17452168
0.6202583 0.5774212 -0.8947413 0.43259084 0.15459847 -0.7058768 -0.7153246 -0.007553673
0.108068876 0.30827385 -0.16707739 0.5563031 0.008867867 0.33873588 0.53621596 -0.0081289755
-0.29079774 0.11609263 0.42172694 0.3974023 -0.27974978 -0.077820815 0.1439021 -0.023179712
0.43335208 -0.46936843 -0.5511195 -0.22072692 -0.27849 0.11464438 0.40647122 0.34501487
0.099187985 -0.6632954 0.01943974 0.1338369 0.14923824 0.12219989 0.016565407 0.074786015
-0.0626395 -0.31624544 -0.30991817 0.33151633 -0.12906224 0.015422259 -0.011731623 0.19368543
0.20951255 -0.08425496 -0.119650476 0.22157457 -0.04925957 0.12330318 -0.22203736 -0.55575866
-0.13006268 -0.092929624 -0.44462425 0.07246143 -0.035675377 0.0780719 0.2977421 -0.15705492
0.4774346 -0.13834453 0.042563625 -0.50881237 -0.055998612 0.80025774 0.030553715 0.3001677
-1.5424871 0.1418646 1.2699642 -0.5822356 -1.2253034 -0.10119646 1.8972445 -1.8451223
0.59148645 -0.48980346 -0.6955514 1.4838151 0.32185283 -2.0960991 0.3510487 -0.5728553
-2.8359811 -3.9916692 0.24232869 -1.4022682 -0.30105954 0.20891126 -0.15890257 0.22259721
0.9394378 -0.1767478 -1.1370791 0.13823919 -0.08603504 -0.36501858 -1.2418402 -0.060166575
-0.36283386 -2.1077204 -0.7614626 0.051017683 0.94613224 0.97065043 0.36650258 -0.14929909
0.62532145 0.7214018 -2.5171325 -0.57362294 -0.38989943 0.18401974 -0.32980183 0.1637023
0.47247782 -0.26375258 -0.31791055 0.05191414 -0.46471405 0.49689683 -0.45485657 0.471631
2.4524336 0.25236145 -1.1694151 -0.8701534 -0.08513078 0.12379003 -0.42712298 -0.3757959
0.63552964 0.9346982 -0.9753746 0.26101723 1.1913224 0.18529402 -1.2472215 1.6583071
-1.2411512 -0.35358354 0.71585214 -1.3558267 -1.1601833 1.32357 -2.2125316 -0.39238772
2.1672983 1.2467448 -0.7868975 1.6481265 0.5313407 -1.314403 1.4272257 0.5086993
1.1202242 -0.77018726 -0.07936097 0.67839825 1.1610979 -0.82273203 0.7152019 0.97775203
-0.6173488 1.5754157 0.7890715 -0.6271984 0.35127607 -0.7449516 -0.6346166 -0.7995273
0.37451854 -1.0194131 1.8235885 1.2324848 1.5435541 -1.2660874 0.4596359 0.723909
-1.122393 -0.8549191 -0.37813908 0.684873 0.56158745 0.41683713 -0.43678188 -1.2042822
-1.2211494 0.97072476 1.2894675 0.62360543 0.28693414 0.9090913 -0.07290495 1.2314584
00000000: c838 2b3e f249 3e3f b3ef 31be b990 d7be
00000010: 11f7 8bbe 96ff 42be 3265 4d3f a6a7 603e
00000020: fe57 01bd 72b4 a13d 1207 d2be f870 9dbe
00000030: f626 39bf 7bd3 8b3d afc7 8a3e 71b6 933e
00000040: fdf4 92be d4c8 8dbf afa6 9d3e 0e7d 26bf
00000050: 5fc4 003f a074 11bf ffc9 76bf 4e70 603e
00000060: 5a65 403f a7c9 22bf 6db6 34bf e32e cfbe
00000070: 3b4d babc 0918 68bf 7800 11bf ee16 283f
00000080: 4410 0cbe 8871 853e c659 403f 83ca 91bf
00000090: 5c0e 643f a5e2 ccbe fd88 fb3e 0af6 9bbf
000000a0: 98c0 c63e e888 323e 4a17 3dbf b7d1 b93e
000000b0: 2c34 503c 264a 303f f216 62bf 07d6 86bf
000000c0: 1819 fe3e 6d12 55bf a922 013e f4ec 9ebe
000000d0: 6dd3 493f 7e62 c13d e210 8abf d0b5 323e
000000e0: 3fc9 1e3f e0d1 133f c40d 65bf 8c7c dd3e
000000f0: 104f 1e3e 58b4 34bf 831f 37bf cd84 f7bb
00000100: 3753 dd3d 12d6 9d3e 5616 2bbe e169 0e3f
00000110: 884a 113c ca6e ad3e 7345 093f 652f 05bc
00000120: 71e3 94be f9c1 ed3d 98ec d73e 5078 cb3e
00000130: 5d3b 8fbe 8560 9fbd 125b 133e 61e3 bdbc
00000140: 53e0 dd3e 0f51 f0be 2b16 0dbf 3d06 62be
00000150: 3e96 8ebe acca ea3d ff1c d03e caa5 b03e
00000160: 1223 cb3d bacd 29bf 1740 9f3c 8a0c 093e
00000170: e9d1 183e f043 fa3d 2db4 873c 6929 993d
00000180: 2349 80bd ecea a1be 98ad 9ebe 82bc a93e
00000190: e428 04be a5ad 7c3c fe35 40bc 7955 463e
000001a0: 758a 563e dd8d acbd 4f0b f5bd 72e4 623e
000001b0: 67c4 49bd 6186 fc3d c35d 63be 3346 0ebf
000001c0: 272f 05be e351 bebd caa5 e3be a966 943d
000001d0: 5820 12bd 29e4 9f3d a771 983e 01d3 20be
000001e0: 4f72 f43e 30aa 0dbe 3257 2e3d 8741 02bf
000001f0: cd5e 65bd b1dd 4c3f c94b fa3c 95af 993e
00000200: 3870 c5bf f444 113e 308e a23f 640d 15bf
00000210: bed6 9cbf 1740 cfbd e8d8 f23f f82c ecbf
00000220: a86b 173f 85c7 fabe a80f 32bf a7ed bd3f
00000230: e5c9 a43e 7d26 06c0 a8bc b33e a5a6 12bf
00000240: b780 35c0 8277 7fc0 0325 783e 867d b3bf
00000250: 7a24 9abe d5ec 553e 5bb7 22be 86f0 633e
00000260: ff7e 703f 60fd 34be cf8b 91bf 938e 0d3e
00000270: 2433 b0bd b7e3 babe 9ff4 9ebf 3a71 76bd
00000280: 5cc5 b9be e4e4 06c0 37ef 42bf ebf7 503d
00000290: b935 723f 8c7c 783f 3aa6 bb3e dce1 18be
000002a0: 1115 203f caad 383f b318 21c0 f4d8 12bf
000002b0: e6a0 c7be ac6f 3c3e c9db a8be 93a1 273e
000002c0: 9de8 f13e 940a 87be 2cc5 a2be eca3 543d
000002d0: 00ef edbe 4369 fe3e f6e2 e8be 9e79 f13e
000002e0: acf4 1c40 8535 813e 65af 95bf 60c2 5ebf
000002f0: 0c59 aebd a185 fd3d ddaf dabe 5268 c0be
00000300: 12b2 223f 6248 6f3f 26b2 79bf 0da4 853e
00000310: 417d 983f b7bd 3d3e f4a4 9fbf 6843 d43f
00000320: 0bde 9ebf e708 b5be 1642 373f bb8b adbf
00000330: e380 94bf be6a a93f 1e9a 0dc0 0be7 c8be
00000340: 04b5 0a40 5595 9f3f 1d72 49bf cff5 d23f
00000350: f205 083f 5c3e a8bf 55af b63f 1e3a 023f
00000360: 8263 8f3f fe2a 45bf 0188 a2bd 82ab 2d3f
00000370: db9e 943f 919e 52bf 7917 373f f54d 7a3f
00000380: 920a 1ebf 39a7 c93f 9700 4a3f 1390 20bf
00000390: 75da b33e 26b5 3ebf 3c76 22bf d2ad 4cbf
000003a0: e5c0 bf3e 217c 82bf 596b e93f 10c2 9d3f
000003b0: 2e93 c53f 270f a2bf 6655 eb3e 1a52 393f
000003c0: 93aa 8fbf fadb 5abf 729b c1be d653 2f3f
000003d0: 32c4 0f3f ad6b d53e e0a1 dfbe eb25 9abf
000003e0: a04e 9cbf 6b81 783f 450d a53f 9ba4 1f3f
000003f0: 08e9 923e 35ba 683f 314f 95bd 6ea0 9d3f

fc2.bias f4 [64]
-0.87106735 0.13326038 -1.2901053 -0.26781622 -0.5330818 0.86693275 2.14098 -0.13495027
-0.647737 -0.16766235 -2.3292618 -2.3064094 -0.6170107 -0.52942044 2.010472 -0.5246925
-0.16854095 1.9511167 0.67460835 1.941446 -0.76384926 -1.0318317 -1.3698496 -1.0419523
1.0413433 -1.3584096 0.034144033 -0.68012714 0.48354408 -0.11370035 -1.238839 -0.26086527
0.9500662 -0.2185915 0.22387026 -0.06931675 0.01134837 0.1414554 -0.9165221 -0.11238499
-2.3428798 0.0108960755 0.6546657 -0.029013965 -0.3278482 -1.5876219 -0.88794976 0.013672935
1.3282676 0.7759068 0.6847015 0.767041 1.3817611 -0.066042304 0.04899164 0.778628
0.19076645 -0.14013442 1.6252193 2.3655112 -0.50403064 -0.42531526 0.1408035 -1.8696114
00000000: 45fe 5ebf 6975 083e 2c22 a5bf 351f 89be
00000010: 0d78 08bf 4eef 5d3f d105 0940 6730 0abe
00000020: 18d2 25bf aeaf 2bbe a012 15c0 369c 13c0
00000030: 6af4 1dbf 1988 07bf 93ab 0040 3f52 06bf
00000040: 0096 2cbe 31be f93f 22b3 2c3f 4d81 f83f
00000050: a08b 43bf 1013 84bf 3b57 afbf b15e 85bf
00000060: bd4a 853f 5ee0 adbf 9dda 0b3d d01c 2ebf
00000070: 1793 f73e bbdb e8bd 4792 9ebf 2290 85be
00000080: 8a37 733f 73d6 5fbe 3f3e 653e f1f5 8dbd
00000090: 84ee 393c afd9 103e 31a1 6abf 1a2a e6bd
000000a0: bef1 15c0 7485 323c 2c98 273f b2ae edbc
000000b0: b8db a7be 3237 cbbf ad50 63bf 7204 603c
000000c0: ac04 aa3f d4a1 463f 9948 2f3f cd5c 443f
000000d0: 8cdd b03f 3041 87bd 75ab 483d 2a54 473f
000000e0: 4858 433e 667f 0fbe 3007 d03f 8964 1740
000000f0: 2708 01bf ecc2 d9be cb2e 103e 6d4f efbf

value.weight f4 [1, 64]
-8.604061 -8.7909355 -8.395211 8.450933 8.501517 -8.175378 8.565485 8.050806
-8.348568 -8.32159 -8.636909 -8.94152 8.507212 8.638972 8.10109 8.664406
-8.328481 8.731872 -8.511651 8.193218 8.517005 8.500971 -8.704899 8.506613
-8.401739 -8.631736 8.447665 -7.8167777 -8.62171 -8.3267 8.574825 8.545291
-8.484159 8.110709 8.644944 -8.599176 -8.807794 8.0846 -8.9005575 -8.813307
-8.812169 -8.084182 8.815834 8.523915 8.516016 -8.8013735 8.531278 8.417406
8.340482 -8.570777 8.775774 7.862803 8.432043 -8.208485 -8.503482 8.187723
8.118605 8.4879465 8.245067 8.877473 -8.369526 7.789239 -8.464177 -8.594388
00000000: 3caa 09c1 aca7 0cc1 c952 06c1 0637 0741
00000010: 3706 0841 59ce 02c1 3a0c 0941 1ad0 0041
00000020: bc93 05c1 3c25 05c1 c730 0ac1 7710 0fc1
00000030: 8a1d 0841 3b39 0a41 119e 0141 68a1 0a41
00000040: 7541 05c1 bfb5 0b41 b92f 08c1 6c17 0341
00000050: a745 0841 fa03 0841 4447 0bc1 161b 0841
00000060: 866d 06c1 971b 0ac1 a329 0741 0b23 fac0
00000070: 86f2 09c1 2a3a 05c1 7c32 0941 83b9 0841
00000080: 1ebf 07c1 77c5 0141 b151 0a41 3a96 09c1
00000090: b9ec 0cc1 865a 0141 af68 0ec1 4e03 0dc1
000000a0: a5fe 0cc1 cf58 01c1 a80d 0d41 f561 0841
000000b0: 9a41 0841 6dd2 0cc1 1d80 0841 b2ad 0641
000000c0: 9d72 0541 e721 09c1 9269 0c41 159c fb40
000000d0: a6e9 0641 f455 03c1 430e 08c1 ea00 0341
000000e0: cee5 0141 a1ce 0741 cbeb 0341 210a 0e41
000000f0: 94e9 05c1 7241 f940 456d 07c1 9d82 09c1

exp_avg f4 [1, 8]
-0.0035416968 -0.0037355581 0.0055149756 0.0021566562 -0.0060927817 -0.002115487 0.0024648018 -0.0021943199
00000000: d01b 68bb 44d0 74bb f8b6 b43b b056 0d3b
00000010: f5a5 c7bb fba3 0abb 8388 213b 94ce 0fbb

exp_avg_sq f4 [1, 8]
0.000130695 0.00013184745 0.00011396626 0.00012796417 0.00012743096 0.00013352801 0.0001221897 0.00011358989
00000000: 2c0b 0939 8840 0a39 2c01 ef38 1f2e 0639
00000010: fd9e 0539 a703 0c39 0c20 0039 1c37 ee38

exp_avg f4 [64, 111]
-0.0019267409 -0.0023342294 2.5497666e-05 0.0002863965 0.0019001344 -0.0010621354 -0.0023733405 0.002548569
0.0017307311 0.00095791655 0.0025016603 -0.0026351458 -0.0008612572 -0.0068910494 0.0050522047 0.005611742
0.0026918843 0.0010224382 -0.0017081487 -0.0042750286 0.0010650295 0.002354888 -0.00017939071 0.0037042457
0.0027071591 -0.0067946473 -0.01191481 0.0 0.0 0.0 0.0 0.0
0.0 0.0 0.0 0.0 0.0 0.0 0.0 0.0
0.0 0.0 0.0 0.0 0.0 0.0 0.0 0.0
0.0 0.0 0.0 0.0 0.0 0.0 0.0 0.0
0.0 0.0 0.0 0.0 0.0 0.0 0.0 0.0
0.0 0.0 0.0 0.0 0.0 0.0 0.0 0.0
0.0 0.0 0.0 0.0 0.0 0.0 0.0 0.0
0.0 0.0 0.0 0.0 0.0 0.0 0.0 0.0
0.0 0.0 0.0 0.0 0.0 0.0 0.0 0.0
0.0 0.0 0.0 0.0 0.0 0.0 0.0 0.0
0.0 0.0 0.0 0.0 0.0 0.0 0.0 -0.0002342871
0.003639215 -5.9719467e-05 -0.00037173787 -0.00032825628 0.0018386835 0.00022879614 0.00026188 -0.001606207
0.0019257407 -0.0012601545 -0.0005831851 0.0033066766 0.014030837 -0.00047788382 -0.00047204705 -0.004601983
-0.0011432276 0.004663304 -0.004037756 -0.001445549 0.00930018 -0.00062095205 -0.0004940451 -0.0003838625
-0.009607272 0.0005912789 0.0 0.0 0.0 0.0 0.0 0.0
0.0 0.0 0.0 0.0 0.0 0.0 0.0 0.0
0.0 0.0 0.0 0.0 0.0 0.0 0.0 0.0
0.0 0.0 0.0 0.0 0.0 0.0 0.0 0.0
0.0 0.0 0.0 0.0 0.0 0.0 0.0 0.0
0.0 0.0 0.0 0.0 0.0 0.0 0.0 0.0
0.0 0.0 0.0 0.0 0.0 0.0 0.0 0.0
0.0 0.0 0.0 0.0 0.0 0.0 0.0 0.0
0.0 0.0 0.0 0.0 0.0 0.0 0.0 0.0
0.0 0.0 0.0 0.0 0.0 0.0 0.0 0.0
0.0 0.0 0.0 0.0 0.0 0.0 0.002278977 -0.0011903528
0.00048067616 -0.00022490966 0.0013293966 -0.0010480355 0.0026364569 0.003961509 0.0011476981 0.0024646698
0.00042246951 -0.004134899 -0.0046391017 -0.00037821493 0.005003194 0.009012131 0.006803993 -0.0007265776
-0.007053792 0.0076910183 0.011858778 -0.018052574 -0.001203563 -0.011933796 -0.0021071834 0.017038444
-0.010175804 0.0 0.0 0.0 0.0 0.0 0.0 0.0
00000000: b28a fcba dff9 18bb d2e3 d537 7d27 9639
00000010: ee0d f93a 5a37 8bba 0c8a 1bbb e505 273b
00000020: b3d9 e23a b11c 7b3a e5f2 233b 69b2 2cbb
00000030: fec5 61ba 50ce e1bb f78c a53b b4e2 b73b
00000040: 536a 303b 5503 863a f6e3 dfba 8a15 8cbb
00000050: 7698 8b3a 7754 1a3b d41a 3cb9 eec2 723b
00000060: 986a 313b a2a5 debb 5636 43bc 0000 0000
00000070: 0000 0000 0000 0000 0000 0000 0000 0000
00000080: 0000 0000 0000 0000 0000 0000 0000 0000
00000090: 0000 0000 0000 0000 0000 0000 0000 0000
000000a0: 0000 0000 0000 0000 0000 0000 0000 0000
000000b0: 0000 0000 0000 0000 0000 0000 0000 0000
000000c0: 0000 0000 0000 0000 0000 0000 0000 0000
000000d0: 0000 0000 0000 0000 0000 0000 0000 0000
000000e0: 0000 0000 0000 0000 0000 0000 0000 0000
000000f0: 0000 0000 0000 0000 0000 0000 0000 0000
00000100: 0000 0000 0000 0000 0000 0000 0000 0000
00000110: 0000 0000 0000 0000 0000 0000 0000 0000
00000120: 0000 0000 0000 0000 0000 0000 0000 0000
00000130: 0000 0000 0000 0000 0000 0000 0000 0000
00000140: 0000 0000 0000 0000 0000 0000 0000 0000
00000150: 0000 0000 0000 0000 0000 0000 0000 0000
00000160: 0000 0000 0000 0000 0000 0000 0000 0000
00000170: 0000 0000 0000 0000 0000 0000 0000 0000
00000180: 0000 0000 0000 0000 0000 0000 0000 0000
00000190: 0000 0000 0000 0000 0000 0000 0000 0000
000001a0: 0000 0000 0000 0000 0000 0000 0000 0000
000001b0: 0000 0000 0000 0000 0000 0000 f7aa 75b9
000001c0: e57f 6e3b 4a7b 7ab8 d0e5 c2b9 d019 acb9
000001d0: fbff f03a ffe8 6f39 f04c 8939 5d87 d2ba
000001e0: 2369 fc3a c52b a5ba e4e0 18ba d4b4 583b
000001f0: 99e1 653c 7b8c fab9 157d f7b9 3bcc 96bb
00000200: 5ad8 95ba a1ce 983b 274f 84bb 9378 bdba
00000210: c85f 183c 63c7 22ba ce82 01ba 2741 c9b9
00000220: d267 1dbc 0e00 1b3a 0000 0000 0000 0000
00000230: 0000 0000 0000 0000 0000 0000 0000 0000
00000240: 0000 0000 0000 0000 0000 0000 0000 0000
00000250: 0000 0000 0000 0000 0000 0000 0000 0000
00000260: 0000 0000 0000 0000 0000 0000 0000 0000
00000270: 0000 0000 0000 0000 0000 0000 0000 0000
00000280: 0000 0000 0000 0000 0000 0000 0000 0000
00000290: 0000 0000 0000 0000 0000 0000 0000 0000
000002a0: 0000 0000 0000 0000 0000 0000 0000 0000
000002b0: 0000 0000 0000 0000 0000 0000 0000 0000
000002c0: 0000 0000 0000 0000 0000 0000 0000 0000
000002d0: 0000 0000 0000 0000 0000 0000 0000 0000
000002e0: 0000 0000 0000 0000 0000 0000 0000 0000
000002f0: 0000 0000 0000 0000 0000 0000 0000 0000
00000300: 0000 0000 0000 0000 0000 0000 0000 0000
00000310: 0000 0000 0000 0000 0000 0000 0000 0000
00000320: 0000 0000 0000 0000 0000 0000 0000 0000
00000330: 0000 0000 0000 0000 0000 0000 0000 0000
00000340: 0000 0000 0000 0000 0000 0000 0000 0000
00000350: 0000 0000 0000 0000 0000 0000 0000 0000
00000360: 0000 0000 0000 0000 0000 0000 0000 0000
00000370: 0000 0000 0000 0000 e45a 153b 9d05 9cba
00000380: 4303 fc39 bad5 6bb9 263f ae3a 3c5e 89ba
00000390: 68c8 2c3b 8ccf 813b 5c6e 963a 4c86 213b
000003a0: e67e dd39 0c7e 87bb 9b03 98bb 264b c6b9
000003b0: d5f1 a33b 9ea7 133c 08f4 de3b cc77 3eba
000003c0: 7f23 e7bb f004 fc3b 524b 423c fee2 93bc
000003d0: dfc0 9dba f885 43bc ac18 0abb 3594 8b3c
000003e0: 6ab8 26bc 0000 0000 0000 0000 0000 0000
000003f0: 0000 0000 0000 0000 0000 0000 0000 0000

exp_avg_sq f4 [64, 111]
2.3343071e-05 6.8172114e-05 2.4871927e-06 2.8062334e-06 1.379745e-05 3.438198e-05 4.332494e-05 3.9683877e-05
2.1864696e-05 2.6982121e-05 1.873109e-05 3.992146e-05 3.940094e-05 0.00105826 0.00010449187 0.00012424879
0.00014935745 0.0001591502 9.69814e-05 0.00026983058 0.00018259438 0.0009599875 4.072857e-05 0.00027168874
2.4757737e-05 0.0010818499 0.00030823544 0.0 0.0 0.0 0.0 0.0
0.0 0.0 0.0 0.0 0.0 0.0 0.0 0.0
0.0 0.0 0.0 0.0 0.0 0.0 0.0 0.0
0.0 0.0 0.0 0.0 0.0 0.0 0.0 0.0
0.0 0.0 0.0 0.0 0.0 0.0 0.0 0.0
0.0 0.0 0.0 0.0 0.0 0.0 0.0 0.0
0.0 0.0 0.0 0.0 0.0 0.0 0.0 0.0
0.0 0.0 0.0 0.0 0.0 0.0 0.0 0.0
0.0 0.0 0.0 0.0 0.0 0.0 0.0 0.0
0.0 0.0 0.0 0.0 0.0 0.0 0.0 0.0
0.0 0.0 0.0 0.0 0.0 0.0 0.0 1.7447845e-05
5.4213728e-05 1.6553861e-06 2.3840319e-06 1.1326624e-05 2.6081607e-05 2.5273335e-05 4.2600557e-05 1.6978667e-05
2.2707545e-05 1.4922787e-05 4.1730684e-05 2.9219527e-05 0.00088931096 8.1191385e-05 0.000109923836 0.00012077405
0.00012187765 8.275122e-05 0.00020384614 0.00015104799 0.0005507479 4.063332e-05 0.00021527187 2.9808994e-05
0.00055129343 0.00028207732 0.0 0.0 0.0 0.0 0.0 0.0
0.0 0.0 0.0 0.0 0.0 0.0 0.0 0.0
0.0 0.0 0.0 0.0 0.0 0.0 0.0 0.0
0.0 0.0 0.0 0.0 0.0 0.0 0.0 0.0
0.0 0.0 0.0 0.0 0.0 0.0 0.0 0.0
0.0 0.0 0.0 0.0 0.0 0.0 0.0 0.0
0.0 0.0 0.0 0.0 0.0 0.0 0.0 0.0
0.0 0.0 0.0 0.0 0.0 0.0 0.0 0.0
0.0 0.0 0.0 0.0 0.0 0.0 0.0 0.0
0.0 0.0 0.0 0.0 0.0 0.0 0.0 0.0
0.0 0.0 0.0 0.0 0.0 0.0 1.6752601e-05 0.00010493906
1.4663551e-06 2.3704356e-06 1.7788243e-05 4.414136e-05 2.7066042e-05 5.9402246e-05 3.0723455e-05 4.1349405e-05
2.7808564e-05 5.905772e-05 9.0738526e-05 0.0018805087 0.0001731803 0.00023624346 0.00030162156 0.00044958343
0.00017689084 0.00039961544 0.0001710661 0.0017640454 7.543459e-05 0.00045373428 4.187539e-05 0.0016795846
0.0007020503 0.0 0.0 0.0 0.0 0.0 0.0 0.0
00000000: ddd0 c337 a0f7 8e38 a5e9 2636 b952 3c36
00000010: 997b 6737 5f35 1038 cdb7 3538 3d72 2638
00000020: 146a b737 aa57 e237 b620 9d37 5771 2738
00000030: 7042 2538 50b5 8a3a a522 db38 c848 0239
00000040: d69c 1c39 8ee1 2639 7e62 cb38 0c78 8d39
00000050: ce76 3f39 aca7 7b3a f8d3 2a38 7271 8e39
00000060: d6ae cf37 dccc 8d3a a99a a139 0000 0000
00000070: 0000 0000 0000 0000 0000 0000 0000 0000
00000080: 0000 0000 0000 0000 0000 0000 0000 0000
00000090: 0000 0000 0000 0000 0000 0000 0000 0000
000000a0: 0000 0000 0000 0000 0000 0000 0000 0000
000000b0: 0000 0000 0000 0000 0000 0000 0000 0000
000000c0: 0000 0000 0000 0000 0000 0000 0000 0000
000000d0: 0000 0000 0000 0000 0000 0000 0000 0000
000000e0: 0000 0000 0000 0000 0000 0000 0000 0000
000000f0: 0000 0000 0000 0000 0000 0000 0000 0000
00000100: 0000 0000 0000 0000 0000 0000 0000 0000
00000110: 0000 0000 0000 0000 0000 0000 0000 0000
00000120: 0000 0000 0000 0000 0000 0000 0000 0000
00000130: 0000 0000 0000 0000 0000 0000 0000 0000
00000140: 0000 0000 0000 0000 0000 0000 0000 0000
00000150: 0000 0000 0000 0000 0000 0000 0000 0000
00000160: 0000 0000 0000 0000 0000 0000 0000 0000
00000170: 0000 0000 0000 0000 0000 0000 0000 0000
00000180: 0000 0000 0000 0000 0000 0000 0000 0000
00000190: 0000 0000 0000 0000 0000 0000 0000 0000
000001a0: 0000 0000 0000 0000 0000 0000 0000 0000
000001b0: 0000 0000 0000 0000 0000 0000 f65c 9237
000001c0: 8c63 6338 a22e de35 5bfd 1f36 7b07 3e37
000001d0: d3c9 da37 1302 d437 00ae 3238 696d 8e37
000001e0: 157c be37 e25c 7a37 fb07 2f38 751c f537
000001f0: a620 693a 4b45 aa38 e986 e638 1348 fd38
00000200: 9198 ff38 b98a ad38 88bf 5539 a362 1e39
00000210: 1160 103a b26d 2a38 9aba 6139 540e fa37
00000220: ad84 103a c7e3 9339 0000 0000 0000 0000
00000230: 0000 0000 0000 0000 0000 0000 0000 0000
00000240: 0000 0000 0000 0000 0000 0000 0000 0000
00000250: 0000 0000 0000 0000 0000 0000 0000 0000
00000260: 0000 0000 0000 0000 0000 0000 0000 0000
00000270: 0000 0000 0000 0000 0000 0000 0000 0000
00000280: 0000 0000 0000 0000 0000 0000 0000 0000
00000290: 0000 0000 0000 0000 0000 0000 0000 0000
000002a0: 0000 0000 0000 0000 0000 0000 0000 0000
000002b0: 0000 0000 0000 0000 0000 0000 0000 0000
000002c0: 0000 0000 0000 0000 0000 0000 0000 0000
000002d0: 0000 0000 0000 0000 0000 0000 0000 0000
000002e0: 0000 0000 0000 0000 0000 0000 0000 0000
000002f0: 0000 0000 0000 0000 0000 0000 0000 0000
00000300: 0000 0000 0000 0000 0000 0000 0000 0000
00000310: 0000 0000 0000 0000 0000 0000 0000 0000
00000320: 0000 0000 0000 0000 0000 0000 0000 0000
00000330: 0000 0000 0000 0000 0000 0000 0000 0000
00000340: 0000 0000 0000 0000 0000 0000 0000 0000
00000350: 0000 0000 0000 0000 0000 0000 0000 0000
00000360: 0000 0000 0000 0000 0000 0000 0000 0000
00000370: 0000 0000 0000 0000 f087 8c37 bb12 dc38
00000380: 94cf c435 c613 1f36 f637 9537 6d24 3938
00000390: e20b e337 ad26 7938 0fdd 0038 966e 2d38
000003a0: 7046 e937 beb4 7738 e04a be38 677b f63a
000003b0: bc97 3539 1fb8 7739 f622 9e39 11b6 eb39
000003c0: c67b 3939 7a83 d139 3560 3339 8b37 e73a
000003d0: a332 9e38 2fe3 ed39 5ca3 2f38 8225 dc3a
000003e0: cc09 383a 0000 0000 0000 0000 0000 0000
000003f0: 0000 0000 0000 0000 0000 0000 0000 0000
