drl/ran2/Ant95000_ran2_weights.pth (torch, 292848 bytes, 36 tensors)

log_std f4 [1, 8]
0	0xbfc9da57	-1.5769757
1	0xc003d785	-2.0600293
2	0xbfad817a	-1.3555138
3	0xbfd2946d	-1.6451546
4	0xbfca625e	-1.5811269
5	0xbfe7b986	-1.8103492
6	0xbfc3ecc8	-1.5306635
7	0xbfdb0d2d	-1.7113396

fc1.weight f4 [64, 111]
0	0xbeb93452	-0.3617273
1	0xbd6f5fa9	-0.058440838
2	0x3dfe27df	0.124099486
3	0xbd4dfc8a	-0.05028967
4	0x3df859cd	0.12126503
5	0xbe0ca391	-0.1373427
6	0x3cc07187	0.023491634
7	0x3d645fe8	0.055755526
8	0x3d3133a1	0.043262128
9	0x3c422405	0.011849408
10	0xbe7ee9df	-0.24893902
11	0xbe6aff22	-0.22948888
12	0x3d995dcf	0.07488596
13	0xbdc38432	-0.09546699
14	0x3a50f663	0.0007971285
15	0x3d15cc03	0.036571514
16	0x3d647476	0.05577513
17	0x3c2c29e0	0.010508031
18	0xbd928b25	-0.07155446
19	0xbd0ab181	-0.033860687
20	0xbdb37ae0	-0.08763671
21	0xbc882fa2	-0.016624276
22	0xbe454e74	-0.19268209
23	0xbc9e77e4	-0.019344278
24	0xbceef196	-0.029167932
25	0x3a41297c	0.00073685474
26	0x3e05bf0b	0.13061158
27	0xbbff4fee	-0.007791511
28	0xbd0e1d58	-0.034695953
29	0x3d688712	0.056769438
30	0xbd8d5421	-0.06900812
31	0xbccac91d	-0.024754101
32	0x3d8a4097	0.06750601
33	0x3dc1da0b	0.094654165
34	0x3deeb8a3	0.116563104
35	0xbe317f08	-0.17333615
36	0xbdef37b8	-0.116805494
37	0x3c21e031	0.009880112
38	0x3da74501	0.08167458
39	0xbd9a9d98	-0.0754959
40	0xbe11837d	-0.14210315
41	0x3dc5b330	0.09653318
42	0xbc54437c	-0.012955543
43	0xbe0fe86b	-0.14053504
44	0x3d2261a5	0.039643902
45	0x3c927a06	0.017880451
46	0x3dcae5f9	0.09907145
47	0xbb467c39	-0.0030286445
48	0xbd02ba2d	-0.031915832
49	0xbe0972d6	-0.13422713
50	0xbdca0e77	-0.0986604
51	0x3ceba39c	0.028764538
52	0xbdc3c089	-0.095582075
53	0xbd640c1c	-0.05567561
54	0x3d8a220a	0.06744774
55	0x3c98ccbb	0.01865231
56	0xbd60a1bd	-0.054841746
57	0x3c8f711e	0.017509993
58	0xbe553b83	-0.20823483
59	0xbd1e2d01	-0.038617138
60	0x3da7355a	0.08164473
61	0xbbed2239	-0.0072367457
62	0x3deb5dcd	0.114925005
63	0xbde4b0eb	-0.11166557
64	0x3c7c63fd	0.015404698
65	0x3e30cdd4	0.17266017
66	0xbe8c319d	-0.27381602
67	0xbc9827f6	-0.018573742
68	0x3da9d257	0.08292072
69	0x3d386406	0.045017265
70	0x3d661cef	0.056179937
71	0xbdde031b	-0.10840436
72	0x3d46e4f7	0.0485582
73	0xbdc164c7	-0.0944305
74	0xbd085434	-0.033283427
75	0x3d88a865	0.06672744
76	0x3d1214b5	0.03566428
77	0x3ccfc6b2	0.0253633
78	0xbda4868c	-0.08033475
79	0x3d804fb6	0.06265204
80	0x3d0a80cc	0.033814237
81	0xbbccda9b	-0.0062516457
82	0x3c7abd29	0.015303888
83	0x3d0479ca	0.03234271
84	0x3e54d134	0.2078293
85	0xbdfd85b3	-0.12379017
86	0xbc4f76fa	-0.012662644
87	0x3e002d77	0.12517343
88	0xbd8b77cf	-0.06809961
89	0xbd820d3a	-0.06350179
90	0x3d828ef7	0.06374925
91	0x3d551777	0.05202433
92	0xbcbb853a	-0.022890676
93	0x3e0cff53	0.13769273
94	0xbe2677f2	-0.16256693
95	0x3e08256e	0.13295528
96	0xb9bae2a3	-0.00035645542
97	0x3db03ad3	0.0860497
98	0xbbc3c7c5	-0.005974742
99	0xbe0f7a2d	-0.1401145
100	0xbdd906c5	-0.10596994
101	0xbd1950b4	-0.03743048
102	0x3dcc30d5	0.099702515
103	0x3e19a541	0.15004446
104	0xbcd8b505	-0.026453504
105	0xbe2c7809	-0.16842665
106	0xbd49f3ac	-0.04930465
107	0x3c5e194b	0.013555835
108	0x3de61c48	0.11235863
109	0xbc87efc4	-0.016593821
110	0x3d5b0dce	0.053479962
111	0xbda6d16e	-0.08145414
112	0xbd79455b	-0.06085716
113	0xbf299725	-0.66246253
114	0x3d91a4f2	0.07111539
115	0xbe83185f	-0.2560453
116	0x3c40c369	0.011765339
117	0xbe2b8c14	-0.16752654
118	0x3e3e198d	0.18564434
119	0x3da191e9	0.07889158
120	0xbdb76be3	-0.08956125
121	0x3c583e8f	0.013198509
122	0xbe14cc35	-0.14531024
123	0xbda9c9c7	-0.08290439
124	0xbd5db958	-0.054131836
125	0xbb1311f3	-0.0022441118
126	0xbe0e361d	-0.1388783
127	0xbc94a391	-0.0181444
128	0x3d199a8b	0.0375009
129	0xbc2eed1a	-0.010676647
130	0xbda65bbb	-0.08122965
131	0xbda7f554	-0.082010895
132	0x3db09444	0.086220294
133	0x3cf9d943	0.030499106
134	0xbe27a10e	-0.16370031
135	0x3d84e28e	0.064885244
136	0xbd56e55d	-0.05246483
137	0xbd8cc8d5	-0.06874243
138	0xbdeebca4	-0.11657074
139	0xba2d24c7	-0.00066049065
140	0xbd88406d	-0.06652913
141	0xbd6a2087	-0.057159927
142	0x3cd37f3c	0.025817506
143	0x3d51dd9c	0.051236734
144	0xbe0b2c13	-0.13591032
145	0xbd6c6b95	-0.057719786
146	0x3dc7c915	0.0975515
147	0xbdcf86c2	-0.10133125
148	0xbd1e18d9	-0.038597915
149	0x3e2c1d66	0.1680809
150	0xbd749c18	-0.059719175
151	0xbd219329	-0.039446983
152	0xbdb32a56	-0.08748309
153	0xbd364b18	-0.04450521
154	0x3e660fb7	0.22466932
155	0x3e31541a	0.17317238
156	0x3d1e1031	0.03858966
157	0xbdc3d6ee	-0.09562479
158	0xbdd9e754	-0.106398255
159	0xbe29c9b5	-0.16580851
160	0x3d8179b3	0.063220404
161	0xbd7e7092	-0.062119074
162	0x3d01cbe9	0.031688605
163	0xbca4d521	-0.020121159
164	0x3de21992	0.110400334
165	0xbd742d03	-0.05961324
166	0xbcc259f2	-0.02372453
167	0x3e48be95	0.19603951
168	0x3e7946c8	0.24343407
169	0x3d6c931f	0.057757493
170	0xbd70ccd7	-0.0587891
171	0x3d921777	0.07133382
172	0xbd7ac36a	-0.061221518
173	0x3d426a8e	0.0474649
174	0x3e354899	0.17703475
175	0xbd18dc2c	-0.037319347
176	0xbcf9beeb	-0.030486545
177	0xbe254c7b	-0.16142456
178	0xbbbe9fe6	-0.005817401
179	0x3cb4bb1d	0.022061879
180	0x3d6e70b4	0.05821295
181	0x3cc3ecca	0.02391662
182	0x3e88122e	0.2657637
183	0x3dd8492e	0.10560833
184	0x3c4b2bb6	0.012400558
185	0x3c9173c2	0.017755393
186	0xbbded8c2	-0.006800742
187	0xbd83ca94	-0.06435123
188	0xbd5b3889	-0.053520713
189	0xbbcf3656	-0.006323616
190	0x3e2fb665	0.17159422
191	0x3ba2fdb3	0.004974091
192	0x3d739e7a	0.059477307
193	0x3d1d8f8d	0.03846698
194	0xbdeacd78	-0.11464971
195	0xbe0d14e3	-0.13777499
196	0xbdac9111	-0.08426107
197	0x3d991574	0.07474795
198	0xbc349260	-0.011021227
199	0x3dbcd024	0.09219387
200	0x3d803d45	0.06261686
201	0xbd1ea134	-0.038727954
202	0xbd1d8ef3	-0.038466405
203	0x3cb09751	0.021556528
204	0x3daba2a4	0.083806306
205	0x3ced2ef1	0.028953047
206	0x3e20f76a	0.15719381
207	0x3ce7c613	0.028292691
208	0x3e1b95c3	0.15193848
209	0x3d46ecfc	0.04856585
210	0xbd3a0d7f	-0.045423027
211	0x3e2c3a69	0.16819157
212	0xb9baafc3	-0.00035607637
213	0xbcd031c9	-0.025414364
214	0x3d5b4cce	0.053540044
215	0x3b8ff11a	0.004392755
216	0xbd9d88a9	-0.076920815
217	0x3d1ebf42	0.038756616
218	0x3caafd22	0.020872656
219	0xbc195c47	-0.00936038
220	0x3d5439fe	0.05181312
221	0xbd6ff7b9	-0.058585856
222	0xbda3340d	-0.07968912
223	0xbe10d9b6	-0.1414555
224	0x3d6dde92	0.058073588
225	0x3d10c89f	0.035347577
226	0x3f11c9ee	0.56948745
227	0x3dd5cab7	0.104390554
228	0xbe8853a9	-0.26626328
229	0x3e8ddfd1	0.2770982
230	0x3e2fbc47	0.17161666
231	0x3deab71c	0.114607066
232	0x3e9f812d	0.3115324
233	0xbe9d3625	-0.30705371
234	0xbced57ec	-0.028972588
235	0xbd36c310	-0.04461962
236	0xbd1df827	-0.038566735
237	0xbd39a3d6	-0.04532226
238	0xbcbff1bb	-0.023430696
239	0x3d1cd8fd	0.038292874
240	0xbaa29018	-0.0012402562
241	0x3d920c05	0.07131199
242	0xbcd59932	-0.026074026
243	0x3c90e3e7	0.017686797
244	0x3c75cdc0	0.015002668
245	0x3d307d3f	0.043088194
246	0xbcb5f438	-0.02221118
247	0xbe35aeaa	-0.1774241
248	0x3d8b98f8	0.06816286
249	0x3d141477	0.03615233
250	0x3d5e5906	0.054284118
251	0xbbc24f5f	-0.005929872
252	0x3ccb361c	0.024806075
253	0xbdfa762b	-0.1222957
254	0xbcc476bc	-0.023982398
255	0x3d132748	0.035926133

fc1.bias f4 [64]
0	0xbca27a06	-0.019833576
1	0xbd1e8f45	-0.03871085
2	0xbe1c5bed	-0.15269442
3	0xbddf1427	-0.10892516
4	0xbe28ec99	-0.16496505
5	0xbc187114	-0.009304304
6	0x3cd3e12b	0.025864204
7	0x3d76ae78	0.06022498
8	0xbda51085	-0.080597915
9	0xbd19a56d	-0.037511278
10	0x3c61cdcc	0.013781976
11	0xbdbdf9b4	-0.09276143
12	0xbd874410	-0.06604779
13	0x3afa0977	0.0019076307
14	0x3c70e79f	0.01470366
15	0x3dc0c9e2	0.09413506
16	0xbd8007b3	-0.062514685
17	0xbd542808	-0.05179599
18	0x3d7edba1	0.062221173
19	0x3dcf4e5e	0.10122369
20	0x3e360011	0.17773463
21	0xbd06e179	-0.03292987
22	0xbdc91807	-0.09819036
23	0x3db07d22	0.08617617
24	0x3dddfb9b	0.108390056
25	0x3e0955e3	0.1341167
26	0x3d0babaa	0.03409926
27	0xbd0c0f8a	-0.034194507
28	0xbccc7c74	-0.024961688
29	0x3b843df0	0.004035704
30	0xbcbbe1a1	-0.022934737
31	0xbd96884c	-0.07350215
32	0xbd3a6294	-0.045504168
33	0x3c07b23e	0.008282242
34	0x3d0da4b5	0.034580905
35	0xbc0c0801	-0.00854683
36	0x3dbdab7d	0.092612244
37	0x3b854a00	0.0040676594
38	0x3d06a4a4	0.032871857
39	0x3dcedbf6	0.10100548
40	0xbcb90dc3	-0.02258957
41	0x3da7df2f	0.08196866
42	0x3c45e84c	0.01207931
43	0xbc4fdd7d	-0.012687084
44	0xbd24c555	-0.040227253
45	0x3e3812a5	0.17975862
46	0xbdc39b61	-0.095511205
47	0x3d4d52c8	0.050127774
48	0xbd055b4d	-0.032557774
49	0x3dcf0497	0.10108297
50	0xbe62867d	-0.22121616
51	0x3e23096a	0.1592156
52	0xbe1d79dd	-0.15378518
53	0x3cc01720	0.023448527
54	0x3c88fea1	0.016722979
55	0x3e2f7369	0.17133869
56	0x3ba9977b	0.0051755286
57	0x3d233c13	0.039852213
58	0x3caf124d	0.021371031
59	0xbbd90a82	-0.006623567
60	0xbd0bc740	-0.034125566
61	0x3d4db63d	0.050222624
62	0x3cecf39c	0.028924756
63	0xbe685d56	-0.22691855

fc2.weight f4 [64, 64]
0	0x3da086e1	0.07838226
1	0xbd7f82d5	-0.06238063
2	0xbe282989	-0.16422094
3	0xbd1218e9	-0.035668287
4	0x3e46f8ee	0.19430897
5	0xbc8ca7c3	-0.017169839
6	0x3e8b85d3	0.27250537
7	0xbd8da82b	-0.06916841
8	0x3d846179	0.06463904
9	0x3e969c98	0.29416347
10	0x3c6c67f7	0.014429084
11	0x3da2d01d	0.07949851
12	0xbe153808	-0.14572155
13	0xbeb95895	-0.36200395
14	0x3d36f1f6	0.044664346
15	0xbd64334f	-0.055712994
16	0x3e824430	0.25442648
17	0xbd8a89ec	-0.06764588
18	0x3dd90d00	0.10598183
19	0xbe030087	-0.1279317
20	0xbbd10579	-0.006378826
21	0xbda12764	-0.07868841
22	0xbe3529cd	-0.17691727
23	0x3d9a62d8	0.07538384
24	0x3d846d86	0.064662024
25	0x3e865bc6	0.26241893
26	0xbd3cee1b	-0.046125513
27	0x3d9dd1cb	0.077060305
28	0xbe2c4681	-0.1682377
29	0xbd7069af	-0.058694538
30	0xbd7a5cf1	-0.061123792
31	0xbe7a9129	-0.24469437
32	0x3d245a75	0.04012533
33	0x3e167949	0.14694704
34	0x3ba4ef41	0.005033404
35	0xbd549fc0	-0.051910162
36	0x3dae437c	0.085089654
37	0x3da4671b	0.08027478
38	0x3ebb3f61	0.36571792
39	0xbde48e57	-0.11159962
40	0x3e7dabb3	0.2477253
41	0x3ca3fe4c	0.02001872
42	0xbde19e41	-0.11016513
43	0x3e617c77	0.22020136
44	0x3e1c069d	0.15236898
45	0xbdb01068	-0.08596879
46	0x3e53f802	0.20700076
47	0xbdc4ccc3	-0.09609368
48	0x3de1ac34	0.11019173
49	0xbd9c8cad	-0.07644019
50	0x3dea9f91	0.11456216
51	0x3dbfa583	0.09357741
52	0x3d27863a	0.040899493
53	0xbe918b38	-0.28426528
54	0xbdf9b6a5	-0.1219304
55	0x3cad2044	0.02113355
56	0xbd359564	-0.044331923
57	0xbe65edd2	-0.22454002
58	0x3e7dddc5	0.2479163
59	0xbe54ec52	-0.20793274
60	0xbd1b2562	-0.037877448
61	0xbe76b0ca	-0.24090877
62	0xbe2cdb94	-0.16880637
63	0x3d95c9ab	0.07313856
64	0x3c84859c	0.016176991
65	0x3ee2eeef	0.44322917
66	0xbe89966b	-0.26872572
67	0x3e2443a2	0.16041425
68	0x3bc84e4c	0.0061128493
69	0xbd89cfcb	-0.067290865
70	0x3e9d4a18	0.30720592
71	0x3e25b2d1	0.16181494
72	0x3ddd328d	0.108006574
73	0x3e1339e8	0.14377558
74	0xba0e8315	-0.0005436403
75	0xbdb50395	-0.08838574
76	0xbe358aff	-0.17728804
77	0xbb1f9108	-0.002434792
78	0x3dd6b1e6	0.1048315
79	0x3db84406	0.089973494
80	0xbe10ac02	-0.14128116
81	0xbe056f0c	-0.13030642
82	0x3d4e1c7a	0.050320126
83	0xbe408a57	-0.18802772
84	0x3c570970	0.013124809
85	0xbdfb7635	-0.122784056
86	0x3d06cf59	0.032912586
87	0x3d1072ca	0.03526572
88	0xbdcc6d45	-0.09981779
89	0xbe2afa23	-0.16696982
90	0x3c21afa2	0.009868534
91	0xbdd51afe	-0.10405539
92	0xbc01f19d	-0.00793114
93	0xbd6f69bc	-0.058450446
94	0x3dd40698	0.1035282
95	0x3d939478	0.072060525
96	0xbe080123	-0.13281684
97	0xbb51a728	-0.0031990502
98	0xbdcfb274	-0.10141459
99	0xbd865cfa	-0.065607026
100	0x3e26b4cc	0.16279906
101	0x3e0df99c	0.1386475
102	0x3d9143c8	0.07093006
103	0xbe409efc	-0.18810648
104	0xbce47fef	-0.027893035
105	0xbca750ef	-0.020424334
106	0x3dc7d01c	0.097564906
107	0xbe1852fc	-0.14875406
108	0x37afce53	2.0957703e-05
109	0xbca6e99c	-0.020375066
110	0xbe10ebb4	-0.14152414
111	0xbe045530	-0.12923121
112	0x3c4c8c02	0.012484552
113	0xbddd3a16	-0.10802095
114	0x3cfb61c2	0.030686263
115	0x3d9f11c4	0.077670604
116	0x3d4386d7	0.047736015
117	0xbdff4099	-0.12463493
118	0xbdde7728	-0.10862571
119	0xbd77813e	-0.06042599
120	0x3eac487b	0.33649048
121	0x3e13199f	0.14365242
122	0xbcf5e107	-0.030014528
123	0x3dd36c90	0.10323441
124	0x3d2ffd27	0.042966034
125	0xbd890f2b	-0.06692346
126	0xbde2552b	-0.11051401
127	0x3e865a26	0.26240653
128	0xbe6c190b	-0.23056428
129	0xbd124533	-0.035710525
130	0xbde89e8c	-0.113583654
131	0xbd4b3647	-0.04961231
132	0x3c24966c	0.010045629
133	0x3da666f9	0.08125109
134	0xbcbedc9e	-0.023298558
135	0xbdd3f2b3	-0.103490256
136	0xbdda3bfb	-0.106559716
137	0x3e16a3c8	0.14710915
138	0xbdd96c76	-0.106163904
139	0xbe0fdb3f	-0.1404848
140	0x3d2d6bd1	0.04233915
141	0x3de60c1a	0.11232777
142	0x3d03d492	0.032185145
143	0x3d20de91	0.039274756
144	0xbe8cc49c	-0.2749375
145	0xbe22a629	-0.15883698
146	0x3f022423	0.5083639
147	0x3abf6214	0.0014601373
148	0x3db24085	0.087037124
149	0xbe3e2476	-0.18568596
150	0xbd94003c	-0.07226607
151	0xbd5b66e1	-0.05356491
152	0x3e4481e1	0.1919017
153	0x3d96c123	0.07361057
154	0x3da1c7c6	0.07899432
155	0xbe07e825	-0.1327215
156	0x3b8f99b6	0.0043823374
157	0xbd55ee3c	-0.05222915
158	0x3d9b43b0	0.0758127
159	0x3d621622	0.05519689
160	0x3da0f7a9	0.078597374
161	0x3e110bb0	0.14164615
162	0x3d820344	0.06348279
163	0xbc90bca2	-0.017668072
164	0xbe3c0c94	-0.18364173
165	0xbd18be98	-0.03729114
166	0x3a24a712	0.0006280999
167	0xbe96c157	-0.29444382
168	0xb9ad6592	-0.00033072807
169	0x3e8059de	0.25068563
170	0xbe91234e	-0.28347248
171	0xbd8c3a03	-0.06847002
172	0x3e5e4648	0.21706498
173	0xbe20c83b	-0.15701382
174	0x3e32d660	0.1746459
175	0x3e767a7d	0.24070163
176	0xbc893b1f	-0.016751824
177	0x3d73339f	0.0593754
178	0xbdd2f643	-0.10300877
179	0xbd9c8bee	-0.07643877
180	0xbdb15e58	-0.08660573
181	0x3d77ba80	0.060480595
182	0x3d5ec6fa	0.054388978
183	0xbc96eaed	-0.018422568
184	0xbe77beea	-0.24193922
185	0x3d3d05fe	0.046148293
186	0x3d4755ff	0.048665997
187	0x3da8c419	0.08240528
188	0x3e131eb1	0.14367177
189	0x3e4520bf	0.19250773
190	0xbe0a7fff	-0.13525389
191	0xbdbd9e99	-0.09258766
192	0x3c3553f5	0.01106738
193	0x3c21d04c	0.009876322
194	0xbc58dc4e	-0.0132361185
195	0xbe587f3f	-0.2114229
196	0xbe920403	-0.28518686
197	0x3d5d04c5	0.053959627
198	0xbde3e5af	-0.11127793
199	0xbb45ac64	-0.0030162567
200	0x3e467022	0.19378713
201	0x3ea1e42e	0.316194
202	0xbcc9f59a	-0.024653245
203	0x3e8bf1f9	0.27333048
204	0xbe6f85c4	-0.23390871
205	0x3d904ea4	0.070462495
206	0x3ea2655e	0.31717962
207	0xbd39a1ee	-0.045320444
208	0x3c5c1af4	0.0134341605
209	0x3d3ad37f	0.045611855
210	0xbcfc7553	-0.030817663
211	0xbea4a1ff	-0.32154843
212	0x3d229977	0.039697137
213	0x3d7ca284	0.061678424
214	0x3d902c35	0.07039682
215	0xbe14777a	-0.14498702
216	0xbd17c1fe	-0.03705024
217	0x3e3ef45e	0.18647906
218	0x3cd1289b	0.025532058
219	0xbebf5040	-0.37365913
220	0xbe858c16	-0.2608344
221	0x3d12f68d	0.03587966
222	0xbd3167ea	-0.04331199
223	0xbd518067	-0.051147845
224	0x3db70519	0.08936519
225	0xbcd78977	-0.026310666
226	0xbd8f7d25	-0.07006291
227	0x3e6c837c	0.23097032
228	0xbddc4325	-0.10754994
229	0x3e141423	0.14460807
230	0xbcd4eacc	-0.025990866
231	0xbe058612	-0.13039425
232	0x3c879de8	0.016554788
233	0xbd6cffa7	-0.057860997
234	0xbe62fadb	-0.22166006
235	0x3db79bbe	0.08965252
236	0x3e931319	0.28725508
237	0x3db35839	0.087570615
238	0xbe285f16	-0.16442522
239	0x3c312c9e	0.01081386
240	0xbe816fd2	-0.25280625
241	0x3db7f645	0.08982519
242	0x3e0ab4a0	0.13545465
243	0x3c9b7ef2	0.01898143
244	0x3c3c1bbf	0.011481225
245	0xbe07c3fd	-0.13258357
246	0x3e286764	0.1644569
247	0xbd3eb533	-0.046559524
248	0x3c58b950	0.013227776
249	0xbdd6258c	-0.1045638
250	0x3ec15209	0.377579
251	0xbdb4f581	-0.08835889
252	0xbe99ffce	-0.30077976
253	0xbe99abae	-0.30013794
254	0xbda85d9c	-0.082209796
255	0xbd0f5d38	-0.03500101

fc2.bias f4 [64]
0	0x3ca16c59	0.019704985
1	0xbcf67edf	-0.030089794
2	0x3d234bbd	0.03986715
3	0xbdead8be	-0.114671215
4	0xbc5c3bf0	-0.013442025
5	0x3db83f3e	0.089964375
6	0x3e21179e	0.15731665
7	0x3d8c6b0e	0.068563566
8	0xbcb9b949	-0.022671359
9	0x3cba1a63	0.02271766
10	0xb8e844c4	-0.00011075431
11	0xbd08e61b	-0.03342257
12	0xbc056f49	-0.008144208
13	0x3d5f8c03	0.054576885
14	0x3d8043e3	0.06262948
15	0x3e1df0d4	0.154239
16	0x3da2ba1f	0.07945656
17	0x3e148034	0.1450203
18	0xbdbe37cf	-0.092879884
19	0xbdc3b47d	-0.0955591
20	0xbccf9155	-0.025337854
21	0xbc531fc5	-0.012885992
22	0x3b699df5	0.0035647128
23	0x3d1776f3	0.036978673
24	0xbd8d4ff9	-0.06900019
25	0xbd132dd3	-0.035932373
26	0xbd761703	-0.06008054
27	0x3d2fee19	0.042951677
28	0x3bb0a01a	0.0053901793
29	0x3c92530e	0.01786187
30	0xbd16c515	-0.036809046
31	0x3c341e34	0.010993529
32	0x3d71c2bb	0.0590236
33	0x3c8a7320	0.016900599
34	0x3d0a6dfe	0.033796303
35	0x3d43b2d2	0.04777796
36	0x3cf87dbf	0.030333398
37	0xbd03c3c4	-0.03216912
38	0x3ddf0fae	0.108916625
39	0xbd17f463	-0.0370983
40	0xbda58f73	-0.080840014
41	0x3d3e6b24	0.046488896
42	0x3dd34fc0	0.103179455
43	0x3e3dba1a	0.18528023
44	0xbd0c4b61	-0.034251574
45	0xbd87e32e	-0.06635128
46	0xbd13ed2a	-0.03611485
47	0x3d9947d6	0.07484405
48	0x3d037240	0.03209138
49	0x3d955d4f	0.07293188
50	0x3b388abd	0.0028158866
51	0x3bbb46f0	0.0057152435
52	0x3d036ee3	0.03208817
53	0xbdd0c540	-0.101938725
54	0x3d3e9b18	0.046534628
55	0x3cb4e9a1	0.02208406
56	0x3d53123e	0.05153107
57	0xbe0e1124	-0.13873726
58	0x3d5bd9be	0.053674452
59	0x3df0d495	0.11759297
60	0xbc6897a8	-0.014196314
61	0xbd9a4917	-0.07533472
62	0x3e1f9f45	0.155881
63	0x3d4436c1	0.04790378

mu.weight f4 [8, 64]
0	0x3d09d1e9	0.03364745
1	0x3dac9cdf	0.08428358
2	0xbe382bda	-0.17985478
3	0xbc8a7b93	-0.016904628
4	0xbe10a175	-0.14124091
5	0xbd85c3a0	-0.06531453
6	0x3e39ada6	0.18132648
7	0x3e43d9ae	0.19126007
8	0x3d84245b	0.06452247
9	0xbdf20a69	-0.11818392
10	0xbdd8f6a2	-0.105939165
11	0xbd4699a5	-0.04848637
12	0xbd1196f6	-0.03554436
13	0x3e38acce	0.1803467
14	0xbcc11f4e	-0.023574498
15	0x3dcf0af6	0.101095125
16	0x3cab30a8	0.020897225
17	0xbe22f8d9	-0.1591524
18	0xbe8a5ad1	-0.27022412
19	0xbea3a727	-0.31963465
20	0xbd839773	-0.06425371
21	0xbdc29f2f	-0.09503018
22	0x3cc5b3ae	0.02413353
23	0x3d92440d	0.07141886
24	0xbe7d450d	-0.24733372
25	0x3db50cf2	0.0884036
26	0xbe066eae	-0.13128158
27	0xbdd18315	-0.1023008
28	0x3e321bb9	0.17393388
29	0x3d350f28	0.044203907
30	0xbbffb323	-0.007803337
31	0x3dcf94b5	0.101357855
32	0xbe647d58	-0.2231344
33	0xbd852504	-0.06501201
34	0x3dfdf30e	0.12399875
35	0xbdad0753	-0.084486626
36	0x3e8bd8b5	0.27313772
37	0xbe560b1d	-0.20902677
38	0x3ddf073d	0.108900525
39	0xbd387613	-0.04503448
40	0xbcad8ec5	-0.021186242
41	0xbe984ed5	-0.29747644
42	0xbe267f3f	-0.16259478
43	0xbe2b73d9	-0.16743411
44	0xbec709af	-0.38874575
45	0xbdf722bb	-0.12067171
46	0x3e03d1c6	0.12872991
47	0xbed8da5c	-0.42354095
48	0x3e3f1cfe	0.18663403
49	0x3daa7b5d	0.08324311
50	0xbe01ffa2	-0.12695172
51	0x3da3d6c9	0.079999514
52	0x3eaa0752	0.3320871
53	0x3d40bdac	0.047055885
54	0x3e421ff1	0.18957497
55	0x3ea5f992	0.3241697
56	0x3dc2b6be	0.095075116
57	0x3c64aed3	0.013957697
58	0xbe672b6a	-0.22575155
59	0x3bb0f2ea	0.0054000514
60	0xbd128f69	-0.035781298
61	0xbe36ec99	-0.17863692
62	0xbe1d3124	-0.15350777
63	0x3ced1393	0.028939998
64	0xbce56a0f	-0.028004674
65	0x3d192b73	0.037394952
66	0x3e93ab60	0.28841686
67	0xbcaed2dc	-0.02134078
68	0xbdb1a8c9	-0.08674771
69	0xbe2caaad	-0.16861983
70	0x3cee7e0a	0.029112834
71	0x3ca14593	0.019686496
72	0xbda8c519	-0.082407184
73	0x3e4bb03b	0.19891445
74	0x3e37ae36	0.1793755
75	0x3ac230d1	0.0014815574
76	0xbe13c6ef	-0.14431356
77	0x3dcff148	0.101534426
78	0x3da37b95	0.07982556
79	0x3deb784c	0.11497554
80	0x3dbd8403	0.09253695
81	0xbd5a405e	-0.05328404
82	0xbea18a77	-0.31550953
83	0xbc8823c3	-0.016618615
84	0x3be569d9	0.0070011434
85	0x3d09417c	0.033509716
86	0xbe832911	-0.2561727
87	0xbd5f1bcf	-0.05446988
88	0x3c39d3f4	0.0113420375
89	0x3de5689a	0.11201592
90	0x3de7b817	0.11314409
91	0x3dd4f56b	0.10398372
92	0xbc4ba14e	-0.012428595
93	0x3d09fd54	0.03368886
94	0x3d9fa3a0	0.07794881
95	0xbe93e9be	-0.2888927
96	0xbd61546a	-0.055012144
97	0xbd9d92cd	-0.07694016
98	0xbd43fb65	-0.04784717
99	0x3e0f3064	0.13983303
100	0xbdd7f6d1	-0.10545123
101	0x3ded1208	0.11575705
102	0xbdca7c24	-0.09886959
103	0x3e2b1a20	0.16709185
104	0x3cd135d9	0.025538372
105	0x3d61c6e7	0.05512133
106	0xbd07526c	-0.033037588
107	0xbe915313	-0.28383693
108	0x3e1c878a	0.15286079
109	0x3dd07c7b	0.10179993
110	0x3b152b31	0.002276134
111	0x3da5c317	0.08093851
112	0xbe07b3dc	-0.13252205
113	0x3c9d9fd0	0.019241244
114	0xbe46c3d9	-0.19410647
115	0xbc844163	-0.01614446
116	0xbdd0369a	-0.101666644
117	0x3e12f245	0.14350231
118	0xbb07087a	-0.0020604418
119	0x3ce07055	0.027397314
120	0xbdf8b02d	-0.12142978
121	0x3dcbb2f1	0.0994624
122	0xbdf41acd	-0.11919174
123	0x3e79b0da	0.2438387
124	0x3e1f8df1	0.1558149
125	0x3e0950f9	0.13409795
126	0xbe22b167	-0.15887986
127	0x3e32f96c	0.1747796
128	0x3e2f49d1	0.17118002
129	0x3e848ee1	0.25890258
130	0xbe3f4ed7	-0.18682419
131	0x3e04217a	0.12903395
132	0x3d9591e3	0.07303216
133	0x3e1f09d9	0.155311
134	0xbf06645f	-0.52496904
135	0xbe10c771	-0.14138581
136	0xbe0849b6	-0.13309368
137	0x3dfd910d	0.12381182
138	0x3e70207e	0.23449895
139	0x3d8c7326	0.068579
140	0xbcad404a	-0.02114882
141	0x3dcc3d84	0.09972671
142	0xbc162f23	-0.009166512
143	0x3deab9d2	0.11461224
144	0xbd5daa9e	-0.05411779
145	0xbd818858	-0.06324834
146	0x3d4d6907	0.05014899
147	0x3c58af6e	0.013225419
148	0x3dd7f4a8	0.10544711
149	0xbdb88a13	-0.090107106
150	0xbd15888d	-0.036507178
151	0x3db1f060	0.08688426
152	0xbc372342	-0.01117784
153	0x3e34c55e	0.17653415
154	0x3e01c176	0.12671456
155	0x3edb7c4f	0.42868277
156	0xbde637da	-0.112411216
157	0xbe1a2998	-0.1505493
158	0xbe5d6926	-0.21622142
159	0x3c97465f	0.018466173
160	0xbe35d350	-0.1775639
161	0xbe60598d	-0.21909161
162	0xbe8e2ab1	-0.27766946
163	0x3e9bb99e	0.30415052
164	0x3e4649f0	0.19364142
165	0x3debe119	0.11517543
166	0x3dfb95a6	0.122844025
167	0xbe22ee31	-0.15911175
168	0x3c8b7411	0.017023118
169	0xbcf88fbd	-0.030341977
170	0x3e823e64	0.25438225
171	0xbea53dad	-0.32273617
172	0x3de001d2	0.10937847
173	0x3d051e52	0.03249962
174	0x3e56fc06	0.20994577
175	0xbbd86266	-0.006603527
176	0x3e2525c5	0.16127689
177	0x3d3e9e91	0.04653794
178	0x3e691189	0.22760595
179	0xbe345db6	-0.17613873
180	0xbd07b615	-0.03313263
181	0xbcc66265	-0.02421684
182	0xbd8aead5	-0.06783072
183	0xbe5897d6	-0.21151671
184	0x3d54843b	0.051883917
185	0x3da31139	0.07962269
186	0x3e73b8af	0.2380092
187	0x3c1d7acb	0.009611796
188	0xbd88a702	-0.06672479
189	0x3d96e1ef	0.07367312
190	0x3df8d7ba	0.121505216
191	0xbd2410a7	-0.040054943
192	0xbe6bea67	-0.23038636
193	0x3e04ad12	0.12956646
194	0x3dc4eb54	0.09615198
195	0x3e357072	0.17718676
196	0xbe03640d	-0.12831135
197	0x3d8dbbbf	0.06920575
198	0x3daa736a	0.08322795
199	0x3e10f777	0.141569
200	0xbc0f0335	-0.008728792
201	0x3dd41bb7	0.10356849
202	0xbde0f9e7	-0.10985165
203	0x3e0aaa64	0.13541561
204	0xbdad908d	-0.084748365
205	0x3d855e72	0.06512155
206	0xbd7e8d56	-0.062146507
207	0xbe08778c	-0.13326854
208	0xbe1bd5d9	-0.15218295
209	0x3ddd5741	0.10807658
210	0xbd09cf66	-0.033645056
211	0xbe29ecd5	-0.1659425
212	0x3dfe13f4	0.124061495
213	0xbdbe8825	-0.09303311
214	0xbe2e1fcc	-0.17004317
215	0xbcb2a494	-0.021806993
216	0x3d6a0633	0.05713482
217	0xbccaa849	-0.024738448
218	0xbd1f43ae	-0.038882904
219	0x3bf06a77	0.0073369103
220	0x3d048e9f	0.032362577
221	0x3dd1c281	0.10242177
222	0x3def6d40	0.1169076
223	0xbd120f88	-0.035659343
224	0xbdd01aff	-0.10161399
225	0x3cbcc3ab	0.02304252
226	0xbdc9860a	-0.09840019
227	0xbc469c7d	-0.012122271
228	0x3d3957dd	0.04524981
229	0xbc25b8d7	-0.01011487
230	0x3dbc2720	0.0918715
231	0x3d9b5b3b	0.0758576
232	0xbd9693a3	-0.07352378
233	0x3bd7294a	0.0065662013
234	0x3dd58936	0.104265615
235	0xbd8e7e31	-0.06957663
236	0xbdcf23a3	-0.10114219
237	0x3e29c3c0	0.16578579
238	0x3d9207c0	0.071303844
239	0x3afac9b0	0.0019133594
240	0xbbc60fb8	-0.0060443543
241	0xbe1ed0d5	-0.1550935
242	0x3ce97cad	0.028501833
243	0xbcc5d659	-0.02415006
244	0xbd996396	-0.07489698
245	0x3eafd364	0.34340966
246	0x3cb65019	0.02225499
247	0x3c2a3d9c	0.010390665
248	0x3e923309	0.28554562
249	0xbc89a414	-0.016801871
250	0xbd2730ec	-0.04081814
251	0xbe8fd851	-0.28094724
252	0xbd9be543	-0.076120876
253	0xbd19e4dd	-0.037571777
254	0x3dd762de	0.10516904
255	0x3e1af6ef	0.1513326

mu.bias f4 [8]
0	0xbb6e8303	-0.0036394007
1	0xbdba18e6	-0.0908678
2	0xbb9b4305	-0.004738214
3	0xbd4ce06b	-0.05001871
4	0x3d4f42c0	0.050600767
5	0x3ddea001	0.10870362
6	0x3c85d5c3	0.016337281
7	0x3da95855	0.08268801

fc1.weight f4 [64, 111]
0	0xbede84f8	-0.43460822
1	0x3f075b46	0.5287365
2	0x3f244a87	0.6417622
3	0xbed071ec	-0.40711915
4	0xbc7245fe	-0.014787195
5	0x3e0593d3	0.13044672
6	0x3d5d0907	0.053963687
7	0x3d50f28f	0.051012572
8	0xbd569b56	-0.052394234
9	0xbe3c423f	-0.18384646
10	0xbcdc0306	-0.02685691
11	0xbced808e	-0.028991964
12	0x3e0d2088	0.13781941
13	0xbe9014ad	-0.28140774
14	0xbd50a7d3	-0.0509413
15	0xbe6053f0	-0.2190702
16	0xbd20e088	-0.03927663
17	0x3e6fb688	0.23409474
18	0xbe77ee1e	-0.24211928
19	0xbd10e7bf	-0.03537726
20	0x3d41db93	0.047328543
21	0xbd48c350	-0.04901439
22	0x3b0e9e1c	0.002176172
23	0xbd313bf5	-0.04327007
24	0xbbb2c2f1	-0.0054553677
25	0xbe210407	-0.15724193
26	0x3d394641	0.045233015
27	0xbdbda937	-0.09260791
28	0xbe8279b5	-0.2548348
29	0xbdc1c633	-0.094616316
30	0x3dd50ddd	0.10403035
31	0x3e2e1cad	0.17003126
32	0x3de3d0b7	0.111237936
33	0x3c15f3ba	0.009152347
34	0xbd8dcf9d	-0.06924365
35	0x3e131df7	0.143669
36	0xbd860266	-0.06543426
37	0x3cdee3cb	0.02720823
38	0x3d1866c6	0.037207387
39	0xbc055c70	-0.008139715
40	0xbda4102e	-0.080108985
41	0x3d940c29	0.07228882
42	0xbe466f4e	-0.19378397
43	0xbcd59daf	-0.026076166
44	0xbe436eff	-0.1908531
45	0xbd010833	-0.03150196
46	0xbcd4cf5a	-0.02597778
47	0xbe2c52a3	-0.16828398
48	0xbd9d878d	-0.0769187
49	0x3e0bc72e	0.136502
50	0xbdca3716	-0.09873788
51	0x3dba5dcf	0.09099924
52	0xbea17961	-0.31537917
53	0x3d2cf633	0.04222698
54	0x3da5493c	0.08070609
55	0x3d1ace90	0.03779465
56	0xbcb30057	-0.021850748
57	0x3d91b2b5	0.07114164
58	0xbde67830	-0.11253393
59	0xbe048c83	-0.12944226
60	0xbd3454b8	-0.044026107
61	0x3d94d539	0.072672315
62	0xbbc4fa50	-0.006011285
63	0xbd68c420	-0.056827664
64	0x3da1d3ac	0.07901701
65	0x3d8d3864	0.06895521
66	0xbdebb3b6	-0.115088865
67	0xbc8cb5a8	-0.017176464
68	0x3dc587e3	0.09645059
69	0x3e0ce93a	0.13760844
70	0x3db6d86b	0.08927997
71	0x3cb4ce1b	0.022070935
72	0xbda82050	-0.08209288
73	0xbda2de86	-0.07952599
74	0xbca68d8b	-0.020331165
75	0x3c6c1b1a	0.014410758
76	0xbdee5337	-0.11636966
77	0x3cdf016f	0.027222363
78	0x3be56c24	0.0070014168
79	0xbcb70929	-0.022343235
80	0xbddf182b	-0.108932815
81	0xbdc96471	-0.09833611
82	0x3cf76b54	0.030202545
83	0x3d71de08	0.059049636
84	0xbe393f2d	-0.18090506
85	0x3c29eae4	0.010370944
86	0xbdc30a9e	-0.095235094
87	0xbc4e0fde	-0.012577025
88	0xbd6aa73a	-0.057288386
89	0x3e5c3f7c	0.21508592
90	0xbe3ad748	-0.18246186
91	0x3d2eaaeb	0.04264347
92	0xbd8c5e79	-0.06853957
93	0x3cd26271	0.025681706
94	0x3de83288	0.11337763
95	0xbc2f9a8d	-0.010718
96	0xbd13455a	-0.03595481
97	0x3d876e3c	0.066128224
98	0xbd7919ff	-0.060815807
99	0xbd215425	-0.039386887
100	0x3d42897a	0.04749439
101	0x3da8c3a8	0.082404435
102	0xbcdd5f4f	-0.027022986
103	0xbcac2827	-0.02101524
104	0x3da1b10f	0.07895099
105	0xbd362cb7	-0.044476237
106	0xbcc40ba0	-0.023931324
107	0xbdbefa38	-0.09325069
108	0xbb9e26d3	-0.0048264056
109	0x3dda2a97	0.106526546
110	0xbd8f9b5c	-0.07012054
111	0xbee0874d	-0.43853226
112	0x3f77516c	0.96608615
113	0x3d8e685e	0.069535
114	0xbeb7db3c	-0.3590945
115	0x3e9a3b1e	0.30123228
116	0x3dc7bdae	0.097529754
117	0xbd8d6a67	-0.0690506
118	0x3d7c5687	0.061605956
119	0x3e1aec3b	0.15129177
120	0x3e94bee0	0.29051876
121	0x3d34e726	0.044165753
122	0x3e1b767a	0.15181914
123	0xbdaa0d7f	-0.083033554
124	0x3c6fa6f6	0.014627209
125	0x3ce5836b	0.028016767
126	0xbe865850	-0.26239252
127	0xbd16c689	-0.03681043
128	0x3c82d27f	0.015969513
129	0xbaa58bf3	-0.0012630209
130	0xbd16b161	-0.036790255
131	0xb9b7f690	-0.00035088183
132	0x3af74cee	0.0018867531
133	0xbd36d382	-0.044635303
134	0x3d28cf26	0.041213177
135	0xb9c7907b	-0.00038063884
136	0x3b57436c	0.0032846583
137	0xbc5495df	-0.012975185
138	0xbd4b3ece	-0.049620442
139	0x3d31ccbf	0.04340815
140	0x3db022e2	0.08600403
141	0x3d847a3f	0.06468629
142	0x3d535512	0.0515948
143	0xbe1636b6	-0.14669308
144	0x3d18c438	0.037296504
145	0x3d20b68f	0.0392366
146	0xbd4f78e2	-0.050652392
147	0xbd892054	-0.06695619
148	0xbc5ea65d	-0.013589469
149	0x3d5fecfb	0.05466936
150	0xbd964ab2	-0.07338466
151	0xbd546575	-0.05185457
152	0x3d7a283b	0.061073523
153	0x3de21768	0.11039621
154	0xbd1840d9	-0.03717122
155	0x3dfba165	0.12286643
156	0x3d16bb5f	0.036799785
157	0xbd127d2e	-0.035763912
158	0x3dfda48e	0.12384902
159	0xbdf66844	-0.12031606
160	0xb929cb58	-0.00016192847
161	0xbe38bbd5	-0.18040402
162	0xbd43b7ec	-0.047782823
163	0xbdf07eda	-0.11742945
164	0xbca12c29	-0.019674378
165	0xbd952be8	-0.07283765
166	0x3e446092	0.19177464
167	0xbe07ff22	-0.13280919
168	0x3baabb19	0.005210292
169	0xbc1a9a4c	-0.009436201
170	0x3e27f44e	0.16401789
171	0xbcdd0f42	-0.026984815
172	0xbccbe775	-0.02489064
173	0x3da6efb7	0.08151191
174	0x3dd60603	0.104503654
175	0xbbfebb61	-0.007773802
176	0x3c543cd4	0.012953956
177	0x3e284cae	0.16435501
178	0x3e144833	0.14480667
179	0x3e1896c0	0.14901257
180	0xbc5fe435	-0.013665249
181	0xbdb4289f	-0.0879681
182	0x3bd29cf7	0.006427403
183	0x3e1429b3	0.14469032
184	0xbd52db22	-0.051478513
185	0x3da76dcd	0.0817524
186	0x3da5b671	0.080914386
187	0x3dd466a1	0.103711374
188	0xbd17d23a	-0.037065722
189	0xbcde307c	-0.027122729
190	0x3e2467d6	0.16055235
191	0xbe188605	-0.14894874
192	0xbd63a64a	-0.055578507
193	0x3e044c09	0.1291963
194	0xbdb958a0	-0.09050107
195	0xbbcf1822	-0.0063200155
196	0xbe4329b2	-0.19058874
197	0x3dc83129	0.097750016
198	0xbc9d0c47	-0.019170893
199	0x3dd06065	0.10174636
200	0x3ca5067d	0.020144695
201	0x3ca26ef8	0.019828305
202	0x3e075e21	0.13219501
203	0xbd538673	-0.051641893
204	0x3ce43c63	0.027860826
205	0x3c5ae7fe	0.013360975
206	0x39d6c89b	0.00040966723
207	0xbd9f146a	-0.077675655
208	0xbdb0f2a3	-0.08640029
209	0x3d988140	0.074465275
210	0x3dcf9bc2	0.1013713
211	0x3d963606	0.07334523
212	0x3e634ba4	0.22196823
213	0xbd30f733	-0.043204498
214	0x3e3e4d69	0.18584217
215	0x3e809e70	0.25120878
216	0xbca33f49	-0.019927638
217	0x3b93a581	0.0045058136
218	0xbe09d7e7	-0.13461266
219	0xbdc17a15	-0.094471134
220	0xbd478f28	-0.04872051
221	0xbd0bdc87	-0.03414586
222	0x3ee85542	0.45377547
223	0xbf5dd9f0	-0.8666067
224	0x3e7a1369	0.24421467
225	0xbcb161ab	-0.021653017
226	0xbf3b7a58	-0.73233557
227	0x3e9784ae	0.29593414
228	0x3e6d9cb8	0.23204315
229	0xbea45fca	-0.3210433
230	0xbe346197	-0.17615353
231	0xbe98def0	-0.29857588
232	0xbe8dcce6	-0.27695388
233	0x3e5511dd	0.20807596
234	0x3f00d6fb	0.50328034
235	0x3d81af0d	0.063322164
236	0x3e0a2314	0.13489944
237	0x3e0e2b73	0.13883762
238	0x3c0d9e72	0.008643733
239	0x3e270871	0.16311814
240	0xbd163954	-0.036675766
241	0x3cf5b342	0.029992703
242	0x3d5a4e87	0.053297546
243	0xbb1d5a6a	-0.002401019
244	0x3d13da81	0.036097053
245	0xbda6ef7c	-0.08151147
246	0xbbab21a9	-0.0052225185
247	0xbde83ed7	-0.11340111
248	0xbdc059d1	-0.09392131
249	0xbdf06dac	-0.11739668
250	0x3c2d377d	0.0105723115
251	0x3d8b1ac8	0.067922175
252	0x3d03f35c	0.032214507
253	0xbd6b356b	-0.05742399
254	0xbd5e6aea	-0.05430118
255	0xbdd04122	-0.10168673

fc1.bias f4 [64]
0	0x3f22ce75	0.6359628
1	0xbe9be836	-0.304506
2	0x3d9f0f62	0.07766606
3	0x3ef32dd8	0.47495914
4	0xbe9c93e6	-0.30581588
5	0x3da9bc28	0.08287841
6	0xbf2d3937	-0.6766543
7	0x3f4a8bb8	0.79119444
8	0x3eb95b23	0.36202344
9	0x3f6f0c12	0.9337779
10	0x3ee4188c	0.44549978
11	0x3e5562fb	0.2083854
12	0xbe1b31bc	-0.15155691
13	0x3f24e4e7	0.6441178
14	0xbe1c6557	-0.15273033
15	0x3f04bd1e	0.5185107
16	0x3f97dbd3	1.186396
17	0x3f84770d	1.0348831
18	0x3eb75b96	0.35812062
19	0x3f400bc0	0.7501793
20	0xbc4a57ac	-0.012350004
21	0xbe3b85f6	-0.18312821
22	0x3f119279	0.56864125
23	0xbea105dc	-0.31449783
24	0xbe013d0b	-0.12620942
25	0x3e633260	0.22187185
26	0x3ebb2f43	0.36559495
27	0xbeab5f83	-0.33471307
28	0x3e9b1f13	0.30297145
29	0x3f109dee	0.5649098
30	0x3e903977	0.28168842
31	0xbf1c2012	-0.60986435
32	0x3f1bb7cf	0.60827345
33	0x3f8b8476	1.0899799
34	0xbdcb6a8f	-0.09932434
35	0x3ecd6e23	0.4012309
36	0xbf0957ef	-0.536498
37	0xbefcdfcd	-0.49389496
38	0xbe9cd4db	-0.30631146
39	0x3e8c4187	0.27393743
40	0x3cc542b2	0.024079654
41	0xbf090ca7	-0.5353493
42	0x3fa370cb	1.2768797
43	0x3ebeccd8	0.37265658
44	0xbe37fedd	-0.17968316
45	0x3d4f680b	0.050636332
46	0xbea51816	-0.3224494
47	0xbea7463d	-0.32670775
48	0xbe3149bd	-0.17313285
49	0x3f362515	0.7115033
50	0x3d808166	0.06274681
51	0xbf0329ad	-0.5123547
52	0x3d7eac7e	0.06217622
53	0xbdead416	-0.114662334
54	0x3f0d79ca	0.5526396
55	0x3f184e5b	0.5949456
56	0xbe982a21	-0.29719642
57	0xbf034292	-0.51273453
58	0xbf1ca012	-0.6118175
59	0x3f33d82c	0.7025173
60	0x3f1be176	0.608909
61	0x3eedcff9	0.46447733
62	0x3e30003b	0.17187588
63	0xbebb406b	-0.36572585

fc2.weight f4 [64, 64]
0	0x3e260b6a	0.16215292
1	0x3f3e226a	0.7427126
2	0xbe5c3d5c	-0.21507782
3	0xbee821e1	-0.45338348
4	0xbe96b4da	-0.29434854
5	0xbe3f04db	-0.18654196
6	0x3f4e988e	0.8070153
7	0x3e60e637	0.2196282
8	0x3d00b0f2	0.03141875
9	0x3dbeacce	0.09310304
10	0xbec8a221	-0.39186195
11	0xbea7326e	-0.32655662
12	0xbf306657	-0.6890616
13	0x3d548de0	0.051893115
14	0x3e868fb5	0.26281515
15	0x3e7b3e67	0.24535523
16	0xbe92661e	-0.28593534
17	0xbf8dc730	-1.1076412
18	0x3ead13d6	0.33804196
19	0xbf2845f1	-0.6573172
20	0x3efd4365	0.4946548
21	0xbf15445b	-0.5830743
22	0xbf7e3f47	-0.99315304
23	0x3e5f77b9	0.21823014
24	0x3f414c91	0.75507456
25	0xbf238acc	-0.6388366
26	0xbf2fcb47	-0.6866955
27	0xbed76bbd	-0.42074385
28	0xbd0be0e6	-0.034150027
29	0xbf69f1fb	-0.9138486
30	0xbf0f5eba	-0.56003916
31	0x3f286a80	0.65787506
32	0xbe13efbd	-0.14446922
33	0x3e8908a1	0.26764396
34	0x3f43795d	0.7635706
35	0xbf994054	-1.1972756
36	0x3f63ecad	0.89033014
37	0xbec91fa5	-0.39281955
38	0x3f00ba51	0.50284296
39	0xbfa20243	-1.265694
40	0x3ecb7117	0.39734718
41	0x3e2e8cbb	0.17045872
42	0xbf3e2369	-0.7427278
43	0x3eb8d7ac	0.36102045
44	0x3cab16a7	0.020884825
45	0x3f304ef3	0.68870467
46	0xbf61b34c	-0.8816421
47	0xbf89b8eb	-1.0759557
48	0x3efc22f7	0.49245426
49	0xbf568a4c	-0.83804774
50	0x3df96e64	0.121792585
51	0xbe9e7465	-0.30948177
52	0x3f46638a	0.77495635
53	0x3de9ca07	0.11415487
54	0xbf89fc85	-1.0780188
55	0x3e30a64e	0.1725094
56	0x3f188be6	0.5958847
57	0x3f15d98b	0.5853507
58	0xbf6342f6	-0.8877405
59	0x3ee30bbf	0.443449
60	0x3e169fd4	0.14709407
61	0xbf3651cc	-0.7121856
62	0xbf359053	-0.70923346
63	0xbcd90db2	-0.026495788
64	0x3db63cc8	0.08898312
65	0x3ea0ca43	0.31404313
66	0xbde5dffd	-0.11224363
67	0x3f035774	0.5130532
68	0x3bfcb823	0.0077123805
69	0x3ea3ce6f	0.31993434
70	0x3f149012	0.58032334
71	0xbcb080ca	-0.021545786
72	0xbe9a33f3	-0.3011776
73	0x3de97305	0.11398891
74	0x3ee04dad	0.43809262
75	0x3edb9255	0.4288508
76	0xbe922039	-0.2854021
77	0xbdd8bee7	-0.10583287
78	0x3e2529d5	0.16129239
79	0xbc404e80	-0.011737466
80	0x3eed220c	0.46315038
81	0xbf03fcb0	-0.51557446
82	0xbf144670	-0.5791998
83	0xbe7f6859	-0.24942149
84	0xbe88ec10	-0.267426
85	0x3e0a6628	0.13515532
86	0x3ed5f1d0	0.4178605
87	0x3eb2f9cd	0.34956208
88	0x3da18f0b	0.078886114
89	0xbf295875	-0.661506
90	0x3d15fba2	0.03661693
91	0x3e1d023a	0.1533288
92	0x3e107cba	0.1411008
93	0x3e1cf5cb	0.15328138
94	0x3cda4360	0.026643455
95	0x3d94b482	0.07260992
96	0xbd076944	-0.033059373
97	0xbea7e3db	-0.32791027
98	0xbe9a3ebd	-0.3012599
99	0x3eaa9336	0.33315438
100	0xbe029978	-0.12753856
101	0x3d943098	0.07235831
102	0x3c854ccf	0.016271977
103	0x3e5e0c6d	0.21684428
104	0x3e783ceb	0.24241988
105	0xbd98e043	-0.074646495
106	0xbdfae952	-0.122515336
107	0x3e657ea1	0.22411586
108	0xbd0e94ea	-0.034809984
109	0x3dfcd3ac	0.12345061
110	0xbe57a327	-0.21058331
111	0xbf132c5b	-0.57489556
112	0xbe213695	-0.15743478
113	0xbdba6802	-0.09101869
114	0xbef6b694	-0.4818617
115	0x3d773ae9	0.060358915
116	0xbba02049	-0.004886661
117	0x3dcb378b	0.09922703
118	0x3e8b3e2d	0.27195874
119	0xbe50a899	-0.20376815
120	0x3ef27cda	0.4736088
121	0xbe199750	-0.14999127
122	0x3cf35f8a	0.029708643
123	0xbef96433	-0.48709258
124	0xbda2bc7f	-0.07946109
125	0x3f4c9e21	0.79928786
126	0x3d176394	0.0369602
127	0x3ea01d00	0.31272125
128	0xbfc08ecd	-1.5043579
129	0x3e3085ee	0.1723859
130	0x3fa0fb1f	1.2576636
131	0xbf0f69aa	-0.56020606
132	0xbf9ee094	-1.2412286
133	0xbdd4b485	-0.10385994
134	0x3feffea1	1.8749582
135	0xbfef1d30	-1.8680782
136	0x3f0b5044	0.5441935
137	0xbf056d93	-0.5212032
138	0xbf2e0b76	-0.6798624
139	0x3fc577ef	1.5427226
140	0x3ea516e0	0.32244015
141	0xc004e4fb	-2.0764759
142	0x3eb04920	0.3443079
143	0xbf197c99	-0.59955746
144	0xc038f6ff	-2.8900754
145	0xc07d007f	-3.9531553
146	0x3e6ad170	0.22931457
147	0xbfb127f4	-1.3840318
148	0xbe96ed9b	-0.29478154
149	0x3e436636	0.19081959
150	0xbe2b4705	-0.1672631
151	0x3e96e7e6	0.294738
152	0x3f8402f5	1.0313402
153	0xbe51f6bd	-0.2050428
154	0xbf92936e	-1.1451242
155	0x3e167015	0.14691193
156	0xbd7bf08f	-0.06150871
157	0xbe987149	-0.2977393
158	0xbfa4a79f	-1.2863654
159	0xbd28c726	-0.041205548
160	0xbece1776	-0.40252274
161	0xc00a26c4	-2.158616
162	0xbf456048	-0.7710004
163	0x3d449294	0.04799135
164	0x3f74bc8f	0.9560022
165	0x3f76a6eb	0.96348447
166	0x3ec8442d	0.39114514
167	0xbe423a9e	-0.18967673
168	0x3f15c0ca	0.584973
169	0x3f4d67f3	0.8023674
170	0xc023a1ea	-2.5567575
171	0xbf14b9b1	-0.5809584
172	0xbec9b6ae	-0.39397186
173	0x3e233e88	0.15941823
174	0xbeb4bc9c	-0.35300148
175	0x3e44a64d	0.19204064
176	0x3f03d666	0.5149902
177	0xbe9458cb	-0.28973994
178	0xbebed708	-0.3727343
179	0x3d1e737c	0.038684353
180	0xbee58e13	-0.44834957
181	0x3f06d24c	0.5266464
182	0xbecd4438	-0.4009111
183	0x3f0213d6	0.5081152
184	0x40222070	2.5332298
185	0x3e90a47a	0.28250486
186	0xbfa3be35	-1.2792422
187	0xbf57657e	-0.8413924
188	0xbdccf703	-0.10008051
189	0x3db7945d	0.08963845
190	0xbed432f0	-0.41445112
191	0xbeb355ee	-0.35026497
192	0x3f25ff42	0.6484262
193	0x3f797c8b	0.9745566
194	0xbf807441	-1.0035478
195	0x3e328086	0.1743184
196	0x3f94852b	1.160314
197	0x3e482403	0.19544987
198	0xbf9fe99a	-1.2493165
199	0x3fd62211	1.6729146
200	0xbfa026ec	-1.2511878
201	0xbec1612a	-0.37769443
202	0x3f39c87e	0.7257155
203	0xbfb40272	-1.4063246
204	0xbf986b58	-1.1907759
205	0x3fab7111	1.339388
206	0xc00ea08f	-2.2285497
207	0xbed2dcd3	-0.411841
208	0x400f4e21	2.2391436
209	0x3fa1d015	1.2641627
210	0xbf5031fc	-0.8132627
211	0x3fd2c886	1.6467445
212	0x3f0912f2	0.53544533
213	0xbfaae64d	-1.3351532
214	0x3fb73e8b	1.4315962
215	0x3f0034bb	0.5008046
216	0x3f8f6c20	1.1204872
217	0xbf4b883c	-0.7950475
218	0xbde42534	-0.111399084
219	0x3f3de43e	0.74176395
220	0x3f9bf181	1.2183076
221	0xbf57c22e	-0.8428067
222	0x3f42566a	0.7591311
223	0x3f824584	1.0177464
224	0xbf235c70	-0.63812923
225	0x3fce1290	1.6099415
226	0x3f4bf5ae	0.7967175
227	0xbf1a6c42	-0.6032144
228	0x3ed1419d	0.4087037
229	0xbf43f37e	-0.76543415
230	0xbf29ee6d	-0.66379434
231	0xbf47edf7	-0.7809748
232	0x3ecece66	0.40391845
233	0xbf87190b	-1.0554518
234	0x3feeb745	1.864968
235	0x3f9b4da3	1.2133068
236	0x3fc505b6	1.5392368
237	0xbfa58589	-1.2931377
238	0x3ef857d4	0.48504508
239	0x3f39a8ad	0.72523004
240	0xbf8fa3be	-1.1221845
241	0xbf6245ff	-0.88388056
242	0xbeb05c97	-0.3444564
243	0x3f2bc804	0.67102075
244	0x3f15155b	0.5823571
245	0x3edad186	0.4273798
246	0xbedd76e7	-0.43254778
247	0xbf982552	-1.1886389
248	0xbfa5d2a1	-1.2954904
249	0x3f8203bf	1.0157393
250	0x3fa631eb	1.2983984
251	0x3f19df38	0.6010623
252	0x3e939efb	0.2883223
253	0x3f676ac2	0.90397274
254	0xbcf0cfd8	-0.029395983
255	0x3f9d48ff	1.2287902

fc2.bias f4 [64]
0	0xbf613a9b	-0.8798005
1	0x3e077f48	0.13232148
2	0xbfa9cf00	-1.3266296
3	0xbe93efba	-0.28893834
4	0xbf0ead3c	-0.55733085
5	0x3f60be0d	0.87789994
6	0x400a1b37	2.157911
7	0xbe172feb	-0.14764373
8	0xbf29b1f2	-0.6628715
9	0xbe57f159	-0.2108816
10	0xc01616bb	-2.3451374
11	0xc014b24a	-2.323382
12	0xbf2312a6	-0.6370033
13	0xbf0df3a0	-0.5544987
14	0x4000a792	2.0102277
15	0xbf0b59a7	-0.54433674
16	0xbe14892d	-0.14505453
17	0x3fffa30a	1.997163
18	0x3f32458c	0.6963737
19	0x3ffb1d07	1.9618233
20	0xbf498cc8	-0.7873044
21	0xbf862c0d	-1.0482193
22	0xbfb46405	-1.4093024
23	0xbf8d382e	-1.103277
24	0x3f8a98d1	1.0827886
25	0xbfb2f90d	-1.3982254
26	0x3c4324f6	0.011910668
27	0xbf2bfbef	-0.67181295
28	0x3f01c3e9	0.5068956
29	0xbdcd8288	-0.100346625
30	0xbfa01d30	-1.2508907
31	0xbe8c900b	-0.27453646
32	0x3f7c8d9a	0.98653567
33	0xbe5829f6	-0.21109757
34	0x3e67cbb6	0.22636303
35	0xbd74b893	-0.059746336
36	0x3ca40266	0.020020675
37	0x3e17fffc	0.14843744
38	0xbf6a7879	-0.91590077
39	0xbdf379cb	-0.118884645
40	0xc016e7f0	-2.3579063
41	0x3cecf662	0.028926078
42	0x3f239997	0.63906235
43	0xbd3832ea	-0.04497043
44	0xbeb5f76e	-0.35540336
45	0xbfd3abcc	-1.6536803
46	0xbf65ceb2	-0.89768517
47	0xbae7a585	-0.001767323
48	0x3faf28b4	1.3684297
49	0x3f4e55fc	0.8059995
50	0x3f309eda	0.6899239
51	0x3f4369f3	0.7633354
52	0x3fb636de	1.4235494
53	0xbd9a34b4	-0.075295836
54	0x3d99ed11	0.0751592
55	0x3f455d54	0.7709553
56	0x3e3b738a	0.18305793
57	0xbe279a96	-0.16367564
58	0x3fcff356	1.6246135
59	0x4017ca8c	2.3717375
60	0xbf0400a6	-0.5156349
61	0xbedb8138	-0.42872024
62	0x3e1faf51	0.15594222
63	0xbff89e05	-1.9423224

value.weight f4 [1, 64]
0	0xc10c712f	-8.777633
1	0xc10f5fea	-8.9609165
2	0xc1094323	-8.578891
3	0x410a22a5	8.633458
4	0x410ae7dc	8.681606
5	0xc10583f2	-8.344713
6	0x410bbc9c	8.733547
7	0x41039218	8.223167
8	0xc1085113	-8.5197935
9	0xc107ec62	-8.495211
10	0xc10ce129	-8.804971
11	0xc111c0d9	-9.109582
12	0x410b090e	8.689711
13	0x410d1bc4	8.819279
14	0x41044e73	8.269153
15	0x410d8a6c	8.846294
16	0xc108323e	-8.512266
17	0x410e6621	8.899934
18	0xc10b186a	-8.69346
19	0x4105c7ce	8.36128
20	0x410b29ec	8.697735
21	0x410af233	8.684131
22	0xc10e45ca	-8.892038
23	0x410b14ed	8.692609
24	0xc1097647	-8.591376
25	0xc10d1e55	-8.819905
26	0x410a127f	8.629516
27	0xc0ff9339	-7.9867215
28	0xc10cdd44	-8.80402
29	0xc1081ddc	-8.50729
30	0x410c2372	8.758654
31	0x410ba605	8.728032
32	0xc10aaa4e	-8.666578
33	0x410473fe	8.278318
34	0x410d2f30	8.82402
35	0xc10c83cd	-8.782178
36	0xc10f8ef4	-8.972401
37	0x410450df	8.269744
38	0xc1111f7d	-9.070188
39	0xc10ff282	-8.996706
40	0xc10faf07	-8.980231
41	0xc1044764	-8.267429
42	0x410fd16c	8.988628
43	0x410b4b5c	8.705898
44	0x410b26ea	8.6970005
45	0xc10f82d1	-8.969438
46	0x410b6d12	8.7141285
47	0x41099494	8.598774
48	0x410876f2	8.529039
49	0xc10c0911	-8.7522135
50	0x410f2474	8.9464
51	0x4100a953	8.041339
52	0x4109ec11	8.620133
53	0xc105de13	-8.366717
54	0xc10afcbb	-8.686702
55	0x4105ca5b	8.361903
56	0x4104623d	8.273984
57	0x410ab03d	8.668027
58	0x41069b51	8.412919
59	0x4110ba83	9.045535
60	0xc108b550	-8.544266
61	0x40ff8b88	7.9857826
62	0xc10a5246	-8.645086
63	0xc10c32f3	-8.762439

exp_avg f4 [1, 8]
0	0xbb0ab73c	-0.0021166345
1	0xba319c88	-0.0006775339
2	0x3aafe9fb	0.0013421172
3	0xbc0807f2	-0.008302676
4	0xbae65bc6	-0.0017574958
5	0x391f2243	0.00015176185
6	0x3c27fc2b	0.010252993
7	0x39e13e28	0.00042961654

exp_avg_sq f4 [1, 8]
0	0x390b993b	0.00013313156
1	0x38fba571	0.000119994285
2	0x38e9271d	0.00011117591
3	0x3924a4a6	0.00015701595
4	0x38e628f4	0.00010974883
5	0x3900393e	0.00012228356
6	0x38f8236d	0.0001183216
7	0x390c646b	0.00013388849

exp_avg f4 [64, 111]
0	0xba9d2261	-0.0011988395
1	0xbb24e61a	-0.0025161565
2	0x38a9fd4d	8.105729e-05
3	0x3a32a50f	0.0006814757
4	0x3b2300af	0.0024872234
5	0xbb231b7b	-0.0024888206
6	0xba3bc89c	-0.0007163377
7	0xbba173a6	-0.0049271164
8	0x3af4828e	0.0018654631
9	0xbb8012a7	-0.0039084735
10	0x3acae6c1	0.0015480147
11	0x3b04912c	0.002022813
12	0xbb80b2ea	-0.003927578
13	0xbc49af63	-0.012309882
14	0x3b6808fa	0.003540574
15	0xbbc26a0a	-0.005933051
16	0xbbb3a222	-0.005481974
17	0xbc347e6f	-0.011016472
18	0xba4c0a73	-0.00077835395
19	0x3b6a7bbf	0.0035779325
20	0xba20eb64	-0.00061385916
21	0x3a8ca9f0	0.0010731798
22	0x3abfe89b	0.0014641465
23	0xbc32b9e4	-0.010908578
24	0xbad6ccac	-0.0016387901
25	0xbbeab547	-0.007162723
26	0x3b4fb624	0.0031694258
27	0x00000000	0.0
28	0x00000000	0.0
29	0x00000000	0.0
30	0x00000000	0.0
31	0x00000000	0.0
32	0x00000000	0.0
33	0x00000000	0.0
34	0x00000000	0.0
35	0x00000000	0.0
36	0x00000000	0.0
37	0x00000000	0.0
38	0x00000000	0.0
39	0x00000000	0.0
40	0x00000000	0.0
41	0x00000000	0.0
42	0x00000000	0.0
43	0x00000000	0.0
44	0x00000000	0.0
45	0x00000000	0.0
46	0x00000000	0.0
47	0x00000000	0.0
48	0x00000000	0.0
49	0x00000000	0.0
50	0x00000000	0.0
51	0x00000000	0.0
52	0x00000000	0.0
53	0x00000000	0.0
54	0x00000000	0.0
55	0x00000000	0.0
56	0x00000000	0.0
57	0x00000000	0.0
58	0x00000000	0.0
59	0x00000000	0.0
60	0x00000000	0.0
61	0x00000000	0.0
62	0x00000000	0.0
63	0x00000000	0.0
64	0x00000000	0.0
65	0x00000000	0.0
66	0x00000000	0.0
67	0x00000000	0.0
68	0x00000000	0.0
69	0x00000000	0.0
70	0x00000000	0.0
71	0x00000000	0.0
72	0x00000000	0.0
73	0x00000000	0.0
74	0x00000000	0.0
75	0x00000000	0.0
76	0x00000000	0.0
77	0x00000000	0.0
78	0x00000000	0.0
79	0x00000000	0.0
80	0x00000000	0.0
81	0x00000000	0.0
82	0x00000000	0.0
83	0x00000000	0.0
84	0x00000000	0.0
85	0x00000000	0.0
86	0x00000000	0.0
87	0x00000000	0.0
88	0x00000000	0.0
89	0x00000000	0.0
90	0x00000000	0.0
91	0x00000000	0.0
92	0x00000000	0.0
93	0x00000000	0.0
94	0x00000000	0.0
95	0x00000000	0.0
96	0x00000000	0.0
97	0x00000000	0.0
98	0x00000000	0.0
99	0x00000000	0.0
100	0x00000000	0.0
101	0x00000000	0.0
102	0x00000000	0.0
103	0x00000000	0.0
104	0x00000000	0.0
105	0x00000000	0.0
106	0x00000000	0.0
107	0x00000000	0.0
108	0x00000000	0.0
109	0x00000000	0.0
110	0x00000000	0.0
111	0xb9a4facd	-0.0003146738
112	0xb8be0809	-9.061403e-05
113	0x3ac0099b	0.00146513
114	0x399d8c07	0.00030049702
115	0x3a86b69c	0.001027781
116	0x3aa39e6f	0.001248313
117	0xb9046e8d	-0.00012629684
118	0xba07f059	-0.0005185656
119	0x39b276c3	0.0003403929
120	0xbb453564	-0.0030091638
121	0x3a1539b0	0.0005692495
122	0x3a089a08	0.0005210941
123	0xba9774d0	-0.0011555199
124	0xbaf510b5	-0.0018696996
125	0x3a6ea6ba	0.00091038237
126	0xba9e9a7a	-0.0012100481
127	0x3bd4c5d4	0.0064933095
128	0xbb0325f1	-0.0020011629
129	0x3bce8e29	0.006303568
130	0xb9a023f8	-0.00030544377
131	0x3b2b733b	0.0026161212
132	0xba07b423	-0.0005176684
133	0xba93cba7	-0.0011275903
134	0xbc33046f	-0.01092635
135	0xbaa176e3	-0.0012318756
136	0xbb356971	-0.0027681256
137	0x3abb7abd	0.0014303547
138	0x00000000	0.0
139	0x00000000	0.0
140	0x00000000	0.0
141	0x00000000	0.0
142	0x00000000	0.0
143	0x00000000	0.0
144	0x00000000	0.0
145	0x00000000	0.0
146	0x00000000	0.0
147	0x00000000	0.0
148	0x00000000	0.0
149	0x00000000	0.0
150	0x00000000	0.0
151	0x00000000	0.0
152	0x00000000	0.0
153	0x00000000	0.0
154	0x00000000	0.0
155	0x00000000	0.0
156	0x00000000	0.0
157	0x00000000	0.0
158	0x00000000	0.0
159	0x00000000	0.0
160	0x00000000	0.0
161	0x00000000	0.0
162	0x00000000	0.0
163	0x00000000	0.0
164	0x00000000	0.0
165	0x00000000	0.0
166	0x00000000	0.0
167	0x00000000	0.0
168	0x00000000	0.0
169	0x00000000	0.0
170	0x00000000	0.0
171	0x00000000	0.0
172	0x00000000	0.0
173	0x00000000	0.0
174	0x00000000	0.0
175	0x00000000	0.0
176	0x00000000	0.0
177	0x00000000	0.0
178	0x00000000	0.0
179	0x00000000	0.0
180	0x00000000	0.0
181	0x00000000	0.0
182	0x00000000	0.0
183	0x00000000	0.0
184	0x00000000	0.0
185	0x00000000	0.0
186	0x00000000	0.0
187	0x00000000	0.0
188	0x00000000	0.0
189	0x00000000	0.0
190	0x00000000	0.0
191	0x00000000	0.0
192	0x00000000	0.0
193	0x00000000	0.0
194	0x00000000	0.0
195	0x00000000	0.0
196	0x00000000	0.0
197	0x00000000	0.0
198	0x00000000	0.0
199	0x00000000	0.0
200	0x00000000	0.0
201	0x00000000	0.0
202	0x00000000	0.0
203	0x00000000	0.0
204	0x00000000	0.0
205	0x00000000	0.0
206	0x00000000	0.0
207	0x00000000	0.0
208	0x00000000	0.0
209	0x00000000	0.0
210	0x00000000	0.0
211	0x00000000	0.0
212	0x00000000	0.0
213	0x00000000	0.0
214	0x00000000	0.0
215	0x00000000	0.0
216	0x00000000	0.0
217	0x00000000	0.0
218	0x00000000	0.0
219	0x00000000	0.0
220	0x00000000	0.0
221	0x00000000	0.0
222	0xba44c837	-0.0007506641
223	0xbaa89a7b	-0.0012863422
224	0xba3f0a17	-0.0007287575
225	0x399d8ab1	0.00030048707
226	0x3a459226	0.00075367314
227	0xbb8c2cbc	-0.0042777937
228	0xba0e735e	-0.0005434061
229	0xbbb1de1f	-0.00542809
230	0x3a8ecc18	0.0010894565
231	0xbb15d798	-0.00228641
232	0x3a565b10	0.00081770215
233	0x3ba226b3	0.004948461
234	0xbb07e345	-0.0020734828
235	0xbc134a90	-0.008989945
236	0x3b8eb50d	0.004355079
237	0xbc2551ec	-0.0100903325
238	0xbc38501f	-0.011249571
239	0xbafb3a38	-0.0019167131
240	0xbba40847	-0.0050058695
241	0x3b4586fb	0.003014027
242	0xbae6e9a3	-0.0017617237
243	0x3acef4be	0.0015789492
244	0xbb889385	-0.0041679763
245	0x3a3106e9	0.0006753044
246	0x38a6ea68	7.9591584e-05
247	0xbb7c198d	-0.0038467378
248	0x3c692472	0.014229881
249	0x00000000	0.0
250	0x00000000	0.0
251	0x00000000	0.0
252	0x00000000	0.0
253	0x00000000	0.0
254	0x00000000	0.0
255	0x00000000	0.0
